examples/catchment_models/training/runs/globe_time_split_2404_124848/model_epoch016.pt (torch, 316229 bytes, 5 tensors)

lstm.weight_ih_l0 f4 [512, 23]
00000000: d291 e93d 7c54 173d bc5a 233e 3774 57be
00000010: f0c1 b03d b81b 253e e976 2fbe 9760 6f3e
00000020: 6014 40be 3c14 e3bd 43bc 983e 7f05 94be
00000030: 58f1 02bf 2afd 35be 1ec5 e1be 4f9a afbe
00000040: e4f0 c0be eb96 2bbe 1b1f f43b 6171 06be
00000050: d20d e33d 6a66 28bf 272a 023e d5a5 323d
00000060: 40ec 363e 0471 cdbe c26a 1bbf bb72 453d
00000070: d6a1 6f3f a7c6 003f 3b3f 5abf f40a 3f3f
00000080: b7fd cd3e 55f0 91be 6b4e a5bd 34fd 193f
00000090: 2ca3 2ebf 2b57 71be d32b 003f 012c 2bbe
000000a0: 7ed6 f93d cc51 933f 88f2 08bf ddc3 f23e
000000b0: a379 0e3f d5f2 b43e fe7e bd3e e0c4 793e
000000c0: d60a 313f 0ee9 463f 1ee1 c8bc 2daa 933e
000000d0: d907 01bf 51ce faba dd59 2ebf c0bd afbe
000000e0: e56f 27bc 9763 163e d1d2 a1be 0738 cb3e
000000f0: c537 bdbd c029 01be a068 35be 105a 79be
00000100: d4e2 663f 1f06 42bf a886 0ebe 7ef2 c7be
00000110: 9fef 03bf f53b 5f3e 13bb 843e 7a64 bf3e
00000120: 85f7 a8bc 7a8c 053f 223a d73e eed1 123f
00000130: ce69 243d cc12 c83e b574 953c 6c4e fb3d
00000140: 96ea a93d 894e 3fbe ed5c 373e 14db 173f
00000150: 81ab 9a3f ff67 213e 31c8 423e 8ff0 ba3e
00000160: c0d9 54bd f88d 263e d56f d33e 7d61 883e
00000170: 6be0 76be b30d 2a3f 863a b53e b502 19be
00000180: 86ee 9a3d 057c 0d3f 680c 2c3f 7004 283e
00000190: 25f1 153f 3f6e 2ebe 86e1 adbd 9b16 2abe
000001a0: e0ae c33d db62 ee3d a866 a53e 8551 373f
000001b0: 88d2 c73e bacd 3e3e 558b 94bd 6e70 97bd
000001c0: b774 723e e254 9e3e aa53 263e 2597 1b3f
000001d0: b1ad f33d 5fb7 243e 8935 653f 5d65 003f
000001e0: 57b2 7c3e 7c39 08bf b3a4 fd3e 7460 46be
000001f0: f6e4 803e 2e0f 993e 0f05 ea3e 4d21 243e
00000200: e8e2 fa3e f374 24be 2fa5 bebd 4466 a3bb
00000210: f82b aa3e 4929 6abe af0e 31be c5c2 88bd
00000220: f3cd ee3d 7981 5fbe 459f 6d3f 728b f0bd
00000230: d098 3e3e d027 b43d 3fe1 663e 6566 073f
00000240: fe4f a93e 8ee7 8dbc 8806 d73d 9149 4fbd
00000250: 8844 293f 3712 06be 49d8 4bbe de1d fe3e
00000260: 286e 0a3f 54ed db3e 2c1b 23bf 6d46 b83e
00000270: b678 e63e b870 c7be 8db7 cb3e 55e2 b63e
00000280: a6d1 933e 0ac1 aa3c 1f57 363e ed5f f03c
00000290: b994 dabe baa6 cd3e 6930 213f 918a 843f
000002a0: 4241 e4be 6f4a a03f ff39 5cbd 8d22 cbbe
000002b0: 5048 4b3e bf09 053f cab3 11bf a09e 87bd
000002c0: fb1c 803f ddd2 213f 01cf 3c3f a4a5 1bbe
000002d0: aed1 823e eaca 3c3f 00b6 523f 3c1b 473e
000002e0: c18d ae3c 6e99 073f 6669 a23e 97d9 463b
000002f0: cbf8 46be a51f 323f 50b5 8d3f 6d8b 0bbf
00000300: 2ea0 b63f 5262 0c3f 40e5 c43d eb4a 703d
00000310: 9a95 ef3d e13d 1abf 9646 f43d d918 693f
00000320: 889d 013e 11f5 313d 71a5 9cbe ecc4 123f
00000330: 4a71 7e3f 1c13 4f3f c9a8 543f a0f3 b0be
00000340: 9599 a03e 50d1 293e 49d0 77be 6b89 5f3e
00000350: f7ab 413f 27e4 5a3f 559f bbbe 77bf 843f
00000360: 53c2 fd3d 5290 edbe a431 3c3d b329 c83e
00000370: 864d e3be 9bab 09be 2ec2 203f fa94 723e
00000380: 8cf5 d73e 006d 21be 4f10 d63d f798 4e3f
00000390: b63b 243f 2b50 b53e 4497 0abf 4708 853f
000003a0: 0a98 02bf 3672 b0be 9615 333d abc6 633e
000003b0: e78e 6d3f 926c 303f ed67 123f 12ad 543e
000003c0: 5b69 cebe 686c b43e fb65 4f3d f9d6 94be
000003d0: a6bf be3e 545c 753f bb16 5a3e 2f88 6e3e
000003e0: fe5d 5abe c1e2 8ebe c20f 973e 9b74 ca3e
000003f0: 01ce 00be 346e 773d cf56 383e c16b 873f
0.11404766 0.036945805 0.15952581 -0.21040426 0.08630741 0.16123855 -0.17135204 0.2337669
-0.18757772 -0.11087844 0.29831132 -0.28910443 -0.5114951 -0.17772356 -0.440957 -0.34297416
-0.37683785 -0.1675679 0.007449997 -0.13129188 0.110866204 -0.6578127 0.12711392 0.04361518
0.1786356 -0.40125287 -0.60709774 0.04820512 0.9360632 0.5030312 -0.8525273 0.7462609
0.40232632 -0.2850367 -0.08071598 0.6015198 -0.6821773 -0.23568408 0.5006687 -0.16716005
0.12199114 1.1509337 -0.53495073 0.47415057 0.5565435 0.35341516 0.3701095 0.24391508
0.6915716 0.77699363 -0.024521407 0.2884077 -0.504026 -0.0019134973 -0.6810587 -0.34324455
-0.010219549 0.14686428 -0.31606153 0.39691183 -0.09239153 -0.12613583 -0.17715693 -0.24350762
0.9018986 -0.7579059 -0.13918555 -0.39052194 -0.5153751 0.21800216 0.25923976 0.37381345
-0.020625839 0.52167475 0.4203654 0.5735158 0.040139966 0.3907684 0.018244127 0.12270817
0.08296697 -0.18682303 0.17906542 0.5931866 1.2083589 0.15762328 0.1902168 0.36511657
-0.051965475 0.16265094 0.4129626 0.26636878 -0.24109046 0.66427153 0.35396212 -0.14942439
0.07565026 0.55267364 0.6720643 0.16407943 0.5857108 -0.17034243 -0.08490281 -0.16610186
0.09554839 0.11639949 0.32304883 0.71608764 0.3902781 0.18633166 -0.07253138 -0.07394491
0.23677336 0.30924135 0.16242853 0.60777503 0.118983634 0.16085576 0.89534813 0.5015467
0.24677406 -0.53212714 0.49539718 -0.19372731 0.25174683 0.29894394 0.45706984 0.16028328
0.4900124 -0.16060238 -0.0930885 -0.0049865562 0.3323667 -0.22867312 -0.17290758 -0.06677774
0.116603754 -0.21826734 0.9282115 -0.11745347 0.18612981 0.08796656 0.22546862 0.52890617
0.33068842 -0.017322328 0.104992926 -0.050607268 0.66120195 -0.13092886 -0.19906725 0.49632162
0.54074335 0.42954504 -0.63713336 0.3599123 0.4501397 -0.38953185 0.39788476 0.35719553
0.28870887 0.020844001 0.17806672 0.029342616 -0.4269159 0.40166265 0.62964493 1.0354787
-0.44581038 1.2522715 -0.053766247 -0.39674798 0.19851804 0.51967996 -0.5691496 -0.06622052
1.0008844 0.63212377 0.7375336 -0.15199906 0.25550598 0.7374712 0.8230896 0.19443983
0.021307828 0.5296849 0.31721038 0.0030342096 -0.19430844 0.69579536 1.1070957 -0.5450962
1.4267633 0.54837525 0.096140385 0.058665197 0.11698456 -0.6025067 0.11927526 0.9105354
0.1265775 0.043446604 -0.30594972 0.5733173 0.99391615 0.80888534 0.83070046 -0.3456087
0.31367174 0.16583753 -0.24200548 0.21829765 0.7565302 0.8550438 -0.36644998 1.037093
0.1239058 -0.4639917 0.04594578 0.39094314 -0.44395083 -0.13444369 0.62796295 0.23689643
0.42179525 -0.15764236 0.10452329 0.80702156 0.6415361 0.35412726 -0.54137063 1.0393151
-0.51013243 -0.34462136 0.043721758 0.22243755 0.92796177 0.68915665 0.5718983 0.20769146
-0.40314755 0.35238957 0.050634366 -0.2907026 0.3725559 0.95844007 0.21297733 0.23294137
-0.21324918 -0.27907375 0.2950421 0.39542088 -0.12578584 0.060407832 0.18001865 1.0579759

lstm.weight_hh_l0 f4 [512, 128]
00000000: 2cea 233e 1a4b 1e3e d640 573e 86f3 18bd
00000010: 41b3 3c3e d4c5 93be 773a 4f3f 0012 123e
00000020: e748 cf3e a82f b33c fd06 c0be 6292 31be
00000030: fac9 a5be 9e50 263d 43f1 6cbe 57f4 eebd
00000040: ad0f 353e 9282 243e a77b 11bd 34cc 6abd
00000050: 3b2d c6be 32d0 bebe ba31 8b3e f2a4 da3d
00000060: b83d 1e3e 25ac 6cbe 3a05 f1bd 892d 1f3e
00000070: 206f 203e 7421 8cbe 0271 64be 805c edbd
00000080: 184b b33e 82e0 163d 5db6 04bd 4ff0 99bc
00000090: 17e9 92bd ce9f b3bd 00cf 16bf 5f19 113e
000000a0: a03d ee3e 86c6 183d a312 8bbd 4e53 acbe
000000b0: af5c bebd c59a 5b3d 9133 cfbd 8529 f33b
000000c0: 15ae 773c 8a87 a1be 472a 9fbe e7f7 0fbe
000000d0: de09 8bbe 1e71 9bbd bf81 acbd e100 97be
000000e0: 9733 cd3d daa1 ad3e f97a 51bc 905e 2e3e
000000f0: 2db1 debd 3f9a b2be cb83 ccbd 8e56 b83d
00000100: be84 9e3b e801 5d3e 9f2d b8bd 03f8 b3bd
00000110: d348 ad3e 3602 813e 3372 d7bc 159d 75be
00000120: 908f c8bd 5ec7 963e ddf5 4e3d 3f77 0b3e
00000130: 178b a13b caf6 3c3e f9b9 993d 818f ee3c
00000140: f04b 373e 5710 90bd 7025 27be f5e5 a53e
00000150: b50e 07bf 3fcf 013e 0747 ed3d 5828 a03d
00000160: e795 f33e 5249 b3bd 12b2 cbbe 9716 403e
00000170: fff6 9f3d f497 a4bd 5a9d eabe e574 23be
00000180: ae9d e3be 0c2b c93d b4d6 48be 8bcd 0abd
00000190: 51be e9bd 085a 883e 18aa 35bb a39a fa3e
000001a0: bfe0 663e 27ad ffbd 2efe 5e3d 44ae 723e
000001b0: 22e4 19be 5c61 48bc bf11 cd3e 7f91 4ebd
000001c0: 5fc3 57bd 2380 483e 0ddf 4fbe 8f7a d5bd
000001d0: bf5c bcbd dad1 b6bd 9872 703e 4fa2 083d
000001e0: 18b9 723e ab7b 0dbe abe5 a13e c20d a5ba
000001f0: 3db0 df3d 6f8f e63d b2a2 0cbe b2b5 bc3b
00000200: 6e49 8bbe 2470 da3f 5862 7bbf 0ff7 353d
00000210: 1031 be3d 76c6 ab3d 642e 9d3e 5b40 b7be
00000220: f72f 083d 6021 73bc a6b0 99be 05f9 46bf
00000230: 8fd6 14be 2736 603e b638 4b3e 21f6 98bd
00000240: 886f 523e 073c cb3e 5d0e 5fbe 5322 80bd
00000250: 309b 813e 605c 11be 761e bfbd 2ec1 953d
00000260: 1d1e 163a aeab aabe 65d6 83bd 56af cdbe
00000270: 27e2 c73e 8e41 90be 8977 84bc 1217 0f3e
00000280: cf6b 003f 7927 5a3c 2905 3b3d a303 2c3d
00000290: 2471 9dbc 8a83 03be 5983 553d a3ca b0bf
000002a0: ea37 c03e bbaa 4bbe f2bf 663e 4517 67be
000002b0: b07e 8a3e 9857 86be fe09 1bbe 0a41 59ba
000002c0: 9ef0 bcbe 876f 683e 7754 91bd 8f4c 0f3e
000002d0: fc3e 45be 4452 23be 80fe 983e 778f f6be
000002e0: fd6a 423b 549d 3a3f 13b3 2cbe 1a05 0bbf
000002f0: 1d91 e3bd ee2a 9bbe 9b0b babe ff49 7ebd
00000300: cce5 cebe aa5b 3bbd a5f3 e6be 892a 07be
00000310: 978b 72bc f151 f73e a8dd 19be 7a2c 1e3e
00000320: 34f7 af3d fac5 b33e 13e8 1abe fe23 3a3e
00000330: f5aa 05be 8497 853d 7e10 483e 5d84 f13e
00000340: 5273 103e 35bd ba3d 0402 49be 2b9e eb3e
00000350: f0d6 f6be 22ef 973e 1f93 72bd 1513 0a3e
00000360: d1ad cbbd 963d f43d 5d15 873e fd96 22bb
00000370: 1dab b5bc b0c5 8fbf 821c d6bd 457e b63e
00000380: 227c 1c3f 3703 4abe 5ead 44be 3ae9 28be
00000390: e92d fd3e a2fa ff3e 8e7e 0abe 1a74 f03e
000003a0: 65de 3cbf 4e38 e2be 68b5 d439 3e09 0b3f
000003b0: 8f44 ae3d 4385 e03e d280 093e d30b 903f
000003c0: 6b2f 8c3d 56f0 0b3e a46f 44bd b21a 59bd
000003d0: 2938 5c3e a9ff 1cbe afbb 37bd c86c 1bbf
000003e0: b3e5 0b3e b96f 853e 1012 953e eb88 61be
000003f0: 666f 143f 4168 a23d 94bc c13c fa62 073f
0.16007298 0.15458336 0.21020827 -0.037341617 0.18427755 -0.28861868 0.80948585 0.14264679
0.40485308 0.02187331 -0.37505332 -0.17340997 -0.32380658 0.040604226 -0.23138909 -0.11667698
0.17681761 0.16065434 -0.035518315 -0.05732365 -0.38706383 -0.37268215 0.27186376 0.10675992
0.15453231 -0.23112543 -0.11768575 0.15544714 0.15667391 -0.27369273 -0.22308734 -0.115899086
0.3501823 0.0368352 -0.032400478 -0.018791346 -0.071733646 -0.08770715 -0.58909607 0.14169835
0.4653139 0.0372987 -0.06790664 -0.33657306 -0.09295022 0.053614397 -0.101172574 0.007420721
0.015117188 -0.3154872 -0.31086943 -0.14059411 -0.27155966 -0.07589935 -0.084231846 -0.29492858
0.100196056 0.33912545 -0.012785667 0.1702826 -0.10873637 -0.34883305 -0.09986075 0.09000884
0.0048376014 0.21582758 -0.089930765 -0.08787539 0.33844623 0.25197 -0.026299572 -0.23985703
-0.097930074 0.2944898 0.050527442 0.13619708 0.004929911 0.18453518 0.075061746 0.029121162
0.17900062 -0.070343666 -0.16322875 0.32402006 -0.52756816 0.12676714 0.11585813 0.07820195
0.47575304 -0.08754219 -0.39784294 0.18758617 0.07810783 -0.08036795 -0.45823175 -0.1596256
-0.44456238 0.09822664 -0.19613153 -0.033887427 -0.11413253 0.26631188 -0.0027719792 0.48946103
0.22546671 -0.12484198 0.054441623 0.2369929 -0.15028432 -0.0122302435 0.40052602 -0.050431725
-0.052676555 0.1958013 -0.20299931 -0.10423767 -0.091973774 -0.08926745 0.23481214 0.033357915
0.2370342 -0.13816707 0.31620535 -0.0012592601 0.10922287 0.112578265 -0.13733938 0.0057589645
-0.2720446 1.7065473 -0.98196936 0.044425067 0.09286702 0.08387463 0.30699456 -0.35791287
0.033248868 -0.0148395 -0.30017585 -0.77723724 -0.14534973 0.21895657 0.19845852 -0.0746882
0.20550358 0.39694235 -0.21782823 -0.06256547 0.2531371 -0.14195395 -0.09331982 0.07312237
0.0005726533 -0.33334106 -0.06437377 -0.40172833 0.39039728 -0.28175014 -0.01617028 0.13973644
0.501645 0.013315075 0.045659218 0.041995656 -0.019218989 -0.12843147 0.052127216 -1.381184
0.3754266 -0.19889347 0.22534159 -0.2256747 0.2704978 -0.26238704 -0.1514053 -0.00082875846
-0.36902326 0.22698794 -0.070961885 0.13994049 -0.19262308 -0.1594935 0.29881668 -0.4815633
0.002966582 0.72896314 -0.16865186 -0.5430466 -0.111116625 -0.3030619 -0.3633698 -0.062082287
-0.40409696 -0.045741715 -0.4510776 -0.1319982 -0.014803789 0.48304704 -0.15025961 0.15446654
0.08592072 0.35111982 -0.15127592 0.18177792 -0.13053496 0.0652304 0.19537541 0.47171298
0.14106491 0.091181196 -0.19629675 0.4601911 -0.4821086 0.2967463 -0.059222337 0.13483842
-0.09945262 0.11925809 0.26383486 -0.0024809234 -0.02217632 -1.1232204 -0.10454656 0.3564321
0.6112691 -0.19727789 -0.1920676 -0.16495219 0.4944909 0.49995905 -0.1352484 0.46963578
-0.7377685 -0.44183582 0.0004057095 0.5431098 0.0850917 0.4385167 0.13428047 1.1253608
0.06844982 0.136659 -0.04795803 -0.053003974 0.21505798 -0.15331902 -0.044856723 -0.6071286
0.13661842 0.260618 0.29115343 -0.22024886 0.5798248 0.07930041 0.023649491 0.528854

lstm.bias_ih_l0 f4 [512]
00000000: 0d07 60be 548a e6bd 825e 17bf a535 35bf
00000010: 7655 e7be 33b7 46bf a3b3 1cbf b87d 5dbf
00000020: 36d6 56bf 637a 41bf 9ea9 5abf 6e49 c5be
00000030: 9796 13bf da01 31bf 453d d3be 9020 b8bf
00000040: 4458 0ebf 1674 8cbf fd45 a2bf 67a0 94bf
00000050: 1264 f7be ef9d 7cbf 3008 a8be 23e0 04bf
00000060: b633 7bbf b71d 42bf ab2d 63bf eb07 16bf
00000070: a762 4bbf f705 29bf bd5f 52bf 6701 41be
00000080: d83d a3bf 22f7 05bf c831 59bf 3a41 39bf
00000090: 2171 21bf 1616 2cbf 0028 25bf 9336 4fbf
000000a0: c503 2bbf bf29 11bf 2b5d 62bf 73c8 37bf
000000b0: ede5 1ebf 765b 52bf da9c 40bf b837 4fbf
000000c0: 6e83 45bf 6a97 98be 2ed2 01bf 009a 98bf
000000d0: ca6e 84bf 738a 233d 9cca 8cbd 8f11 f7be
000000e0: eeb8 89bf d6dc 81bf f9ff 14bf 03f6 f3be
000000f0: d287 c1bf 550e 3ebf e1c8 f4be b485 4abf
00000100: 51cb 1abf e324 d5bd 5b83 43bf c351 2dbf
00000110: b648 40bf 14bf 0dbf 80d1 04bf 9e6b 30bf
00000120: 146d 13bf 0a22 9abe 0004 edbe 7ac1 39bf
00000130: 4779 24bf be3c f7be 4f5c c9be ddf6 6cbf
00000140: 1f27 5bbf 366f 4ebf 87f2 02bf d73d 83bf
00000150: f7fc 0fbf b261 7bbf bda5 593d 910b b0be
00000160: 8233 41bf 3c29 d0be 1435 7dbf eabc 00bf
00000170: fd58 95bf 712a 1bbf 4bd7 3fbf a19d 47bf
00000180: 5647 31bf 1d2e 4bbf b643 35bf ed77 9bbf
00000190: b8c3 e5be 1a7b 69bf 0607 5bbf 454d 57bf
000001a0: 4338 21bf 7cf7 b9be 8633 c3be 7c71 ce3c
000001b0: d6df eebe a965 43bf ea3c cdbe e7d1 14bf
000001c0: 5df9 7abf 200c 16bf d1e4 72bf 0a77 b1be
000001d0: 556b 1cbf 0c54 3bbf d996 9abf 1291 e7be
000001e0: 85fd 86be 7383 1ebe 6c4e 09bd 3f1e 243c
000001f0: 8d3a a6bf 5290 54bf d5b1 08bf ce86 9abe
00000200: 77b0 38be a6dd 7dbd 37ea 043d cfca b0be
00000210: 6e39 fabe b515 14bd a547 5bbe 5144 cfbe
00000220: 4f7c 21bd 51fb 41bf 0e4a 6abf 51b0 51bf
00000230: 8bfc c7be 6ff3 8fbe 6d6b a5be 9fb4 85bf
00000240: 256b fcbe 169a ac3d d626 05bf 9ffd 5cbf
00000250: 1799 51be 883c 47bf 4eb3 15be d7f1 ddbe
00000260: 6ee0 26bf 082e f8be e782 2dbf 81c0 dbbe
00000270: 2b02 4bbf dc10 f8be 038e 21bf d01b 6d3e
00000280: 114f 2dbf 337a fbbe 849e 31bf e68f 3fbf
00000290: 7840 16bf d929 afbe eb45 45bf 53c0 0d3e
000002a0: 1898 d0be 871a 3bbf fd50 1bbf 4191 78be
000002b0: 8a45 e9be 9333 20be 7d9e 29bf 69b8 18bf
000002c0: bb44 ea3d b92d e9be 8f97 1dbf 7d0e 6dbf
000002d0: 53c3 0cbf e76e af3e a809 04be f0e5 5dbe
000002e0: 686f 4bbf 6445 c4be eba2 5ebf 4da2 1abf
000002f0: cf69 58bf edbd 38bf da39 1abf 2c4c 0fbf
00000300: d96b 10bf f4b4 fdbe 2c54 66bf 7350 2fbf
00000310: f6fc 68bf 95e0 bd3e 8eaa 37bf b2c3 e4be
00000320: 0803 1a3c 9377 ebbe dba4 14bf 450d 37bf
00000330: 9340 25bf 6479 49bf d7e1 a4be 6447 84be
00000340: 9e2f 0fbf dffd 1abf b82e 02bf d57f 47bf
00000350: 1376 c5be 3e49 eabe 0a9c dabe 2044 04bf
00000360: 0593 02bf 2ef5 16bf 4157 44be 9a41 90be
00000370: a6a8 7abf 9870 b3bd 24eb 35be 0fb5 dcbd
00000380: 34a0 20bf f03a 42bf 5f36 edbd 640c 58bf
00000390: e822 7f3e a17e fabe 7388 c0be f77c 15be
000003a0: 7ab9 cbbe 4399 d13c a36e 583e f0af 8b3e
000003b0: b629 05bf 854a 39be 90bd 393d 1eb1 4a3e
000003c0: f00d 5fbf 4f6e 32bf 3e63 60bf 7580 9dbe
000003d0: 530a 39be a97f 53bf 5a95 68bf d7f5 a63d
000003e0: 2333 dbbd 6512 f53c 4233 293e 61df b53e
000003f0: 722b 3dbf 1116 68bf d2f3 26bf feaf 7bbe
-0.2187769 -0.11256853 -0.5912858 -0.7078498 -0.4518239 -0.7762329 -0.61211604 -0.86519957
-0.8392061 -0.7557737 -0.85415065 -0.38532585 -0.57651657 -0.6914345 -0.41257682 -1.4384937
-0.5560343 -1.0972927 -1.2677609 -1.1611451 -0.48318535 -0.9867849 -0.32818747 -0.51904505
-0.9812578 -0.7582659 -0.8874156 -0.5860583 -0.79447407 -0.66024727 -0.82177335 -0.18848191
-1.2753248 -0.5233022 -0.84841585 -0.7236515 -0.63063246 -0.672212 -0.6451416 -0.8094265
-0.66802627 -0.56704324 -0.88423413 -0.71790236 -0.6206959 -0.8217081 -0.75239336 -0.80944395
-0.7715367 -0.2980302 -0.50711334 -1.1921997 -1.034631 0.039926957 -0.06874582 -0.48255584
-1.0759561 -1.0145519 -0.58203083 -0.4764863 -1.5119574 -0.7424062 -0.47809508 -0.79110265
-0.60466486 -0.10407426 -0.7637231 -0.67702883 -0.7511095 -0.5536969 -0.5188217 -0.6891421
-0.57588315 -0.30104095 -0.46292114 -0.72560847 -0.64247555 -0.4828853 -0.39328238 -0.92564183
-0.8560657 -0.80638444 -0.5115132 -1.0253247 -0.5624537 -0.98195946 0.053136576 -0.34383824
-0.7546922 -0.4065646 -0.98909116 -0.5028826 -1.1667782 -0.60611635 -0.74937886 -0.779749
-0.69249475 -0.7936724 -0.70806444 -1.2145973 -0.44875884 -0.91203463 -0.8555759 -0.8410228
-0.62976474 -0.36321628 -0.38125247 0.025200598 -0.46655148 -0.76326996 -0.40085536 -0.58132786
-0.9803675 -0.5861225 -0.94880396 -0.34661132 -0.61101276 -0.7317512 -1.2077285 -0.45227867
-0.26365295 -0.15479831 -0.033522055 0.010016977 -1.2986618 -0.83032715 -0.5339635 -0.30180973
-0.18036066 -0.06197896 0.032449927 -0.3452973 -0.4887194 -0.036153514 -0.21414049 -0.4048181
-0.03942519 -0.75774103 -0.9151925 -0.8190966 -0.39059862 -0.28115413 -0.32308522 -1.0445746
-0.49300495 0.08427827 -0.52012384 -0.86324495 -0.20468555 -0.7782674 -0.1461918 -0.43348572
-0.651862 -0.4847262 -0.67777866 -0.42920306 -0.79300183 -0.48450363 -0.6310732 0.23155141
-0.6769877 -0.49116668 -0.693825 -0.74828947 -0.5869212 -0.34211615 -0.7705981 0.13842897
-0.40741038 -0.7308735 -0.60670453 -0.2427416 -0.45560867 -0.15644674 -0.6625746 -0.5965639
0.114388905 -0.45542696 -0.61559385 -0.9260023 -0.5498554 0.342643 -0.12894309 -0.21669745
-0.7946687 -0.3833419 -0.86967343 -0.604039 -0.8453645 -0.72164804 -0.60244524 -0.55975604
-0.5641456 -0.4955212 -0.89972186 -0.6848213 -0.9101099 0.37085405 -0.7174462 -0.44680554
0.009400137 -0.45989665 -0.5806405 -0.7150462 -0.6455166 -0.7870085 -0.32203552 -0.25835717
-0.55932033 -0.60543627 -0.5085254 -0.7792943 -0.38566646 -0.45759004 -0.42697173 -0.5166645
-0.51005584 -0.58967865 -0.1917391 -0.2817505 -0.9791359 -0.0876171 -0.1776548 -0.10776722
-0.6274445 -0.7587118 -0.11582636 -0.84393907 0.2491566 -0.48924735 -0.37604102 -0.14598452
-0.39789945 0.025585776 0.21135955 0.27282667 -0.5201677 -0.18094833 0.045346797 0.19794127
-0.8713064 -0.6969957 -0.8765143 -0.30762067 -0.18070345 -0.8261667 -0.9085289 0.08152359
-0.10703113 0.029915998 0.1652346 0.35521987 -0.7389442 -0.9065867 -0.6521579 -0.24578854

lstm.bias_hh_l0 f4 [512]
00000000: 0be4 7abe a48b 24be aaf4 25bf 4aff 4dbf
00000010: ee7c 14bf 4b28 4fbf 4b9a 38bf c74a 42bf
00000020: cf1a 57bf 13fc 59bf 6ff2 74bf 470d d4be
00000030: 62de 26bf c5ce 23bf 4275 f7be 1f7f babf
00000040: 8a55 04bf 6dbd 80bf c12a a4bf 9ebf 9bbf
00000050: b77b 1cbf 5b76 7cbf 4e25 d1be a4f6 febe
00000060: 22b5 80bf 4b61 50bf 66a8 6ebf e372 17bf
00000070: 608a 56bf fafa 27bf 53b4 4bbf ce77 5fbe
00000080: 616a 93bf 2b44 07bf de9d 62bf 758b 3bbf
00000090: 4e4c 07bf fc23 2ebf 1dcd 41bf 9756 6dbf
000000a0: 5ba7 19bf c0af 0ebf e142 5abf 05d5 2ebf
000000b0: d661 2fbf d2fc 4cbf 9970 43bf 8e95 3bbf
000000c0: 7e64 38bf a082 a1be beb3 00bf 0af7 99bf
000000d0: 0346 8abf 1afb 083d cb00 23be 4c7d 14bf
000000e0: c19e 87bf 3947 7ebf 0861 02bf c087 b1be
000000f0: 781f d6bf d8b3 58bf b43e 12bf 9a35 48bf
00000100: a907 02bf 9131 5abd 96f0 2ebf a017 16bf
00000110: c5c3 4fbf c8bd 1cbf 0cab ebbe c78b 3abf
00000120: ef3a f1be 8fef c3be 44ed ebbe 049e 3bbf
00000130: 8550 13bf 91aa 05bf 5e3e 84be 6b44 6cbf
00000140: 5fc3 59bf 3e25 68bf cdee 12bf 86e0 83bf
00000150: 0950 15bf 73bb 82bf eddf 623d a211 abbe
00000160: d3c2 2abf 0b0c fabe c296 86bf 4f8b 09bf
00000170: b68b 95bf f58f 0ebf abaf 2ebf d91d 4dbf
00000180: 7557 4bbf 5a81 3abf 29e3 47bf 9091 9dbf
00000190: 23f5 0fbf dee2 48bf adb0 55bf 098c 46bf
000001a0: 6e4a 1cbf c0ee 98be dcd5 d8be 19ec bb3d
000001b0: d9de debe 5e85 5bbf 28ca c7be 81b8 1fbf
000001c0: 43cd 68bf 3509 18bf 695a 6dbf f23d acbe
000001d0: cbad 10bf 84a4 28bf d2a0 a0bf 8210 fbbe
000001e0: 01d1 96be 427d 65be 6483 80bc fd6a 6abd
000001f0: 4b61 98bf 5582 5dbf 40e9 2fbf 071d c7be
00000200: 0a80 3440 cf23 3940 c526 4040 e724 2d40
00000210: e76c 2240 43cc 3c40 377c 3540 61e9 2240
00000220: 2712 3a40 819e 0e40 5f07 0b40 1862 0b40
00000230: 5601 2540 0adf 2e40 0c58 2d40 7dc4 f23f
00000240: fbe7 1d40 69ab 4a40 cc09 1a40 756f 0d40
00000250: f089 3240 a776 0d40 adee 3140 e597 2040
00000260: 9c8c 1840 7ee0 1c40 4842 1440 64e4 2240
00000270: e475 0f40 b942 1d40 bbb8 1240 8a2f 4940
00000280: 708b 1940 a090 1f40 bd5f 1040 c47a 0f40
00000290: efa2 1540 c20f 2540 b791 0b40 c7c5 4340
000002a0: 67cd 2340 fe11 1140 6d0a 1e40 fec6 2b40
000002b0: 7c92 2140 045e 3440 88c3 1140 6e54 1840
000002c0: dae1 4a40 51ae 2240 7a80 1c40 f059 0140
000002d0: 68de 1b40 519b 5340 4f40 3c40 cd58 3540
000002e0: 1222 0840 7518 2340 983b 0840 d5dc 1c40
000002f0: 56d4 0c40 a10f 0f40 023c 1740 9a44 1a40
00000300: 9c0d 1940 52e8 2540 dc6e 0640 f40f 1040
00000310: d9ec 0340 b54e 5640 1afa 1040 c29e 2740
00000320: e055 4440 c584 1d40 9537 1940 3c6e 1240
00000330: dd1b 1240 f914 0c40 d206 2b40 d831 2d40
00000340: be9f 1d40 73a4 1440 ef6f 1e40 25c8 0a40
00000350: c64b 2540 0474 2040 e083 2140 1926 1f40
00000360: 3700 1f40 d695 1840 cc49 3140 3c85 2a40
00000370: 846d 0140 e543 3540 9b14 3540 408b 3540
00000380: 32ee 1c40 246e 0d40 e4e6 3540 43bf 0640
00000390: d6fe 4e40 db39 2240 4d0e 2a40 6b29 3440
000003a0: 64d4 2a40 1f3e 3d40 d2f3 4a40 1470 4d40
000003b0: abd6 1b40 c06d 3240 074f 4240 73fb 4d40
000003c0: c1f1 0c40 89ac 1140 8f94 0240 71bc 2840
000003d0: 7ea7 3040 736d 1040 c2fb 0340 a7e4 4240
000003e0: d3aa 3d40 aa8a 3e40 178d 4b40 7217 5140
000003f0: 16f0 0e40 a79a 0540 fe57 1640 e9b6 2f40
-0.24501054 -0.16068894 -0.6482645 -0.80467665 -0.5800313 -0.8092086 -0.7211043 -0.7589535
-0.8402528 -0.8515026 -0.95682424 -0.4141638 -0.6518308 -0.6398738 -0.48331648 -1.4570044
-0.5169302 -1.0057808 -1.2825547 -1.2167852 -0.61126274 -0.98618096 -0.40848774 -0.49797547
-1.0055277 -0.8139846 -0.93225706 -0.5915968 -0.83804893 -0.65617335 -0.7957203 -0.21823046
-1.1516839 -0.5283839 -0.88522136 -0.7325967 -0.52850807 -0.6802366 -0.75703603 -0.9271025
-0.6002099 -0.55736923 -0.852583 -0.6829379 -0.6850866 -0.80073273 -0.76343685 -0.7327508
-0.7202834 -0.3154497 -0.50274265 -1.2028515 -1.0802616 0.033442594 -0.15918271 -0.5800369
-1.0595323 -0.9932743 -0.5092931 -0.34673882 -1.6728354 -0.8464942 -0.5712693 -0.7820679
-0.5079294 -0.053269926 -0.68335855 -0.586298 -0.81158096 -0.61227083 -0.46028936 -0.72869533
-0.47115275 -0.38268706 -0.46079457 -0.7328799 -0.5754474 -0.5221339 -0.25828832 -0.922919
-0.8506374 -0.9068183 -0.5739563 -1.0302894 -0.5832525 -1.0213455 0.055389334 -0.3341189
-0.6670353 -0.48837313 -1.0514758 -0.53728193 -1.1683261 -0.5568841 -0.682368 -0.8012367
-0.79430324 -0.72853625 -0.78080994 -1.2310047 -0.56233424 -0.7847117 -0.8347271 -0.77557427
-0.6105107 -0.29869652 -0.42350662 0.091758914 -0.43529394 -0.8575038 -0.3902142 -0.62390906
-0.90938205 -0.5938905 -0.9271608 -0.3364101 -0.5651519 -0.6587603 -1.2549078 -0.49036032
-0.29456332 -0.22411063 -0.015687652 -0.05723094 -1.1904691 -0.86526996 -0.68715286 -0.38889334
2.820315 2.8928106 3.0023663 2.7053773 2.5378969 2.9499671 2.8357065 2.5454943
2.907358 2.2284243 2.172325 2.1778622 2.5782065 2.7323632 2.708499 1.8966213
2.467284 3.166712 2.406848 2.2099278 2.789669 2.210367 2.7801926 2.509271
2.383582 2.451202 2.3165455 2.5451899 2.2415705 2.4571974 2.292525 3.1435266
2.3991356 2.4932022 2.2558434 2.241868 2.3380697 2.5790868 2.1807687 3.0589464
2.5594118 2.2667232 2.4693863 2.6840205 2.5245657 2.8182383 2.2775593 2.3801532
3.170035 2.5418894 2.4453416 2.0211143 2.4354496 3.3063548 2.941425 2.833545
2.1270795 2.5483677 2.1286373 2.4509785 2.20046 2.235329 2.3630376 2.410437
2.3914557 2.5923047 2.1005163 2.2509737 2.061331 3.348554 2.265265 2.6190648
3.0677414 2.4612286 2.3940175 2.2879782 2.2829506 2.18878 2.6722913 2.7061672
2.462875 2.3225372 2.475582 2.1684659 2.5827498 2.507081 2.523674 2.4867003
2.484388 2.3841453 2.7701292 2.664382 2.0223093 2.832269 2.8293827 2.8366241
2.4520383 2.2098475 2.8422174 2.1054237 3.234304 2.5347812 2.6571229 2.815028
2.6692133 2.9569166 3.1711316 3.2099657 2.4349773 2.7879486 3.0360734 3.2184722
2.2022555 2.2761557 2.0403173 2.6365016 2.760223 2.2566803 2.062241 3.0452058
2.9635513 2.9772134 3.1804864 3.267056 2.2334037 2.0875642 2.3491206 2.745539

head.net.0.weight f4 [1, 128]
00000000: 5d4b 7f3b 0fa3 c13a dcea edbb 0fbd 2dba
00000010: 1fa7 9eba 603a 2b3c 61f9 58bc c578 cbbd
00000020: 5fa9 b7bb 39f5 0140 da33 9c3c b31d 48ba
00000030: afe7 6abd 629e 763a b9b3 adbc 93fa 9d3f
00000040: 5dfb e53c 4143 033d ac5c c8bb 01e7 203f
00000050: 5fc5 d7bc fc0c 96bd 381a 16bc 0834 c0bc
00000060: 1fb4 65be c166 9b3b f0c9 56bd 8a90 87bd
00000070: 080e 1fbb 1131 4a3d 2a0d a5bb bd2e 9fba
00000080: e31f 61bc 97a9 a3bd e6c1 0dbd d4d5 0dbe
00000090: 902d 39be dad0 17bd 4d53 8f3a cb2b ccba
000000a0: 6987 95bc 37b0 c8bc 9b79 f4bc ff6e 27bd
000000b0: 0b0f 67bd 0a2c 0c39 17ab abbe 72b3 4dbd
000000c0: f574 b6bb 5593 04bd 11d7 0e3d 1cf1 07c0
000000d0: 137d 223b 987c 06ba 897c 653c cbab e2bc
000000e0: d1f9 3f40 f5e0 28bc c76f d83d 9ce2 67bd
000000f0: 5cf3 b2be cdd6 a73c e0bd 1a3d 5ea5 8bbe
00000100: 3426 253c f416 673d eb38 083d ad10 cabd
00000110: 630c 57be b779 c03b f1e3 083d 1955 063c
00000120: 808a 363a e713 66bb ef39 6c3d 48c0 5dbb
00000130: 9c93 073d d305 0dbd 3955 3d3d ba7d 053d
00000140: 11ba 29bc c21c 90bd 62f2 e83b 3b24 99bb
00000150: 17fc a83b 2ace e6ba 986f a3bb a5c5 783c
00000160: 2e30 fbbc f308 c8bb 80f0 8a3c 7869 55bc
00000170: 980e 67bf 1628 00bb 9a64 b3bb 71bc 2b3b
00000180: db11 47bc 53be ab3c cf8c c53b cfdf 7e3d
00000190: 8466 153c ae14 373d 4b46 d3bc 021b dabb
000001a0: b1d5 25bc 6131 c23a fa1b 60bb b456 0cbc
000001b0: 4b62 a6bb 0cfa da3b ea4b 1aba 24f4 673c
000001c0: 7fb3 aebe 91fd 0dbe e9c9 6f3e 39ec ea3b
000001d0: 81d3 073d f6d9 ea3d cbf0 9940 43f8 bebb
000001e0: 0a60 b0bb 92f7 82ba 8f70 76ba 5076 9f3a
000001f0: fe11 883c 1282 05be e5b3 1a3c 76df 01bd
0.0038954832 0.0014773327 -0.0072606634 -0.0006627598 -0.0012104249 0.010450929 -0.01324305 -0.09935144
-0.0056049074 2.0305922 0.019067694 -0.000763382 -0.057349857 0.0009407756 -0.021203863 1.2342094
0.02807396 0.03204656 -0.006114563 0.62852484 -0.026339231 -0.07326695 -0.0091615245 -0.02346231
-0.22431992 0.004742474 -0.052438676 -0.066193655 -0.0024269838 0.0493632 -0.0050369697 -0.0012144666
-0.013740513 -0.07991331 -0.034608744 -0.138511 -0.18083787 -0.03706441 0.001093486 -0.0015577016
-0.018253045 -0.024498088 -0.029843142 -0.04087734 -0.05641083 0.00013367846 -0.3352897 -0.05021996
-0.0055681416 -0.03236707 0.034873072 -2.1240911 0.0024793788 -0.000513026 0.014006742 -0.027669808
2.9996226 -0.01030754 0.10568195 -0.056612596 -0.34951293 0.020488167 0.037778735 -0.27274603
0.010079909 0.056418374 0.033257406 -0.09866462 -0.21000819 0.0058738845 0.033420507 0.008199
0.0006963387 -0.0035107078 0.057672437 -0.0033836532 0.033099756 -0.034429383 0.046223853 0.032590605
-0.010359303 -0.07036735 0.0071089724 -0.0046735085 0.0051570046 -0.0017609049 -0.0049876682 0.015183841
-0.030662622 -0.0061045825 0.016960382 -0.013025634 -0.90256643 -0.0019555143 -0.005474639 0.002620485
-0.012150253 0.020964777 0.0060287486 0.06222516 0.00911868 0.044697456 -0.025790354 -0.0066560516
-0.010121749 0.0014815741 -0.0034196363 -0.0085655935 -0.0050776354 0.00668264 -0.0005885946 0.014157329
-0.3412132 -0.13866259 0.23416866 0.007169273 0.03316069 0.11467354 4.8106437 -0.005827935
-0.0053825425 -0.0009991995 -0.0009400928 0.0012165997 0.016610142 -0.13037899 0.009442304 -0.03170725
