examples/catchment_models/training/runs/globe_time_split_2404_124848/model_epoch030.pt (torch, 316229 bytes, 5 tensors)

lstm.weight_ih_l0 f4 [512, 23]
00000000: 377a 073e 8b2c 363d fd96 173e e84e 95be
00000010: bf9a d83d b27b 013e ba0a bdbd 7604 003e
00000020: 3a93 43be b5bc c9bd 9c77 853e 8c0e b7be
00000030: 4ac3 23bf 31cc 34be d3b7 d4be 2698 b8be
00000040: 89f0 ccbe 6131 59be 2502 de3d c563 05be
00000050: 4306 f43d 5181 4bbf 8b94 233e 0d01 aa3d
00000060: 6ae4 c83d 409d e6be 5d2c 26bf 0023 d1bc
00000070: 024d 913f e1b7 fb3e 927e 59bf 97ce 383f
00000080: 758e 0e3f f60b bcbe 7808 35be 674e 223f
00000090: ec2a 0cbf 6905 69be eec1 073f 44c1 1bbe
000000a0: df55 183e 1d18 a33f 1c9b 14bf 0095 073f
000000b0: 3cca 0e3f 672b 933e 1f54 a73e 33bc a43e
000000c0: 642c 143f 95be 463f 5de5 7dbd cecd a63e
000000d0: d704 0abf 11cf 563d 3c3f 1cbf bb81 c5be
000000e0: 4587 46bd 9e5b 783e 0e08 82be 70e1 eb3e
000000f0: f7c2 9bbd 2cc2 aabd 7872 4bbe 0016 44be
00000100: 6f38 833f 6f06 67bf 9aae 26be 1ac5 c5be
00000110: 8583 10bf 412f 243e 0226 363e 5060 cb3e
00000120: 51c7 b0bd 5f0e 293f 88b1 cf3e f24e 003f
00000130: aa80 133d a81d ad3e d7d4 ad3d 50dd d23d
00000140: 6c14 fa3d 3eb7 0fbe a044 af3e d658 363f
00000150: da2e 9f3f 4508 913e 979f 923e 4a06 f33e
00000160: 67f7 b0bd 1d50 8a3d f515 a53e 93f5 6f3e
00000170: a500 13be 5c53 763f 6de1 013f 3cc9 3fbd
00000180: 03ed 94bd e026 033f 845a 373f 3a7f 9a3d
00000190: 02ad 0f3f 683e 86be 88a1 01be f074 83be
000001a0: 49d0 513e ee26 f23d c789 c43e 4a16 363f
000001b0: b605 ae3e b627 ea3d 67d0 f43c ec9d 97bd
000001c0: 70bb 953e 7945 a53e 5c5b 643e 4301 193f
000001d0: cd01 413e 713b 2d3d c753 673f 8f78 e33e
000001e0: fae4 953e dd84 15bf 4407 f43e ba99 40be
000001f0: fc74 063e 43f5 913e 0f12 eb3e 4794 fe3d
00000200: 7e90 113f 52b0 3ebe 3993 0fbe f24b ef3d
00000210: 1faf d63e a25e 80be 1db1 1dbe 18c9 0fbd
00000220: bc15 623d c82a 52be a734 443f 280f cabd
00000230: e22c c13d bfd5 be3d cfe2 203e 5446 093f
00000240: a65b 923e 3310 7bbd 4443 ee3b 97b2 c0bd
00000250: 593a 183f 5d63 d5bc 886d 8dbe 79d5 013f
00000260: 5022 b23e 6877 c63e 6594 3abf 0e08 003f
00000270: 9fde ea3e b370 c5be 868e 9d3e 05e7 0e3f
00000280: 0eb8 833e d26e 1f3d 66dd 1f3e 587c 043e
00000290: 5f3b c9be 1167 db3e e9ad 173f edf1 723f
000002a0: 0973 8fbe 5941 953f 92a5 3abd c83f f5be
000002b0: c07d 823d 1ee5 113f 277a d7be d017 873c
000002c0: 01a3 5c3f a63f 1d3f fc3d 203f be58 3abe
000002d0: b8b6 273e 8fc7 273f 5f36 193f 37c4 e83d
000002e0: 8cb2 293d 567b 0d3f 8e07 a53e a123 a23d
000002f0: 6f07 08be 3dc3 403f 71ab 923f ea31 ecbe
00000300: 66a0 ba3f 37f1 033f cdf5 19be 1736 383d
00000310: aee8 173e 9b38 34bf c5be 513d d7b9 723f
00000320: cce1 ed3d 32fb 363e 7bed cdbe c45c 3a3f
00000330: e323 8f3f 1362 2e3f aa46 433f c84e b9be
00000340: 9624 4a3e f00b db3d 09e0 b4be b8f0 393d
00000350: 8bb4 423f 1caf 533f 68c4 cabe 1589 7d3f
00000360: 750f 383e 32aa 09bf f6f7 b33d a4b0 b63e
00000370: 838f e4be d85b 55be ed7d 073f 8f64 2c3e
00000380: f3e1 bf3e 6c44 62be b114 4b3e 7512 5e3f
00000390: a314 133f d772 963e becb 00bf 151f 913f
000003a0: 22f5 f7be 5fc4 9bbe 554a a13c 7c9c b53d
000003b0: 1e10 753f 8d16 423f f86e 003f 39e4 0f3e
000003c0: 0674 f2be 1132 e23e a17d 37bd ea50 a6be
000003d0: 55c6 a93e 3c2e 7e3f a886 813e 8aa6 573e
000003e0: 957d 3fbe f756 a5be 244a 9d3e 6e89 c13e
000003f0: 0dec 0abe 18fb d73d 07ec 413e 7dc6 913f
0.13230215 0.044476073 0.14803691 -0.29161763 0.105763905 0.12644842 -0.092305616 0.12501702
-0.19099131 -0.09850446 0.26067817 -0.35753286 -0.6396986 -0.17656018 -0.41546497 -0.3605358
-0.40027264 -0.21210243 0.10840253 -0.1302634 0.11915257 -0.79494196 0.15974633 0.08300982
0.098091915 -0.45041847 -0.64911443 -0.025529385 1.1351626 0.49163726 -0.84958756 0.7219023
0.5568612 -0.36727875 -0.17679012 0.6340088 -0.54752994 -0.2275597 0.5303029 -0.15210444
0.14876507 1.2741734 -0.5804918 0.5296173 0.55777335 0.2874405 0.32681367 0.32174835
0.57880235 0.77634555 -0.061986316 0.32578892 -0.53913635 0.052443568 -0.6103399 -0.3857554
-0.048468847 0.24253699 -0.2539677 0.46070433 -0.07605546 -0.083378166 -0.19867885 -0.19149017
1.0251597 -0.9024419 -0.16277543 -0.3862694 -0.5645068 0.16033651 0.17787936 0.39721918
-0.086317666 0.66037554 0.40565133 0.5012046 0.036011375 0.33811688 0.084878616 0.10296118
0.122109264 -0.14034745 0.34232044 0.712293 1.2436173 0.28326622 0.28637382 0.47465736
-0.08640938 0.06753562 0.32243314 0.23433523 -0.14355715 0.96220946 0.507346 -0.04682277
-0.07271769 0.51231194 0.7162249 0.07543798 0.56123364 -0.26219487 -0.12659276 -0.25675154
0.2048961 0.118238315 0.38386366 0.7112776 0.33988732 0.114333555 0.02988453 -0.07403168
0.29244566 0.32279566 0.22300476 0.5976755 0.18848343 0.042293016 0.9036221 0.44427916
0.29276258 -0.5840586 0.47661793 -0.18808642 0.13130563 0.28507432 0.45912215 0.124306254
0.568611 -0.18621948 -0.14021005 0.11684407 0.41930482 -0.250722 -0.15399595 -0.035103887
0.05519651 -0.20524132 0.7664284 -0.09866172 0.09432389 0.093181126 0.1571152 0.5362294
0.28585547 -0.061294746 0.0072712023 -0.09409063 0.5946403 -0.026048357 -0.27622628 0.5071636
0.34791803 0.38762975 -0.7288268 0.5001229 0.4587297 -0.38562545 0.307728 0.5582126
0.2572636 0.038924046 0.156118 0.12938058 -0.3930311 0.4285207 0.5924974 0.949004
-0.28017452 1.1660568 -0.045568056 -0.47900224 0.06371641 0.5699023 -0.42085382 0.016490847
0.86186224 0.61425245 0.6259458 -0.18197915 0.16378295 0.6553888 0.5984859 0.1136555
0.04143004 0.5526632 0.32232326 0.07916952 -0.13284086 0.7529791 1.145857 -0.4613183
1.45802 0.5153994 -0.15035172 0.04497346 0.14834854 -0.70398873 0.051207323 0.9481482
0.11615333 0.17869261 -0.40220246 0.727978 1.1182827 0.681184 0.762797 -0.36192918
0.19740519 0.10695636 -0.35327175 0.045395583 0.76056737 0.8268907 -0.3960297 0.99037296
0.17974646 -0.5377532 0.08787529 0.3568164 -0.4464074 -0.20835817 0.5292652 0.16835235
0.37477073 -0.22096413 0.19832112 0.86746913 0.57453364 0.2938449 -0.50310886 1.133761
-0.4842921 -0.30423257 0.019688765 0.08867738 0.9572772 0.7581566 0.50169325 0.14051904
-0.47354144 0.44178823 -0.044797543 -0.32483608 0.33159128 0.992893 0.25298047 0.21059623
-0.1870025 -0.3229291 0.30720627 0.37800163 -0.13566609 0.10545939 0.18937694 1.1388699

lstm.weight_hh_l0 f4 [512, 128]
00000000: 9c19 073e 6063 6d3e 4b2b bb3e e863 1abe
00000010: f19d 6d3e 397a 8abe 2f9e 493f 2092 e33d
00000020: f873 ee3e 4140 0f3d 794c e5be b93d 6ebe
00000030: 4891 abbe 02b5 4f3d 17df 27be 2380 e0bd
00000040: 30ff 693e b755 503e d338 3cbd 8c82 cebd
00000050: 6b5a e1be 5157 d8be dda6 ba3e 354f 8c3d
00000060: 19f8 3b3e 28bd 9abe 609a 50bd c36c 1b3e
00000070: 1d8d 253e 6129 87be e148 2bbe 96ef 58be
00000080: 2695 cc3e 53de 833c bb24 27bc 02d3 98bb
00000090: b9e4 4fbd 251d c5bd 8316 2ebf a24c 3f3e
000000a0: 7967 183f 79f9 3cbe 084a e2bc a186 cebe
000000b0: 32e1 36be db12 063e 7849 36bd 8686 2d3d
000000c0: 5afc 0a3e b96d 63be f308 b2be 4ac8 1cbe
000000d0: ee68 aabe b996 493d b088 54bd 831e 55be
000000e0: de64 fa3d 771a ba3e 91ec 38bb 1413 1f3e
000000f0: 34b5 a9bd 85a5 d3be c3e5 19be ef61 1d3e
00000100: 9be8 00be 80a1 6a3e 8f2d d6bd ab99 78bd
00000110: 95e1 c03e 23e1 cc3e cb12 33bd 65eb acbe
00000120: 8129 7abd cda0 e13e e608 403d 95c9 353e
00000130: 0c4f 473d 6cfa 5c3e 5187 963d e960 233d
00000140: 2846 833d 4f23 8bbc 1017 e8bd 9a39 8f3e
00000150: 1d11 23bf 89a6 213e d249 843d 3b3d 1d3d
00000160: 9c7c 0b3f 7e19 e4bd 0d51 13bf 7110 4a3e
00000170: 975a 003e 3b0d f4bc ece1 0bbf 6b69 6dbe
00000180: 68d0 fabe 5073 e03d a5f2 0bbe 55c7 85bd
00000190: f3ce 4dbe 584a a33e 9c41 1abd 48b7 203f
000001a0: 619e 993e 03e9 31be 5810 9c3d 3e6e ca3e
000001b0: bb18 c2bd 4548 0abc 55f2 8d3e 1fa1 abbd
000001c0: 5a72 7dbc c37f 5b3e 661a 7dbe e5b7 15be
000001d0: 3159 15be fb8c c5bd 0c2d 923e 3e11 e63d
000001e0: 0a53 963e 3f04 a2be 138a a33e 491e bebd
000001f0: 5098 193e 111a ee3d 75e8 46be 6d9a a9bd
00000200: 5716 a2be 7994 e33f 0374 7bbf 8def 3e3d
00000210: 5612 093e d5df 003d abcd 8f3e 3833 c8be
00000220: 0fb8 553d 7d58 0fbc 15fb cabe 1dc2 6abf
00000230: 11ae 1fbe d7e5 113e d751 333e 1ca3 9abd
00000240: 25dd 7a3e d2a8 893e f286 65be f586 8abd
00000250: 856c 9c3e f98c e0bd 9df0 c2bd 475b fdbb
00000260: 5f8e bdbb 0fa6 a4be 45d9 0e3d 386c b5be
00000270: 0a3a c43e 9d2b a4be 57bb 31ba e380 563e
00000280: 13f5 d73e 329a eebc b3d5 073e 2247 8a3d
00000290: f0c5 84ba 3f6c 8abe f59d 173d ad22 b7bf
000002a0: e060 e13e 4ab0 2abe b1cc b43e 58ba 8bbe
000002b0: 167a 8c3e 91ef 59be 4437 09be ca5f 10bd
000002c0: f903 e4be 26b4 b13e c672 023c cc39 0c3e
000002d0: 3cca 90be 95ec aabe f648 c13e 1239 02bf
000002e0: 09a6 dfba f7ef 4c3f 46fd 3fbe ede3 01bf
000002f0: e0a2 90bd c31d 9fbe baa1 d6be 5cfd 66bd
00000300: 22e0 19bf 03e3 f2bc 7239 f0be b6d9 d8bd
00000310: 8665 09bd 6d10 a53e 8b98 29be 2432 1e3e
00000320: 9a82 e93d 7341 ab3e 40d9 56be b224 7e3e
00000330: 92a2 53be 74c8 e33d 113c 3c3e 6f19 103f
00000340: f0f3 a63d ec1b 003e ec67 76be abe8 f43e
00000350: 5be9 14bf 06db 8d3e 76ab 583d 3695 0c3e
00000360: 428c cdbd 5f5c f93d 1412 4e3e 29af cb3a
00000370: e4b4 cabc b406 84bf 2234 febb a643 f73e
00000380: 8186 0d3f 4282 61be bf03 7fbe 6b72 e0bd
00000390: ddda d93e 666e fe3e a03f 50be 54ec 0e3f
000003a0: bd71 57bf d0d8 ecbe 729f 3f3d 3a68 e43e
000003b0: 6ebb ea3d 80c0 b73e 6bb8 9e3e 0d68 993f
000003c0: f823 943d 7aee 3b3e 7e0d 69bd f2e6 d2bd
000003d0: 4678 473e 0539 fcbd b036 2cbd e82b 18bf
000003e0: 41f8 fc3d cf42 b73e c549 3b3e d28b 66be
000003f0: c6ba 0f3f e7c0 fe3d 6861 243d 2f78 053f
0.13193363 0.2318244 0.36556467 -0.15077174 0.23204781 -0.27046373 0.78756994 0.111118555
0.46572852 0.034973387 -0.44784907 -0.23265733 -0.33509278 0.050709732 -0.16393696 -0.1096194
0.22851253 0.20345198 -0.04595263 -0.100834936 -0.44014296 -0.42254117 0.36455432 0.06851045
0.1835636 -0.3022244 -0.050928473 0.15178208 0.16167112 -0.26398757 -0.1672702 -0.21185145
0.3995754 0.016097223 -0.010201628 -0.004663826 -0.050755236 -0.096246995 -0.680031 0.18681577
0.59532887 -0.18454541 -0.027623191 -0.4033709 -0.17859343 0.1309313 -0.04450366 0.04236462
0.13572827 -0.22209825 -0.34772453 -0.15310779 -0.3328318 0.049216006 -0.051888168 -0.2081242
0.1222627 0.36348316 -0.0028217176 0.15534621 -0.08286515 -0.4133722 -0.15029053 0.1536939
-0.12588732 0.2291317 -0.10457908 -0.060693424 0.37672105 0.40015516 -0.043719094 -0.33773342
-0.061074737 0.44067994 0.046883486 0.17752679 0.04865937 0.21579903 0.07350028 0.039887343
0.064098656 -0.01698461 -0.11332524 0.27973634 -0.6369799 0.15786184 0.064593926 0.038388472
0.54487014 -0.11137675 -0.5754555 0.19732834 0.12534557 -0.029791465 -0.54641604 -0.23184745
-0.48987126 0.10959494 -0.1366678 -0.0653216 -0.20098476 0.31892657 -0.037660226 0.62779665
0.30003646 -0.17374043 0.07620305 0.39537233 -0.09477373 -0.008440082 0.27723947 -0.08380341
-0.015469158 0.21435456 -0.24717101 -0.14620931 -0.14584805 -0.096460305 0.28549993 0.112337574
0.2936023 -0.31643865 0.3194128 -0.0928312 0.14999509 0.116260655 -0.19424613 -0.082814075
-0.3165767 1.7779685 -0.98223895 0.046615172 0.13385901 0.031463463 0.280866 -0.39101577
0.052177485 -0.008749125 -0.39644685 -0.91702443 -0.15593745 0.14247833 0.17511688 -0.07550642
0.24498422 0.26886612 -0.22414759 -0.06764022 0.30551544 -0.109643884 -0.095185496 -0.0077318284
-0.005784794 -0.32157943 0.034875173 -0.35434127 0.3832553 -0.32064524 -0.000677993 0.20947604
0.42179164 -0.02912626 0.13265114 0.06751849 -0.0010129791 -0.2703571 0.037015874 -1.4307457
0.44019222 -0.16668811 0.35312417 -0.27290606 0.27436894 -0.21282794 -0.13399988 -0.0352476
-0.4453428 0.34707755 0.007961934 0.13693923 -0.28279293 -0.33383623 0.37750977 -0.5086833
-0.0017063032 0.8005366 -0.1874896 -0.5073841 -0.07062316 -0.31077394 -0.41920263 -0.056393966
-0.60107625 -0.029649263 -0.46918827 -0.105884 -0.033544086 0.32239094 -0.16562097 0.15448815
0.114018634 0.3344837 -0.20981312 0.24818686 -0.20667484 0.11122218 0.18382289 0.5628881
0.08151996 0.12510651 -0.2406308 0.47833762 -0.5816857 0.27706164 0.052897893 0.13728794
-0.10036518 0.121758215 0.20124084 0.0015539873 -0.024744458 -1.0314546 -0.0077576796 0.482938
0.5528336 -0.22022346 -0.24903773 -0.109593235 0.42549792 0.49693602 -0.20336771 0.5582936
-0.84157926 -0.46259165 0.04678292 0.4461077 0.114615306 0.35889053 0.31000075 1.1984879
0.07233423 0.1835269 -0.056897633 -0.102979556 0.19479474 -0.12315563 -0.04204434 -0.59441996
0.12352038 0.35793158 0.1828986 -0.22514275 0.5614437 0.12439137 0.040131956 0.5213651

lstm.bias_ih_l0 f4 [512]
00000000: 8e37 4ebe 8a82 f1bd 1b6f 34bf 1ead 3fbf
00000010: e0c1 04bf 6210 4ebf a04a 0fbf c739 32bf
00000020: c85f 76bf dc43 3cbf d404 4fbf 80fd dabe
00000030: 2a57 09bf d082 2bbf 16ae c3be adcc c6bf
00000040: a081 22bf 5fbc 97bf 9a84 abbf 8bd5 9ebf
00000050: 84e7 0abf 08bc 7dbf ea5e b8be 5946 f4be
00000060: 70c1 85bf 51c9 59bf 554e 62bf de35 1bbf
00000070: b983 5cbf 2e52 2bbf 4996 7bbf 521e 11be
00000080: 0d98 a0bf 2f15 bfbe 2f2f 58bf c2d3 4fbf
00000090: 0c0b 23bf 30b9 33bf b8a1 2ebf daae 5abf
000000a0: e242 3abf 53a3 1dbf fac1 7bbf 95da 29bf
000000b0: 6151 29bf 8951 53bf fd40 4cbf 918d 69bf
000000c0: 1fa8 56bf 526b bfbe 9936 03bf 61aa 9fbf
000000d0: 6a08 92bf 8951 f83d f552 94bd e4a1 dabe
000000e0: 0acd 88bf f6a7 82bf c406 e9be 50bc 13bf
000000f0: 40bc c7bf c92d 4abf a81d 01bf f17c 2bbf
00000100: 09e4 15bf 3e22 8fbe 003f 3ebf 48bc 36bf
00000110: 7d9c 31bf 8612 0ebf 5a37 24bf 4689 34bf
00000120: 361a 13bf 70c7 a6be 67d3 ecbe 0960 23bf
00000130: 7272 2bbf 9409 12bf d0ea d5be 2996 6cbf
00000140: 07c3 3cbf 24f7 58bf fe82 0cbf b0bd 87bf
00000150: 9e5a 14bf 13aa 8cbf 2f61 803d 3912 a8be
00000160: afde 5abf dfd6 05bf ed6d 88bf bdd0 26bf
00000170: 4f70 9ebf 3038 2abf 3c44 30bf ad65 42bf
00000180: 2103 26bf 5a88 5abf 72a7 61bf d063 96bf
00000190: be8a eebe 70a7 69bf c2fe 5abf 2314 78bf
000001a0: b011 24bf b3af cbbe 31a3 d4be 4619 c33d
000001b0: 2b8e e1be 7bba 56bf 975b dabe 3808 1fbf
000001c0: dfeb 83bf 2385 19bf a504 87bf cb2e 8abe
000001d0: 0b3c 50bf 19c0 41bf adf6 98bf aa59 efbe
000001e0: 8972 50be fc6c 26be 604d 88bc 4f16 b63d
000001f0: 017f b0bf 86a6 4dbf e868 14bf 067f aebe
00000200: 56cf ebbd 1e17 cabd 7f2b 3b3c 1192 88be
00000210: e466 efbe 1047 6ebc 726e 12be 9b5d a1be
00000220: 54dc 46bc ad4f 47bf 20c6 69bf ea3a 65bf
00000230: cda6 bbbe 4127 1abe 3692 a3be 50a3 81bf
00000240: fa41 19bf d8fa 323e e1de 1cbf b90a 5bbf
00000250: 1fc9 42be d0bf 46bf 289b 4cbd 4faa 0ebf
00000260: 05a2 1fbf 9326 08bf 5864 32bf 01fc c9be
00000270: 0543 40bf b0d8 d9be 83c5 2ebf 29a9 913e
00000280: c0a5 15bf 0b2a c8be 5359 35bf e5d9 54bf
00000290: b170 2dbf 523b bfbe 9a09 24bf 95ad 3a3e
000002a0: 4e0a d6be f022 3fbf d399 2ebf ae00 3abe
000002b0: 4ad0 d4be dc32 c5bd ac6f 2cbf 5edf 1dbf
000002c0: e9e4 ff3d 3b7d 1dbf 9e7f 13bf 1c0a 6bbf
000002d0: 9890 e8be 98d8 c33e 7186 f2bd f5d2 acbd
000002e0: 8038 54bf 005e dcbe 4184 80bf f6ea 29bf
000002f0: 2151 65bf 2dd2 39bf c24d 21bf c4d4 0abf
00000300: a772 1ebf 7d5b 27bf 5a63 52bf 8aaf 29bf
00000310: 1aae 75bf f4f8 c23e fac0 4bbf 07f6 f5be
00000320: 2c76 03bd ed4a 0dbf 43bc 12bf a5e2 2abf
00000330: 79ee 43bf 6ce2 5abf 0b15 bfbe bb61 60be
00000340: 2fc1 efbe 85a9 2cbf cec2 0ebf 0fbf 4fbf
00000350: c3cd a9be f143 f5be 9457 f4be e508 15bf
00000360: 9209 03bf 437f 2dbf 5f74 85be 1962 c7be
00000370: 84a9 8cbf 4e39 f0bc 1a54 0fbe e2d2 bfbd
00000380: da9f 16bf a661 54bf a34d 98bd 666d 5dbf
00000390: 50b5 8b3e 6c88 fbbe a5d7 ddbe d42d e9bd
000003a0: 0a9a bebe 0e4e 913a dd7c 573e 0703 893e
000003b0: cc19 c1be 26f8 95bd ade7 febb a5d9 9d3e
000003c0: 96ec 6dbf 2987 4fbf 8597 77bf a6f3 90be
000003d0: 291c 95be b575 58bf f688 81bf 93b7 983d
000003e0: dd05 2abd f80c cf3c 1629 1a3e af6c e53e
000003f0: 9de6 38bf af3d 76bf f5db 31bf 5d37 b2be
-0.2013838 -0.117924765 -0.70482033 -0.7487353 -0.5185833 -0.8049375 -0.55973244 -0.6961941
-0.962399 -0.73541045 -0.8086674 -0.4277153 -0.53648627 -0.6699648 -0.38218755 -1.5531212
-0.6347904 -1.1854361 -1.3399842 -1.2408918 -0.54259515 -0.9911504 -0.36009914 -0.4770992
-1.0449657 -0.8507281 -0.88400775 -0.6062907 -0.8613849 -0.6692227 -0.9827619 -0.14171723
-1.2546402 -0.3732085 -0.84446996 -0.8118249 -0.6368873 -0.7020445 -0.68215513 -0.8542305
-0.72758305 -0.6157734 -0.9834286 -0.66349155 -0.661398 -0.8254629 -0.79786664 -0.9123164
-0.8385028 -0.37386566 -0.51255184 -1.247387 -1.1408818 0.121249266 -0.07242385 -0.42701638
-1.0687573 -1.0207508 -0.45512974 -0.5770922 -1.5604324 -0.7897611 -0.50435877 -0.6698752
-0.5855108 -0.27955812 -0.7431488 -0.71381044 -0.6937941 -0.55497015 -0.6414696 -0.7052196
-0.5746187 -0.32574034 -0.46255037 -0.63818413 -0.66971505 -0.57045865 -0.4178071 -0.92416626
-0.7373509 -0.84752107 -0.5488738 -1.0604763 -0.5795077 -1.0989403 0.06268536 -0.32826403
-0.8549604 -0.5228099 -1.0658547 -0.6516226 -1.2378024 -0.66491985 -0.6885412 -0.75936395
-0.64848524 -0.85364306 -0.88146126 -1.174921 -0.46590227 -0.91271114 -0.8554498 -0.96905726
-0.6408949 -0.39782485 -0.41530755 0.09526305 -0.44053778 -0.83878297 -0.42648003 -0.62121916
-1.0306357 -0.59968776 -1.0548292 -0.26988825 -0.8134162 -0.7568374 -1.195028 -0.46748096
-0.20356192 -0.16252512 -0.016638458 0.08890974 -1.3788759 -0.8033222 -0.57972574 -0.34081286
-0.115141556 -0.098676905 0.0114239445 -0.2667394 -0.46758187 -0.01454331 -0.14299944 -0.31516728
-0.012137491 -0.7785595 -0.9131794 -0.8954302 -0.36650696 -0.15054037 -0.31947488 -1.0127964
-0.598663 0.17478502 -0.61277586 -0.85563236 -0.19022034 -0.7763643 -0.049952656 -0.5572862
-0.623566 -0.5318386 -0.6968436 -0.39450076 -0.75102264 -0.42548132 -0.6827013 0.2844937
-0.5845604 -0.39094576 -0.7083942 -0.8314498 -0.6775008 -0.37349945 -0.6407715 0.18230279
-0.41804737 -0.74662685 -0.6820347 -0.18164322 -0.41565162 -0.09628841 -0.673579 -0.61668956
0.12494833 -0.6151921 -0.57616603 -0.918123 -0.45422816 0.38251185 -0.11842049 -0.08438674
-0.8289871 -0.43040466 -1.0040361 -0.66374147 -0.8957692 -0.7258633 -0.63009274 -0.54230905
-0.61893696 -0.65373975 -0.8218285 -0.66283476 -0.9596878 0.3808056 -0.79591334 -0.48039266
-0.03209512 -0.5519245 -0.57318515 -0.6675208 -0.76535755 -0.8550174 -0.37320742 -0.21912281
-0.46827075 -0.67446166 -0.55766 -0.8115091 -0.33164796 -0.47903398 -0.47723067 -0.58216697
-0.5118648 -0.6777231 -0.26065347 -0.3894203 -1.0989232 -0.0293242 -0.13996926 -0.093663946
-0.58837664 -0.829615 -0.07436683 -0.86495054 0.27286768 -0.4912752 -0.43328586 -0.11385694
-0.37226897 0.0011085884 0.21043725 0.26760122 -0.37714994 -0.07322721 -0.0077790827 0.30830112
-0.92939126 -0.81065613 -0.96715575 -0.2831089 -0.29123047 -0.84554607 -1.0119922 0.07456889
-0.041509498 0.025274739 0.15054736 0.44809482 -0.7222689 -0.9618787 -0.6947625 -0.34807864

lstm.bias_hh_l0 f4 [512]
00000000: 4214 69be b907 2abe 4305 43bf c376 58bf
00000010: d693 25bf 7a81 56bf 4831 2bbf d606 17bf
00000020: 61a4 76bf 8cc5 54bf a54d 69bf 52c1 e9be
00000030: f79e 1cbf bb4f 1ebf 15e6 e7be 3c2b c9bf
00000040: e87e 18bf c805 8cbf 5e69 adbf c2f4 a5bf
00000050: 41b1 2bbf a394 7dbf 087c e1be 8f7c e9be
00000060: b7dc 88bf e50c 68bf 10c9 6dbf d6a0 1cbf
00000070: 72ab 67bf 3147 2abf 5bea 74bf c994 2fbe
00000080: 96c4 90bf 13af c1be 459b 61bf fd1d 52bf
00000090: 38e6 08bf 16c7 35bf d546 4bbf dece 78bf
000000a0: 78e6 28bf 5429 1bbf 88a7 73bf 27e7 20bf
000000b0: 4acd 39bf e5f2 4dbf bc14 4fbf 67eb 55bf
000000c0: 2f89 49bf 8856 c8be 3418 02bf 6b07 a1bf
000000d0: a3df 97bf c609 eb3d f7c4 26be cb45 06bf
000000e0: ddb2 86bf 82dd 7fbf c1c8 c3be 700c e5be
000000f0: e653 dcbf 4cd3 64bf 11f9 18bf d72c 29bf
00000100: 203f fabe 863e 6abe 3bac 29bf 2582 1fbf
00000110: 8c17 41bf 3a11 1dbf 4c3b 15bf 6fa9 3ebf
00000120: 9d95 f0be 1595 d0be abbc ebbe 933c 25bf
00000130: b049 1abf ea15 1cbf 1acd 90be b5e3 6bbf
00000140: 475f 3bbf 2cad 72bf 447f 1cbf 5f60 88bf
00000150: b0ad 19bf c6b4 91bf 2ffe 843d 4a18 a3be
00000160: 006e 44bf 27c8 1abf f569 90bf 279f 2fbf
00000170: 08a3 9ebf b49d 1dbf 9c1c 1fbf e5e5 47bf
00000180: 4013 40bf 97db 49bf a646 74bf 737d 98bf
00000190: c158 14bf 340f 49bf 69a8 55bf e752 67bf
000001a0: db23 1fbf f7a6 aabe 8745 eabe 96b3 253e
000001b0: 328d d1be 30da 6ebf d5e8 d4be d2ee 29bf
000001c0: 8cac 75bf 3882 1bbf 563f 84bf b3f5 84be
000001d0: 817e 44bf 9110 2fbf a600 9fbf 446c 01bf
000001e0: d019 70be d066 6dbe 45a2 9c3a e36f b13c
000001f0: bfa5 a2bf 8998 56bf 53a0 3bbf 3f15 dbbe
00000200: 41ad 3840 f7c9 3640 5bce 3e40 c12b 3240
00000210: 67c7 2340 ee2d 3e40 230a 3a40 f7a5 2840
00000220: 92d0 3b40 174a 0d40 d929 0b40 c87e 0640
00000230: 0b8c 2640 6c3b 3740 e692 2d40 d3d5 f63f
00000240: 9425 1740 e175 5040 711c 1440 56ec 0d40
00000250: 2577 3340 a995 0d40 7b17 3840 59ab 1840
00000260: 7f5b 1a40 8edc 1940 c30a 1340 141e 2540
00000270: b724 1240 bb09 2140 556b 0f40 3393 4c40
00000280: 8575 1f40 e4f9 2540 0b71 0f40 a128 0a40
00000290: 3dd7 0f40 9b0c 2340 52e0 1340 9c94 4640
000002a0: 131f 2340 3f10 1040 ae38 1940 acaf 2f40
000002b0: 9f20 2440 cf38 3840 4a0e 1140 f40a 1740
000002c0: 278f 4b40 8275 1840 5506 1f40 03db 0140
000002d0: 42fd 2140 6628 5640 4dec 3c40 ddd0 3d40
000002e0: 93f0 0540 7b15 2040 1542 ff3f 7e0b 1940
000002f0: bd9b 0940 1fca 0e40 1277 1540 1562 1b40
00000300: fc8c 1540 07c8 1b40 fd6b 0b40 b276 1140
00000310: 2cc1 0040 30f1 5640 1bf5 0b40 a879 2540
00000320: 11ae 4140 e4a0 1740 72b2 1940 3279 1540
00000330: ea70 0a40 43bb 0740 c4c0 2740 44b4 2f40
00000340: c373 2340 8539 1040 134b 1b40 59b8 0840
00000350: c6c0 2840 5c15 1f40 bd4b 1e40 c7f4 1a40
00000360: e0e2 1e40 72f4 1240 11e1 2c40 c8a1 2340
00000370: 3286 f33f e3fe 3840 327e 3740 4b72 3640
00000380: d86e 1f40 c6e3 0840 5e8e 3840 ac66 0540
00000390: ad82 5040 9418 2240 ea63 2640 bf37 3640
000003a0: c978 2c40 1cad 3b40 4ce5 4a40 e619 4d40
000003b0: 84fd 2440 0c53 3940 1de8 3e40 0c0b 5540
000003c0: e43a 0940 3565 0a40 708f f93f a04d 2a40
000003d0: b493 2940 bf2f 0f40 68b9 fa3f dd72 4240
000003e0: 3bdb 4140 043f 3e40 db9c 4a40 eb09 5740
000003f0: 7f01 1040 9011 0240 a49d 1340 3b2a 2940
-0.22761634 -0.16604508 -0.76179904 -0.84556216 -0.64678705 -0.83791316 -0.6687207 -0.58994806
-0.9634457 -0.8311393 -0.911341 -0.45655304 -0.6118006 -0.6184041 -0.45292726 -1.5716319
-0.59568644 -1.0939264 -1.354778 -1.2965319 -0.67067343 -0.99054927 -0.4403994 -0.45602843
-1.0692357 -0.90644675 -0.9288492 -0.61182916 -0.9049598 -0.6651488 -0.956701 -0.17146601
-1.1309993 -0.37828884 -0.8812755 -0.8207701 -0.53476286 -0.71006906 -0.79404956 -0.97190654
-0.6597667 -0.60609937 -0.9517751 -0.6285271 -0.7257887 -0.8044875 -0.80891013 -0.8356232
-0.7872495 -0.39128518 -0.5081818 -1.2580389 -1.1865124 0.114764735 -0.16286074 -0.52450246
-1.0523335 -0.9994737 -0.382391 -0.44736052 -1.7213104 -0.89384913 -0.59755045 -0.66084045
-0.48876286 -0.22875413 -0.6627843 -0.6230796 -0.75426555 -0.6135441 -0.58293605 -0.74477285
-0.46989146 -0.4073874 -0.4604238 -0.64545554 -0.6026869 -0.6097094 -0.2828148 -0.9214433
-0.73192257 -0.9479549 -0.6113169 -1.065441 -0.6003065 -1.1383293 0.06493794 -0.3185447
-0.76730347 -0.6046166 -1.1282336 -0.6860222 -1.2393503 -0.6156876 -0.6215303 -0.78085166
-0.75029373 -0.7885069 -0.954203 -1.1913284 -0.5794793 -0.78538823 -0.834601 -0.90360874
-0.62164086 -0.3333051 -0.4575617 0.16181788 -0.40928036 -0.9330168 -0.41583887 -0.66380036
-0.9596641 -0.60745573 -1.0331829 -0.25968704 -0.7675553 -0.68384653 -1.2422073 -0.50555825
-0.23447347 -0.23183751 0.0011950216 0.021659797 -1.2706832 -0.838265 -0.7329151 -0.42789647
2.8855746 2.856077 2.981345 2.7839205 2.5590456 2.9715533 2.9068687 2.6351297
2.9346051 2.207647 2.1744292 2.101488 2.6022975 2.8630018 2.712091 1.9284004
2.3616686 3.2571948 2.314236 2.2175498 2.804147 2.2122595 2.8764331 2.3854582
2.4118345 2.4040866 2.2975318 2.5799608 2.283491 2.516219 2.240926 3.1964843
2.4915478 2.593377 2.2412746 2.1587298 2.247512 2.5476444 2.3105664 3.1028204
2.5487716 2.2509916 2.3940845 2.7450972 2.564491 2.8784673 2.2664971 2.3600435
3.1806123 2.382172 2.4847615 2.0289924 2.5310826 3.3462157 2.9519227 2.965873
2.0928085 2.501311 1.9942042 2.3913264 2.1501305 2.2310865 2.3353925 2.4278615
2.33673 2.4340837 2.178466 2.2728696 2.0117903 3.358471 2.186835 2.5855503
3.0262492 2.369195 2.4015164 2.3355222 2.1631417 2.1208045 2.6211405 2.7453775
2.5539405 2.2535107 2.4264572 2.1362517 2.636766 2.4856787 2.4733727 2.42119
2.4825974 2.2961698 2.701237 2.5567493 1.9025328 2.890557 2.8670774 2.850726
2.4911404 2.1389022 2.8836894 2.0843916 3.2579758 2.5327501 2.5998483 2.8471525
2.6948721 2.9324408 3.1702452 3.2047057 2.5779734 2.8956938 2.982917 3.3287992
2.1442194 2.1624272 1.9496899 2.6609879 2.64964 2.2372892 1.9587831 3.0382607
3.0290058 2.9725962 3.1658237 3.3599803 2.2500913 2.032322 2.3064966 2.6432025

head.net.0.weight f4 [1, 128]
00000000: dac5 47bb 1157 573a 074c 74bc 4e24 8b3a
00000010: 5018 0239 afda 59b9 a99e 8eba 0a78 cabd
00000020: 13d8 66bb 69b6 2440 ce26 d43b d6ad 64bb
00000030: 5664 1fbd 852b 88bb a2bf 3bbc 5651 c23f
00000040: a0c5 533d 57e3 c3ba db40 a239 3372 563f
00000050: d3e3 e8ba 5e97 89bc 3ec9 d1bb 2e54 4ebc
00000060: ffbe 83be 67a7 ccbc e232 0bbd 14c1 43bd
00000070: 6a89 dabb a669 f03c 1a92 363c 5c7b 41ba
00000080: 5b88 dabb 2e09 0cbd 6323 fabc 8b46 13be
00000090: c009 a2be 95fe 96bc 2d03 97bb d1be a239
000000a0: 4908 9dbb c2ad b4bc de3b 9cbc c8f4 0cbd
000000b0: 0ad2 1bbd db1d 253a d900 03bf a5f9 81bd
000000c0: 520b e8bb d464 f4bc 12a7 513d 0342 1dc0
000000d0: 63a9 8f3b 8647 dcb9 efa5 4c3c bd0f 5ebc
000000e0: aaf0 6740 3712 72bc 3ad4 fe3d 465a 81bd
000000f0: 7d0e aebe 929e 9c3c 411d ef3c e412 94be
00000100: 2255 30bc 6973 5e3d 339d e13c 1310 07be
00000110: 42d6 23be 72c5 c83a f4c4 323d 3908 103b
00000120: 592e 863b 1e43 8dbb f0e1 343d 9aa8 6dbb
00000130: 02d7 1d3d da9b 20bd b773 493d d65b b93c
00000140: d0f8 68bc fdd0 a6bd 7602 053c 17b7 1dbc
00000150: 5423 523b f13d 32bb fc29 21bb f38d 5c3c
00000160: e69a a3bc 4524 8a3c 1dcd 5e3c 4a76 30b9
00000170: 415f 8fbf a563 d4ba 045d 1ebc a806 f4bb
00000180: 318b 1f3b f138 4d3a 4bb1 063c 103a 5d3d
00000190: d0b1 7c3b 1a8e 1a3d 25ec e6bc 6201 68bb
000001a0: 33f5 8dbc 61f5 f339 1914 41ba ae99 f0bb
000001b0: 7922 f4bb 974e 383c f093 4239 5de2 c53b
000001c0: 85b1 02bf 74e3 29be 6606 b03e a4be 493c
000001d0: 5fe4 dc3c 364f 0d3e ddfb a640 8102 20bb
000001e0: 7d21 80bc b044 94ba 54b6 81ba 08e9 96bb
000001f0: 8b0f 3d3c 9adb 00be 04aa e93c 6831 83bc
-0.003048292 0.0008214573 -0.014910704 0.0010615678 0.00012406823 -0.00020776199 -0.0010881025 -0.09886177
-0.0035224005 2.5736334 0.0064743524 -0.0034893653 -0.038914047 -0.0041555786 -0.011459263 1.5181072
0.05170214 -0.0014945072 0.0003094737 0.83768004 -0.0017768092 -0.01679581 -0.0064021638 -0.012593312
-0.25731656 -0.024982167 -0.033984073 -0.047791556 -0.006669213 0.029347252 0.011143232 -0.00073807477
-0.006669087 -0.034188442 -0.030534452 -0.14382379 -0.31648064 -0.018431941 -0.004608533 0.00031041217
-0.0047922474 -0.02205551 -0.019071516 -0.03441313 -0.038042106 0.00062986993 -0.5117317 -0.06346444
-0.0070814276 -0.029833235 0.05118472 -2.457154 0.004384206 -0.0004201496 0.0124907335 -0.013553557
3.624064 -0.014774851 0.12442823 -0.063160464 -0.3399543 0.019118581 0.029188754 -0.28920662
-0.010762485 0.054309282 0.027540779 -0.13189726 -0.15999702 0.0015317632 0.04364486 0.0021977557
0.0040948805 -0.0043109795 0.044160783 -0.0036263824 0.038535126 -0.03921113 0.04918262 0.022626799
-0.014219478 -0.0814533 0.0081182625 -0.009626172 0.0032064514 -0.0027197564 -0.0024591675 0.013461578
-0.019971322 0.016862998 0.0135987075 -0.00016828734 -1.1200944 -0.0016204013 -0.009665731 -0.0074470825
0.002434444 0.00078286143 0.008220981 0.05401045 0.0038558133 0.037733175 -0.028188774 -0.0035401215
-0.017328834 0.00046531393 -0.00073653605 -0.007342539 -0.0074503985 0.011249206 0.00018556393 0.0060389475
-0.51052123 -0.16590673 0.34379882 0.012313519 0.026964365 0.13799748 5.218245 -0.0024415555
-0.015640968 -0.0011311974 -0.0009896257 -0.004605416 0.01153935 -0.12583771 0.028523453 -0.01601477
