examples/catchment_models/training/runs/globe_time_split_2404_124848/model_epoch024.pt (torch, 316229 bytes, 5 tensors)

lstm.weight_ih_l0 f4 [512, 23]
0	0x3e08e660	0.13369131
1	0x3cb3d7f3	0.021953559
2	0x3e1bfd3d	0.15233321
3	0xbe8fed16	-0.2811057
4	0x3dca0fa7	0.09866267
5	0x3e10b6d3	0.14132242
6	0xbdf8ee58	-0.121548355
7	0x3e0990e1	0.13434173
8	0xbe537ed8	-0.20653856
9	0xbdc27261	-0.09494472
10	0x3e8d1d39	0.27561358
11	0xbeaec9ce	-0.3413834
12	0xbf22e2e5	-0.63627464
13	0xbe387aa9	-0.18015541
14	0xbee237f0	-0.44183302
15	0xbebfbe30	-0.3744979
16	0xbecd8cb1	-0.40146402
17	0xbe4da849	-0.20083727
18	0x3dc5e18a	0.09662159
19	0xbe00fabd	-0.12595649
20	0x3e062994	0.13101798
21	0xbf4ab8c4	-0.7918818
22	0x3e19d488	0.1502248
23	0x3d744770	0.05963844
24	0x3dcce05b	0.1000373
25	0xbee5d767	-0.448909
26	0xbf263d97	-0.6493773
27	0xbd95657f	-0.072947495
28	0x3f91d6aa	1.1393635
29	0x3f016059	0.5053764
30	0xbf574fff	-0.8410644
31	0x3f3c5e45	0.73581344
32	0x3f181739	0.59410435
33	0xbec0e2f0	-0.3767314
34	0xbe1056bc	-0.14095587
35	0x3f28d48a	0.6594931
36	0xbf1d7ac7	-0.6151547
37	0xbe71eeea	-0.23626295
38	0x3f095aa7	0.5365395
39	0xbdf52b38	-0.11971134
40	0x3e313100	0.17303848
41	0x3f9e6b25	1.2376448
42	0xbf0ff4c4	-0.5623286
43	0x3f1291c8	0.57253695
44	0x3f133d52	0.5751544
45	0x3e978ede	0.29601187
46	0x3ea65e7b	0.32493958
47	0x3e9fefa8	0.3123753
48	0x3f1a4222	0.6025716
49	0x3f4a1fc8	0.78954744
50	0xbd8ca71e	-0.068678126
51	0x3ea85abb	0.32881722
52	0xbf078793	-0.52941245
53	0x3d36fe2b	0.044675987
54	0xbf1e8d1e	-0.6193408
55	0xbec1453c	-0.37748134
56	0xbd6bbbd6	-0.05755218
57	0x3e75092a	0.23929277
58	0xbe8a6f3b	-0.27037987
59	0x3ee9b52c	0.45646036
60	0xbda8fc1d	-0.08251212
61	0xbdc38bc2	-0.09548141
62	0xbe4f993c	-0.20273298
63	0xbe52426e	-0.20533153
64	0x3f82ae06	1.0209358
65	0xbf64dfc9	-0.8940397
66	0xbe2bc696	-0.16774973
67	0xbec72fc2	-0.38903624
68	0xbf107585	-0.5642932
69	0x3e31588a	0.17318931
70	0x3e3e535b	0.18586485
71	0x3ed82a46	0.42219752
72	0xbd685d38	-0.056729525
73	0x3f2697b1	0.6507521
74	0x3ed09ecf	0.4074616
75	0x3f024b87	0.50896496
76	0x3d5b86c8	0.053595334
77	0x3ea96478	0.33084464
78	0x3d8c6d9d	0.068568446
79	0x3dea6b80	0.11446285
80	0x3dce4e45	0.100735225
81	0xbe1aaf01	-0.15105821
82	0x3eafbfda	0.3432606
83	0x3f35e02a	0.7104517
84	0x3fa06298	1.2530088
85	0x3e859638	0.2609117
86	0x3e85546c	0.2604097
87	0x3eea8c60	0.45810223
88	0xbdba8f84	-0.09109405
89	0x3d9debf5	0.07711021
90	0x3eae2a17	0.34016487
91	0x3e6aed37	0.22942053
92	0xbe1fe55b	-0.15614836
93	0x3f6f702c	0.93530536
94	0x3f0065a7	0.5015511
95	0xbd6b9c45	-0.057522077
96	0xbcdaf199	-0.02672653
97	0x3f0337a9	0.51256806
98	0x3f36b772	0.71373665
99	0x3dbe9cde	0.09307264
100	0x3f0f2f2c	0.55931354
101	0xbe7ef60b	-0.24898545
102	0xbe00ca34	-0.12577134
103	0xbe77b701	-0.24190904
104	0x3e45d5e9	0.19319881
105	0x3dee9015	0.11648575
106	0x3ec4e0eb	0.3845285
107	0x3f356039	0.7084995
108	0x3eae3310	0.34023333
109	0x3e00f509	0.12593473
110	0x3c9bad7a	0.019003619
111	0xbd90e500	-0.07074928
112	0x3e930b99	0.28719786
113	0x3ea6aa36	0.32551736
114	0x3e645fab	0.2230212
115	0x3f18ead4	0.5973332
116	0x3e314232	0.17310408
117	0x3d85f744	0.06541303
118	0x3f68bec3	0.9091608
119	0x3eec7c97	0.46188805
120	0x3e92c4c4	0.28665745
121	0xbf13b16d	-0.57692605
122	0x3ef705d0	0.48246622
123	0xbe3ffbc4	-0.18748385
124	0x3e0e7a51	0.13913848
125	0x3e8fda22	0.2809611
126	0x3ee96f17	0.45592567
127	0x3e09a4da	0.13441792
128	0x3f114b84	0.5675585
129	0xbe366d70	-0.17815185
130	0xbe12aa5e	-0.14322802
131	0x3dc4cf07	0.096098
132	0x3ed05e40	0.40696907
133	0xbe853973	-0.26020393
134	0xbe206333	-0.15662841
135	0xbd5948da	-0.053047992
136	0x3d56d06a	0.052444853
137	0xbe5700ec	-0.20996445
138	0x3f4c2ad3	0.79752845
139	0xbdccf7b3	-0.100081824
140	0x3dc097e5	0.094039716
141	0x3dabffff	0.08398437
142	0x3e38fe3c	0.18065733
143	0x3f0b0c66	0.54315794
144	0x3e9a035d	0.3008069
145	0xbd5e2907	-0.054238345
146	0x3cc9098b	0.024540683
147	0xbdb1590f	-0.08659565
148	0x3f1c0b12	0.6095439
149	0xbc81131c	-0.015756182
150	0xbe8a9254	-0.27064764
151	0x3f018cce	0.50605476
152	0x3ec1c9b7	0.3784921
153	0x3ec99885	0.39374176
154	0xbf39badc	-0.7255075
155	0x3ef82833	0.4846817
156	0x3eeabaef	0.45845744
157	0xbec5a114	-0.38599455
158	0x3e9d47da	0.3071888
159	0x3f095979	0.5365215
160	0x3e8c63d0	0.274199
161	0x3bda01ff	0.00665307
162	0x3dfc4f09	0.12319762
163	0x3e06e806	0.13174447
164	0xbec671a2	-0.3875857
165	0x3ee8b18a	0.45447952
166	0x3f189370	0.5959997
167	0x3f73a841	0.9517861
168	0xbe984149	-0.2973731
169	0x3f95a8e3	1.1692165
170	0xbd7bf13b	-0.061509352
171	0xbedb2d74	-0.42808115
172	0x3d7788d8	0.06043324
173	0x3f0c0d7a	0.54708064
174	0xbed81186	-0.4220087
175	0x3c9cdff5	0.01914976
176	0x3f6138ba	0.8797718
177	0x3f1eaf1f	0.61985964
178	0x3f23a2c1	0.6392022
179	0xbe2eadbc	-0.17058462
180	0x3e28ae56	0.16472754
181	0x3f279543	0.6546213
182	0x3f1cc50c	0.6123817
183	0x3df328d0	0.11873019
184	0xbcdbb764	-0.026820846
185	0x3f08a4e3	0.533766
186	0x3ea5ebd7	0.32406494
187	0x3d9df10d	0.077119924
188	0xbe14a598	-0.14516294
189	0x3f3f57f7	0.747436
190	0x3f93c41f	1.1544226
191	0xbefd4afe	-0.49471277
192	0x3fbc62e7	1.4717683
193	0x3f034507	0.512772
194	0xbdda931d	-0.10672591
195	0x3d681c77	0.05666777
196	0x3e06c277	0.1316012
197	0xbf36c42f	-0.713931
198	0x3d4dbe46	0.050230287
199	0x3f7395c8	0.95150423
200	0x3ddca280	0.10773182
201	0x3e2979dd	0.16550393
202	0xbec53184	-0.3851434
203	0x3f36b7b1	0.7137404
204	0x3f8e7029	1.1127979
205	0x3f34e28e	0.70658195
206	0x3f491ff2	0.7856437
207	0xbea9394c	-0.33051527
208	0x3e6adaeb	0.22935073
209	0x3e001e09	0.12511458
210	0xbeaeb406	-0.34121722
211	0x3dbbdf70	0.09173477
212	0x3f44d080	0.76880646
213	0x3f55b94f	0.83485883
214	0xbecd0a1c	-0.40046775
215	0x3f7fbc0a	0.998963
216	0x3e2f2ff8	0.17108142
217	0xbf0a6631	-0.5406218
218	0x3d985475	0.07437984
219	0x3ec255da	0.37956125
220	0xbee2da28	-0.44307065
221	0xbe53cd6b	-0.2068383
222	0x3f0c3ab4	0.54777074
223	0x3e2a982c	0.16659611
224	0x3ec3eefd	0.3826827
225	0xbe5a04b7	-0.21290861
226	0x3e444cba	0.19169894
227	0x3f5f6c7b	0.87274903
228	0x3f15b86f	0.5848455
229	0x3e99731b	0.2997063
230	0xbf0103dd	-0.5039652
231	0x3f8e99ca	1.1140683
232	0xbef9d893	-0.48798046
233	0xbe9a9e4c	-0.30198896
234	0x3cde73c6	0.027154814
235	0x3dc055bc	0.093913525
236	0x3f753e65	0.9579833
237	0x3f41441e	0.75494564
238	0x3f021e50	0.50827503
239	0x3e2d07fd	0.16897579
240	0xbef2b96e	-0.47407097
241	0x3ed6a378	0.41921592
242	0xbd2c4d2b	-0.04206578
243	0xbeaacd81	-0.33359912
244	0x3eada11a	0.33911973
245	0x3f7d9f6f	0.990714
246	0x3e7d2337	0.24720465
247	0x3e47805b	0.19482557
248	0xbe397687	-0.18111621
249	0xbea91db8	-0.33030486
250	0x3e9dc2f3	0.30812797
251	0x3ebe1672	0.371265
252	0xbe082555	-0.13295491
253	0x3dc18224	0.094486505
254	0x3e6ca511	0.23109843
255	0x3f93fbda	1.1561234

lstm.weight_hh_l0 f4 [512, 128]
0	0x3dfda3a1	0.12384725
1	0x3e50c484	0.20387465
2	0x3eb850e2	0.3599921
3	0xbe02dac0	-0.12778759
4	0x3e5ccaf8	0.21561801
5	0xbe8cd4d8	-0.27506137
6	0x3f4b2271	0.7934943
7	0x3dee928d	0.11649046
8	0x3ef30787	0.4746668
9	0x3d1ae84f	0.037819203
10	0xbedced65	-0.43149868
11	0xbe6da1c3	-0.23206238
12	0xbeac8f59	-0.33703116
13	0x3d389ff8	0.045074433
14	0xbe2e976c	-0.1704995
15	0xbdd7ac17	-0.105308704
16	0x3e5fbaff	0.21848677
17	0x3e40cbbd	0.1882772
18	0xbd4f5834	-0.050621226
19	0xbdbe80f5	-0.0930194
20	0xbee5ffbb	-0.4492167
21	0xbedd30f0	-0.432014
22	0x3eb7230e	0.35768932
23	0x3dae96da	0.085248664
24	0x3e36cd95	0.17851861
25	0xbea3bc34	-0.31979525
26	0xbd597001	-0.05308533
27	0x3e1e1b66	0.15440139
28	0x3e270004	0.163086
29	0xbe8778d5	-0.26459375
30	0xbe2e5b4e	-0.17027017
31	0xbe49a424	-0.19691521
32	0x3ed43c70	0.4145236
33	0x3c7f6680	0.015588403
34	0xbc200626	-0.009767091
35	0xbc1703e4	-0.009217236
36	0xbd690552	-0.05688984
37	0xbdccf786	-0.10008149
38	0xbf2d5c6a	-0.6771914
39	0x3e23381b	0.15939371
40	0x3f156300	0.58354187
41	0xbe2b3726	-0.16720256
42	0xbd1e7936	-0.038689815
43	0xbec9f20e	-0.39442486
44	0xbe2e05b0	-0.16994357
45	0x3e085a14	0.13315612
46	0xbd560742	-0.052253015
47	0x3d1ad0a4	0.03779663
48	0x3dffa5ee	0.124828205
49	0xbe6e1686	-0.2325078
50	0xbeac1cbe	-0.3361568
51	0xbe1f5180	-0.15558434
52	0xbea2fdfb	-0.31834397
53	0x3c91e991	0.017811568
54	0xbd7a6b40	-0.061137438
55	0xbe525443	-0.20539956
56	0x3dfd4b5d	0.1236789
57	0x3ec18c98	0.37802577
58	0xbbc7f67a	-0.0061023803
59	0x3e22187b	0.15829651
60	0xbdb68915	-0.08912865
61	0xbed2385a	-0.41058618
62	0xbe15e49b	-0.14637987
63	0x3e17eced	0.14836474
64	0xbdea3ba2	-0.11437155
65	0x3e7062f5	0.23475249
66	0xbdcd6ff1	-0.10031117
67	0xbd8bd523	-0.06827762
68	0x3ebf2ccf	0.37338874
69	0x3ec1c87c	0.3784827
70	0xbd342967	-0.043984797
71	0xbeab46e0	-0.3345251
72	0xbd92e100	-0.071718216
73	0x3ed2b69e	0.4115495
74	0x3d504482	0.050846584
75	0x3e3b75a5	0.18306597
76	0x3d32782d	0.04357164
77	0x3e531bcd	0.20616074
78	0x3d986311	0.074407704
79	0x3cd6c1ba	0.026215423
80	0x3dc5c41d	0.09656546
81	0xbcc1c787	-0.023654712
82	0xbe02090a	-0.1269876
83	0x3e8ef726	0.27922934
84	0xbf1e3964	-0.6180632
85	0x3e35b571	0.17744996
86	0x3d81035b	0.06299468
87	0x3d1b415c	0.03790413
88	0x3f0acb4b	0.5421645
89	0xbde739d6	-0.11290328
90	0xbf10e4eb	-0.565993
91	0x3e51d152	0.20490006
92	0x3df07e4d	0.1174284
93	0xbce9849c	-0.028505616
94	0xbf0c939a	-0.5491272
95	0xbe76a493	-0.24086218
96	0xbef62bee	-0.4808039
97	0x3df3f295	0.11911503
98	0xbe16cd8e	-0.1472685
99	0xbd8f2939	-0.069902845
100	0xbe34a524	-0.17641121
101	0x3e9e65e3	0.30937108
102	0xbd099f6b	-0.0335993
103	0x3f1d77ec	0.6151111
104	0x3e972cb6	0.295263
105	0xbe2817a6	-0.16415271
106	0x3dacc676	0.08436291
107	0x3ec44545	0.38334098
108	0xbdf04bd8	-0.11733216
109	0xbca66263	-0.020310586
110	0x3e9a50ef	0.30139872
111	0xbda50673	-0.08057871
112	0xbcaa295b	-0.020771673
113	0x3e5e3466	0.21699676
114	0xbe7697c5	-0.24081333
115	0xbe19bf2b	-0.15014331
116	0xbe086c65	-0.13322599
117	0xbdc413fe	-0.09574126
118	0x3e91a70e	0.28447765
119	0x3dd293db	0.102821074
120	0x3e9752b0	0.29555273
121	0xbe955dfa	-0.2917326
122	0x3e9de52f	0.30838916
123	0xbdaf56c7	-0.08561473
124	0x3e17090f	0.1474955
125	0x3dec067a	0.11524673
126	0xbe433848	-0.19064438
127	0xbd769622	-0.06020177
128	0xbea36181	-0.31910327
129	0x3fe0e86e	1.7570932
130	0xbf7ee97e	-0.9957503
131	0x3d2530d6	0.040329777
132	0x3e099c59	0.13438548
133	0x3d1b4281	0.03790522
134	0x3e92efd5	0.28698602
135	0xbec82e2c	-0.39097726
136	0x3cdd82d9	0.027039932
137	0xbc016437	-0.007897428
138	0xbebc2414	-0.36746275
139	0xbf6b9c48	-0.9203534
140	0xbe1f9529	-0.15584244
141	0x3e249e15	0.16075929
142	0x3e2a85f4	0.16652662
143	0xbd96c7c7	-0.07362323
144	0x3e766753	0.24062853
145	0x3e85975a	0.26092035
146	0xbe6e158a	-0.23250404
147	0xbd8b0822	-0.067886606
148	0x3ea84388	0.32864022
149	0xbde59904	-0.11210826
150	0xbdf63b4e	-0.1202303
151	0xbb5cea81	-0.003370911
152	0xbbe52bc7	-0.006993744
153	0xbea8d16e	-0.32972282
154	0x3ccf17e1	0.025279941
155	0xbeb4b620	-0.352952
156	0x3ec76c92	0.3895002
157	0xbea244c4	-0.3169309
158	0x3ac95812	0.001536133
159	0x3e51ffa8	0.20507681
160	0x3ed71f92	0.42016274
161	0xbce362d2	-0.027757082
162	0x3de18e52	0.110134736
163	0x3d882bb0	0.06648958
164	0xbb440972	-0.0029912856
165	0xbe785d6c	-0.24254388
166	0x3cbf934c	0.023385666
167	0xbfb8aa3c	-1.4426951
168	0x3eda43a6	0.42629737
169	0xbe449f6d	-0.19201441
170	0x3ea9beaf	0.33153293
171	0xbe897ffa	-0.2685545
172	0x3e8933f1	0.2679744
173	0xbe6c8c71	-0.23100449
174	0xbe0a785b	-0.13522474
175	0xbd196d92	-0.03745801
176	0xbee6d376	-0.45083207
177	0x3ea8cf90	0.32970858
178	0x3bafa64a	0.0053603994
179	0x3e0bf4d3	0.13667612
180	0xbe8fc12c	-0.28077066
181	0xbea3def4	-0.32006037
182	0x3ec9391b	0.3930138
183	0xbf0096e1	-0.5023022
184	0xbac92efd	-0.0015349087
185	0x3f4bf2a5	0.7966712
186	0xbe3ea6d6	-0.1861833
187	0xbf054fce	-0.520749
188	0xbd9edae8	-0.07756597
189	0xbea04c6b	-0.31308302
190	0xbec871f6	-0.39149445
191	0xbd7d319c	-0.06181489
192	0xbf14fe78	-0.5820079
193	0xbcdb06fd	-0.02673673
194	0xbeefd61e	-0.46843046
195	0xbde5c7a8	-0.11219722
196	0xbcfc77db	-0.03081887
197	0x3ebe5886	0.37176913
198	0xbe20e38d	-0.15711804
199	0x3e14032f	0.1445434
200	0x3e11b420	0.14228868
201	0x3ec42811	0.38311818
202	0xbe4a6eea	-0.19768873
203	0x3e605d9e	0.21910712
204	0xbe50ca40	-0.20389652
205	0x3dca7039	0.09884686
206	0x3e42f5af	0.19039033
207	0x3f130762	0.5743314
208	0x3d9edfdc	0.077575415
209	0x3df8b69c	0.12144205
210	0xbe5c4d03	-0.21513753
211	0x3ef08fd4	0.46984732
212	0xbf13f99a	-0.57802737
213	0x3e88e789	0.26739147
214	0x3d8b107b	0.06790253
215	0x3e11e5e1	0.14247848
216	0xbdcc9690	-0.09989655
217	0x3dfa63c2	0.122260585
218	0x3e4c9cc9	0.19981684
219	0xbb664da6	-0.0035141497
220	0xbccd4780	-0.025058508
221	0xbf853a22	-1.0408366
222	0xbca6a50c	-0.020342372
223	0x3ee910df	0.45520684
224	0x3f133c89	0.57514244
225	0xbe610d13	-0.21977644
226	0xbe7a4b28	-0.24442732
227	0xbde6c9a8	-0.112689316
228	0x3edcfd9e	0.43162245
229	0x3f001545	0.50032455
230	0xbe4fc21d	-0.20288892
231	0x3f0a9ba8	0.5414376
232	0xbf5eebd9	-0.87078625
233	0xbeeed92f	-0.46650073
234	0x3d27df48	0.040984422
235	0x3ee37b1c	0.44429862
236	0x3ddbb237	0.10727351
237	0x3ebc1ea4	0.36742127
238	0x3ea22f42	0.3167668
239	0x3f9a0615	1.2033106
240	0x3d911f1d	0.070860125
241	0x3e35c331	0.17750241
242	0xbd5baebe	-0.053633444
243	0xbd9f0a3f	-0.07765626
244	0x3e4a9e73	0.19787006
245	0xbdf2e9bf	-0.1186099
246	0xbd2c0e27	-0.042005684
247	0xbf1d9819	-0.6156021
248	0x3dfd2267	0.12360077
249	0x3eb739c6	0.35786265
250	0x3e3491b5	0.17633708
251	0xbe61e0eb	-0.22058456
252	0x3f114b87	0.5675587
253	0x3dfacae0	0.122457266
254	0x3d21a4a9	0.039463673
255	0x3f0276a9	0.5096231

lstm.bias_ih_l0 f4 [512]
0	0xbe5866f5	-0.21133025
1	0xbe06e3c2	-0.1317282
2	0xbf347f93	-0.7050716
3	0xbf4146c2	-0.7549859
4	0xbf02f2cb	-0.5115172
5	0xbf4f02a1	-0.80863386
6	0xbf14d4ce	-0.58137214
7	0xbf336951	-0.70082575
8	0xbf75dfb6	-0.9604448
9	0xbf3cc4b2	-0.73737633
10	0xbf505478	-0.8137889
11	0xbeda80b2	-0.42676312
12	0xbf07f2dd	-0.53104955
13	0xbf2ea0ef	-0.68214315
14	0xbed3ee90	-0.41392946
15	0xbfc53390	-1.5406361
16	0xbf25162e	-0.6448697
17	0xbf983a39	-1.1892768
18	0xbfaba2b4	-1.3409028
19	0xbf9c1379	-1.2193443
20	0xbf0ca13c	-0.54933524
21	0xbf7fccac	-0.9992168
22	0xbeb74e59	-0.35801962
23	0xbef9319f	-0.4867067
24	0xbf8392ee	-1.0279214
25	0xbf587114	-0.84547544
26	0xbf66fcf2	-0.90229714
27	0xbf1b36cc	-0.6063049
28	0xbf5a390a	-0.85243285
29	0xbf2827ca	-0.65685713
30	0xbf857d20	-1.042881
31	0xbe14e825	-0.14541681
32	0xbfa0893f	-1.2541884
33	0xbec1fc2f	-0.37887713
34	0xbf582e83	-0.8444597
35	0xbf4d7961	-0.80263335
36	0xbf236a33	-0.6383392
37	0xbf3a0331	-0.7266112
38	0xbf31f109	-0.69508415
39	0xbf5aef0d	-0.8552101
40	0xbf3c6811	-0.7359629
41	0xbf20e8cd	-0.62855226
42	0xbf7c354c	-0.98518825
43	0xbf2afedb	-0.6679513
44	0xbf27b5c0	-0.65511703
45	0xbf54af4d	-0.8307999
46	0xbf490202	-0.7851869
47	0xbf6445a5	-0.8916877
48	0xbf570b17	-0.84001297
49	0xbec1e69c	-0.37871253
50	0xbf0433f7	-0.5164179
51	0xbf9eea24	-1.2415204
52	0xbf921409	-1.1412364
53	0x3ddca696	0.10773961
54	0xbda7b775	-0.081892885
55	0xbedf543e	-0.4361896
56	0xbf88cd49	-1.0687648
57	0xbf85adef	-1.0443705
58	0xbef2b00d	-0.4739994
59	0xbf101ade	-0.56290996
60	0xbfc88673	-1.5666031
61	0xbf453c56	-0.7704519
62	0xbefc0c83	-0.49228296
63	0xbf31166d	-0.69174844
64	0xbf132306	-0.57475317
65	0xbe8dfad6	-0.27730435
66	0xbf4090d1	-0.7522097
67	0xbf34f5e0	-0.70687675
68	0xbf33a6df	-0.701765
69	0xbf10abe2	-0.5651227
70	0xbf1ee7f9	-0.6207271
71	0xbf35c553	-0.7100422
72	0xbf12fed9	-0.57420117
73	0xbeb7c98a	-0.3589595
74	0xbeeb0c9a	-0.45908052
75	0xbf27b2e5	-0.65507346
76	0xbf29e29c	-0.66361403
77	0xbf0e9813	-0.55700797
78	0xbed23ae5	-0.41060558
79	0xbf718099	-0.9433685
80	0xbf440835	-0.7657502
81	0xbf56cd80	-0.8390732
82	0xbf0f7a3f	-0.5604591
83	0xbf87df2c	-1.0614982
84	0xbf13ad02	-0.57685864
85	0xbf8cca1d	-1.099918
86	0x3d8d80c7	0.06909328
87	0xbea6caf7	-0.32576725
88	0xbf5ae464	-0.85504746
89	0xbf084707	-0.5323338
90	0xbf89c99c	-1.0764651
91	0xbf230395	-0.6367734
92	0xbf9b42bf	-1.2129744
93	0xbf29ca65	-0.66324455
94	0xbf3678d6	-0.7127813
95	0xbf44a701	-0.7681733
96	0xbf297ffc	-0.66210914
97	0xbf5b086f	-0.85559744
98	0xbf5f6b1d	-0.87272817
99	0xbf98bfe6	-1.1933563
100	0xbef2cebc	-0.4742335
101	0xbf6a1f4b	-0.91454
102	0xbf5df3b8	-0.8670001
103	0xbf75d42a	-0.9602686
104	0xbf261005	-0.64868194
105	0xbeccc378	-0.3999288
106	0xbed94ccb	-0.424414
107	0x3da08052	0.07836975
108	0xbeee5f1f	-0.46556947
109	0xbf540467	-0.8281922
110	0xbedf8df7	-0.43662998
111	0xbf1ef6f6	-0.6209558
112	0xbf819be7	-1.0125703
113	0xbf1e4fdc	-0.61840606
114	0xbf83fb6b	-1.0311102
115	0xbe910786	-0.28326052
116	0xbf51b867	-0.81922
117	0xbf4771ec	-0.77908206
118	0xbf9afef3	-1.2109054
119	0xbef82297	-0.4846389
120	0xbe572d68	-0.21013415
121	0xbe24fb12	-0.161114
122	0xbcddb946	-0.027065884
123	0x3daeacaa	0.08529027
124	0xbfb149b2	-1.3850615
125	0xbf4d1e81	-0.8012467
126	0xbf1233c1	-0.5711022
127	0xbeae487f	-0.34039685
128	0xbdeedaf1	-0.116628535
129	0xbdd550ac	-0.104157776
130	0x3c31db6e	0.010855539
131	0xbe893d1c	-0.26804435
132	0xbeef009a	-0.46680146
133	0xbc480080	-0.01220715
134	0xbe30b995	-0.17258294
135	0xbea5342e	-0.32266372
136	0xbb54142c	-0.0032360656
137	0xbf468a40	-0.775547
138	0xbf69b5fd	-0.9129332
139	0xbf6735f0	-0.9031668
140	0xbebe1440	-0.37124825
141	0xbe36cfb2	-0.17852667
142	0xbea0a966	-0.3137924
143	0xbf82d681	-1.0221711
144	0xbf1df3cf	-0.6170015
145	0x3e306b9c	0.1722855
146	0xbf1a998d	-0.6039055
147	0xbf5b8d39	-0.85762364
148	0xbe522e38	-0.20525444
149	0xbf478a31	-0.7794524
150	0xbd718c90	-0.05897194
151	0xbf095cd1	-0.5365725
152	0xbf219489	-0.6311727
153	0xbf0a2870	-0.5396795
154	0xbf343e57	-0.70407623
155	0xbecee12c	-0.40406168
156	0xbf45e92e	-0.7730893
157	0xbed23eec	-0.4106363
158	0xbf373553	-0.7156574
159	0x3e96a8c2	0.29425627
160	0xbf14d7bc	-0.58141685
161	0xbeceaf3a	-0.40368062
162	0xbf356d3f	-0.7086982
163	0xbf560a6d	-0.8360966
164	0xbf2af190	-0.66774845
165	0xbec01c58	-0.37521625
166	0xbf2a08c5	-0.6641963
167	0x3e34ee37	0.17668997
168	0xbedb5e7e	-0.4284553
169	0xbf40f979	-0.75380665
170	0xbf2db795	-0.6785825
171	0xbe455a6e	-0.19272777
172	0xbed82789	-0.42217663
173	0xbdc6b21a	-0.09701939
174	0xbf2a5fc7	-0.66552395
175	0xbf187f91	-0.5956965
176	0x3dff18a6	0.12455873
177	0xbf1cec76	-0.6129831
178	0xbf157cf7	-0.58393806
179	0xbf6944bd	-0.9112051
180	0xbeeebe78	-0.4662969
181	0x3ec604d8	0.3867557
182	0xbe02171b	-0.12704127
183	0xbdbcf08e	-0.0922557
184	0xbf504a39	-0.81363255
185	0xbedd58d1	-0.43231824
186	0xbf7aac73	-0.97919387
187	0xbf23abf5	-0.6393426
188	0xbf61a7c7	-0.8814663
189	0xbf3707cc	-0.7149627
190	0xbf1d695d	-0.61488897
191	0xbf089881	-0.533577
192	0xbf20d2f2	-0.62821877
193	0xbf2aef99	-0.66771847
194	0xbf563bd3	-0.83685035
195	0xbf26b30c	-0.65116954
196	0xbf7246af	-0.94639105
197	0x3ec9360a	0.3929904
198	0xbf4a3116	-0.7898115
199	0xbef4da3d	-0.47822753
200	0xbc9152cf	-0.017739682
201	0xbf0e63ae	-0.5562085
202	0xbf11d1b6	-0.5696062
203	0xbf300659	-0.68759686
204	0xbf4797b2	-0.77965844
205	0xbf564379	-0.83696705
206	0xbeb9102f	-0.3614516
207	0xbe61728f	-0.22016357
208	0xbef3cfc2	-0.47619444
209	0xbf27c355	-0.6553243
210	0xbf08a2de	-0.53373516
211	0xbf4ebb4d	-0.8075455
212	0xbeb61cf3	-0.35568962
213	0xbef83adf	-0.48482415
214	0xbef2548c	-0.4733013
215	0xbf11ea7c	-0.5699842
216	0xbf0699e9	-0.525786
217	0xbf2ee12d	-0.6831234
218	0xbe79d021	-0.24395801
219	0xbec865b7	-0.39140102
220	0xbf8a0f29	-1.0785877
221	0xbd1e236e	-0.038608007
222	0xbe163f7f	-0.1467266
223	0xbdc63cc7	-0.09679561
224	0xbf167826	-0.5877708
225	0xbf542f36	-0.8288454
226	0xbda88996	-0.082293674
227	0xbf604074	-0.8759835
228	0x3e9476b7	0.28996822
229	0xbefccad6	-0.49373502
230	0xbede42fd	-0.43410483
231	0xbdf6a6ba	-0.12043519
232	0xbec02e40	-0.37535286
233	0xbc4ed3a5	-0.012623702
234	0x3e563a62	0.20920709
235	0x3e8b6f1e	0.27233213
236	0xbed507be	-0.4160747
237	0xbda5a555	-0.08088175
238	0xbb9ffdea	-0.004882564
239	0x3e91f500	0.28507233
240	0xbf6c9c70	-0.92426205
241	0xbf4f0378	-0.8086467
242	0xbf6d1321	-0.92607313
243	0xbe918a3e	-0.28425783
244	0xbe9bae0d	-0.30406228
245	0xbf579e94	-0.84226346
246	0xbf7f512f	-0.9973325
247	0x3da874d0	0.08225405
248	0xbd30af10	-0.043135703
249	0x3cdbeb36	0.026845556
250	0x3e1b10e9	0.1514317
251	0x3ed91585	0.4239923
252	0xbf38c00c	-0.7216804
253	0xbf7620bc	-0.961437
254	0xbf2f5871	-0.68494326
255	0xbeaa435c	-0.33254516

lstm.bias_hh_l0 f4 [512]
0	0xbe7343a9	-0.23756279
1	0xbe382a25	-0.17984827
2	0xbf4315bb	-0.76205033
3	0xbf5a1067	-0.8518128
4	0xbf23c4c1	-0.639721
5	0xbf5773b9	-0.84160954
6	0xbf30bb76	-0.6903604
7	0xbf183660	-0.5945797
8	0xbf76244f	-0.9614915
9	0xbf554662	-0.8331052
10	0xbf6a9d49	-0.9164625
11	0xbee94484	-0.45560086
12	0xbf1b3aaa	-0.6063639
13	0xbf216dda	-0.63058245
14	0xbef8268f	-0.48466918
15	0xbfc7921f	-1.5591468
16	0xbf1b1376	-0.6057657
17	0xbf8c83a2	-1.0977671
18	0xbfad8778	-1.3556967
19	0xbfa332b0	-1.2749844
20	0xbf2d6af9	-0.6774135
21	0xbf7fa549	-0.9986158
22	0xbee06b77	-0.4383199
23	0xbeee67d5	-0.46563593
24	0xbf86ae35	-1.0521914
25	0xbf66b4a8	-0.9011941
26	0xbf7277ad	-0.9471386
27	0xbf1ca1c4	-0.61184335
28	0xbf6560c3	-0.8960077
29	0xbf271ccd	-0.6527832
30	0xbf822779	-1.0168296
31	0xbe335e9c	-0.1751656
32	0xbf90b5c8	-1.1305475
33	0xbec49613	-0.38395748
34	0xbf619a99	-0.8812652
35	0xbf4fc39c	-0.8115785
36	0xbf09455f	-0.53621477
37	0xbf3c1117	-0.7346358
38	0xbf4e9626	-0.8069786
39	0xbf790f11	-0.97288615
40	0xbf2b0ba7	-0.66814655
41	0xbf1e6ece	-0.61887825
42	0xbf741ada	-0.9535347
43	0xbf220b6d	-0.63298684
44	0xbf3831a9	-0.71950775
45	0xbf4f50a9	-0.8098245
46	0xbf4bd5c1	-0.7962304
47	0xbf50a37b	-0.8149945
48	0xbf49ec27	-0.78875965
49	0xbecad1d2	-0.39613205
50	0xbf031592	-0.5120479
51	0xbfa0472e	-1.2521722
52	0xbf97eb42	-1.186867
53	0x3dcf5ed3	0.10125508
54	0xbe307781	-0.17233087
55	0xbf089ec4	-0.5336726
56	0xbf86b31c	-1.052341
57	0xbf82f49f	-1.0230902
58	0xbecd720a	-0.40126067
59	0xbeddc8eb	-0.4331735
60	0xbfdd1e19	-1.727481
61	0xbf5fe1d9	-0.8745399
62	0xbf15e100	-0.5854645
63	0xbf2ec653	-0.6827137
64	0xbef4bd69	-0.47800758
65	0xbe67ee51	-0.22649504
66	0xbf2bfe0c	-0.6718452
67	0xbf1dbbbd	-0.6161459
68	0xbf4321ee	-0.7622365
69	0xbf1faa96	-0.6236967
70	0xbf0febeb	-0.5621936
71	0xbf3fe57c	-0.7495954
72	0xbef05d41	-0.46946147
73	0xbee1972f	-0.44060656
74	0xbee9f5de	-0.45695394
75	0xbf298f6f	-0.6623449
76	0xbf18b9da	-0.59658587
77	0xbf18a469	-0.5962587
78	0xbe8d1d2f	-0.27561328
79	0xbf70ce25	-0.9406455
80	0xbf42a475	-0.7603219
81	0xbf708388	-0.939507
82	0xbf1f7685	-0.6229022
83	0xbf8881db	-1.0664629
84	0xbf190014	-0.59765744
85	0xbf91d4d0	-1.139307
86	0x3d921deb	0.07134613
87	0xbea1d108	-0.3160479
88	0xbf4473b5	-0.76739055
89	0xbf1d384f	-0.61414045
90	0xbf91c5a4	-1.138844
91	0xbf2bd1ff	-0.67117304
92	0xbf9b7578	-1.2145224
93	0xbf1d2fe9	-0.6140123
94	0xbf255136	-0.64577043
95	0xbf4a2739	-0.789661
96	0xbf43901b	-0.7639176
97	0xbf4a5bac	-0.7904613
98	0xbf720a51	-0.9454699
99	0xbf9ad989	-1.2097636
100	0xbf167b97	-0.58782333
101	0xbf49870f	-0.7872171
102	0xbf589d5f	-0.8461513
103	0xbf6512ee	-0.8948201
104	0xbf212230	-0.6294279
105	0xbeabbabc	-0.33540905
106	0xbeeeef21	-0.46666816
107	0x3e1467a3	0.1449266
108	0xbede5e26	-0.43431205
109	0xbf6c241c	-0.922426
110	0xbeda1b35	-0.42598882
111	0xbf29dd90	-0.663537
112	0xbf710ca3	-0.9415991
113	0xbf204cf1	-0.62617403
114	0xbf81361c	-1.0094638
115	0xbe8bce6e	-0.2730593
116	0xbf45fadd	-0.7733591
117	0xbf34c264	-0.70609117
118	0xbfa108ec	-1.2580848
119	0xbf05d11f	-0.5227222
120	0xbe76d4af	-0.2410457
121	0xbe6bf4e6	-0.2304264
122	0xbc1742b0	-0.009232208
123	0x3c93cbb4	0.01804147
124	0xbfa37070	-1.2768688
125	0xbf561084	-0.8361895
126	0xbf396b2c	-0.72429156
127	0xbedadeb8	-0.42748046
128	0x40389437	2.8840463
129	0x40367096	2.8506217
130	0x403ec4c9	2.9807608
131	0x40321650	2.7826118
132	0x4023d3f0	2.5598106
133	0x403e54d1	2.9739268
134	0x403824cc	2.877246
135	0x40282afa	2.627623
136	0x403c627d	2.9435112
137	0x400d7a4c	2.2105894
138	0x400b2d2e	2.1746325
139	0x4006006d	2.093776
140	0x40263e7c	2.5975637
141	0x403570fc	2.835021
142	0x402defa7	2.7177522
143	0x3ff5a2a2	1.9190257
144	0x4015f85f	2.3432844
145	0x40504d4f	3.2547185
146	0x4014ae00	2.32312
147	0x400dcc51	2.2155955
148	0x4032809a	2.7890992
149	0x400d62dc	2.209159
150	0x4037836e	2.8673968
151	0x4019ff06	2.4061904
152	0x4019df37	2.404249
153	0x40195c02	2.3962407
154	0x40129434	2.2902956
155	0x402480d2	2.5703626
156	0x4010bbb9	2.2614577
157	0x4021fc74	2.5310335
158	0x400d4f46	2.2079635
159	0x404d3346	3.2062545
160	0x401fa94c	2.494708
161	0x402529c7	2.580675
162	0x400f6be6	2.2409606
163	0x4009dc75	2.1540806
164	0x401076f7	2.257261
165	0x4022f10d	2.5459626
166	0x401260aa	2.28715
167	0x40463874	3.0971956
168	0x4022748b	2.5383632
169	0x400f9af1	2.2438319
170	0x401970a4	2.3975
171	0x402efa2c	2.7340193
172	0x4023b5d0	2.557972
173	0x40382c67	2.87771
174	0x401192b0	2.274578
175	0x401862a8	2.3810215
176	0x404b888f	3.1802099
177	0x40189945	2.3843548
178	0x401e875b	2.4770114
179	0x40024c24	2.0358973
180	0x4021375f	2.5190046
181	0x40566de4	3.3504572
182	0x403c5f1e	2.9433055
183	0x403d4f89	2.9579794
184	0x4006ebe7	2.1081483
185	0x401ff5fc	2.4993887
186	0x40013836	2.0190558
187	0x401a9ab3	2.415692
188	0x400a85a2	2.1644063
189	0x400f7d44	2.2420206
190	0x4016704d	2.3506043
191	0x401bf112	2.4365888
192	0x4014f474	2.3274202
193	0x401ae313	2.4201095
194	0x400a752e	2.163402
195	0x401236b0	2.2845879
196	0x40019b40	2.0251007
197	0x4057b904	3.3706675
198	0x400c593b	2.1929462
199	0x40259c48	2.5876637
200	0x40429946	3.040605
201	0x40175acb	2.3649166
202	0x4019ecab	2.40507
203	0x4014303d	2.3154442
204	0x40098695	2.1488392
205	0x4008e235	2.1388066
206	0x40288144	2.6328897
207	0x402fa335	2.7443364
208	0x4022f1e3	2.5460136
209	0x401172c6	2.2726302
210	0x401cd2e2	2.4503713
211	0x4008f955	2.140218
212	0x40273741	2.6127474
213	0x401eb5f2	2.479855
214	0x401e8c76	2.477323
215	0x401bbbb3	2.4333313
216	0x401dfea5	2.4686673
217	0x40129b6e	2.2907367
218	0x402df287	2.7179277
219	0x40238162	2.554772
220	0x3ff6208d	1.9228684
221	0x403866ba	2.88127
222	0x40370f2f	2.8603017
223	0x40363f10	2.847599
224	0x401f78eb	2.4917552
225	0x4008f0bd	2.1396935
226	0x40380bec	2.8757277
227	0x4004b1ed	2.0733597
228	0x40519ac6	3.2750716
229	0x4021f0a6	2.530313
230	0x40265650	2.599018
231	0x4035cc07	2.8405778
232	0x402c4623	2.6917808
233	0x403acc94	2.9187365
234	0x404ad0a3	3.1689842
235	0x404d6725	3.2094204
236	0x4022801e	2.5390697
237	0x4038d59c	2.8880377
238	0x403f1832	2.9858518
239	0x40538e67	3.3055665
240	0x40098e7f	2.1493223
241	0x400a869f	2.1644666
242	0x3ffed123	1.9907573
243	0x402a3b4c	2.6598692
244	0x4028c190	2.636814
245	0x400f653b	2.2405536
246	0x3ffc99f7	1.9734486
247	0x4042f078	3.045927
248	0x4041c136	3.0274177
249	0x403e587d	2.974151
250	0x404aab40	3.1667023
251	0x40557e97	3.3358514
252	0x40100a8e	2.2506442
253	0x4002186f	2.0327413
254	0x40143eda	2.3163362
255	0x402a292b	2.6587627

head.net.0.weight f4 [1, 128]
0	0x3a93bfb1	0.0011272338
1	0x3acac0d5	0.0015468845
2	0xbc76c5bd	-0.015061793
3	0xb84379e1	-4.660513e-05
4	0x39a1eb2a	0.00030883524
5	0xbb82073a	-0.0039681466
6	0x39102d16	0.00013749706
7	0xbdcba4e6	-0.09943561
8	0xbb4f7b1a	-0.0031659068
9	0x401f6820	2.4907303
10	0x3c04a873	0.008096802
11	0x3995b623	0.00028555197
12	0xbd0b2274	-0.033968404
13	0xbb8b2418	-0.004246246
14	0xbc74e5e2	-0.014947386
15	0x3fbab866	1.4587524
16	0x3d63d005	0.055618305
17	0xbb83293d	-0.0040027187
18	0xb9e4fa43	-0.00043674008
19	0x3f4f1d9c	0.80904555
20	0xbb010075	-0.001968411
21	0xbcd2082a	-0.025638659
22	0xbbb17907	-0.005416039
23	0xbc4c9f3f	-0.012489139
24	0xbe793619	-0.24337043
25	0xbca41b1e	-0.020032462
26	0xbd07ea16	-0.033182226
27	0xbd5674f8	-0.052357644
28	0xbbd9ccc5	-0.006646725
29	0x3cf767d6	0.03020088
30	0x3c91ab93	0.017782008
31	0xbaab2636	-0.0013057652
32	0xbb95c053	-0.004570046
33	0xbd144981	-0.03620291
34	0xbd1290ab	-0.035782497
35	0xbe0f37be	-0.13986108
36	0xbe90de94	-0.28294814
37	0xbc8c23f5	-0.01710699
38	0xbb9296b6	-0.0044735326
39	0x3ad0c4bf	0.0015927776
40	0xbab572b1	-0.0013843385
41	0xbcc98a30	-0.024602026
42	0xbcb8e59b	-0.022570422
43	0xbd1eff3d	-0.038817633
44	0xbd18274b	-0.037146848
45	0x39a6784c	0.00031751615
46	0xbef77b1a	-0.48336107
47	0xbd847f89	-0.06469638
48	0xbc007d72	-0.0078424085
49	0xbccb2b79	-0.024801003
50	0x3d47ddb8	0.04879543
51	0xc019e8ce	-2.4048343
52	0x3a9506ac	0.0011369786
53	0xbac976c9	-0.0015370484
54	0x3c569cda	0.01309892
55	0xbc3fd176	-0.011707654
56	0x4063de81	3.5604556
57	0xbc1a5b6e	-0.009421213
58	0x3e01145a	0.1260542
59	0xbd6c0c90	-0.057629168
60	0xbea55afd	-0.3229598
61	0x3c82317a	0.015892733
62	0x3ccaf8ba	0.024776805
63	0xbe997cf1	-0.29978135
64	0xbc3ef477	-0.011654965
65	0x3d7a2386	0.061069034
66	0x3cc89e34	0.0244895
67	0xbdf84380	-0.121222496
68	0xbe17e4a6	-0.14833316
69	0x3a52cb27	0.00080411363
70	0x3d34c011	0.04412848
71	0x3b066a72	0.0020510224
72	0x3b481dff	0.0030535457
73	0xbbb4213e	-0.005497127
74	0x3d455bb7	0.04818317
75	0xbb7c7d5c	-0.0038526868
76	0x3d3b3f04	0.045714393
77	0xbd1667fb	-0.036720257
78	0x3d359707	0.044333484
79	0x3cdd5cf3	0.02702186
80	0xbc0cfcfc	-0.008605238
81	0xbd97db84	-0.07414916
82	0x3c1bd96c	0.009512287
83	0xbc366234	-0.011131812
84	0x3b24e327	0.0025159807
85	0xbb17beee	-0.0023154574
86	0xbb12e492	-0.002241407
87	0x3c85b360	0.016320884
88	0xbca02076	-0.019546729
89	0x3b910e4a	0.004426752
90	0x3c8a9d52	0.01692072
91	0xbb96f486	-0.004606786
92	0xbf8ad28d	-1.0845505
93	0x394994f1	0.00019224339
94	0xbc0dfbfa	-0.008666033
95	0xbbae990d	-0.0053283037
96	0x3ba23b7a	0.004950938
97	0x3a60f301	0.0008581132
98	0x3bdd5196	0.0067541106
99	0x3d5edede	0.05441176
100	0x3bf5edcf	0.0075051556
101	0x3d225a71	0.039637033
102	0xbcdcdc40	-0.026960492
103	0xbbbcd033	-0.005762124
104	0xbc5ee374	-0.013604034
105	0xb9663b33	-0.00021956563
106	0xb9ea342a	-0.00044670823
107	0xbbdc1a6c	-0.006717017
108	0xbb916840	-0.0044374764
109	0x3c465fa3	0.0121077625
110	0xb996ff1e	-0.00028800307
111	0x3bd633a9	0.00653692
112	0xbefa3102	-0.48865515
113	0xbe2d5bcf	-0.16929553
114	0x3ea4a39d	0.32156077
115	0x3c3fd764	0.011709068
116	0x3cca2102	0.024673942
117	0x3e0d140e	0.13777182
118	0x40a586f0	5.172722
119	0xbb47f79b	-0.0030512575
120	0xbc8e90aa	-0.017402966
121	0x3ba57d9b	0.0050503737
122	0xba165a9a	-0.00057355466
123	0xbbccbff4	-0.0062484685
124	0x3c2a4b82	0.010393979
125	0xbdfb353f	-0.12266015
126	0x3d108754	0.03528531
127	0xbcad21f4	-0.021134354
