examples/catchment_models/training/runs/globe_time_split_2404_124848/model_epoch003.pt (torch, 316229 bytes, 5 tensors)

lstm.weight_ih_l0 f4 [512, 23]
0.07228402 0.06335801 -0.016411895 0.052866302 0.081735775 0.09701288 -0.27763838 0.1563001
-0.19705836 -0.08183199 0.09117419 -0.095870435 -0.22161615 -0.053350657 -0.20250194 -0.21224262
-0.39420488 -0.08649979 -0.076106496 -0.087949455 0.0015608531 -0.15336297 0.03594364 -0.025860554
0.21163392 -0.054235242 -0.19859976 0.097158894 0.45666447 0.31988305 -0.50906825 0.50221467
0.11343333 -0.17301828 0.16936971 0.5303473 -0.62123066 -0.24730119 0.2799613 0.09156696
0.1592907 0.48859856 -0.21628031 0.48408428 0.4433943 0.2559953 0.19313893 0.0033573126
0.34610516 0.38109648 -0.14591795 0.06728449 -0.39912623 0.23769443 -0.50622874 0.044197127
0.11768846 0.19697753 -0.076790035 0.16480316 0.06182521 -0.2512475 -0.049650762 -0.021708546
0.18694983 -0.27812278 -0.03365371 -0.12399941 -0.30551866 0.02032885 0.38830328 0.12228626
-0.06223715 -0.034139413 0.445553 0.5493516 -0.15718526 0.46964234 -0.033379238 0.06740328
0.12245179 0.08672036 -0.18645045 0.1641326 0.5110911 0.1648119 0.20950362 0.038949385
0.12861413 0.35978922 0.36176133 0.285284 0.008236634 0.23894075 0.1122146 0.067396715
0.07621222 0.48124626 0.59504473 -0.24320735 0.58262736 -0.053048693 -0.07563947 -0.005724877
-0.0016513087 -0.21252838 0.02363095 0.6389524 0.20399109 0.230196 -0.05125619 0.123341605
0.40698847 0.39806455 0.18700019 0.5369613 0.25283355 0.3700231 0.52216053 0.27030355
0.32093665 -0.15999492 0.07331171 -0.14862663 0.2709394 -0.057753865 0.22828136 0.060748365
0.07245183 -0.14000426 -0.03446603 0.21133356 0.12669602 -0.08269403 -0.008876154 -0.0022105845
0.02610999 -0.20693302 0.4110039 0.12728016 0.21378 0.14083086 0.094021395 0.2826549
0.053594895 0.09157745 0.05828903 -0.02704838 0.22324276 -0.28701478 -0.18861142 0.37585625
0.51394117 0.46922573 0.108323336 0.10256312 0.20920429 -0.231289 -0.013826314 -0.15114261
0.094415456 0.014020957 0.16058095 0.019456461 -0.10154469 0.12335663 0.41183946 0.6309738
-0.25684348 0.74546224 0.054968745 -0.10978833 0.08276556 0.28806677 -0.37854448 -0.048176136
0.5045245 0.13322982 0.31461635 -0.048550185 0.10319133 0.42998663 0.5131464 0.10664597
-0.029302314 0.34779477 0.0073622805 -0.07380191 0.1656861 0.30789784 0.5491805 -0.44098315
0.74786586 0.07944 -0.008381653 -0.004847057 0.10457591 -0.28372574 0.1274 0.70179546
0.031986028 0.12956539 0.004730145 0.08456371 0.4109918 0.4274578 0.27871487 0.0657007
0.324257 0.1160646 0.026195467 0.14716952 0.31761956 0.3868719 -0.16556534 0.5791077
0.06032516 -0.08745936 0.028395165 0.115202926 -0.19831783 0.007570795 0.58103585 0.086127155
0.19988644 -0.17489932 0.06583953 0.1445206 0.27677652 0.16061746 -0.19756912 0.40437183
-0.07886595 -0.08991226 0.06362336 0.3473944 0.4883182 0.01686229 0.3800708 0.061196394
-0.11565422 0.0057011005 0.13968131 -0.15337886 0.24652028 0.6882659 0.009929405 0.06540486
-0.0773422 0.09731106 0.4247025 0.35554892 0.19326171 0.0011911129 0.31092444 0.6229864
00000000: a509 943d d8c1 813d 3d72 86bc 568a 583d
00000010: 1665 a73d b0ae c63d 9e26 8ebe 220d 203e
00000020: abc9 49be 8897 a7bd 89b9 ba3d b857 c4bd
00000030: 58ef 62be 3886 5abd ab5c 4fbe 2156 59be
00000040: 39d5 c9be cd26 b1bd b9dd 9bbd d81e b4bd
00000050: 8a95 cc3a 2f0b 1dbe a339 133d 83d9 d3bc
00000060: 90b6 583e c625 5ebd bc5d 4bbe 3efb c63d
00000070: edcf e93e b6c7 a33e 4c52 02bf 2491 003f
00000080: bc4f e83d b42b 31be 416f 2d3e d7c4 073f
00000090: f908 1fbf 863c 7dbe 1657 8f3e 7587 bb3d
000000a0: 1a1d 233e 9729 fa3e 9678 5dbe e5d9 f73e
000000b0: 9404 e33e d111 833e 36c6 453e 5c06 5c3b
000000c0: b234 b13e 141f c33e 846b 15be 73cc 893d
000000d0: 465a ccbe 2b66 733e 3598 01bf 0c08 353d
000000e0: a606 f13d 7ab4 493e 1844 9dbd 29c2 283e
000000f0: 6e3c 7d3d 83a3 80be 995e 4bbd 1fd6 b1bc
00000100: c76f 3f3e 1c66 8ebe 79d8 09bd 67f3 fdbd
00000110: f16c 9cbe b088 a63c b0cf c63e 3871 fa3d
00000120: 62ec 7ebd c5d5 0bbd 861f e43e 4ea2 0c3f
00000130: 2cf5 20be f674 f03e abb8 08bd bb0a 8a3d
00000140: 01c8 fa3d 729a b13d deec 3ebe 6012 283e
00000150: ded6 023f 73c4 283e 1e88 563e 6489 1f3d
00000160: 6cb3 033e 4b36 b83e c838 b93e bf10 923e
00000170: f2f2 063c e2ac 743e c5d0 e53d 4a07 8a3d
00000180: 2715 9c3d e965 f63e da54 183f 590b 79be
00000190: 1127 153f 9649 59bd dee8 9abd c097 bbbb
000001a0: ba70 d8ba 0aa1 59be b295 c13c 6292 233f
000001b0: 0ae3 503e 80b8 6b3e 03f2 51bd 869a fc3d
000001c0: cb60 d03e 1ecf cb3e fa7c 3f3e 4c76 093f
000001d0: 6673 813e ab73 bd3e 50ac 053f 3a65 8a3e
000001e0: cf51 a43e b5d5 23be 7324 963d 9431 18be
000001f0: 92b8 8a3e 518f 6cbd 97c2 693e 47d3 783d
00000200: a061 943d 475d 0fbe 402c 0dbd d367 583e
00000210: 9abc 013e 7d5b a9bd 4a6d 11bc 74df 10bb
00000220: 9ee4 d53c 40e6 53be 1a6f d23e bb55 023e
00000230: 25e9 5a3e f735 103e 4a8e c03d 25b8 903e
00000240: 5286 5b3d f58c bb3d 7ac0 6e3d 9094 ddbc
00000250: c099 643e 9af3 92be 5a23 41be 3b70 c03e
00000260: a691 033f 5b3e f03e a0d8 dd3d 9d0c d23d
00000270: a639 563e 06d7 6cbe c487 62bc 21c5 1abe
00000280: e45c c13d 28b8 653c 556f 243e 2863 9f3c
00000290: aaf6 cfbd 67a2 fc3d 9fdc d23e 8087 213f
000002a0: fd80 83be 9dd6 3e3f e826 613d b4d8 e0bd
000002b0: fd80 a93d 7d7d 933e 95d0 c1be 5754 45bd
000002c0: 8528 013f 666d 083e 6515 a13e 8fdc 46bd
000002d0: fa55 d33d 3527 dc3e 905d 033f 3469 da3d
000002e0: 680b f0bc 2812 b23e 493f f13b 7525 97bd
000002f0: 9ea9 293e c9a4 9d3e 1897 0c3f 8bc8 e1be
00000300: 2374 3f3f 70b1 a23d 3353 09bc 10d4 9ebb
00000310: e52b d63d 8044 91be 2575 023e dea8 333f
00000320: c803 033d caac 043e 55ff 9a3b bd2f ad3d
00000330: 846d d23e c0db da3e b7b3 8e3e 178e 863d
00000340: 0305 a63e 47b3 ed3d e097 d63c 9bb3 163e
00000350: 089f a23e 1314 c63e f689 29be 6740 143f
00000360: 8417 773d e51d b3bd fa9c e83c 83ef eb3d
00000370: d413 4bbe 6e14 f83b c4be 143f 6f63 b03d
00000380: 08af 4c3e cf18 33be e0d6 863d 35fd 133e
00000390: a7b5 8d3e e778 243e 8f4f 4abe d309 cf3e
000003a0: 7984 a1bd eb23 b8bd f74c 823d aedd b13e
000003b0: d804 fa3e c922 8a3c a498 c23e 12a9 7a3d
000003c0: 1fdc ecbd 4cd0 ba3b 9e08 0f3e 590f 1dbe
000003d0: d06f 7c3e 3232 303f f1ae 223c fcf2 853d
000003e0: 9665 9ebd 054b c73d 9b72 d93e 820a b63e
000003f0: 66e6 453e 1e1f 9c3a 7d31 9f3e 097c 1f3f

lstm.weight_hh_l0 f4 [512, 128]
0.053202327 -0.05374298 -0.17458817 -0.13623768 0.025382176 -0.12723601 0.04655682 0.13132603
0.19980547 0.040034886 -0.12714696 -0.011115383 -0.026940387 -0.045496028 -0.12021676 -0.08776623
0.012974318 0.25760573 -0.08771029 -0.028464586 -0.14200014 -0.0066685006 -0.006931557 -0.021966204
0.006633629 -0.09175756 -0.0067947963 0.15516387 0.16304049 -0.15740673 -0.11644123 0.04185553
0.14317298 0.05150317 -0.044422008 -0.027936958 0.143575 -0.037026655 -0.10614449 -0.1295203
0.14238878 0.030361086 0.013435498 -0.108346075 -0.084212184 -0.07593391 -0.07954818 0.041134253
0.09123125 -0.087392986 -0.12462366 -0.039751437 -0.061543956 -0.004192014 -0.05079228 -0.08297603
0.028664576 0.15813029 -0.08420588 0.10539562 -0.066040814 -0.14669888 -0.07972224 -0.107744716
0.050968572 -0.019950338 -0.20997903 -0.014271153 0.16004315 0.019316804 -0.14186245 0.08162442
0.033698604 0.1797949 -0.0434638 0.03613115 -0.0031085096 0.16356501 -0.028076222 0.17555697
0.050958946 -0.028101513 -0.013979915 0.06261325 -0.20035322 0.24434787 -0.07319876 0.06337772
0.1029401 0.121508576 -0.0060788863 -0.1731632 0.004438485 -0.059468057 0.043015696 0.08412528
0.03400091 -0.13016982 -0.0033990715 -0.040309932 -0.032939523 0.172122 -0.071030736 0.08254106
0.0148706585 -0.0415936 0.012733147 0.074610606 -0.020636033 -0.13868518 0.06257088 0.064379334
0.0139115155 -0.09750219 -0.07056917 -0.0729756 0.09594667 -0.081726745 0.0338459 -0.012864136
0.07240081 -0.13808204 0.1603895 0.046676993 0.07216804 0.010582247 -0.11690357 -0.09652962
0.05523285 0.79272807 -0.35906866 -0.17401123 0.023199096 -0.17521961 0.37034926 -0.07216944
0.02885875 0.015362921 0.02406802 -0.12349171 -0.03018753 0.24365917 0.15210493 -0.1686401
0.29841325 0.34642512 0.0707675 -0.110880844 -0.036146007 -0.15777612 0.087945946 0.2600071
0.12916669 -0.19989479 0.043056864 -0.10079239 0.21302935 -0.22520645 -0.08211667 0.19165182
0.31569847 0.15133424 -0.023098659 0.035819598 0.11326055 -0.1147566 0.08666171 -0.71400446
0.22822686 0.022195656 -0.072896525 -0.29947123 0.15494533 -0.119785085 -0.23542792 0.21952018
-0.17024212 0.25579172 -0.17915052 0.12211298 -0.32125336 -0.0070481086 -0.05137806 0.0013127137
0.0595748 0.085040376 0.059763364 -0.43897554 0.038284633 -0.35726622 -0.14735828 -0.03302463
-0.04870847 -0.11836048 -0.33387777 -0.27479294 0.08077347 0.06968689 -0.19327742 0.17810944
-0.04750549 -0.007084903 -0.009005496 0.15354928 -0.011267245 0.010032959 0.08284628 0.19046147
0.07577311 0.16125225 -0.15770072 0.3605708 -0.3889457 0.19570424 -0.30662274 0.09744642
0.08357544 0.023696063 0.24520582 -0.19415204 0.022818789 -0.40015593 -0.20446141 0.054039683
0.10452646 -0.12537625 -0.23807372 -0.064037375 0.0859215 0.20536155 0.0101198945 0.246174
-0.25139263 -0.30506387 0.06811435 0.055475272 -0.11114299 0.058955945 0.120400555 0.33959946
-0.013301737 0.10640182 -0.0892713 -0.060446642 0.18135355 -0.16242664 -0.15162124 -0.22083475
-0.059408937 0.009912917 0.2814079 -0.0002791411 0.24175227 0.055146873 -0.060281537 0.053823214
00000000: afea 593d 9921 5cbd 3ec7 32be e481 0bbe
00000010: 48ee cf3c 284a 02be 5db2 3e3d 557a 063e
00000020: ce99 4c3e 9ffb 233d d032 02be 4c1d 36bc
00000030: 16b2 dcbc 0b5a 3abd 3434 f6bd c8be b3bd
00000040: 3c92 543c e6e4 833e 74a1 b3bd 902e e9bc
00000050: 7c68 11be 7083 dabb 1d22 e3bb 78f2 b3bc
00000060: ea5e d93b 63eb bbbd e2a6 debb 47e3 1e3e
00000070: 16f4 263e 3b2f 21be bd78 eebd b470 2b3d
00000080: f09b 123e fdf4 523d daf3 35bd 0cdc e4bc
00000090: 5305 133e 43a9 17bd 4862 d9bd f8a0 04be
000000a0: 5dce 113e d0b7 f83c 9020 5c3c 8ce4 ddbd
000000b0: 7077 acbd 3d83 9bbd 28ea a2bd 647c 283d
000000c0: 73d7 ba3d 18fb b2bd b13a ffbd 67d2 22bd
000000d0: 8415 7cbd 2a5d 89bb 910b 50bd 56ef a9bd
000000e0: f9d1 ea3c e8ec 213e 2274 acbd a9d9 d73d
000000f0: 6840 87bd 3b38 16be 6a45 a3bd 43a9 dcbd
00000100: 6cc4 503d e46e a3bc be04 57be 8ed1 69bc
00000110: 5ae2 233e 463e 9e3c 6444 11be b42a a73d
00000120: 8c07 0a3d 271c 383e 1907 32bd 42fe 133d
00000130: 23b8 4bbb 967d 273e 1b00 e6bc 35c5 333e
00000140: 54ba 503d 2535 e6bc 030c 65bc 603b 803d
00000150: 6529 4dbe 5436 7a3e 3be9 95bd 2ecc 813d
00000160: 42d2 d23d 7dd9 f83d 6531 c7bb b251 31be
00000170: b670 913b c794 73bd 3a31 303d e049 ac3d
00000180: 8a44 0b3d 3d4b 05be f5c2 5ebb 071c 25bd
00000190: 98eb 06bd c040 303e 9078 91bd 4a0b a93d
000001a0: 10a4 733c 0d5e 2abd b09e 503c 72cd 983d
000001b0: e60c a9bc 7d03 0ebe 2925 803d 50d9 833d
000001c0: 20ed 633c 3aaf c7bd 9286 90bd 3b74 95bd
000001d0: b07f c43d 5a60 a7bd 00a2 0a3d 19c4 52bc
000001e0: e046 943d 6165 0dbe 253d 243e 6030 3f3d
000001f0: d6cc 933d 2961 2d3c 246b efbd 52b1 c5bd
00000200: d73b 623d 3af0 4a3f d9d7 b7be 0030 32be
00000210: 080c be3c c56c 33be 6b9e bd3e 92cd 93bd
00000220: 2f69 ec3c c3b4 7b3c 4c2a c53c 39e9 fcbd
00000230: d74b f7bc ca81 793e 65c1 1b3e feaf 2cbe
00000240: 9fc9 983e a25e b13e 8dee 903d 7f15 e3bd
00000250: d60d 14bd 1090 21be 011d b43d a71f 853e
00000260: 4644 043e 38b1 4cbe 655c 303d 3e6c cebd
00000270: 5e24 5a3e 859c 66be c92c a8bd 6040 443e
00000280: 3ba3 a13e 5df7 1a3e 6639 bdbc 92b7 123d
00000290: 26f5 e73d 8205 ebbd b27b b13d ffc8 36bf
000002a0: 4db4 693e aad3 b53c c64a 95bd 4b54 99be
000002b0: fda9 1e3e e251 f5bd 0414 71be e6c9 603e
000002c0: f353 2ebe 22f7 823e 3c73 37be 5f16 fa3d
000002d0: 527b a4be d2f3 e6bb cd71 52bd 5d0f ac3a
000002e0: b504 743d a629 ae3d 6eca 743d 67c1 e0be
000002f0: 59d0 1c3d 99eb b6be 17e5 16be d644 07bd
00000300: 8882 47bd fb66 f2bd 07f2 aabe a9b1 8cbe
00000310: 906c a53d 00b8 8e3d 84ea 45be 5262 363e
00000320: 1e95 42bd 7928 e8bb ca8b 13bc 063c 1d3e
00000330: 409a 38bc 4861 243c 4fab a93d 5508 433e
00000340: ef2e 9b3d 4f1f 253e 4c7c 21be bc9c b83e
00000350: e423 c7be b166 483e a8fd 9cbe fd91 c73d
00000360: 9a29 ab3d 3f1e c23c 3c17 7b3e cbcf 46be
00000370: 78ee ba3c 3de1 ccbe 555e 51be b758 5d3d
00000380: f811 d63d a262 00be 99c9 73be 0726 83bd
00000390: 9df7 af3d 4c4a 523e eacd 253c 0915 7c3e
000003a0: 89b6 80be 5531 9cbe 897f 8b3d 0a3a 633d
000003b0: f09e e3bd ca7b 713d 9194 f63d fbdf ad3e
000003c0: 87ef 59bc 33e9 d93d dfd3 b6bd e696 77bd
000003d0: bfb4 393e 2b53 26be 9942 1bbe 8122 62be
000003e0: c956 73bd ca69 223c b214 903e af59 92b9
000003f0: e88d 773e b0e1 613d c6e9 76bd bb75 5c3d

lstm.bias_ih_l0 f4 [512]
-0.0038326874 -0.2520262 -0.15142007 -0.405439 -0.35836858 -0.42611206 -0.23555203 -0.4791508
-0.35093832 -0.25599608 -0.49632344 -0.22211538 -0.081667036 -0.31722903 -0.13852555 -0.66761565
-0.2568806 -0.39492732 -0.5797124 -0.5542983 0.14323896 -0.36982286 -0.20033988 -0.3230215
-0.40255955 -0.1673774 -0.49304628 -0.26605517 -0.26520783 -0.46720743 -0.4946346 -0.121551834
-0.6714357 -0.28227502 -0.43066275 -0.3609104 -0.36567163 -0.45062163 -0.16806246 -0.21661806
-0.29540414 -0.31405768 -0.42670903 -0.49945956 -0.32651827 -0.41546646 -0.42473894 -0.41439214
-0.23658635 -0.039443538 -0.4326942 -0.6502364 -0.23165871 -0.2069794 -0.35811672 -0.29483786
-0.5582299 -0.55047226 -0.33746022 -0.51110613 -0.70764285 -0.2909494 -0.41574806 -0.5446339
-0.45292956 -0.11644874 -0.3769292 -0.42229074 -0.59745806 -0.09220258 -0.16013348 -0.21963204
-0.41271654 -0.07626308 -0.30176157 -0.45367283 -0.4181979 -0.36293522 -0.33630115 -0.43526712
-0.38307214 -0.3525981 -0.3034662 -0.26824474 -0.26339635 -0.6643689 -0.41270122 -0.21967521
-0.35276112 -0.26030055 -0.28571168 -0.095318675 -0.63439524 -0.35348934 -0.32082447 -0.18582226
-0.09337367 -0.4998663 -0.42841768 -0.5403819 -0.1931496 -0.5350794 -0.61340064 -0.44440055
-0.34813008 0.00088673853 -0.10194868 -0.042660255 -0.070254944 -0.25943273 -0.0743711 -0.2573417
-0.5009374 -0.52263284 -0.40953103 0.0961507 -0.24253322 -0.4369878 -0.5329744 -0.16058804
0.0060464623 -0.015693432 -0.119373 0.0019278072 -0.5431412 -0.4657716 0.022370316 0.038805023
0.030229768 -0.09864693 -0.061383102 -0.30850077 -0.3626644 0.008054594 -0.1425043 -0.31736422
-0.18867113 -0.30172294 -0.4888852 -0.16033351 -0.07509102 -0.12990768 -0.16913696 -0.52765435
-0.1569651 -0.21815373 -0.30962247 -0.5825038 -0.06112454 -0.23868042 -0.18219844 -0.26459014
-0.39998418 0.071758844 -0.28397742 -0.14115056 -0.35117063 -0.32478818 -0.29791117 -0.095500626
-0.46862635 -0.31640077 -0.3937347 -0.37875363 -0.25532424 -0.34092698 -0.26321602 0.022670222
-0.20752642 -0.35969535 -0.4960144 -0.19305046 -0.24325684 -0.3363723 -0.30742955 -0.34193185
-0.08025507 0.02892308 -0.5445244 -0.5432473 -0.34756184 -0.0002865766 -0.26628372 -0.19326907
-0.39990446 -0.2764851 -0.35867217 -0.2766102 -0.6443951 -0.39039037 -0.5120419 -0.3860892
-0.3112065 -0.22282247 -0.443345 -0.33656284 -0.42085347 0.1253901 -0.21468657 -0.33269244
-0.1393435 -0.057621386 -0.2805901 -0.42627382 -0.3576969 -0.36240935 -0.15729636 -0.2674747
-0.34475175 -0.38106632 -0.4115094 -0.30940872 -0.2635224 -0.56535256 -0.21415965 -0.18912506
-0.26188123 -0.18005127 -0.17373854 0.04993699 -0.37037012 -0.23305903 -0.18819647 -0.005308712
-0.38076875 -0.36009732 -0.29560065 -0.29920745 -0.11051346 -0.3469313 -0.3612623 -0.27158064
-0.35920414 0.10995306 -0.13736321 0.14376518 -0.022281663 -0.25062108 0.12230496 0.021001
-0.417021 -0.5506781 -0.327897 0.095793106 -0.087443046 -0.46460205 -0.47989258 -0.015252608
-0.12799753 0.03677103 0.037943795 0.054660168 -0.1621932 -0.5056335 -0.09528258 0.020889096
00000000: d32d 7bbb 9409 81be dd0d 1bbe b395 cfbe
00000010: 167c b7be 5c2b dabe 8d34 71be 4153 f5be
00000020: 30ae b3be eb11 83be 1b1e febe 3772 63be
00000030: 0c41 a7bd d86b a2be a4d9 0dbe dce8 2abf
00000040: db85 83be ea33 cabe 0868 14bf 7ee6 0dbf
00000050: 3cad 123e 6c59 bdbe e625 4dbe 1363 a5be
00000060: 491c cebe fb64 2bbe 9070 fcbe 6238 88be
00000070: 52c9 87be d035 efbe bf40 fdbe 2bf0 f8bd
00000080: 36e3 2bbf 5a86 90be d47f dcbe 3fc9 b8be
00000090: 5039 bbbe e1b7 e6be 9118 2cbe 20d1 5dbe
000000a0: 363f 97be 2bcc a0be 9b79 dabe 2ab9 ffbe
000000b0: 672d a7be 05b8 d4be 6277 d9be 352b d4be
000000c0: b143 72be 8c8f 21bd 188a ddbe e575 26bf
000000d0: f137 6dbe 68f2 53be 135b b7be fdf4 96be
000000e0: 28e8 0ebf c0eb 0cbf 96c7 acbe dad7 02bf
000000f0: 1528 35bf 52f7 94be eedc d4be 216d 0bbf
00000100: 62e6 e7be ad7c eebd ddfc c0be 7e36 d8be
00000110: 03f3 18bf b5d4 bcbd 08fa 23be 39e7 60be
00000120: 954f d3be d12f 9cbd 7e80 9abe ce47 e8be
00000130: 091e d6be a5d2 b9be aa2f acbe 55db debe
00000140: 0822 c4be bd87 b4be ec5f 9bbe 6057 89be
00000150: e3db 86be 1514 2abf 934d d3be 8af2 60be
00000160: 1b9d b4be 1d46 85be cd48 92be 7036 c3bd
00000170: ba67 22bf 8efc b4be 1b43 a4be 3148 3ebe
00000180: b23a bfbd 7aee ffbe 9059 dbbe 7856 0abf
00000190: 02c9 45be f7fa 08bf d307 1dbf 7888 e3be
000001a0: 1b3e b2be 0474 683a 78ca d0bd 85bc 2ebd
000001b0: d3e1 8fbd 5ed4 84be e04f 98bd 4bc2 83be
000001c0: 6f3d 00bf 44cb 05bf 0dae d1be a8ea c43d
000001d0: a15a 78be ddbc dfbe 0371 08bf 3171 24be
000001e0: 6721 c63b 838f 80bc d579 f4bd 7aae fc3a
000001f0: 4d0b 0bbf 9d79 eebe f441 b73c 04f2 1e3d
00000200: 6ba4 f73c 6707 cabd d96c 7bbd d0f3 9dbe
00000210: 26af b9be 6af7 033c a6ec 11be 907d a2be
00000220: 0133 41be 6e7b 9abe 294f fabe 782e 24be
00000230: 52c9 99bd 8506 05be 3d32 2dbe 5b14 07bf
00000240: 76bb 20be b163 5fbe d686 9ebe f81e 15bf
00000250: ba5d 7abd a468 74be 3a92 3abe 5c78 87be
00000260: baca ccbe 4df6 923d 7d65 91be c689 10be
00000270: a3cc b3be a34a a6be d087 98be d595 c3bd
00000280: cbef efbe 48ff a1be 9897 c9be ffeb c1be
00000290: dcb9 82be fb8d aebe 40c4 86be e7b6 b93c
000002a0: ce81 54be fd29 b8be 99f5 fdbe 05af 45be
000002b0: 5218 79be fd38 acbe 6867 9dbe b111 afbe
000002c0: c55c a4bd 18f0 ec3c f365 0bbf 4112 0bbf
000002d0: a0f3 b1be a93f 96b9 5756 88be 54e8 45be
000002e0: 47c0 ccbe 748f 8dbe e1a3 b7be da9f 8dbe
000002f0: 14f7 24bf 3fe1 c7be 2e15 03bf 7cad c5be
00000300: 7556 9fbe 932b 64be 1efe e2be f751 acbe
00000310: 1b7a d7be 4366 003e ccd6 5bbe aa56 aabe
00000320: 10b0 0ebe 6704 6cbd 81a9 8fbe 9040 dabe
00000330: 0c24 b7be b88d b9be 4c12 21be 72f2 88be
00000340: 4d83 b0be 201b c3be 5cb1 d2be d26a 9ebe
00000350: 68ec 86be f2ba 10bf ab4c 5bbe 00aa 41be
00000360: 4c15 86be 5c5f 38be 84e8 31be bb8a 4c3d
00000370: 27a1 bdbe 07a7 6ebe 93b6 40be b4f4 adbb
00000380: 1ff4 c2be ad5e b8be f858 97be b831 99be
00000390: e254 e2bd fba0 b1be 5ff7 b8be 9e0c 8bbe
000003a0: 9be9 b7be 122f e13d f1a8 0cbe 2e37 133e
000003b0: 0988 b6bc 6851 80be 067b fa3d 4a0a ac3c
000003c0: c783 d5be 3df9 0cbf 1ee2 a7be 2d2f c43d
000003d0: 5715 b3bd 52e0 edbe 7bb4 f5be 13e6 79bc
000003e0: c911 03be 389d 163d f46a 1b3d 57e3 5f3d
000003f0: f915 26be 3271 01bf 8323 c3bd 9c1f ab3c

lstm.bias_hh_l0 f4 [512]
-0.030064726 -0.30014506 -0.20839985 -0.5022718 -0.48657545 -0.45908841 -0.3445459 -0.37290373
-0.35198492 -0.35172817 -0.5989979 -0.25095284 -0.156985 -0.26566508 -0.20926225 -0.68612856
-0.21776667 -0.30341893 -0.5945059 -0.6099299 0.015161382 -0.3692185 -0.2806405 -0.30194944
-0.42683038 -0.22310032 -0.53788817 -0.27159306 -0.30878305 -0.46313447 -0.4685816 -0.15130179
-0.54780143 -0.28735638 -0.46746916 -0.3698557 -0.26355156 -0.4586468 -0.2799532 -0.3342917
-0.22759081 -0.30438316 -0.395058 -0.46449447 -0.39090896 -0.39449033 -0.43577892 -0.3376954
-0.18533956 -0.056863952 -0.42832074 -0.66088885 -0.2772847 -0.21346319 -0.44855094 -0.3923167
-0.54179835 -0.52919275 -0.2647222 -0.3813685 -0.8685219 -0.39504036 -0.5089121 -0.5355994
-0.35620165 -0.06564563 -0.29657063 -0.3315599 -0.65792954 -0.15077698 -0.101609856 -0.25918573
-0.30799347 -0.1579078 -0.29963592 -0.46094492 -0.35117263 -0.40218052 -0.20130415 -0.43254423
-0.37764618 -0.45302963 -0.36591074 -0.27320978 -0.28419006 -0.70375407 -0.41044882 -0.20995505
-0.26510313 -0.34210467 -0.34809074 -0.1297195 -0.63594353 -0.3042525 -0.25381342 -0.20731027
-0.1951837 -0.43473148 -0.5011629 -0.5567955 -0.30672815 -0.40775934 -0.5925518 -0.37894982
-0.32887802 0.06540341 -0.14419957 0.023898853 -0.038998634 -0.35366926 -0.063730344 -0.29992992
-0.42995253 -0.5304005 -0.3878888 0.10635272 -0.19667199 -0.3639985 -0.5801597 -0.19866824
-0.024864128 -0.085008234 -0.1015398 -0.065320276 -0.43494728 -0.50071204 -0.1308133 -0.04827758
3.030924 2.856127 2.9085383 2.7421858 2.6640081 2.9941838 2.9073286 2.6329293
2.7581112 2.6843925 2.59862 2.8365963 2.8937187 2.8836188 2.8624907 2.4135208
2.803312 2.86425 2.6173255 2.4907374 2.9332283 2.7499697 2.7441666 2.6781995
2.6354315 3.0077207 2.7103703 2.8332598 2.6833959 2.6169782 2.6256125 2.8164902
2.6074946 2.6679552 2.555945 2.6114054 2.6696703 2.580256 2.688159 2.9432142
2.759237 2.6378977 2.5800116 2.733706 2.7369108 2.6382618 2.632711 2.6348152
2.9754467 3.0261853 2.5163364 2.4038687 2.6377957 2.9634354 2.8040957 2.856992
2.5218513 2.655228 2.6397004 2.778411 2.4014385 2.5665703 2.4534023 2.5841317
2.6443758 2.8649607 2.5569417 2.5991807 2.5506053 3.1031117 2.768015 2.733203
2.9189892 2.8634815 2.694027 2.5767426 2.5707443 2.6134276 2.8370616 2.6970096
2.677433 2.5469413 2.5726132 2.638385 2.7049198 2.399285 2.7364092 2.8142676
2.732557 2.7937312 2.788144 2.996078 2.631095 2.6868355 2.818864 2.939113
2.698685 2.6084163 2.6624835 2.6501765 2.8745635 2.6770961 2.6719577 2.6893754
2.707909 3.0412765 2.8224633 3.0808997 2.9328668 2.718322 3.1130621 3.041505
2.6565323 2.4224834 2.5889688 3.039876 2.8535545 2.6181982 2.4908879 2.9484038
2.9425602 2.9840846 3.0532084 2.9664745 2.8100762 2.4885037 2.9059508 3.012162
00000000: 4d4a f6bc 9dac 99be c566 55be e294 00bf
00000010: 6b20 f9be a30d ebbe 5268 b0be 3ded bebe
00000020: 5e37 b4be b715 b4be ed57 19bf e47c 80be
00000030: adc0 20be 4105 88be d848 56be 1fa6 2fbf
00000040: 3afe 5ebe ba59 9bbe 8a31 18bf 5e24 1cbf
00000050: 7267 783c 350a bdbe 1db0 8fbe 1e99 9abe
00000060: 8389 dabe 6974 64be 0ab3 09bf 3f0e 8bbe
00000070: d018 9ebe f61f edbe ede9 efbe dbee 1abe
00000080: b73c 0cbf 6020 93be 1e58 efbe ba5d bdbe
00000090: 3bf0 86be c1d3 eabe 0756 8fbe 4828 abbe
000000a0: 910d 69be 1cd8 9bbe 0b45 cabe 38d2 edbe
000000b0: 3825 c8be a3fa c9be 6a1e dfbe 69e6 acbe
000000c0: a7c9 3dbe 2dea 68bd db4c dbbe 0330 29bf
000000d0: 43f8 8dbe 1896 5abe 78a8 e5be bcdd c8be
000000e0: 4cb3 0abf 2d79 07bf ab89 87be bb42 c3be
000000f0: 7457 5ebf bb42 cabe 1048 02bf 0b1d 09bf
00000100: 1060 b6be 3771 86bd 1bd8 97be 38c2 a9be
00000110: 126e 28bf 4865 1abe d418 d0bd feb3 84be
00000120: 52b1 9dbe 95b2 21be e169 99be f900 ecbe
00000130: e6cc b3be 9bea cdbe ad22 4ebe 7076 ddbe
00000140: d75a c1be 80f3 e7be a758 bbbe 27e2 8bbe
00000150: 5c81 91be 3a29 34bf 5926 d2be 75fe 56be
00000160: 99bb 87be 5828 afbe f338 b2be 30d5 04be
00000170: 32cd 22bf fcc6 9bbe d5f3 81be 2549 54be
00000180: 3cde 47be 2095 debe 364c 00bf 268a 0ebf
00000190: 790b 9dbe d5c5 d0be 7ab1 17bf b605 c2be
000001a0: b362 a8be 39f2 853d 0da9 13be 87c7 c33c
000001b0: 08bd 1fbd 2314 b5be 0e85 82bd 6a90 99be
000001c0: bd22 dcbe 54c8 07bf 5c99 c6be 74cf d93d
000001d0: 6264 49be 035e babe 5985 14bf b06f 4bbe
000001e0: dbaf cbbc cc18 aebd 19f4 cfbd a3c6 85bd
000001f0: 69b1 debe aa2e 00bf ecf3 05be b6be 45bd
00000200: a9fa 4140 c9ca 3640 7e25 3a40 f97f 2f40
00000210: 1c7f 2a40 b5a0 3f40 ac11 3a40 ea81 2840
00000220: e584 3040 16cd 2b40 ca4f 2640 cb8a 3540
00000230: b032 3940 368d 3840 0c33 3740 2077 1a40
00000240: 7769 3340 df4f 3740 4382 2740 3e68 1f40
00000250: 03ba 3b40 81ff 2f40 6da0 2f40 9f67 2b40
00000260: e9aa 2840 7f7e 4040 b576 2d40 2154 3540
00000270: c2bc 2b40 927c 2740 090a 2840 6041 3440
00000280: 31e1 2640 c7bf 2a40 9a94 2340 4421 2740
00000290: e1db 2a40 ea22 2540 cc0a 2c40 9f5d 3c40
000002a0: 5797 3040 51d3 2840 e91e 2540 0af5 2e40
000002b0: 8c29 2f40 48d9 2840 567e 2840 d0a0 2840
000002c0: b86d 3e40 05ad 4140 a80b 2140 fcd8 1940
000002d0: a5d1 2840 eda8 3d40 4e76 3340 f5d8 3640
000002e0: 0366 2140 41ef 2940 daf0 2840 7cd1 3140
000002f0: 2bb1 1940 b042 2440 8b04 1d40 6a62 2540
00000300: 743d 2940 845b 3740 efa4 2340 fa58 2640
00000310: 1e3d 2340 6299 4640 2827 3140 ccec 2e40
00000320: b8d0 3a40 4843 3740 f06a 2c40 5ae9 2440
00000330: 1387 2440 6642 2740 6b92 3540 ce9b 2c40
00000340: 105b 2b40 1601 2340 b2a5 2440 4ddb 2840
00000350: 681d 2d40 e38d 1940 5421 2f40 f61c 3440
00000360: 37e2 2e40 7ecc 3240 f470 3240 bebf 3f40
00000370: dc63 2840 1df5 2b40 4568 3440 6d1a 3c40
00000380: 41b7 2c40 4bf0 2640 2166 2a40 7e9c 2940
00000390: d9f8 3740 8b55 2b40 5b01 2b40 ba1e 2c40
000003a0: 624e 2d40 46a4 4240 3da3 3440 762d 4540
000003b0: 17b4 3b40 fdf8 2d40 693c 4740 05a8 4240
000003c0: a004 2a40 f809 1b40 aab1 2540 548d 4240
000003d0: a3a0 3640 8f90 2740 b56a 1f40 a6b2 3c40
000003e0: e852 3c40 3efb 3e40 c467 4340 b8da 3d40
000003f0: 4ad8 3340 a543 1f40 19fb 3940 43c7 4040

head.net.0.weight f4 [1, 128]
-0.02059663 0.007159477 0.0032107418 0.01620526 -0.009135338 -0.023034506 -0.00014676615 0.019666683
-0.0008390137 0.007825036 0.008016648 -0.0050218147 0.021912219 -0.008677494 -0.03382843 0.16029823
-0.026869899 0.0028033364 -0.017628204 0.089938566 -0.0010974421 0.05229562 0.008849608 -0.04917516
-0.017021816 -0.0037479138 -0.04031836 -0.029722782 0.0063854773 0.018734183 0.005222102 0.004558145
-0.016020283 -0.02009676 -0.004012724 -0.041667458 -0.041285243 0.027477005 0.009036994 0.0074424674
-0.0033755354 0.0020045452 -0.008313728 -0.019967223 -0.010328098 0.014147784 0.0063451207 -0.030626917
-0.008711893 0.0021271803 0.0148182595 -0.1305824 -0.000121236895 -0.025194978 0.054302942 -0.031348735
0.024015725 0.0037726585 0.024938587 0.019526273 -0.20746991 0.019473493 0.01281855 -0.05308795
-0.014006314 0.000906416 0.008469728 -0.035795487 -0.33078477 -0.0037279516 0.033202466 -0.0052077533
-0.00026320163 -0.003084569 0.015482143 0.023871634 0.041171346 -0.011678564 -0.030958312 0.0032555605
0.016229656 -0.07459772 0.0044119027 -0.005336762 6.6554007e-06 -0.003306551 -0.005660624 0.040666025
0.0040260484 -0.00062166614 0.0150838625 -0.03701315 -0.30347446 0.0010165737 -0.006915996 -0.005835777
0.004114465 0.02359758 0.03701204 0.037748136 0.041227616 0.083555184 -0.05146965 -0.016140752
-0.015575235 0.0024396032 0.03161536 -0.013719605 0.0025653588 0.013439931 -0.01272019 -0.02139168
0.005032275 -0.14705683 0.08482143 0.0016978622 0.011949815 0.040117387 0.74033546 -0.048499055
0.003968973 0.0048021455 0.0017089121 0.004490162 0.017793601 -0.11123552 -0.0023773396 -0.04820621
00000000: 44ba a8bc 0c9a ea3b 4f6b 523b e5c0 843c
00000010: 62ac 15bc dcb2 bcbc 3de5 19b9 061c a13c
00000020: 42f1 5bba 9434 003c 4258 033c 098e a4bb
00000030: 4181 b33c 0c2c 0ebc ae8f 0abd 3825 243e
00000040: 431e dcbc 2eb8 373b 0669 90bc b631 b83d
00000050: 0cd8 8fba ef33 563d f2fd 103c e46b 49bd
00000060: 5671 8bbc 8f9f 75bb dd24 25bd 317d f3bc
00000070: 443d d13b 6e78 993c 2b1e ab3b 7e5c 953b
00000080: f83c 83bc f6a1 a4bc 2b7d 83bb 7fab 2abd
00000090: b71a 29bd 7517 e13c e60f 143c f1df f33b
000000a0: 1638 5dbb b05e 033b 4d36 08bc 4d92 a3bc
000000b0: 2f37 29bc 1bcc 673c bbea cf3b 4de5 fabc
000000c0: 54bc 0ebc 2a68 0b3b 49c8 723c 65b7 05be
000000d0: 9040 feb8 b365 cebc c36c 5e3d 8867 00bd
000000e0: a0bc c43c b53e 773b 024c cc3c 90f5 9f3c
000000f0: fe72 54be e086 9f3c e504 523c c072 59bd
00000100: bd7a 65bc 8c9c 6d3a 9dc4 0a3c 4a9e 12bd
00000110: 9f5c a9be a650 74bb 4fff 073d cda5 aabb
00000120: 53fe 89b9 7b26 4abb d0a8 7d3c 728e c33c
00000130: 49a3 283d 7357 3fbc 499c fdbc 3e5b 553b
00000140: 0ef4 843c b0c6 98bd b991 903b 01e0 aebb
00000150: 7551 df36 b8b2 58bb c17c b9bb 6b91 263d
00000160: f1ec 833b 4ff7 22ba 4e22 773c 1a9b 17bd
00000170: 0161 9bbe 8e3e 853a 949f e2bb 0c3a bfbb
00000180: a2d2 863b b64f c13c f099 173d ca9d 1a3d
00000190: 4ade 283d fb1e ab3d d7d1 52bd 9c39 84bc
000001a0: 452f 7fbc c0e1 1f3b 1c7f 013d 32c8 60bc
000001b0: 941f 283b 2833 5c3c 5868 50bc 9b3d afbc
000001c0: c8e5 a43b 1196 16be dcb6 ad3d cd8a de3a
000001d0: 28c9 433c 2152 243d a086 3d3f f2a6 46bd
000001e0: 290e 823b 515b 9d3b 93fd df3a 3522 933b
000001f0: e3c3 913c 73cf e3bd 24cd 1bbb e073 45bd
