examples/catchment_models/training/runs/globe_time_split_2404_124848/model_epoch014.pt (torch, 316229 bytes, 5 tensors)

lstm.weight_ih_l0 f4 [512, 23]
000000 17 5e 6d 3d 96 65 83 ba 3b 68 11 3e 22 be 26 be
       0.05795106 -0.0010024782 0.14199917 -0.16283467
000010 b6 cb a0 3d fd 49 1e 3e 97 6c 58 be 64 6c 50 3e
       0.07851355 0.15457912 -0.21135174 0.20353848
000020 2f e9 6a be c8 0b 90 bd f3 ca b7 3e 03 c3 77 be
       -0.22940515 -0.07033497 0.35897025 -0.24195485
000030 f1 39 ea be 7c a7 2a be 20 d1 ec be ff 97 b4 be
       -0.4574733 -0.16665453 -0.462533 -0.35272214
000040 0a ee b8 be 4c ab 5b be 76 7b da bc fe 99 bb bd
       -0.3611911 -0.21452063 -0.026670199 -0.09160231
000050 83 7a f5 3d 35 31 28 bf fd 53 68 3d b7 3a d6 3d
       0.11986258 -0.65700084 0.056720722 0.10460418
000060 86 46 6f 3e 5c 8d c6 be 75 a1 14 bf ed d0 ca 3c
       0.23366746 -0.38779724 -0.58058864 0.024757827
000070 d9 ba 5e 3f 68 06 01 3f 71 0f 50 bf ad a3 3e 3f
       0.87003857 0.504004 -0.8127356 0.744685
000080 96 a3 e2 3e 43 55 a1 be 95 2f 15 3d 81 68 35 3f
       0.4426543 -0.31510362 0.03642233 0.70862585
000090 82 63 3d bf ab 3b 93 be 0a fb 04 3f 3e 4e 0c be
       -0.7397996 -0.2875646 0.51945555 -0.13701722
0000a0 70 4f 1e 3e 98 0a 83 3f 0e 90 ec be 6b 76 03 3f
       0.1545999 1.0237608 -0.46203655 0.51352566
0000b0 0a bf 14 3f 75 86 b8 3e a9 0c a8 3e 71 b0 66 3e
       0.58104 0.36040083 0.3282216 0.22528245
0000c0 08 cd 27 3f 81 69 36 3f da 32 90 ba ab ee 96 3e
       0.6554723 0.71254736 -0.0011001483 0.29478964
0000d0 56 8a fb be 42 33 87 3d 49 75 2f bf de 37 94 be
       -0.4912898 0.066015735 -0.6853834 -0.28948873
0000e0 1f d1 4a bd 16 21 30 3e 73 e2 41 be 77 21 db 3e
       -0.04951584 0.17200121 -0.1893404 0.4279897
0000f0 14 65 08 bd aa c8 a4 bd 45 07 c3 bd 20 6a 43 be
       -0.03329952 -0.08046086 -0.09522871 -0.19083452
000100 d1 6a 4e 3f 57 41 3d bf c3 1b 4b be cc b7 c7 be
       0.8063174 -0.73927826 -0.19834809 -0.39007413
000110 e4 24 09 bf d9 4f 65 3e 13 fa 8e 3e 93 c3 cc 3e
       -0.53571916 0.2239374 0.27925166 0.3999296
000120 84 8f 3b 3d 5b 08 e9 3e 42 47 de 3e 3c 54 14 3f
       0.045791164 0.45514187 0.4341374 0.5794103
000130 a0 18 96 3d d2 2b cb 3e 9d 42 42 3c e3 e9 23 3e
       0.073289156 0.3968187 0.011856702 0.1600719
000140 5e 9d 41 3d 82 ca f8 bd fb 02 23 3e a0 38 0f 3f
       0.047269218 -0.12148 0.15919106 0.5594578
000150 ca 3c 95 3f cb 78 0e 3e ab f0 30 3e ab 3f b2 3e
       1.1659176 0.13913266 0.17279308 0.348142
000160 63 07 d0 bd 03 30 30 3e 9f ae be 3e da 81 93 3e
       -0.10157659 0.17205815 0.372426 0.28810006
000170 7b 89 3c be 5c 2e 0b 3f 52 58 c9 3e fe ad db bd
       -0.1841182 0.54367614 0.39325196 -0.10726546
000180 85 60 31 3e b9 36 04 3f 67 a8 12 3f f5 13 52 3e
       0.17321976 0.51646 0.5728821 0.20515426
000190 d8 6f 02 3f 64 a6 62 be e3 ee a5 3c a8 df 5f be
       0.5095191 -0.22133785 0.020255512 -0.21862662
0001a0 e5 80 97 3c c8 11 2e 3e 98 19 a6 3e 5b 13 2a 3f
       0.018494079 0.1699897 0.324414 0.66435784
0001b0 c0 af a4 3e 5d 1d 01 3e 09 e6 7e bd 22 21 f4 bd
       0.32165337 0.12608857 -0.062231097 -0.11920382
0001c0 4d 19 38 3e e8 fb 6e 3e b2 6a 21 3e cf b9 16 3f
       0.17978401 0.23338282 0.15763357 0.5887727
0001d0 5d cc 02 3e 21 72 3a 3e 8a 38 5c 3f 91 2c ea 3e
       0.12773271 0.18207599 0.8602377 0.45737126
0001e0 5b 81 79 3e 2f 75 fd be f2 f6 02 3f 88 c4 3d be
       0.24365751 -0.49503466 0.5115806 -0.18532002
0001f0 84 85 ab 3e 22 c4 65 3e d9 6e e9 3e ad ce 25 3e
       0.33500302 0.224381 0.45592383 0.16192122
000200 fe 4a ce 3e 4b 62 4c be ab ed 9d bd 87 94 85 3b
       0.4029159 -0.19959371 -0.07711347 0.0040765437
000210 af 5e a0 3e 77 f8 8d be 62 9e 19 be 38 f7 5a bd
       0.31322238 -0.27728626 -0.15001824 -0.053458422
000220 30 f5 c4 3d 70 6d 6d be 87 10 60 3f 2c 59 96 bd
       0.09617078 -0.23186278 0.8752522 -0.07341227
000230 79 d8 7e 3e 9b 0c c1 3d 33 fe 7f 3e 5e 31 04 3f
       0.24887265 0.094262324 0.24999313 0.5163783
000240 4e 42 a1 3e 1c 9a b9 3c 26 8f c0 3d 13 a8 ce bd
       0.314959 0.022656493 0.094023034 -0.10090651
000250 15 14 10 3f 51 1e 83 be 30 36 54 be d6 6a 07 3f
       0.5628064 -0.25609067 -0.20723796 0.52897394
000260 0a 6c 13 3f de 44 db 3e 24 93 24 bf 78 fc 10 3e
       0.5758673 0.4282598 -0.6428702 0.14158809
000270 84 f2 c1 3e 94 bd ac be 53 ef b7 3e 53 db 3e 3e
       0.37880337 -0.33738387 0.35924777 0.18638353
000280 bb 1e 72 3e 4c 8c 78 bd 70 76 a3 3d 56 d1 3c 3d
       0.23644535 -0.060680673 0.079815745 0.046098076
000290 10 ca af be d1 6a c2 3e 1c a6 1b 3f 79 2f 81 3f
       -0.3433385 0.3797212 0.6080034 1.0092613
0002a0 08 38 ef be f0 b9 9c 3f 6f 43 21 bd 66 2a 63 be
       -0.46722436 1.2244244 -0.03937095 -0.22184142
0002b0 69 6f 64 3e d8 19 00 3f 5f 46 14 bf f6 ac 9e bd
       0.22308125 0.50039434 -0.5791988 -0.077478334
0002c0 8c 08 78 3f 37 04 15 3f 76 c3 3f 3f e7 60 a7 bd
       0.9688804 0.58209556 0.74907625 -0.081727795
0002d0 3c f5 54 3e fb 20 38 3f 56 f8 54 3f 91 f8 39 3e
       0.20796674 0.71925324 0.8319143 0.18161227
0002e0 f1 fc 83 bd 40 c2 bd 3e 71 08 84 3e e2 96 ae bd
       -0.06444729 0.37062263 0.2578769 -0.08524872
0002f0 17 ea 30 be 98 ea 31 3f 88 e9 88 3f 22 00 1c bf
       -0.17276798 0.69498587 1.0696268 -0.609377
000300 fa 2b b0 3f 70 56 0b 3f d8 9d c5 3d 2e 78 81 3d
       1.376342 0.5442877 0.09649247 0.063217506
000310 a4 08 90 3d 36 b0 14 bf 3c 45 e5 3d b7 8f 5f 3f
       0.07032898 -0.58081377 0.11194846 0.87328666
000320 67 94 10 3e 70 c2 53 3d 8d 7e a2 be 9f 53 12 3f
       0.14119111 0.051699102 -0.31737176 0.57158846
000330 f0 4d 6e 3f d1 8a 5a 3f 31 74 4d 3f 28 65 b8 be
       0.93087673 0.8536807 0.8025542 -0.36014676
000340 0b 6d 91 3e 98 dd 3b 3e b6 ab 48 be 38 64 09 3e
       0.28403506 0.1834625 -0.19596753 0.13417137
000350 c5 5c 47 3f b2 c5 65 3f 40 11 9e be 46 28 8b 3f
       0.7787593 0.89754784 -0.30872536 1.0871665
000360 df 69 16 3e d2 45 e6 be 6a 3e af 3c d1 af e2 3e
       0.14688824 -0.44975144 0.021392066 0.44274762
000370 1b 3c ed be dc 4c a3 bd e8 8c 3f 3f f7 89 86 3e
       -0.4633492 -0.07973644 0.7482438 0.26277134
000380 99 60 f3 3e 9b bb 14 be 47 52 35 3d 41 e3 56 3f
       0.47534636 -0.14524691 0.04426792 0.8394051
000390 66 38 2f 3f 5f 42 ba 3e 9f 97 0d bf a1 dc 7c 3f
       0.6844543 0.36378762 -0.5530948 0.98774153
0003a0 90 f6 db be 8c ca 87 be 23 55 6c 3c 7a d2 6b 3e
       -0.4296155 -0.26521719 0.014424595 0.23029509
0003b0 dd 3b 6d 3f a3 c9 16 3f f3 3b 20 3f 64 44 7d 3e
       0.9266947 0.58901423 0.62591475 0.2473312
0003c0 73 f3 c2 be 69 54 87 3e 69 69 88 3d 57 49 95 be
       -0.38076362 0.26431587 0.066607304 -0.29157516
0003d0 a0 a3 c5 3e 24 73 80 3f 72 5c 73 3e f7 a8 6b 3e
       0.38601398 1.0035138 0.23765734 0.23013674
0003e0 02 0e 45 be 86 11 75 be b7 71 9d 3e 03 50 eb 3e
       -0.19243625 -0.23932466 0.3075082 0.45959482
0003f0 3b 62 34 bd b9 48 b9 bc b6 44 23 3e 97 f4 70 3f
       -0.044038992 -0.022617685 0.1594418 0.94123214

lstm.weight_hh_l0 f4 [512, 128]
000000 02 ce 06 3e 7f 71 10 3e f2 c4 34 3e a7 36 af bc
       0.13164523 0.14105795 0.17653254 -0.021388365
000010 81 4e 16 3e c6 f4 90 be 50 3a 50 3f b2 85 58 3e
       0.14678384 -0.28311747 0.8133898 0.2114475
000020 a4 26 bf 3e 09 26 61 bc cc d8 b9 be ae 04 f3 bd
       0.37334168 -0.013741978 -0.36298215 -0.11866127
000030 dc a9 9e be 17 45 7c 3c c6 1f 7c be f4 5e 1f be
       -0.30988967 0.015397332 -0.24621496 -0.15563565
000040 a6 84 20 3e 98 8c 2f 3e b5 9f 66 bd 06 fc a6 bd
       0.15675601 0.17143476 -0.056304652 -0.081535384
000050 ab e7 c4 be d5 59 c0 be 88 8b 84 3e a7 22 00 3e
       -0.38458 -0.37568536 0.25887704 0.12513219
000060 96 63 17 3e 25 df 47 be dd 56 dc bd 1c d8 1b 3e
       0.14784083 -0.19518717 -0.10758755 0.15219158
000070 89 4d 30 3e 77 83 95 be d4 dc 6b be 81 03 3f bd
       0.17217077 -0.29201862 -0.23033458 -0.0466342
000080 bb ad a0 3e 0b c3 fd 3c c2 7d 39 bd 65 e1 9f bc
       0.31382546 0.030976793 -0.045285948 -0.019516656
000090 ae 5b 86 bd 63 a7 d9 bd 97 fa 01 bf 77 05 c7 3d
       -0.06560455 -0.106276296 -0.50772995 0.09717839
0000a0 d0 03 d7 3e 3a e5 88 3d 61 07 36 bd 3e b3 95 be
       0.41995096 0.066843465 -0.04444063 -0.29238313
0000b0 ac f1 11 bd 5b a1 2d bc d4 66 c6 bd 36 dc 3f 3c
       -0.035630867 -0.010597552 -0.09687582 0.011710217
0000c0 c4 df b9 3c 7a 6d 96 be b3 7e 97 be e0 32 d8 bd
       0.022689708 -0.293804 -0.2958885 -0.10556579
0000d0 07 60 73 be c1 4d c3 bd 1a 9f 99 bd aa ce 96 be
       -0.237671 -0.09536315 -0.07501049 -0.29454547
0000e0 3c ae 82 3d 9b c5 b7 3e 68 fd 10 bd b9 8c 46 3e
       0.06380889 0.35892949 -0.035397917 0.19389619
0000f0 77 8d e1 bd 28 00 b3 be 15 ba d0 bd dc a2 a4 3d
       -0.110133104 -0.34961057 -0.10191742 0.080388755
000100 fa 39 d2 3b d2 36 3d 3e e3 04 d9 bd 29 66 ab bd
       0.0064156028 0.18477944 -0.10596635 -0.08369095
000110 e0 34 ac 3e cc 5e 78 3e 64 e6 84 bd 72 f7 35 be
       0.3363409 0.24254912 -0.06489256 -0.17770174
000120 ba c7 c8 bd da 06 5f 3e 55 21 f0 3c 55 8b ef 3d
       -0.0980372 0.21779957 0.029312769 0.11696497
000130 f3 ea 09 bd 9e 20 5e 3e e9 90 48 3d b0 1d c4 3c
       -0.03367133 0.2169213 0.048966322 0.023939937
000140 d0 7b 07 3e bc 5a 79 bd 51 29 17 be 15 db aa 3e
       0.13230824 -0.060877547 -0.14761855 0.3337027
000150 55 74 05 bf 2a 33 b9 3d 02 b1 01 3e 27 ae 00 3e
       -0.52130634 0.09042962 0.1266518 0.12566434
000160 97 67 e1 3e d1 0f 70 bd 4c 3b 9c be 70 3e 1d 3e
       0.44024345 -0.058608834 -0.3051399 0.1535585
000170 48 81 c8 3d 2f 29 b3 bd 9e 73 cd be 61 e2 b1 bd
       0.097902834 -0.087480895 -0.4012727 -0.086857565
000180 1e 2b dc be 6c 06 94 3d f7 20 37 be 73 07 50 bd
       -0.43001646 0.072277874 -0.17883669 -0.050788354
000190 7c 1b 17 bd 4a da 6f 3e e7 f7 17 3c 83 2d db 3e
       -0.036891446 0.23423114 0.009275413 0.4280816
0001a0 e9 82 38 3e 2f fc 0e be 30 3b 71 3d 46 e5 1f 3e
       0.18018688 -0.13963388 0.058894336 0.15614805
0001b0 15 79 f2 bd c9 ee 92 bc e5 01 cb 3e 4c db 87 bd
       -0.11839501 -0.017936127 0.39649883 -0.066336244
0001c0 4b 40 35 bd 8b d3 5d 3e 2f da 59 be 4d 19 48 be
       -0.044250768 0.21662728 -0.21274637 -0.19540901
0001d0 34 93 8e bd 27 74 fa bd 0b 25 41 3e 9a 5a 4b bc
       -0.069616705 -0.122291856 0.18861787 -0.012411738
0001e0 74 fc 67 3e b8 ee 6d bd ae 14 a8 3e b5 d6 b1 3c
       0.22654897 -0.058088988 0.32828277 0.021708826
0001f0 26 b2 0f 3e 47 2f 0d 3e e1 8f e0 bd ff 4c c5 bc
       0.14032802 0.13787566 -0.10964943 -0.024084566
000200 ad f4 82 be cd 18 d8 3f 8d d8 81 bf 0a 59 80 3d
       -0.25577298 1.6882569 -1.0144211 0.06266983
000210 3d f1 a4 3d bf e0 8d 3d 79 7c a6 3e 24 57 af be
       0.08053825 0.069276325 0.3251684 -0.3424617
000220 93 b8 49 3b 11 4b 4e bc 83 fe 8b be 35 37 2a bf
       0.003078018 -0.012591139 -0.27342615 -0.6649049
000230 a6 4f 17 be 4e 52 53 3e 1e a3 6f 3e 46 28 90 bd
       -0.14776477 0.20636865 0.23402068 -0.070389315
000240 f4 0e 32 3e bc 9b c2 3e 35 8a 07 be ac 44 8a bd
       0.17388517 0.3800944 -0.13236316 -0.06751379
000250 e4 80 48 3e 16 c1 07 be 2e 40 bf bd ea 1f 83 3d
       0.19580418 -0.1325725 -0.09338413 0.064025715
000260 d7 7a c8 3b 34 09 a3 be 38 c6 8b bd 29 13 ca be
       0.0061181593 -0.3184296 -0.068249166 -0.39467743
000270 5d 7d c5 3e 77 b5 81 be dd ca f0 bc ab 23 c7 3d
       0.38572207 -0.2533376 -0.029393608 0.097236
000280 78 8a e8 3e 82 bb 07 3c c8 dc 0a 3d 84 fb 38 3d
       0.45418143 0.008284451 0.03390196 0.04516174
000290 a8 b4 d7 bc 5b 28 a3 bd f1 c2 75 3d 2a ae ac bf
       -0.02633126 -0.079666816 0.060000364 -1.3490651
0002a0 77 6e b8 3e 56 77 4d be 7c 08 5a 3e d0 25 5b be
       0.36021778 -0.20065054 0.21292299 -0.21401143
0002b0 aa dc 88 3e 6b 41 81 be c6 2c 1c be 83 d4 20 3d
       0.26730853 -0.25245222 -0.15251455 0.039265167
0002c0 27 c4 9d be ed ca 4e 3e 9c a1 cd bd 01 a5 0c 3e
       -0.30813715 0.20194598 -0.1004059 0.13734819
0002d0 db f6 50 be 69 ff 76 bd 4d 9b 37 3e 0f 24 d6 be
       -0.20406668 -0.06030217 0.17930336 -0.41824386
0002e0 b7 c8 7f 3b 5d ce 19 3f e4 ff 12 be 3f d6 06 bf
       0.0039029547 0.6008051 -0.14355427 -0.52670664
0002f0 87 80 d6 bd 9d ea 86 be b6 ce a6 be 46 cd 79 bd
       -0.104737334 -0.2635087 -0.32579583 -0.06098678
000300 05 9a b5 be 69 c2 47 bd 42 d7 e2 be 52 8b 14 be
       -0.3546907 -0.04876939 -0.44304854 -0.14506271
000310 09 c4 e1 3c 48 79 f1 3e 47 82 23 be 5b 3d 0d 3e
       0.027559297 0.47162843 -0.15967666 0.13792937
000320 7f 28 60 bc 98 bd ca 3e 4c d2 2c be 17 d2 43 3e
       -0.01368153 0.39597774 -0.16877097 0.19123112
000330 0d ba 0c be 03 d1 af 3d ea 0f 48 3e c4 d4 df 3e
       -0.13742848 0.08584788 0.1953732 0.43717015
000340 93 75 18 3e 27 06 d1 3d fa 96 1d be f9 14 e4 3e
       0.14888601 0.102062516 -0.15389624 0.4454725
000350 5c d7 dc be 09 1c 9f 3e 8b 8a c0 bd f1 41 ee 3d
       -0.43133056 0.31076077 -0.09401425 0.11633671
000360 20 f9 dc bd 2c f3 15 3e 65 93 8b 3e 01 18 9f bc
       -0.10789704 0.14643544 0.2726089 -0.019420626
000370 68 ff a7 bc d5 58 8e bf 0c 38 f3 bd 83 f3 ae 3e
       -0.02050753 -1.1120859 -0.118759245 0.3417016
000380 9f f2 23 3f 9a 4d 45 be 61 1e 41 be dd dd 18 be
       0.64042085 -0.19267884 -0.18859245 -0.14928384
000390 02 65 cd 3e 08 53 02 3f 80 1c f8 bd fe fd e0 3e
       0.40116125 0.50907946 -0.12114811 0.4394378
0003a0 da fe 37 bf ba 69 e8 be 9e e6 f0 bc 50 18 0e 3f
       -0.7187325 -0.45393163 -0.029406842 0.5550585
0003b0 0d aa b7 3d ef 6b f4 3e 29 26 b1 3d 85 30 82 3f
       0.089679815 0.47738597 0.086498566 1.0171057
0003c0 8e 0c 7a 3d 56 37 0f 3e 7e 42 79 bd 2b a1 1c bd
       0.06104713 0.13985953 -0.060854428 -0.03823964
0003d0 d0 65 65 3e cf a8 08 be 70 8b 40 bd f9 a2 1b bf
       0.2240212 -0.13345645 -0.047007978 -0.6079555
0003e0 b0 dc 0e 3e e2 e8 4c 3e a9 7c b5 3e 6b d6 4c be
       0.13951373 0.20010713 0.3544667 -0.20003669
0003f0 99 72 15 3f 0e fa af 3d f8 30 eb 3c 52 2e 02 3f
       0.5837799 0.08592616 0.028709874 0.5085193

lstm.bias_ih_l0 f4 [512]
000000 dd b6 72 be 6e 72 1d be 9c b4 14 bf be ee 2d bf
       -0.2370257 -0.15375683 -0.5808809 -0.67942417
000010 13 aa aa be ab e9 47 bf 94 65 23 bf bf fe 58 bf
       -0.3333288 -0.78090924 -0.6382687 -0.8476371
000020 79 e0 4d bf 76 fe 4a bf 7d b5 57 bf e3 ea a0 be
       -0.80420643 -0.79294527 -0.84261304 -0.31429204
000030 32 b5 02 bf b4 2e 27 bf e3 06 d0 be ca 90 ab bf
       -0.5105773 -0.6530564 -0.40630254 -1.3403561
000040 47 3f 05 bf 3c ce 7e bf d3 3c a0 bf d7 66 8d bf
       -0.5204968 -0.9953344 -1.2518562 -1.1047009
000050 75 25 d9 be ab 89 74 bf f8 70 a6 be f3 30 0b bf
       -0.4241139 -0.95522565 -0.32508063 -0.54371566
000060 25 c5 74 bf 25 9d 3d bf ef 0a 58 bf cd ee fd be
       -0.9561332 -0.7406791 -0.84391683 -0.49596253
000070 48 b3 4b bf e2 89 24 bf 68 ed 5b bf 8d 10 03 be
       -0.79570436 -0.6427289 -0.8590913 -0.12799282
000080 03 a6 8b bf 32 9e c1 be ed 90 49 bf 85 6f 3d bf
       -1.0910038 -0.37816006 -0.78736764 -0.7399829
000090 b5 de 26 bf 64 82 26 bf bc 8b 1d bf 4f f4 37 bf
       -0.65183574 -0.6504271 -0.6154134 -0.7185716
0000a0 2e 44 31 bf 9e 5e 10 bf d2 47 50 bf c2 ed 37 bf
       -0.6924466 -0.56394374 -0.8135959 -0.71847165
0000b0 62 7c 0e bf 65 b5 50 bf 91 ea 2c bf a4 7e 43 bf
       -0.55658543 -0.81526786 -0.6754542 -0.76365113
0000c0 9d ca 35 bf 28 f0 ff bc d9 8f 05 bf 16 69 92 bf
       -0.7101229 -0.031242445 -0.5217262 -1.143832
0000d0 d3 e5 73 bf d7 cc 4c 3d d3 60 a4 bd 1e 52 e7 be
       -0.9527256 0.050000038 -0.0802628 -0.45179838
0000e0 e8 79 81 bf 76 38 7a bf b0 2d 21 bf 5b 08 fa be
       -1.0115328 -0.977424 -0.6296034 -0.488345
0000f0 cb 50 bb bf 61 27 28 bf 81 b9 df be b1 65 3e bf
       -1.4634031 -0.6568509 -0.43696216 -0.7437392
000100 b8 bf 29 bf d0 08 0e be ae a3 3b bf 7a 33 33 bf
       -0.66308165 -0.13870549 -0.7329663 -0.7000042
000110 fd 39 3d bf 53 84 0c bf b8 c0 fd be 98 1b 3f bf
       -0.7391661 -0.5488941 -0.49561095 -0.7465148
000120 a3 29 1c bf 46 a6 95 be 9d 80 ea be 5a 61 42 bf
       -0.6100103 -0.2922842 -0.4580125 -0.75929797
000130 85 fd 1a bf 41 5d f0 be 5b 2a e1 be 98 5b 5d bf
       -0.6054309 -0.46946147 -0.43977627 -0.86467886
000140 d2 91 60 bf bf 3c 3e bf 92 f0 05 bf b6 a3 81 bf
       -0.87722504 -0.7431144 -0.52320206 -1.0128086
000150 9c cb 07 bf c3 d1 5c bf 26 4f 7f bd 02 dd ac be
       -0.5304506 -0.8625757 -0.06233134 -0.33762366
000160 49 6a 37 bf fa 96 c6 be c9 07 6c bf ea f9 eb be
       -0.71646553 -0.3878706 -0.9219938 -0.46089107
000170 49 2b 8d bf 4d 06 09 bf 6f cc 41 bf 38 1a 41 bf
       -1.1028835 -0.5352524 -0.75702566 -0.7543063
000180 73 4d 23 bf 5c c4 4f bf 6a 55 38 bf ef a8 9b bf
       -0.63790053 -0.81158996 -0.7200533 -1.216093
000190 df b5 c1 be 78 40 56 bf 33 c2 5b bf c8 b8 48 bf
       -0.3783407 -0.8369212 -0.858432 -0.78406954
0001a0 87 53 1b bf 8e 73 d0 be da f0 b2 be c9 4c d7 bb
       -0.6067433 -0.4071316 -0.3494938 -0.006570433
0001b0 a0 01 f2 be 08 c5 3e bf 60 a9 c0 be 82 f7 12 bf
       -0.47266865 -0.74519396 -0.37629223 -0.57408917
0001c0 a7 43 72 bf b3 3d 1b bf 21 de 71 bf 3c fd b8 be
       -0.9463448 -0.6064102 -0.94479567 -0.36130702
0001d0 ef ab 17 bf 27 a9 36 bf 9f c2 90 bf a7 f1 ce be
       -0.59246725 -0.71351856 -1.1309394 -0.4041874
0001e0 ec 39 84 be 96 8b 0d be c3 31 15 bd 22 f0 b6 3b
       -0.2582544 -0.13822779 -0.03642441 0.0055828253
0001f0 d4 0a 9d bf e7 6c 5a bf ee 09 d3 be e0 0b 67 be
       -1.226893 -0.8532242 -0.41218513 -0.22563124
000200 61 a1 4f be fc 38 6a bd ad 1b 2e 3d 4b 59 b0 be
       -0.20276405 -0.05718325 0.042506862 -0.34443125
000210 5c 4a ce be 36 7b 8e bd a9 97 63 be ef 1e c3 be
       -0.40291107 -0.06957094 -0.22225823 -0.38109538
000220 d6 93 05 bd 6e e7 3a bf e8 40 6b bf 95 e1 3d bf
       -0.03261169 -0.73009384 -0.91895914 -0.74172336
000230 ec 95 a1 be 1d 02 87 be 60 62 95 be 44 98 7e bf
       -0.31559694 -0.263688 -0.29176617 -0.9945109
000240 d1 c0 e3 be c5 58 d6 3d 5c 9a f9 be 3f b8 63 bf
       -0.44483045 0.1046615 -0.4875058 -0.8895301
000250 63 46 42 be f6 47 40 bf 36 db 16 be 17 6c a9 be
       -0.18972163 -0.75109804 -0.1473206 -0.33090279
000260 06 d9 24 bf 9f bc e6 be 73 50 16 bf 3f 9a ec be
       -0.6439365 -0.4506578 -0.58716506 -0.4621143
000270 93 fe 4b bf 09 60 99 be 0f cc 2c bf 57 d4 14 3e
       -0.79685324 -0.29956082 -0.6749887 0.14534126
000280 ee 23 11 bf aa c2 f5 be 03 45 2f bf 37 12 29 bf
       -0.5669545 -0.4800008 -0.6846468 -0.6604342
000290 bf f5 13 bf ab 00 9d be 79 77 40 bf f6 bf 1f 3e
       -0.57796854 -0.30664572 -0.751823 0.15600571
0002a0 db 07 f4 be b2 77 3a bf ae 57 12 bf 5e 8f 74 be
       -0.47662243 -0.7283889 -0.5716504 -0.23882815
0002b0 70 e2 ed be b1 2e 56 be dd c3 39 bf ed e6 32 bf
       -0.4646182 -0.20916249 -0.7256449 -0.69883615
0002c0 36 4a b7 3d fa 40 0c be a3 af 1b bf a1 c9 6c bf
       0.089497015 -0.13696662 -0.60814875 -0.9249516
0002d0 5b c6 04 bf fa 14 c0 3e 06 2b 26 be 5f b8 46 be
       -0.51865166 0.37516004 -0.1622735 -0.1940627
0002e0 04 e2 3b bf 0c da cf be 91 ed 5e bf 7a 4b 13 bf
       -0.7339175 -0.40596044 -0.8708125 -0.57537043
0002f0 bb 90 6e bf bb a2 34 bf 71 e2 24 bf 7b df 0b bf
       -0.9318959 -0.70560807 -0.6440802 -0.5463788
000300 64 0e 09 bf be 07 03 bf 24 b5 6a bf f3 a1 36 bf
       -0.53537583 -0.5118369 -0.9168265 -0.71340865
000310 00 0c 50 bf ee 9c c0 3e d5 04 23 bf 79 af f9 be
       -0.8126831 0.37619728 -0.6367925 -0.48766688
000320 9f 66 01 be cb 87 da be 8d 1c 0c bf 3d fc 38 bf
       -0.12636803 -0.42681727 -0.54731065 -0.72259885
000330 06 8c 2e bf aa 91 51 bf 44 25 ae be fd ce 6e be
       -0.6818241 -0.8186289 -0.34012806 -0.23321147
000340 b3 0f 15 bf 3c 13 31 bf 8d 3a 0f bf 02 fd 3d bf
       -0.5822708 -0.69169974 -0.55948716 -0.74214184
000350 56 fc b8 be d7 ca ef be 85 3f c5 be 1c 5d 03 bf
       -0.36130017 -0.46834442 -0.38525024 -0.5131395
000360 12 5d e8 be b8 3d 0f bf d4 98 2c be bb 78 86 be
       -0.45383507 -0.5595355 -0.16855174 -0.26263985
000370 85 f7 7b bf d7 b1 a5 bd 8b 3f 46 be 4c 40 b2 bd
       -0.9842456 -0.08090561 -0.19360177 -0.0870367
000380 2e 91 1a bf 6e 00 39 bf 71 f2 45 be 81 ac 57 bf
       -0.60377777 -0.7226628 -0.19330765 -0.84247595
000390 27 c7 35 3e 9d d2 e4 be d4 b6 a3 be a2 44 3d be
       0.17751752 -0.44691935 -0.31975424 -0.18483213
0003a0 b3 49 c7 be 34 ee 9c bc ed 61 37 3e dd 8e 90 3e
       -0.38923416 -0.019156553 0.1790845 0.28233996
0003b0 11 d7 dd be 43 4b 55 be 43 ff 34 3d cb 79 22 3e
       -0.43328145 -0.20829491 0.04418875 0.15866773
0003c0 63 03 52 bf 7b 48 3d bf 69 4f 60 bf 38 4a 92 be
       -0.8203642 -0.7393872 -0.8762117 -0.2857225
0003d0 46 e9 11 be 98 bf 4d bf ea 64 62 bf 8d 5a a6 3d
       -0.14249143 -0.80370474 -0.8843523 0.0812274
0003e0 5c 23 d1 bd 82 27 75 bc ab cd 27 3e e0 b3 bd 3e
       -0.102118224 -0.014963033 0.1638705 0.37051296
0003f0 4c b8 39 bf 96 17 5c bf f1 30 10 bf 94 95 2e be
       -0.7254684 -0.8597349 -0.5632468 -0.17049247

lstm.bias_hh_l0 f4 [512]
000000 0f ca 86 be e4 b8 4e be c4 4a 23 bf 63 b8 46 bf
       -0.26326033 -0.20187718 -0.6378596 -0.776251
000010 d3 4d ec be c3 5a 50 bf 3c 4c 3f bf ce cb 3d bf
       -0.46153125 -0.8138849 -0.747257 -0.74139106
000020 12 25 4e bf 26 80 63 bf 4e fe 71 bf bc ae af be
       -0.80525315 -0.88867414 -0.94528663 -0.34313
000030 56 fd 15 bf 9f fb 19 bf c3 3e f4 be 59 ef ad bf
       -0.58589685 -0.6014957 -0.47704133 -1.3588668
000040 f5 78 f6 be 23 61 67 bf 97 21 a2 bf 0e 86 94 bf
       -0.48139158 -0.90382594 -1.2666501 -1.160341
000050 71 5c 0d bf 10 62 74 bf 16 8e cf be 2e cc 05 bf
       -0.5521918 -0.9546213 -0.4053809 -0.5226468
000060 ba fb 7a bf b9 e0 4b bf aa 85 63 bf 47 62 00 bf
       -0.98040354 -0.79639775 -0.8887583 -0.5014996
000070 01 db 56 bf e5 7e 23 bf fe 41 55 bf 2d 87 21 be
       -0.83927923 -0.638655 -0.8330382 -0.15774222
000080 e6 a4 77 bf 38 38 c4 be 03 fd 52 bf c0 b9 3f bf
       -0.9673599 -0.38324142 -0.82417315 -0.74892807
000090 e2 b9 0c bf 4a 90 28 bf d9 30 3a bf 53 14 56 bf
       -0.54971135 -0.6584517 -0.72730786 -0.8362476
0000a0 c4 e7 1f bf 9f e4 0d bf 88 2d 48 bf 54 fa 2e bf
       -0.6246302 -0.55426973 -0.78194475 -0.6835072
0000b0 4b f8 1e bf c1 56 4b bf 50 be 2f bf 7a dc 2f bf
       -0.62097615 -0.7942925 -0.6864977 -0.68695796
0000c0 ad ab 28 bf 02 52 47 bd 6d 71 04 bf 20 c6 93 bf
       -0.65886956 -0.048662193 -0.51735574 -1.1544838
0000d0 0c 94 7f bf 7d 3d 32 3d c3 cb 2e be 88 9d 0c bf
       -0.99835277 0.04351567 -0.17069916 -0.54927874
0000e0 82 bf 7e bf c3 c5 74 bf c0 8e 0e bf 18 9a b7 be
       -0.9951097 -0.9561426 -0.5568657 -0.35859752
0000f0 71 e8 cf bf e4 cc 42 bf c3 b6 07 bf 97 15 3c bf
       -1.624281 -0.7609389 -0.5301325 -0.73470443
000100 4f fc 10 bf cd 05 b4 bd e9 10 27 bf 57 f9 1b bf
       -0.5663499 -0.08790169 -0.6526018 -0.6092734
000110 0c b5 4c bf 07 83 1b bf 7d c8 df be c1 3b 49 bf
       -0.79963756 -0.60746807 -0.43707648 -0.786068
000120 c5 59 01 bf cb 73 bf be f6 69 e9 be e4 3d 44 bf
       -0.505276 -0.3739303 -0.45588654 -0.7665694
000130 c1 d4 09 bf c1 3a 02 bf 18 0c 9c be 26 a9 5c bf
       -0.5384026 -0.508709 -0.30477977 -0.861956
000140 12 2e 5f bf c7 f2 57 bf ca ec 15 bf 69 46 82 bf
       -0.8717967 -0.84354824 -0.58564436 -1.0177737
000150 ae 1e 0d bf e8 e6 66 bf 01 15 76 bd 13 e3 a7 be
       -0.5512494 -0.90196085 -0.060078625 -0.3279043
000160 9a f9 20 bf 1c 79 f0 be c8 ff 7b bf 4e 97 fd be
       -0.6288086 -0.469674 -0.98437166 -0.495295
000170 02 5e 8d bf 6b d7 f8 be cf a4 30 bf 70 9a 46 bf
       -1.1044314 -0.4860185 -0.6900148 -0.775794
000180 92 5d 3d bf 99 17 3f bf dd f4 4a bf 92 c2 9d bf
       -0.739709 -0.7464538 -0.7927988 -1.2325003
000190 a5 dc fb be 3c a8 35 bf da 6b 56 bf 8c f7 37 bf
       -0.49191776 -0.7095983 -0.8375832 -0.718621
0001a0 b2 65 16 bf d2 6a af be 30 93 c8 be 8c b5 75 3d
       -0.58748925 -0.34261185 -0.39174795 0.05998759
0001b0 ec 00 e2 be bd e4 56 bf 9e 36 bb be 1c de 1d bf
       -0.44141328 -0.83942777 -0.36565107 -0.61667037
0001c0 a2 17 60 bf c8 3a 1d bf b9 53 6c bf 24 c4 b3 be
       -0.8753606 -0.6141782 -0.9231525 -0.3511058
0001d0 65 ee 0b bf 9f f9 23 bf 98 cc 96 bf 1a 71 e2 be
       -0.54660636 -0.64052767 -1.1781187 -0.44226915
0001e0 54 0d 94 be 65 85 54 be 0a 4a 98 bc c1 94 7c bd
       -0.2891642 -0.20754011 -0.018589992 -0.0616653
0001f0 92 31 8f bf ea 5e 63 bf 38 bc 10 bf 1e 1c a0 be
       -1.1187003 -0.888167 -0.565372 -0.31271452
000200 15 11 33 40 15 72 39 40 92 cb 40 40 14 33 2d 40
       2.7979176 2.897588 3.012425 2.7062426
000210 eb ea 27 40 9b a8 3a 40 31 f7 34 40 c0 6d 24 40
       2.6237133 2.9165409 2.8275874 2.5691986
000220 99 81 3a 40 28 63 10 40 bc c9 0a 40 84 55 10 40
       2.91416 2.256052 2.168563 2.2552195
000230 61 ce 29 40 6f fd 2f 40 5a 59 2f 40 f6 2c f9 3f
       2.6532214 2.7498434 2.7398286 1.9466846
000240 4d fd 20 40 62 f9 4b 40 23 20 1c 40 e5 c0 0b 40
       2.5154603 3.187096 2.4394615 2.1836483
000250 09 7f 33 40 cb 33 0f 40 e2 db 31 40 8e 28 27 40
       2.8046286 2.2375362 2.7790456 2.6118503
000260 17 0e 19 40 dd 0e 1f 40 ca 0e 1a 40 3a c9 20 40
       2.391485 2.4852822 2.4071527 2.512282
000270 f3 36 0f 40 3a 19 29 40 13 e9 0f 40 12 ab 43 40
       2.2377288 2.6421647 2.2486007 3.0573163
000280 ba 95 20 40 5c 47 20 40 97 f6 10 40 51 1a 15 40
       2.5091386 2.5043554 2.2650506 2.3297312
000290 98 35 16 40 00 55 27 40 13 c5 0c 40 60 e6 44 40
       2.347021 2.614563 2.1995285 3.076561
0002a0 cc 5f 1f 40 8f 3a 11 40 43 48 20 40 fd 06 2c 40
       2.490222 2.2691991 2.5044105 2.6879265
0002b0 00 ff 20 40 1c fe 30 40 6f ba 0d 40 25 c9 11 40
       2.515564 2.7655096 2.214504 2.277902
0002c0 37 4a 49 40 e7 0f 37 40 3c fa 1c 40 4c 6b 01 40
       3.1451547 2.8603456 2.452773 2.022174
0002d0 ff dd 1d 40 45 b0 55 40 8b 1e 3a 40 e8 cb 36 40
       2.4666746 3.3388836 2.9081142 2.8561954
0002e0 a1 05 0c 40 d9 a5 21 40 4b 29 08 40 d3 b2 1e 40
       2.1878436 2.5257475 2.1275203 2.4796646
0002f0 a0 4a 07 40 0b 16 10 40 fa 91 14 40 d7 1f 1b 40
       2.1139297 2.2513454 2.3214097 2.4238183
000300 d6 e4 1a 40 d2 dc 24 40 8b 56 05 40 5e 3b 0e 40
       2.420217 2.5759778 2.0834072 2.2223735
000310 44 29 0a 40 27 a6 56 40 61 23 16 40 a3 01 25 40
       2.1587687 3.3538911 2.3459094 2.578225
000320 54 a5 3b 40 a2 a2 1f 40 77 59 1b 40 d6 f2 11 40
       2.9319658 2.4943013 2.4273355 2.2804465
000330 bc c8 0f 40 01 0f 0a 40 5b de 29 40 a2 cd 2e 40
       2.2466269 2.1571658 2.6541965 2.7313008
000340 88 27 1c 40 09 1f 0f 40 ad 2c 1b 40 d3 28 0d 40
       2.4399128 2.2362692 2.4246018 2.2056167
000350 f0 da 26 40 b2 c3 1f 40 52 2f 24 40 e0 5f 1f 40
       2.607113 2.4963193 2.5653882 2.4902267
000360 8a 99 22 40 56 83 1a 40 a8 c5 32 40 47 be 2b 40
       2.5406213 2.414266 2.793314 2.6834886
000370 f3 19 01 40 b7 b1 35 40 66 0f 34 40 f0 de 36 40
       2.0172088 2.8389719 2.8134398 2.857357
000380 a1 71 1e 40 63 bc 0f 40 82 f1 30 40 74 d7 06 40
       2.4756854 2.2458732 2.7647405 2.1069002
000390 01 69 4a 40 99 ef 24 40 8c a8 2d 40 7c ac 31 40
       3.162659 2.5771239 2.7134123 2.7761526
0003a0 39 62 2b 40 3a 61 3a 40 dd e2 48 40 0b 0c 4e 40
       2.67787 2.9121842 3.1388466 3.219485
0003b0 5c 66 21 40 5f ad 30 40 6c 3c 42 40 25 78 4b 40
       2.5218725 2.7605817 3.0349379 3.179208
0003c0 49 34 10 40 45 f6 0e 40 b7 99 02 40 cd 22 2a 40
       2.2531912 2.233781 2.040632 2.658374
0003d0 7d 19 33 40 8b dd 11 40 03 88 05 40 a2 df 42 40
       2.7984307 2.279147 2.0864265 3.0448995
0003e0 5e fb 3d 40 41 ab 3b 40 9a 76 4b 40 02 12 52 40
       2.9684672 2.9323275 3.1791139 3.282349
0003f0 43 cc 0f 40 01 9a 08 40 48 08 1c 40 7d 88 34 40
       2.2468421 2.1343997 2.4380054 2.8208306

head.net.0.weight f4 [1, 128]
000000 a7 55 49 bc 02 b7 0b 3c 91 d8 34 bc f9 fa e2 bb
       -0.0122884875 0.008527519 -0.011037962 -0.006926891
000010 31 4a 8b 3a 44 81 4f bb fa ea 2a bc 1f 0c a2 bd
       0.0010626969 -0.0031662742 -0.010431999 -0.07912468
000020 ea 11 3c bb 4e 7b d7 3f 76 0b 32 3c 54 65 93 3b
       -0.00286972 1.6834505 0.01086699 0.0044981632
000030 db 19 38 3b 38 57 c7 3b 4f 63 68 bc 6e f4 8b 3f
       0.0028091583 0.0060833953 -0.014183833 1.0933969
000040 82 64 ea 3c 9c 75 39 3c c3 2a b0 3a 5b fa 1a 3f
       0.028612379 0.011319544 0.0013440478 0.6053826
000050 21 34 e3 bc 59 a2 8a bd c1 b9 08 bc 08 02 a6 bc
       -0.027734818 -0.067692466 -0.008345068 -0.02026464
000060 66 9d 58 be f7 4a 89 3a c8 dc 08 bd ff 18 30 bd
       -0.21153793 0.0010474612 -0.03341368 -0.042992588
000070 22 49 7a b9 47 42 3a 3c e4 65 54 3d e6 67 53 3b
       -0.00023869102 0.011368341 0.051854983 0.0032257973
000080 c4 0a a2 bb 33 4c c1 bc 1a c3 22 bd 8b 56 ef bd
       -0.004945131 -0.023595905 -0.039736845 -0.11686429
000090 8d 7b fa bd 81 23 50 bd fc e0 3c bc ef 63 7d 3a
       -0.12230597 -0.05081511 -0.01152825 0.00096660753
0000a0 e9 2b d4 bb f6 11 aa bc d3 40 f9 bc 63 73 33 bd
       -0.006474961 -0.020760518 -0.030426418 -0.043811213
0000b0 90 db 1f bd 27 4d c1 3a 73 e5 b7 be 2d 4a 81 bd
       -0.03902775 0.0014747725 -0.35917243 -0.06312976
0000c0 23 e5 8a bc 2d a5 a0 bb c6 96 52 3d 02 c1 f9 bf
       -0.016954964 -0.004902503 0.05141332 -1.9512026
0000d0 e4 da b8 3b 6e 89 49 bb 80 dd 9f 3b b7 57 c6 bb
       0.005641328 -0.003075208 0.0048787 -0.006052937
0000e0 18 bf 2b 40 03 91 5f bc 5f 8e 81 3d 91 53 5f bd
       2.6835384 -0.013645413 0.06325983 -0.054523055
0000f0 57 96 cd be e0 09 04 3d 3a 4a f3 3c c6 d5 92 be
       -0.40153763 0.03223598 0.02969848 -0.2867872
000100 c0 12 d3 bc 6f cc 08 3d 2a e7 33 3c 85 1b 9a bd
       -0.025765777 0.033398088 0.010980407 -0.0752478
000110 1f 22 4c be 3b c2 8a 3b 54 b0 51 3d 73 b0 c4 37
       -0.19934891 0.00423458 0.05119355 2.3447186e-05
000120 cc 7f 15 3c 4b ac 93 bb f8 2a 56 3d ab c6 57 3b
       0.009124707 -0.004506623 0.052287072 0.0032924812
000130 11 86 f7 3b 68 6b c1 3c 8d 1a 83 3d af e4 9e 3c
       0.0075538238 0.023610786 0.064015485 0.019396154
000140 61 f5 bf bc 42 9d fc bc 0c 59 32 3c 6e e0 2e bb
       -0.023432435 -0.030836705 0.010885488 -0.0026684063
000150 61 71 a8 3b 7b d8 90 bb 4e 4f 77 bb ff 35 9f 3c
       0.005140469 -0.0044203377 -0.0037736478 0.019434927
000160 e1 46 fe bc c5 a6 33 bd 78 c7 81 3c e7 f6 f0 bc
       -0.031039657 -0.043860216 0.015842184 -0.029414607
000170 7f 5f 64 bf 21 de 1d bb a4 8e a1 bb 64 ce 98 3c
       -0.89208215 -0.0024088698 -0.004930334 0.018653102
000180 eb f9 b7 3c 0b a5 35 ba 10 f7 8d 3c 11 59 60 3d
       0.022458037 -0.00069291954 0.017329723 0.05477244
000190 7d 82 58 3c da 68 09 3d eb b7 3e bd 50 a1 ed bb
       0.013214705 0.03354726 -0.046562117 -0.007251896
0001a0 22 e2 1a bc f5 d7 8a 39 44 90 49 bb d4 9d b6 3c
       -0.009453328 0.00026482312 -0.0030756155 0.022292055
0001b0 bb 32 96 bc 3e a1 04 3c 25 8e 1c b9 92 7a 97 3c
       -0.018334737 0.008095084 -0.00014930272 0.018491063
0001c0 ba d0 b1 be b5 85 63 be 64 47 89 3e ff 1b 8c 3c
       -0.34729558 -0.22218974 0.2681228 0.017103193
0001d0 3c b9 00 3d 97 a9 d0 3d e7 86 93 40 31 d4 cf bb
       0.031426653 0.10188597 4.6102176 -0.006342434
0001e0 2d 69 9c bc 87 8b af 3b 9a 45 0c b9 e7 97 5d bc
       -0.01909312 0.005357209 -0.00013377369 -0.013524986
0001f0 ec 69 cd 3c 6e 4e e2 bd e3 e3 76 3c 47 41 96 bc
       0.025074922 -0.110501155 0.015068981 -0.018341674
