examples/catchment_models/training/runs/globe_time_split_2404_124848/model_epoch011.pt (torch, 316229 bytes, 5 tensors)

lstm.weight_ih_l0 f4 [512, 23]
0.08275156 -0.07006506 0.14644273 -0.018369772 -0.03947349 0.1402884 -0.20580252 0.25421235
-0.23611173 -0.029357314 0.35632914 -0.23098731 -0.29167068 -0.20348513 -0.4909903 -0.28555116
-0.38768867 -0.27932262 -0.027949708 -0.16737424 0.13238148 -0.5823532 0.013060875 0.103742756
0.18738374 -0.38912144 -0.5507941 0.11412788 0.74145377 0.5021762 -0.8496489 0.746642
0.44474423 -0.23233429 -0.009093112 0.6355085 -0.7847581 -0.22082074 0.5149153 -0.11622745
0.14411287 0.87678236 -0.3697139 0.521483 0.54795355 0.44029787 0.35492945 0.105541
0.67211604 0.70309603 -0.07603746 0.28139475 -0.45575777 0.11560925 -0.6975329 -0.14966363
-0.13507375 0.15068981 -0.12680599 0.32662275 -0.008131137 -0.06849798 -0.01668976 -0.11323444
0.6903334 -0.68988943 -0.12818173 -0.37033308 -0.53483194 0.0973643 0.32036644 0.40199485
0.0738455 0.32978463 0.44483462 0.61546457 0.004561456 0.43911475 0.015109102 0.14868021
0.07336247 -0.108901836 0.11556845 0.5092981 1.100083 0.18746018 0.2332908 0.32434395
-0.07003673 0.25369796 0.36783582 0.28934196 -0.08043794 0.53762746 0.36146474 -0.112102166
0.21081348 0.5775137 0.619152 0.11803806 0.5969957 -0.16711812 0.054042272 -0.12591247
0.0017300283 0.10609225 0.22452661 0.70714635 0.32980993 0.14333558 -0.11598058 -0.042792276
0.23301227 0.29749724 0.11495778 0.55225635 0.19041213 0.32739124 0.88415617 0.4753903
0.23686667 -0.4378718 0.554023 -0.20205267 0.3034673 0.27273884 0.4094559 0.052774414
0.37496102 -0.1383835 -0.106780306 0.021598639 0.29041487 -0.222989 -0.23367456 -0.076437056
0.08750797 -0.20178804 0.86526966 -0.09909141 0.25865299 0.10038828 0.35037145 0.48337296
0.3578481 -0.048249986 0.18251291 -0.045206558 0.53889245 -0.3073241 -0.05476724 0.49293977
0.69024396 0.5561313 -0.3995272 0.18836707 0.30659002 -0.30183795 0.370682 0.058203664
0.22247545 0.03680012 0.1478758 0.028644983 -0.22520769 0.22143367 0.590999 0.9880051
-0.47244367 1.2108654 0.010317643 -0.106870644 0.22514898 0.43688682 -0.60839957 -0.09158325
0.8741299 0.43381923 0.6872841 -0.05809716 0.20595723 0.7097122 0.85019547 0.18148726
-0.07866236 0.3816443 0.22031216 -0.1228006 -0.11319085 0.62679356 0.9718327 -0.52239335
1.2770061 0.61297965 0.20874877 0.038689353 0.00075147545 -0.45100102 0.18451616 0.84614766
0.06866337 0.021512192 -0.27759293 0.44224343 0.82731897 0.76147026 0.73116195 -0.28204542
0.24268427 0.11680721 -0.14987704 0.22529255 0.7421802 0.91083014 -0.34280735 1.1182829
0.16062129 -0.35976475 0.08234123 0.40641186 -0.4821129 -0.021354588 0.8809697 0.34308606
0.62021595 -0.12846094 0.027541079 0.71974474 0.70023376 0.36886767 -0.44026673 0.91045743
-0.32066882 -0.18698922 0.043122586 0.2568222 0.82739675 0.5042514 0.57196 0.30368507
-0.3012287 0.22993958 0.102727056 -0.23328029 0.4121387 0.8978291 0.22510195 0.19039443
-0.17111084 -0.19889258 0.30588934 0.4246472 0.015099541 0.012513528 0.1428984 0.8181682
00000000: a679 a93d 457e 8fbd 15f5 153e 347c 96bc
00000010: f4ae 21bd c3a7 0f3e e5bd 52be 1f28 823e
00000020: 46c7 71be c07e f0bc c670 b63e f087 6cbe
00000030: dc55 95be 685e 50be 1563 fbbe c333 92be
00000040: 217f c6be 6003 8fbe c9f6 e4bc 2764 2bbe
00000050: 038f 073e 1915 15bf 48fd 553c 1577 d43d
00000060: 86e1 3f3e ed3a c7be d800 0dbf e1bb e93d
00000070: eacf 3d3f 9f8e 003f 9782 59bf ee23 3f3f
00000080: 84b5 e33e 0ae9 6dbe 47fb 14bc afb0 223f
00000090: e8e5 48bf d51e 62be 7dd1 033f a808 eebd
000000a0: 5392 133e cf74 603f 244b bdbe e97f 053f
000000b0: af46 0c3f b96e e13e 50b9 b53e e125 d83d
000000c0: cc0f 2c3f 1afe 333f 87b9 9bbd f912 903e
000000d0: 1559 e9be 8bc4 ec3d 8491 32bf 6c41 19be
000000e0: c650 0abe 6e4e 1a3e 6ed9 01be 193b a73e
000000f0: 7638 05bc ab48 8cbd f7b8 88bc 75e7 e7bd
00000100: b1b9 303f 989c 30bf 1242 03be 4c9c bdbe
00000110: bfea 08bf ef66 c73d 1207 a43e 45d2 cd3e
00000120: 4f3c 973d 88d9 a83e 5dc1 e33e 168f 1d3f
00000130: 4478 953b a6d3 e03e 2b8c 773c a03f 183e
00000140: 103f 963d ed07 dfbd 27af ec3d 5c61 023f
00000150: 85cf 8c3f 90f5 3f3e c9e3 6e3e 6910 a63e
00000160: 6b6f 8fbd b3e4 813e fa54 bc3e a124 943e
00000170: a6bc a4bd f4a1 093f e811 b93e d295 e5bd
00000180: 7ddf 573e f0d7 133f bf80 1e3f f0bd f13d
00000190: b6d4 183f 0321 2bbe 6e5b 5d3d 33ef 00be
000001a0: 1ec2 e23a e546 d93d 4eea 653e 8b07 353f
000001b0: d9dc a83e 90c6 123e 3a87 edbd f446 2fbd
000001c0: c59a 6e3e 8f51 983e fc6e eb3d ac60 0d3f
000001d0: 66fb 423e d39f a73e 0f58 623f 5b66 f33e
000001e0: 2d8d 723e bc30 e0be 74d4 0d3f e5e6 4ebe
000001f0: 1160 9b3e 6da4 8b3e 34a4 d13e fc29 583d
00000200: e4fa bf3e 67b4 0dbe a2af dabd a1ef b03c
00000210: 42b1 943e 3a57 64be 6248 6fbe 088b 9cbd
00000220: 6137 b33d 86a1 4ebe 5082 5d3f 70f0 cabd
00000230: 2a6e 843e 5f98 cd3d e363 b33e a97c f73e
00000240: de37 b73e c7a1 45bd aae4 3a3e 832a 39bd
00000250: dbf4 093f 9659 9dbe 9d53 60bd 9a62 fc3e
00000260: d4b3 303f 9f5e 0e3f d48e ccbe 4ce3 403e
00000270: 5ef9 9c3e 818a 9abe 08ca bd3e f766 6e3d
00000280: 9bd0 633e b9bb 163d c16c 173e e2a8 ea3c
00000290: d89c 66be 82bf 623e b64b 173f e7ed 7c3f
000002a0: 23e4 f1be a3fd 9a3f 550b 293c ffde dabd
000002b0: 748d 663e a1af df3e 13c0 1bbf 0090 bbbd
000002c0: fac6 5f3f 8e1d de3e daf1 2f3f 4af7 6dbd
000002d0: 74e6 523e b3af 353f 69a6 593f ccd7 393e
000002e0: bb19 a1bd e266 c33e 8399 613e e27e fbbd
000002f0: 9bd0 e7bd 8b75 203f 07ca 783f 92bb 05bf
00000300: f074 a33f 3cec 1c3f 3dc2 553e ba78 1e3d
00000310: aafe 443a 9be9 e6be cef1 3c3e 229d 583f
00000320: 629f 8c3d 563a b03c a920 8ebe bb6d e23e
00000330: 2dcb 533f b7ef 423f 6e2d 3b3f 4268 90be
00000340: 3a82 783e 9e38 ef3d 5e79 19be 17b3 663e
00000350: 86ff 3d3f 2a2c 693f 7284 afbe e523 8f3f
00000360: e879 243e 1633 b8be 85a2 a83d 3715 d03e
00000370: 81d7 f6be d1ef aebc 3b87 613f faa8 af3e
00000380: 79c6 1e3f 448b 03be d49d e13c 3141 383f
00000390: 8542 333f 39dc bc3e a46a e1be bd13 693f
000003a0: b42e a4be 1a7a 3fbe 4fa1 303d 337e 833e
000003b0: 46d0 533f 9f16 013f f86b 123f 9c7c 9b3e
000003c0: a63a 9abe 4875 6b3e 9062 d23d 07e1 6ebe
000003d0: d803 d33e 21d8 653f 2081 663e c2f6 423e
000003e0: ae37 2fbe 7faa 4bbe 879d 9c3e 5c6b d93e
000003f0: 1164 773c 8a05 4d3c f553 123e 7973 513f

lstm.weight_hh_l0 f4 [512, 128]
0.026139397 0.115130685 0.10300426 -0.08512438 0.118820995 -0.24061987 0.6849913 0.29952365
0.31330505 -0.06468731 -0.29474086 -0.040010218 -0.2535112 0.007908961 -0.19319764 -0.18839614
0.14277099 0.29799974 -0.040136147 -0.08446233 -0.44260448 -0.34873143 0.24004625 0.10564794
0.1143259 -0.18634191 -0.066510834 0.122821525 0.107158296 -0.2897882 -0.2493482 0.0127473455
0.20033975 0.043157253 -0.04639239 -0.030827837 -0.03144973 -0.13507995 -0.37194052 0.075610735
0.30162513 0.07005178 0.040401578 -0.23360825 0.050338916 -0.09799711 -0.13131614 -0.0020200054
0.05602019 -0.22088309 -0.2510481 -0.05211225 -0.2252192 -0.06998556 -0.08889218 -0.25172877
0.006684945 0.31568164 -0.013690818 0.19503228 -0.11564254 -0.37501395 -0.1294847 0.04080956
0.04283277 0.14647375 -0.15701303 -0.07822984 0.30163786 0.16362956 -0.06995184 -0.04790871
-0.06386664 0.07839342 0.030272108 0.07516986 -0.040511332 0.22688323 0.03241297 0.057540756
0.1361401 -0.07128629 -0.08225483 0.21063025 -0.4265805 0.07423005 0.0663321 0.16839133
0.37371343 -0.031229386 -0.1999969 0.05292932 0.092268676 -0.1133943 -0.28456265 -0.03686725
-0.25862497 0.043209966 -0.17310835 -0.0040566106 0.101935305 0.25523427 0.00057647726 0.34197283
0.11801163 -0.20564695 0.056019675 0.07699417 -0.13192448 0.0029799582 0.32426217 -0.07972376
-0.055988666 0.19195187 -0.18480414 -0.1679534 0.040426545 -0.15037344 0.11060851 0.025971588
0.1744489 0.06578176 0.32723442 0.024543587 0.25476164 0.12735721 -0.07638319 -0.05172554
-0.20998274 1.7061365 -0.8704637 0.039150443 0.015642287 0.069943994 0.33839333 -0.32948628
-0.0055751996 0.0076685227 -0.2576847 -0.61412334 -0.11409239 0.14777505 0.25336263 -0.051512893
0.13130423 0.44533265 -0.033500187 -0.035149004 0.122764006 -0.11836327 -0.09964975 0.13101587
-0.0029540886 -0.32650197 -0.016716348 -0.32592368 0.30481905 -0.223636 -0.03684633 0.12100959
0.54607546 0.033240702 0.029088115 0.04653431 -0.043443482 -0.04685202 0.041565493 -1.2157342
0.3255205 -0.15133843 0.17458709 -0.20037046 0.21928953 -0.15285222 -0.19709463 0.068207406
-0.2707715 0.2499067 -0.1287124 0.11880893 -0.24263641 0.0012330309 0.074885905 -0.29628757
0.016215168 0.5180601 -0.15018596 -0.5112564 -0.12646261 -0.25474367 -0.31865284 -0.08781488
-0.33795124 -0.117987156 -0.41482317 -0.15718853 0.027746879 0.50574917 -0.19428208 0.14066951
-0.021665258 0.19835334 -0.17603135 0.14641581 -0.10439884 0.0827458 0.15677246 0.32114756
0.14486052 0.14972389 -0.18163028 0.38078955 -0.3756242 0.36094245 -0.14737302 0.08392755
-0.1090821 0.13108729 0.27385253 -0.0939517 -0.05419358 -0.9750494 -0.14686953 0.34598368
0.6047392 -0.15977839 -0.19441622 -0.15884209 0.4087857 0.39834112 -0.08090242 0.33455265
-0.6263863 -0.3760398 0.008496084 0.54948115 0.075380825 0.39228845 0.038680617 0.8071766
0.03308835 0.11316933 -0.042033076 -0.029667407 0.19981417 -0.14519432 -0.046002116 -0.4409894
0.14252019 0.10758168 0.40171826 -0.12324842 0.5199586 0.07371425 0.032840233 0.48645997
00000000: 4a22 d63c a3c9 eb3d e6f3 d23d b155 aebd
00000010: 6c58 f33d 0e65 76be 975b 2f3f 2a5b 993e
00000020: 8569 a03e c87a 84bd 46e8 96be c1e1 23bd
00000030: 38cc 81be 9694 013c 9ad5 45be ebea 40be
00000040: 8f32 123e 6c93 983e cd65 24bd 96fa acbd
00000050: 0e9d e2be ed8c b2be afce 753e f25d d83d
00000060: b323 ea3d 6ad0 3ebe d536 88bd da89 fb3d
00000070: cf75 db3d 1e5f 94be 2255 7fbe 3eda 503c
00000080: dd25 4d3e a9c5 303d f205 3ebd a98a fcbc
00000090: 6fd1 00bd 6652 0abe fd6e bebe cdd9 9a3d
000000a0: 9c6e 9a3e 4f77 8f3d 207c 253d 0037 6fbe
000000b0: 2e30 4e3d b5b2 c8bd bd77 06be 1162 04bb
000000c0: 6d75 653d 2d2f 62be 6089 80be a873 55bd
000000d0: dd9f 66be 9754 8fbd 1a0d b6bd 98e2 80be
000000e0: 620d db3b 06a1 a13e 744f 60bc 8bb6 473e
000000f0: ffd5 ecbd d401 c0be a397 04be ed27 273d
00000100: 6a71 2f3d 37fd 153e 06c8 20be f736 a0bd
00000110: 4770 9a3e 828e 273e e942 8fbd ec3b 44bd
00000120: 83cc 82bd bb8c a03d 36fd f73c a8f2 993d
00000130: 36ef 25bd 1454 683e 76c3 043d dbaf 6b3d
00000140: 4f68 0b3e 8cfe 91bd 3875 a8bd 75af 573e
00000150: c268 dabe ed05 983d 20d9 873d c76e 2c3e
00000160: 5e57 bf3e c5d4 ffbc fdcb 4cbe 6acc 583d
00000170: 5cf7 bc3d 453b e8bd 32b2 91be 1d02 17bd
00000180: 7e6a 84be effc 303d 5143 31be 51ed 84bb
00000190: 75c3 d03d 11ae 823e bc1e 173a 1017 af3e
000001a0: 15b0 f13d 1d95 52be e374 653d 1faf 9d3d
000001b0: 3617 07be 674b 433b b105 a63e 3646 a3bd
000001c0: 5f54 65bd 088f 443e 4c3d 3dbe fafb 2bbe
000001d0: 4e96 253d 7ffb 19be b786 e23d 5ec2 d43c
000001e0: bca2 323e 96b8 863d 458b a73e a20f c93c
000001f0: 1e70 823e ee69 023e ca6e 9cbd 29de 53bd
00000200: b705 57be ae62 da3f b6d6 5ebf 375c 203d
00000210: 4124 803c cc3e 8f3d e441 ad3e 6db2 a8be
00000220: 2ab0 b6bb 3b48 fb3b 40ef 83be 3037 1dbf
00000230: 45a9 e9bd 5852 173e bfb8 813e 2fff 52bd
00000240: 9e74 063e a402 e43e 7e37 09bd 67f8 0fbd
00000250: b26b fb3d 7168 f2bd 2b15 ccbd 0629 063e
00000260: 6299 41bb 442b a7be b9f0 88bc 78df a6be
00000270: 3e11 9c3e d600 65be 2dec 16bd e0d3 f73d
00000280: 9acb 0b3f 6727 083d 334a ee3c c39a 3e3d
00000290: cbf1 31bd e7e7 3fbd 9440 2a3d 2e9d 9bbf
000002a0: 9faa a63e 76f8 1abe f5c6 323e ea2d 4dbe
000002b0: 6f8d 603e 4b85 1cbe 2dd3 49be 53b0 8b3d
000002c0: 90a2 8abe 8be7 7f3e 2fcd 03be 1952 f33d
000002d0: ae75 78be a79d a13a c85d 993d 01b3 97be
000002e0: acd5 843c 969f 043f 59ca 19be b3e1 02bf
000002f0: 6a7f 01be c36d 82be 7726 a3be 4ad8 b3bd
00000300: f207 adbe 40a3 f1bd b463 d4be 08f6 20be
00000310: 6c4d e33c c778 013f e2f1 46be ab0b 103e
00000320: 577b b1bc 231d 4b3e 9041 34be 07ee 153e
00000330: 0fcf d5bd a176 a93d f688 203e 746d a43e
00000340: 5156 143e 3851 193e 4afd 39be d9f6 c23e
00000350: d151 c0be 73cd b83e f4e8 16be 35e2 ab3d
00000360: 7066 dfbd bf3b 063e 6636 8c3e c069 c0bd
00000370: 16fa 5dbd d69c 79bf f764 16be c624 b13e
00000380: 30d0 1a3f f29c 23be 0c15 47be 80a7 22be
00000390: 5c4c d13e 5ef3 cb3e 2bb0 a5bd 7c4a ab3e
000003a0: da5a 20bf 4a88 c0be 2933 0b3c ccaa 0c3f
000003b0: 4361 9a3d 08da c83e 916f 1e3d 20a3 4e3f
000003c0: a687 073d 52c5 e73d e02a 2cbd 1009 f3bc
000003d0: 169c 4c3e d2ad 14be b76c 3cbd 5dc9 e1be
000003e0: d0f0 113e c953 dc3d 04ae cd3e ab69 fcbd
000003f0: 021c 053f 7ff7 963d 7b83 063d 4811 f93e

lstm.bias_ih_l0 f4 [512]
-0.20546775 -0.15346827 -0.50917745 -0.6471483 -0.31938097 -0.72355986 -0.56588084 -0.80156535
-0.6959467 -0.8340393 -0.7739369 -0.34112826 -0.60832083 -0.61799103 -0.37588784 -1.1767344
-0.6302185 -0.96681654 -1.1462737 -1.0217115 -0.2542042 -0.7087255 -0.26270568 -0.50761276
-0.8818952 -0.6084069 -0.8316709 -0.47543058 -0.76107216 -0.6760228 -0.8299426 -0.10810246
-1.1332289 -0.3882737 -0.729506 -0.6660821 -0.62323815 -0.65715295 -0.4875637 -0.6374319
-0.4798318 -0.58502746 -0.8252301 -0.65647155 -0.49441382 -0.75256896 -0.6753036 -0.7507318
-0.5638489 -0.064928286 -0.54371846 -1.1142535 -0.78064984 0.042050242 -0.24039821 -0.43470794
-1.0068464 -0.9227315 -0.617846 -0.46661517 -1.348441 -0.62333655 -0.5162766 -0.7934513
-0.44014204 -0.1657917 -0.7069874 -0.64498705 -0.73119473 -0.44237626 -0.5804546 -0.6846551
-0.60678977 -0.29784197 -0.4033985 -0.7283755 -0.5739357 -0.52976155 -0.5645651 -0.88312876
-0.88401437 -0.7015091 -0.44361582 -0.98637575 -0.5628285 -0.8657574 -0.057125647 -0.29609767
-0.7289621 -0.34647602 -0.8531193 -0.4864282 -1.00932 -0.5484354 -0.6799941 -0.7640609
-0.57155824 -0.7523809 -0.582188 -1.1300398 -0.3609529 -0.87172705 -0.8637964 -0.70109254
-0.58719206 -0.35609087 -0.26943788 -0.0077926093 -0.44801283 -0.7185412 -0.347607 -0.5770912
-0.9011414 -0.7377929 -0.89552873 -0.37809512 -0.5484642 -0.68946874 -1.0197139 -0.36104414
-0.23080121 -0.09802126 -0.07683606 -0.0013158482 -1.1171093 -0.7004659 -0.47562206 -0.27824312
-0.14534594 -0.05640829 0.024802104 -0.33671343 -0.42485142 -0.049977683 -0.20858505 -0.4108702
-0.04240134 -0.62569916 -0.84814703 -0.6896895 -0.42220455 -0.32928446 -0.21062179 -0.9207278
-0.49902532 -0.01452261 -0.4828547 -0.9185423 -0.06694334 -0.6093947 -0.11178368 -0.3079576
-0.6458576 -0.3397629 -0.56955117 -0.4344779 -0.8027172 -0.32757017 -0.64425224 0.060622476
-0.5547115 -0.5471073 -0.6304992 -0.59980375 -0.59391 -0.34483224 -0.6979045 0.12987338
-0.37161738 -0.6910765 -0.68177843 -0.3544434 -0.48824257 -0.20085368 -0.60341525 -0.6305984
0.04237639 -0.062155228 -0.6011195 -0.8991491 -0.54375786 0.33167216 -0.11452623 -0.15944327
-0.668692 -0.39476842 -0.80688304 -0.580463 -0.9332139 -0.66009724 -0.68903345 -0.60321826
-0.5271232 -0.50382835 -0.84055156 -0.73329794 -0.79694086 0.33521724 -0.6809793 -0.36944902
-0.12618858 -0.40071625 -0.5381825 -0.7456213 -0.53505236 -0.6803104 -0.3721667 -0.35173467
-0.65621835 -0.6206553 -0.50922453 -0.72284037 -0.38077724 -0.506406 -0.34065172 -0.49880975
-0.48447394 -0.3804396 -0.17293882 -0.23682065 -0.90170485 -0.023221605 -0.19979706 -0.15899262
-0.5415228 -0.6749573 -0.1665682 -0.78471035 0.14598589 -0.49144036 -0.32880986 -0.22326204
-0.43288937 0.04457718 0.11203133 0.25697365 -0.44295886 -0.29534447 0.08417062 0.06242237
-0.71736836 -0.74114907 -0.7952796 -0.30518916 -0.23184364 -0.6846207 -0.870419 0.11602614
-0.1151151 0.010304049 0.1588421 0.35916483 -0.59661883 -0.8591309 -0.563134 -0.21392623
00000000: 2366 52be c926 1dbe 7459 02bf 83ab 25bf
00000010: e785 a3be 383b 39bf 91dd 10bf 6333 4dbf
00000020: 9029 32bf 9983 55bf bb20 46bf 5da8 aebe
00000030: eaba 1bbf a934 1ebf 5f74 c0be 3c9f 96bf
00000040: 0056 21bf 4a81 77bf 19b9 92bf 71c7 82bf
00000050: 0e27 82be 096f 35bf 5c81 86be e9f2 01bf
00000060: e2c3 61bf 8ec0 1bbf 62e8 54bf a36b f3be
00000070: a0d5 42bf d50f 2dbf 1e77 54bf d364 ddbd
00000080: a50d 91bf cfcb c6be e8c0 3abf 5b84 2abf
00000090: 898c 1fbf 2d3b 28bf f3a1 f9be bd2e 23bf
000000a0: 84ac f5be 5cc4 15bf 4842 53bf 850e 28bf
000000b0: cf23 fdbe 5ca8 40bf b2e0 2cbf f62f 40bf
000000c0: 6758 10bf 1ff9 84bd 2231 0bbf dc9f 8ebf
000000d0: abd8 47bf e03c 2c3d f32a 76be 0a92 debe
000000e0: 58e0 80bf 2238 6cbf 282b 1ebf 2fe8 eebe
000000f0: b799 acbf fc92 1fbf b42a 04bf a01f 4bbf
00000100: 4c5a e1be 4dc5 29be 20fd 34bf df1d 25bf
00000110: 942f 3bbf 247f e2be ac98 14bf 8e45 2fbf
00000120: 9356 1bbf be7e 98be 408a cebe d176 3abf
00000130: 73ed 12bf 749e 07bf 5787 10bf ba14 62bf
00000140: c44e 62bf 1a96 33bf 9d21 e3be 1f83 7cbf
00000150: 8715 10bf 47a2 5dbf 95fc 69bd 1d9a 97be
00000160: 439d 3abf 4e65 b1be 0766 5abf 1e0d f9be
00000170: 6631 81bf 4366 0cbf 1814 2ebf 7f99 43bf
00000180: a451 12bf 099c 40bf 460a 15bf 25a5 90bf
00000190: d2ce b8be 8129 5fbf c321 5dbf cd7a 33bf
000001a0: 3852 16bf 8b51 b6be c3f3 89be 2559 ffbb
000001b0: f061 e5be 51f2 37bf 8bf9 b1be 40bc 13bf
000001c0: 34b1 66bf ffdf 3cbf 5f41 65bf af95 c1be
000001d0: 2668 0cbf 0681 30bf fc85 82bf c7da b8be
000001e0: 2757 6cbe 5fbf c8bd 395c 9dbd 8a78 acba
000001f0: 70fd 8ebf bc51 33bf bc84 f3be e275 8ebe
00000200: 91d5 14be 610c 67bd c82d cb3c b465 acbe
00000210: 2086 d9be 66b5 4cbd 5297 55be 945d d2be
00000220: 07ad 2dbd d22d 20bf 2a20 59bf 7e8f 30bf
00000230: 322b d8be f997 a8be 3dad 57be d1b4 6bbf
00000240: 3f80 ffbe 3ef0 6dbc bb38 f7be 9725 6bbf
00000250: 9719 89bd 4b01 1cbf d8ee e4bd 9eac 9dbe
00000260: ec56 25bf 67f5 adbe 1bce 11bf e373 debe
00000270: e07e 4dbf 47b7 a7be b7ed 24bf 464f 783d
00000280: 9301 0ebf 390f 0cbf 6568 21bf bd8c 19bf
00000290: 7c0a 18bf da8d b0be dfa9 32bf 87fd 043e
000002a0: a244 bebe 64ea 30bf 0889 2ebf 9b79 b5be
000002b0: eefa f9be 96ac 4dbe 6c79 1abf e66e 21bf
000002c0: de92 2d3d 7b96 7ebd f8e2 19bf a32e 66bf
000002d0: b733 0bbf efd0 a93e ba8c eabd 1945 23be
000002e0: 662f 2bbf 161f cabe e38f 4ebf 3999 14bf
000002f0: 1be7 6ebf 22fc 28bf 7f64 30bf 836c 1abf
00000300: 8cf1 06bf e5fa 00bf 632e 57bf 6ab9 3bbf
00000310: 5104 4cbf 98a1 ab3e a954 2ebf 6c28 bdbe
00000320: 9437 01be ae2a cdbe 54c6 09bf 0ae1 3ebf
00000330: 31f9 08bf d328 2ebf a28c bebe 9116 b4be
00000340: edfd 27bf 44e3 1ebf 8a5c 02bf 110c 39bf
00000350: 3cf5 c2be d3a3 01bf e769 aebe fe63 ffbe
00000360: f80c f8be fbc8 c2be e016 31be 1d81 72be
00000370: 21d6 66bf 3c3b bebc 9a97 4cbe f6ce 22be
00000380: 3da1 0abf 00ca 2cbf db90 2abe c7e2 48bf
00000390: 537d 153e 129e fbbe c459 a8be ce9e 64be
000003a0: ada3 ddbe 9096 363d af70 e53d 0d92 833e
000003b0: 81cb e2be 6437 97be a561 ac3d 99ae 7f3d
000003c0: 74a5 37bf f2bb 3dbf 7297 4bbf c141 9cbe
000003d0: 6b68 6dbe 4d43 2fbf c8d3 5ebf 1d9f ed3d
000003e0: 77c1 ebbd 50d2 283c 81a7 223e 74e4 b73e
000003f0: 03bc 18bf 01f0 5bbf 8d29 10bf 7a0f 5bbe

lstm.bias_hh_l0 f4 [512]
-0.23170176 -0.2015886 -0.5661554 -0.74397516 -0.4475835 -0.75653553 -0.6748691 -0.6953193
-0.6969934 -0.92976815 -0.8766105 -0.3699662 -0.6836407 -0.56643033 -0.44662663 -1.1952451
-0.59111357 -0.8753065 -1.1610676 -1.0773526 -0.3822836 -0.7081212 -0.3430061 -0.48654085
-0.90616554 -0.66412556 -0.87651235 -0.48096836 -0.804647 -0.6719489 -0.8038895 -0.13785139
-1.0095973 -0.39335504 -0.7663115 -0.67502725 -0.5211159 -0.6651775 -0.5994547 -0.75510794
-0.41201848 -0.5753532 -0.793579 -0.6215071 -0.5588065 -0.7315936 -0.68634707 -0.67403865
-0.5125956 -0.08234812 -0.539348 -1.1249053 -0.82627636 0.035565738 -0.3308321 -0.53219026
-0.9904178 -0.901452 -0.5451088 -0.33686754 -1.509319 -0.72742456 -0.60944414 -0.78441656
-0.34341392 -0.11498836 -0.62662286 -0.55425614 -0.7916662 -0.5009562 -0.52192295 -0.7242083
-0.50205934 -0.3794882 -0.40127265 -0.7356469 -0.5069103 -0.56900615 -0.4295696 -0.8804059
-0.87858605 -0.80194294 -0.506061 -0.9913408 -0.58362466 -0.90514255 -0.05487269 -0.28637832
-0.6413052 -0.4282798 -0.91549647 -0.5208307 -1.0108672 -0.499202 -0.6129832 -0.7855486
-0.6733667 -0.6872448 -0.6549335 -1.1464472 -0.47452942 -0.74440414 -0.8429476 -0.635644
-0.567938 -0.2915711 -0.31169203 0.05876541 -0.4167564 -0.812775 -0.33696583 -0.6196724
-0.8301572 -0.7455609 -0.8738856 -0.3678939 -0.5026033 -0.61647785 -1.0668932 -0.39912587
-0.26171115 -0.1673336 -0.059001796 -0.06856456 -1.0089169 -0.7354087 -0.6288025 -0.36532658
2.855348 2.8983536 2.9947298 2.71397 2.6017818 2.9361498 2.8412602 2.5394397
2.904393 2.3604367 2.2393835 2.307257 2.546615 2.684256 2.820974 2.020456
2.4612563 3.0678859 2.4440973 2.1546466 2.9273906 2.3792503 2.8145845 2.634793
2.3895528 2.5961847 2.4247708 2.5399022 2.2318525 2.614158 2.279345 2.9726262
2.5213997 2.4372406 2.319186 2.3903713 2.3310664 2.576368 2.2534652 3.0504363
2.595209 2.3065028 2.3942425 2.5723095 2.4919095 2.7738001 2.3367004 2.3461466
3.098051 2.9351423 2.4598188 2.0479476 2.4415746 3.2954185 2.955894 2.8908215
2.2530909 2.5369437 2.1914601 2.4745643 2.1126251 2.2968638 2.2764227 2.3669934
2.4284728 2.5839832 2.1597 2.2024758 2.174505 3.31294 2.301713 2.6964474
2.9321249 2.5203779 2.4364598 2.2574341 2.3934002 2.295502 2.62218 2.6127818
2.3659568 2.3073409 2.4748774 2.2249377 2.5876217 2.4582305 2.6099536 2.5045469
2.509981 2.5933585 2.7889087 2.7092843 2.099737 2.8966746 2.8072302 2.7854016
2.537917 2.2935958 2.7914762 2.1646688 3.1311274 2.5326383 2.7043679 2.7377198
2.634196 2.9759016 3.0718148 3.1941402 2.512204 2.6735463 3.074907 3.0829413
2.356188 2.2320206 2.121576 2.638923 2.7090979 2.3982325 2.100369 3.0796993
2.955459 2.9575803 3.174075 3.2709901 2.3756502 2.1350303 2.4381003 2.7773771
00000000: 3a43 6dbe 3e6d 4ebe 8fef 10bf 2875 3ebf
00000010: aa29 e5be 50ac 41bf 39c4 2cbf 7200 32bf
00000020: 296e 32bf 4905 6ebf 8c69 60bf 366c bdbe
00000030: 1403 2fbf 9401 11bf 3fac e4be cbfd 98bf
00000040: 3853 17bf 1614 60bf dd9d 94bf b1e6 89bf
00000050: adba c3be 6e47 35bf 7f9e afbe e21b f9be
00000060: 77fa 67bf 2204 2abf 1d63 60bf 7c41 f6be
00000070: 59fd 4dbf d804 2cbf b4cb 4dbf ea28 0dbe
00000080: 7c3a 81bf d565 c9be fe2c 44bf 96ce 2cbf
00000090: da67 05bf 1349 2abf dd75 19bf c14e 41bf
000000a0: 16f4 d2be 594a 13bf fe27 4bbf 171b 1fbf
000000b0: f10d 0fbf b849 3bbf 71b4 2fbf cc8d 2cbf
000000c0: 7739 03bf 22a6 a8bd b612 0abf e6fc 8fbf
000000d0: d986 53bf 61ad 113d d362 a9be 9f3d 08bf
000000e0: 058c 7dbf 8fc5 66bf 408c 0bbf e779 acbe
000000f0: 5d31 c1bf 7f38 3abf 8804 1cbf 86cf 48bf
00000100: f3d3 afbe 047f ebbd 5b6a 20bf bbe3 0dbf
00000110: a3aa 4abf aa3e 00bf be9c 05bf b765 39bf
00000120: f686 00bf 474c c2be 9c73 cdbe 5b53 3cbf
00000130: e0c4 01bf 63aa 11bf 8cf0 dbbe 4862 61bf
00000140: 04eb 60bf 224c 4dbf 378d 01bf 83c8 7dbf
00000150: 6d68 15bf 6cb7 67bf 30c2 60bd 2ea0 92be
00000160: 942c 24bf 7d47 dbbe fa5d 6abf 2955 05bf
00000170: 1964 81bf 6897 ffbe 78ec 1cbf b719 49bf
00000180: c361 2cbf 46ef 2fbf b9a9 27bf c8be 92bf
00000190: 85f5 f2be 4591 3ebf 6acb 57bf 91b9 22bf
000001a0: 6364 11bf cf48 95be 1996 9fbe 00b4 703d
000001b0: 1861 d5be 0612 50bf c986 acbe daa2 1ebf
000001c0: 2f85 54bf 14dd 3ebf f7b6 5fbf 975c bcbe
000001d0: 9caa 00bf 7ed1 1dbf f58f 88bf 3a5a ccbe
000001e0: 01ff 85be 8059 2bbe deab 71bd 936b 8cbd
000001f0: 3024 81bf bf43 3cbf 33f9 20bf 160c bbbe
00000200: 06be 3640 a07e 3940 a7a9 3f40 afb1 2d40
00000210: 9883 2640 e1e9 3b40 35d7 3540 2e86 2240
00000220: 93e1 3940 6511 1740 0f52 0f40 19aa 1340
00000230: bdfb 2240 daca 2b40 d78a 3440 274f 0140
00000240: 3985 1d40 3e58 4440 176c 1c40 bbe5 0940
00000250: 5e5a 3b40 a345 1840 2722 3440 73a0 2840
00000260: 6fee 1840 e427 2640 722f 1b40 c28d 2240
00000270: acd6 0e40 5d4e 2740 cae0 1140 823f 3e40
00000280: 9d5e 2140 c0fb 1b40 8b6d 1440 d8fb 1840
00000290: 3130 1540 37e3 2440 c638 1040 593a 4340
000002a0: e717 2640 be9d 1340 453b 1940 b8a0 2440
000002b0: 727b 1f40 f185 3140 808c 1540 4427 1640
000002c0: 7846 4640 5fd9 3b40 ac6d 1d40 9311 0340
000002d0: c242 1c40 23e8 5240 5e2d 3d40 3803 3940
000002e0: a432 1040 495d 2240 e240 0c40 435f 1e40
000002f0: 4035 0740 d1ff 1240 e9b0 1140 d27c 1740
00000300: 196c 1b40 fb5f 2540 8638 0a40 5df5 0c40
00000310: 172b 0b40 3507 5440 444f 1340 9892 2c40
00000320: efa7 3b40 df4d 2140 f5ee 1b40 cd79 1040
00000330: 782d 1940 81e9 1240 ccd1 2740 d137 2740
00000340: d66b 1740 79ab 1340 6464 1e40 6165 0e40
00000350: 989b 2540 a653 1d40 7b09 2740 7f4a 2040
00000360: 87a3 2040 96f9 2540 7b7d 3240 ea64 2d40
00000370: 1762 0640 1e63 3940 a9a9 3340 0544 3240
00000380: 3b6d 2240 46ca 1240 8ca7 3240 ef89 0a40
00000390: 6464 4840 bf16 2240 5d14 2d40 cd36 2f40
000003a0: ab96 2840 2c75 3e40 9d98 4440 cb6c 4c40
000003b0: f3c7 2040 621b 2b40 47cb 4440 e94e 4540
000003c0: c9cb 1640 6dd9 0e40 e7c7 0740 1de4 2840
000003d0: dc61 2d40 a47c 1940 726c 0640 cb19 4540
000003e0: 3e26 3d40 ff48 3d40 0b24 4b40 e757 5140
000003f0: a70a 1840 56a4 0840 d609 1c40 8cc0 3140

head.net.0.weight f4 [1, 128]
-0.003884649 0.001541443 0.02467016 0.0061222347 -0.00037241212 -0.01788413 -0.0041158604 -0.05128051
-0.0020178072 1.0732613 0.020010838 0.008488751 -0.020790808 0.0043220785 -0.021537 0.83687085
0.05203531 -0.022878999 -0.0022421675 0.587432 -0.005332444 0.04136251 -0.009445554 -0.030434817
-0.19271612 0.016379824 -0.03938838 -0.05937329 -0.003555566 0.028884131 0.0064103324 -0.0021150562
-0.009875751 0.007406141 -0.033983067 -0.11002093 -0.063532 -0.038376078 -0.011572257 0.0016031566
-0.03103823 -0.026717566 -0.0104143135 -0.04474751 -0.09269922 0.0009675296 -0.29487646 -0.04581336
-0.008224224 0.023629153 0.022723442 -1.5258858 0.0007096821 -0.003937724 0.013548476 -0.021991758
1.9484937 0.017937595 0.04308761 -0.037569374 -0.48059547 0.018924989 0.03465089 -0.24061872
-0.03812527 0.03132913 0.011253416 -0.075094506 -0.17986627 0.00415827 0.06121815 0.03772311
0.0041314648 0.015550189 0.04364407 -0.013597764 0.018626284 -0.034389056 0.058883104 0.040477492
-0.004440988 -0.07964127 0.0068720398 0.027094504 -0.0023322431 -0.0045796544 -0.001426181 0.025797697
-0.03309986 0.05497015 0.02509678 -0.009843815 -0.81369567 -0.0041167624 -0.011933149 0.019414932
0.0031727403 -0.017350668 -0.0069691218 0.05942353 0.011860989 0.023984397 -0.04845135 -0.01017486
-0.002899648 0.0006434479 -0.003458512 0.016626576 -0.0015175632 0.011080829 0.0006969202 0.034305178
-0.21721806 -0.17638743 0.26130503 0.0076266453 0.029826164 0.04310163 4.23019 -0.008072833
0.017667029 0.014894895 -0.00078690954 -0.0049352916 -0.023623107 -0.10827022 0.036736917 -0.035052035
00000000: 9895 7ebb 3f0a ca3a 1319 ca3c 079d c83b
00000010: 4f40 c3b9 bd81 92bc 57de 86bb 830b 52bd
00000020: 303d 04bb a060 893f c5ed a33c 6714 0b3c
00000030: 7c51 aabc 39a0 8d3b 5d6e b0bc 2b3d 563f
00000040: fa22 553d bd6c bbbc 54f1 12bb f261 163f
00000050: c8bb aebb bc6b 293d 86c1 1abc 7052 f9bc
00000060: 6057 45be fb2e 863c b655 21bd 6831 73bd
00000070: 8004 69bb 6a9e ec3c c40d d23b c19c 0abb
00000080: e7cd 21bc 37af f23b d431 0bbd a752 e1bd
00000090: 111d 82bd 3c30 1dbd 9099 3dbc 0221 d23a
000000a0: e343 febc ccde dabc cca0 2abc 2a49 37bd
000000b0: 17d9 bdbd d0a1 7d3a 0cfa 96be caa6 3bbd
000000c0: e5be 06bc ed91 c13c 8326 ba3c 3a50 c3bf
000000d0: f609 3a3a 0608 81bb 6dfa 5d3c 0f28 b4bc
000000e0: 3e68 f93f ddf1 923c a27c 303d 58e2 19bd
000000f0: 9c10 f6be 9408 9b3c 17ee 0d3d c164 76be
00000100: 3e29 1cbd f952 003d 3f60 383c 26cb 99bd
00000110: dd2e 38be 1942 883b e2bf 7a3d 8c83 1a3d
00000120: 3d61 873b 38c6 7e3c 20c4 323d 28c9 5ebc
00000130: 2696 983c 8adb 0cbd 692f 713d bacb 253d
00000140: b585 91bb f61a a3bd d92e e13b 4bf5 dd3c
00000150: 8cd8 18bb ed10 96bb b2ee baba b155 d33c
00000160: b893 07bd 6128 613d c397 cd3c f447 21bc
00000170: 5c4e 50bf e8e5 86bb 4183 43bc 100c 9f3c
00000180: c0ed 4f3b fd22 8ebc 3b5d e4bb 1666 733d
00000190: 9854 423c ed7a c43c ec74 46bd 75b4 26bc
000001a0: 0508 3ebb 0fad 283a 34a8 62bb 7534 883c
000001b0: f9e8 c6ba 5e8c 353c 86b1 363a 9683 0c3d
000001c0: 696e 5ebe e89e 34be c6c9 853e f0e8 f93b
000001d0: 0056 f43c 568b 303d b75d 8740 ea43 04bc
000001e0: 72ba 903c b809 743c 9b48 4eba 3ab8 a1bb
000001f0: 3f85 c1bc c7bc ddbd 7379 163d b992 0fbd
