examples/catchment_models/training/runs/globe_time_split_2404_124848/model_epoch009.pt (torch, 316229 bytes, 5 tensors)

lstm.weight_ih_l0 f4 [512, 23]
0	0x3d17990a	0.037011184
1	0xbd83d5d1	-0.064372666
2	0x3e190795	0.14944299
3	0x3da0f029	0.07858307
4	0x3c52c556	0.012864431
5	0x3e127151	0.1430104
6	0xbe49fdf2	-0.19725779
7	0x3e9a5ec0	0.30150414
8	0xbe69a760	-0.22817755
9	0xbd6acd8d	-0.057324935
10	0x3ebf5c24	0.37374985
11	0xbe5d4004	-0.21606451
12	0xbe4ee5ea	-0.20204893
13	0xbe282a6c	-0.16422433
14	0xbeeeb013	-0.4661871
15	0xbe896c91	-0.26840642
16	0xbebc4a5e	-0.36775488
17	0xbe990b48	-0.2989142
18	0xbdd561c1	-0.10419036
19	0xbe30cfa1	-0.17266704
20	0x3dddbc9c	0.1082699
21	0xbf036b5e	-0.51335704
22	0xbc85f72b	-0.01635321
23	0x3deedd23	0.11663272
24	0x3e71d1d2	0.23615196
25	0xbebd80e4	-0.37012398
26	0xbeff680f	-0.49884078
27	0x3dfd4ca9	0.123681374
28	0x3f1ac9a3	0.60463923
29	0x3ee19658	0.44060016
30	0xbf36b760	-0.7137356
31	0x3f2f17b1	0.68395525
32	0x3ed0f9fa	0.40815717
33	0xbe5e0147	-0.21680175
34	0x3d621b5c	0.055201873
35	0x3f0db0f7	0.5534815
36	0xbf532d02	-0.8249055
37	0xbe9b8a77	-0.30379078
38	0x3f000263	0.5000364
39	0xbd988aac	-0.074483246
40	0x3e22b68d	0.1588995
41	0x3f49a776	0.7877115
42	0xbee0597d	-0.43818274
43	0x3eea5950	0.45771265
44	0x3ef0b323	0.4701167
45	0x3ed2974f	0.41131064
46	0x3ea1bf55	0.31591287
47	0x3e0b393b	0.1359605
48	0x3f26ea73	0.6520149
49	0x3f33caab	0.7023112
50	0xbdafd04c	-0.08584651
51	0x3e6db1d1	0.23212363
52	0xbecbc406	-0.39797992
53	0x3e2fc1ad	0.17163725
54	0xbf25bdb4	-0.6474259
55	0xbdd99e87	-0.1062594
56	0xbd9cf028	-0.07662994
57	0x3e021ac1	0.12705518
58	0xbe464508	-0.19362271
59	0x3ea6979f	0.32537553
60	0x3db78dc0	0.089625835
61	0xbd0ee3a2	-0.034885056
62	0x3ca70525	0.020388195
63	0xbd90acb4	-0.070641905
64	0x3f29597a	0.66152155
65	0xbf36c9cd	-0.71401674
66	0xbdb5c757	-0.08875912
67	0xbeb5f2f3	-0.35536918
68	0xbee81cee	-0.45334572
69	0x3e56e0ea	0.20984235
70	0x3eb609ae	0.3555426
71	0x3ec8b3ac	0.3919958
72	0x3decbda5	0.11559609
73	0x3e97dbed	0.29659978
74	0x3ed9c770	0.4253497
75	0x3f13d90c	0.5775306
76	0x3c802d09	0.015646474
77	0x3ee0914d	0.43860856
78	0xbdb475d8	-0.088115394
79	0x3e32ddd4	0.17467433
80	0x3d433824	0.04766096
81	0xbe011e71	-0.12609269
82	0x3db410d5	0.08792273
83	0x3ef9bc07	0.48776266
84	0x3f6d80bc	0.9277456
85	0x3dca6a6b	0.09883579
86	0x3dfe3fbc	0.124145
87	0x3e8fa586	0.28055972
88	0xbd8e2eeb	-0.06942543
89	0x3e6f71e5	0.23383291
90	0x3eb03f45	0.3442327
91	0x3e9dcabb	0.30818734
92	0xbc659f10	-0.014014974
93	0x3f045691	0.5169459
94	0x3e9a59ea	0.30146724
95	0xbde3365f	-0.11094355
96	0x3e6a1a50	0.228616
97	0x3f1fe7c7	0.6246304
98	0x3f348bd9	0.7052589
99	0x3cef3091	0.029197963
100	0x3f37e4f0	0.71833706
101	0xbddb5ecc	-0.107114404
102	0x3c7f5e43	0.015586439
103	0xbd950118	-0.07275599
104	0x3d25ee15	0.040510256
105	0x3d0af82f	0.033928093
106	0x3e2b74b0	0.16743731
107	0x3f4b0f64	0.7932036
108	0x3e8c653c	0.27420986
109	0x3e2336c4	0.1593886
110	0xbdf96644	-0.12177709
111	0xbbd2229d	-0.0064128176
112	0x3e99eb65	0.30062404
113	0x3ebbb7df	0.3666372
114	0x3e027fe4	0.12744099
115	0x3f12071d	0.57042104
116	0x3e7bebc2	0.24601653
117	0x3ec60d7a	0.38682157
118	0x3f56a015	0.83838016
119	0x3f04132d	0.5159176
120	0x3e991893	0.2990156
121	0xbec33aa6	-0.38130683
122	0x3f10f4df	0.56623644
123	0xbe39f495	-0.18159707
124	0x3eaf8be2	0.3428641
125	0x3e8cf6f1	0.2753215
126	0x3ec1315f	0.3773298
127	0x3db73968	0.08946496
128	0x3eb766e6	0.35820693
129	0xbdd09c7f	-0.10186099
130	0xbe3ba221	-0.18323566
131	0x3cffa1da	0.031205107
132	0x3e88a716	0.26689976
133	0xbe55558c	-0.20833415
134	0xbe7ffb4b	-0.24998204
135	0xbdaa10c4	-0.08303979
136	0x3d55b530	0.052174747
137	0xbe4cdf5f	-0.20007084
138	0x3f5044cf	0.81354994
139	0xbe054ee0	-0.1301837
140	0x3e8e0578	0.27738547
141	0x3dc90896	0.09816091
142	0x3ee06876	0.43829697
143	0x3ee656ae	0.44988006
144	0x3e80dccd	0.25168458
145	0xbcacb649	-0.021083014
146	0x3e3ada8e	0.18247434
147	0xbe14ab77	-0.14518534
148	0x3f0a7a58	0.5409293
149	0xbebc5fcf	-0.36791846
150	0xbcaf71cf	-0.021416573
151	0x3ee162ba	0.44020635
152	0x3f2e56a8	0.68100977
153	0x3eef09eb	0.46687254
154	0xbe597fe9	-0.212402
155	0x3dfec2f8	0.12439531
156	0x3e898b4d	0.2686409
157	0xbe994450	-0.2993493
158	0x3e9f6846	0.31134242
159	0x3ca6d116	0.020363372
160	0x3e66f90e	0.22555944
161	0x3dc90ea9	0.09817249
162	0x3e6176fe	0.22018048
163	0x3cb99635	0.022654632
164	0xbe1df9f7	-0.15427385
165	0x3e2fb7ee	0.17160007
166	0x3f0ec81d	0.557741
167	0x3f6ec509	0.932694
168	0xbee63c96	-0.44968098
169	0x3f934f77	1.1508626
170	0x3d57a7e0	0.052650332
171	0xbda3d5a0	-0.0799973
172	0x3e4d069a	0.2002205
173	0x3e9ad576	0.30240983
174	0xbf0e9091	-0.5568934
175	0xbda36b95	-0.07979504
176	0x3f5340f3	0.8252098
177	0x3eafebf7	0.34359714
178	0x3f14e3ce	0.581601
179	0xbdbb1e3e	-0.091366276
180	0x3e777f9d	0.24169774
181	0x3f2aa1ce	0.66653144
182	0x3f4a3d71	0.79
183	0x3e23df06	0.16003045
184	0xbe7cf2b1	-0.24701954
185	0x3e97559c	0.29557502
186	0x3deb9cf3	0.11504545
187	0xbe5084d4	-0.2036317
188	0xbc296f3e	-0.010341464
189	0x3f117934	0.56825566
190	0x3f71e365	0.944876
191	0xbf1b9d4a	-0.6078688
192	0x3fa204dd	1.2657734
193	0x3f203909	0.6258703
194	0x3e3de9ec	0.18546265
195	0x3d0ea317	0.034823503
196	0xbe0ea418	-0.13929784
197	0xbee82629	-0.45341614
198	0x3e26d054	0.16290408
199	0x3f4bd5f5	0.7962335
200	0x3cdf8ff4	0.027290322
201	0x3d415a60	0.04720533
202	0xbe6fd093	-0.23419409
203	0x3ed17fd7	0.40917847
204	0x3f50dc8c	0.8158653
205	0x3f4fd4ed	0.81184274
206	0x3f37a075	0.71729213
207	0xbe78a011	-0.2427981
208	0x3e81f57d	0.25382605
209	0x3d898e5e	0.067166075
210	0xbe012313	-0.12611036
211	0x3e7de264	0.24793392
212	0x3f302320	0.68803596
213	0x3f616bd8	0.8805518
214	0xbe9fe2b9	-0.31227663
215	0x3f8cedda	1.1010087
216	0x3e2085d3	0.1567605
217	0xbe9cebed	-0.30648747
218	0x3dc0537b	0.09390923
219	0x3ebfba28	0.37446713
220	0xbedb1547	-0.4278967
221	0x3cbf2631	0.02333364
222	0x3f71cf2f	0.9445676
223	0x3eb880cf	0.36035773
224	0x3f2064d4	0.6265385
225	0xbe1757ba	-0.14779559
226	0x3d01bbd2	0.03167326
227	0x3f1a25a0	0.6021366
228	0x3f2c59aa	0.67324317
229	0x3eb8f651	0.36125425
230	0xbef55e2d	-0.47923413
231	0x3f6585c8	0.8965726
232	0xbe9822e5	-0.29714122
233	0xbe4679a4	-0.1938234
234	0x3ce224be	0.02760541
235	0x3ea0a221	0.31373695
236	0x3f486bcb	0.7828948
237	0x3e8fa979	0.28058985
238	0x3f1408c4	0.57825875
239	0x3e88fc09	0.26754788
240	0xbe35b4e2	-0.17744783
241	0x3e28afe3	0.16473345
242	0x3d2bd248	0.041948587
243	0xbe7b7a4e	-0.24558374
244	0x3ed8de88	0.42357278
245	0x3f6ab2e8	0.9167924
246	0x3e7f5036	0.24932942
247	0x3e64ce1e	0.22344252
248	0xbda608e4	-0.081071645
249	0xbe0e4195	-0.13892205
250	0x3edaf8a3	0.4276782
251	0x3eef85f4	0.46781886
252	0x3d772013	0.060333323
253	0xbcf161ae	-0.029465523
254	0x3dece691	0.115674146
255	0x3f437012	0.7634288

lstm.weight_hh_l0 f4 [512, 128]
0	0x3cdad175	0.026711205
1	0x3d70469b	0.058661085
2	0x3bedd171	0.0072576334
3	0xbe000b1f	-0.12504242
4	0x3da4d570	0.080485225
5	0xbe472d02	-0.19450763
6	0x3f148632	0.58017266
7	0x3e7e636f	0.24842618
8	0x3e894923	0.2681361
9	0xbdc7448d	-0.09729872
10	0xbe6c6ec7	-0.23089133
11	0xbcfcfec9	-0.03088321
12	0xbe59e434	-0.21278459
13	0x3c25d31f	0.010121136
14	0xbe1d5b7b	-0.15366928
15	0xbe61b5ec	-0.22042054
16	0x3e0bb448	0.1364299
17	0x3ea1281b	0.3147591
18	0xbd814542	-0.06312038
19	0xbdc103b5	-0.09424535
20	0xbecedbfe	-0.40402216
21	0xbe92a69a	-0.28642732
22	0x3e4f579c	0.20248264
23	0x3da562a7	0.08075457
24	0x3dc4edd1	0.096156724
25	0xbdc5a6bd	-0.096509434
26	0xbd033f4c	-0.032042786
27	0x3de5be7c	0.11217973
28	0x3dd21601	0.10258103
29	0xbe853b45	-0.26021782
30	0xbe84a95a	-0.25910455
31	0x3d372702	0.044714935
32	0x3e0c81ae	0.13721344
33	0x3d875dff	0.06609725
34	0xbd8e6cc5	-0.0695434
35	0xbd44ace2	-0.048016436
36	0x3ccfae7a	0.025351752
37	0xbe1c0255	-0.15235265
38	0xbe8df55b	-0.27726254
39	0xbd144e31	-0.03620738
40	0x3e81654b	0.25272593
41	0x3dcae85c	0.099076
42	0x3d659fb7	0.05606052
43	0xbe500f36	-0.20318303
44	0x3dd08317	0.101812534
45	0xbdfe4c84	-0.12416938
46	0xbe170399	-0.14747466
47	0xbb142dea	-0.0022610375
48	0x3d5cb01b	0.053878885
49	0xbe0b97b7	-0.13632093
50	0xbe6518e2	-0.22372773
51	0xbb79604a	-0.0038051778
52	0xbe60452e	-0.2190139
53	0xbd7bc191	-0.061463896
54	0xbdceef12	-0.10104193
55	0xbe629f4b	-0.22131078
56	0xbd393b0d	-0.04522233
57	0x3e989be8	0.29806447
58	0xbb8506b2	-0.004059636
59	0x3e46df4b	0.19421117
60	0xbdd56736	-0.104200765
61	0xbeb8b8bf	-0.3607845
62	0xbe131930	-0.14365077
63	0x3c0190e6	0.007908082
64	0x3d469544	0.048482195
65	0x3d90e1dc	0.07074329
66	0xbe43969f	-0.19100426
67	0xbda258e3	-0.0792711
68	0x3e727feb	0.2368161
69	0x3e1ff2f7	0.15620027
70	0xbd895922	-0.06706454
71	0x3c3967d4	0.011316258
72	0xbc8d5976	-0.017254572
73	0x3ccf68d9	0.02531855
74	0x3d1195c5	0.035543222
75	0x3da8f841	0.08250476
76	0xbd0de36a	-0.034640707
77	0x3e760189	0.24024023
78	0x3aa45137	0.0012536411
79	0x3dd5abfc	0.10433194
80	0x3dffcf40	0.12490702
81	0xbd5461ed	-0.0518512
82	0xbc5172e6	-0.012783742
83	0x3de482bd	0.11157749
84	0xbeb70df6	-0.3575284
85	0x3d8672ee	0.0656489
86	0x3cc08bd6	0.023504179
87	0x3e391314	0.18073684
88	0x3ea7eb3d	0.3279666
89	0xbc960810	-0.018314391
90	0xbe160d02	-0.146534
91	0xbc8a7cbd	-0.016905183
92	0x3dc1d418	0.09464282
93	0xbdb7f544	-0.089823276
94	0xbe7cfd85	-0.24706085
95	0xbd353c52	-0.04424698
96	0xbe2909ce	-0.16507646
97	0x3d09f1d5	0.033677895
98	0xbe099fe1	-0.13439895
99	0x3d0eedcf	0.03489476
100	0x3dda7863	0.10667493
101	0x3e8cae7e	0.27476877
102	0xbd260ca2	-0.04053939
103	0x3ea23b23	0.31685743
104	0x3d614e30	0.055006206
105	0xbe2df4ab	-0.16987865
106	0x3cef40c5	0.02920569
107	0x3e21d30b	0.15803163
108	0xbe1df651	-0.15425994
109	0xbd3424a4	-0.043980256
110	0x3e9e9e60	0.30980206
111	0xbdd27549	-0.102762766
112	0xbd839f63	-0.06426885
113	0x3e023de8	0.12718928
114	0xbe15e712	-0.14638928
115	0xbe1d6ca1	-0.1537347
116	0x3e06eb0c	0.13175601
117	0xbe350978	-0.17679393
118	0x3d2a8b9a	0.04163704
119	0x3ccd691c	0.025074534
120	0x3e18601a	0.1488041
121	0x3d68e5de	0.056859843
122	0x3e6cdd20	0.23131227
123	0x3d3b4d48	0.045727998
124	0x3e8aaa14	0.27082884
125	0x3deda896	0.11604421
126	0xbd87259b	-0.065989695
127	0xbc8dafe4	-0.017295785
128	0xbe8ff63f	-0.28117558
129	0x3fdab084	1.7085118
130	0xbf580e2f	-0.8439664
131	0x3cc374f8	0.023859486
132	0x3c25ed94	0.010127444
133	0x3cfd2ef3	0.030906176
134	0x3eb92b2e	0.36165756
135	0xbea6afdf	-0.32556054
136	0xbd337d4a	-0.043820657
137	0x3d09ad82	0.033612736
138	0xbe537db5	-0.20653422
139	0xbf1151bb	-0.56765336
140	0xbdf3f962	-0.119128
141	0x3e22da02	0.15903476
142	0x3e87e8a4	0.26544678
143	0xbc9b029f	-0.018922148
144	0x3dea97b3	0.114547156
145	0x3f07324d	0.5281113
146	0x3ca24dee	0.01981255
147	0x3b31e88f	0.0027146672
148	0x3d5a491f	0.05329239
149	0xbdda8703	-0.10670283
150	0xbe1ccbfe	-0.15312192
151	0x3e549417	0.20759617
152	0xbbd3707d	-0.0064526186
153	0xbeae2897	-0.34015343
154	0xbc82ec87	-0.015981926
155	0xbebab4ae	-0.36465973
156	0x3e80f4d1	0.2518678
157	0xbe563045	-0.20916851
158	0xbd3632ae	-0.044481926
159	0x3e33d82b	0.1756293
160	0x3f01313c	0.5046575
161	0x3d1ae950	0.03782016
162	0x3d50abc0	0.050945044
163	0x3d1c1df3	0.0381145
164	0xbd59a0e3	-0.05313195
165	0xbd491646	-0.049093507
166	0x3c34fc1c	0.011046436
167	0xbfa30d7a	-1.2738488
168	0x3e6afa86	0.2294713
169	0xbdd7ad80	-0.105311394
170	0x3e3dd299	0.18537368
171	0xbe4707ca	-0.19436565
172	0x3e313bac	0.1730792
173	0xbde81d8c	-0.113337606
174	0xbe6e33cb	-0.23261945
175	0x3d8655e5	0.06559352
176	0xbe605909	-0.21908964
177	0x3e6fb403	0.23408513
178	0xbe1e6475	-0.15468009
179	0x3daf0162	0.085451856
180	0xbe808a9b	-0.25105748
181	0x3c23b6de	0.009992329
182	0x3c955962	0.018231098
183	0xbe90ff02	-0.28319556
184	0x3d1587a6	0.036506318
185	0x3ee29cec	0.44260347
186	0xbe1b711d	-0.15179868
187	0xbef5636f	-0.47927424
188	0xbe24c3bc	-0.16090292
189	0xbe8bec5f	-0.27328774
190	0xbeb80bd2	-0.35946518
191	0xbde58b06	-0.11208157
192	0xbe2245a2	-0.15846875
193	0xbe2c830b	-0.16846864
194	0xbed6a2ca	-0.41921073
195	0xbe0d5601	-0.13802339
196	0xbc45e437	-0.012078336
197	0x3ee4a1da	0.44654733
198	0xbe32e0d0	-0.17468572
199	0x3e439f66	0.19103774
200	0xbd577bf9	-0.052608464
201	0x3df8d65c	0.12150261
202	0xbe27bf54	-0.1638158
203	0x3df094f3	0.1174716
204	0xbd826ec0	-0.0636878
205	0x3dd644d0	0.10462344
206	0x3e1610ba	0.14654818
207	0x3e93b22b	0.2884687
208	0x3e1930ce	0.14960024
209	0x3e26612e	0.16248009
210	0xbe46a4b7	-0.19398771
211	0x3eafc916	0.34333104
212	0xbea84e8c	-0.32872427
213	0x3ea0083e	0.31256288
214	0xbe27c7c6	-0.16384801
215	0x3de532fb	0.111913644
216	0xbde5f018	-0.11227435
217	0x3e1a8a82	0.15091899
218	0x3e8ce20d	0.27516213
219	0xbd0fedc3	-0.035138857
220	0xbdbb10b3	-0.091340445
221	0xbf5c35ba	-0.8601948
222	0xbe444037	-0.19165121
223	0x3ea09bac	0.31368768
224	0x3f110cb0	0.56659985
225	0xbe0c000e	-0.13671896
226	0xbe48c52c	-0.19606465
227	0xbe03421a	-0.12818184
228	0x3ec13448	0.377352
229	0x3ec0abd7	0.37631103
230	0xbdb19ae5	-0.08672122
231	0x3e8ccc97	0.2749984
232	0xbf01b80f	-0.50671476
233	0xbeb5f8e2	-0.35541445
234	0x3d83bea6	0.06432848
235	0x3f08bbd6	0.53411615
236	0x3db32da6	0.08748941
237	0x3ecdffd6	0.4023425
238	0x3d509e49	0.050932202
239	0x3f1dfe9c	0.6171663
240	0x3b93598f	0.00449676
241	0x3df6cb23	0.12050464
242	0xbcb3f98c	-0.02196958
243	0xbb98bacd	-0.0046609403
244	0x3e656514	0.2240184
245	0xbe0af618	-0.1357044
246	0xbd180b74	-0.037120298
247	0xbeeb79a7	-0.4599125
248	0x3e164822	0.14675954
249	0x3d635e29	0.05550972
250	0x3e963648	0.29338288
251	0xbdf65631	-0.120281585
252	0x3f0b4655	0.54404193
253	0x3d3ef10c	0.0466166
254	0x3d7745c0	0.060369253
255	0x3ef29f5e	0.47387213

lstm.bias_ih_l0 f4 [512]
0	0xbe7673ce	-0.24067613
1	0xbda892c0	-0.08231115
2	0xbebbcfbc	-0.36681926
3	0xbf155531	-0.58333117
4	0xbeb95d3d	-0.36203948
5	0xbf280d90	-0.65645695
6	0xbef6650c	-0.48123968
7	0xbf3eeaf4	-0.7457726
8	0xbf22a964	-0.6353972
9	0xbf503f46	-0.8134655
10	0xbf4be20c	-0.79641795
11	0xbebdf032	-0.37097317
12	0xbeee5a0a	-0.4655307
13	0xbf0cd4e8	-0.5501237
14	0xbe9302fe	-0.2871322
15	0xbf8c60dc	-1.0967059
16	0xbf11e72f	-0.56993383
17	0xbf63d368	-0.88994455
18	0xbf86380e	-1.0485857
19	0xbf6538c1	-0.89539725
20	0xbe34ef9f	-0.17669533
21	0xbf1c2183	-0.60988635
22	0xbe7b041f	-0.24513291
23	0xbf02e6df	-0.5113353
24	0xbf60649c	-0.8765352
25	0xbf1968a8	-0.5992532
26	0xbf4b994d	-0.79530793
27	0xbec2285c	-0.37921417
28	0xbf2f0b91	-0.68377024
29	0xbf1f0fd6	-0.6213354
30	0xbf695457	-0.9114432
31	0xbdc87924	-0.09788731
32	0xbf88d1ae	-1.0688989
33	0xbebfc6ed	-0.37456456
34	0xbf4476b2	-0.76743615
35	0xbf28e6cd	-0.65977174
36	0xbf1e88ce	-0.619275
37	0xbf2aa815	-0.6666272
38	0xbecbc68d	-0.3979992
39	0xbf1c13ea	-0.60967886
40	0xbef26bd6	-0.47347897
41	0xbf1f6dfc	-0.622772
42	0xbf4279df	-0.7596721
43	0xbf291e81	-0.6606217
44	0xbee68239	-0.45021227
45	0xbf550d48	-0.8322339
46	0xbf3179c3	-0.6932642
47	0xbf2a3cd3	-0.6649906
48	0xbf065f9e	-0.5248965
49	0xbda63c55	-0.08116976
50	0xbee61c6c	-0.4494356
51	0xbf8e8838	-1.1135321
52	0xbf3fc9c9	-0.74917275
53	0xbdfef578	-0.12449163
54	0xbe9c631a	-0.30544358
55	0xbecb9e50	-0.3976922
56	0xbf7d55c6	-0.98959005
57	0xbf550e35	-0.83224803
58	0xbf084cfc	-0.5324247
59	0xbf11bd70	-0.56929684
60	0xbfa75246	-1.3071983
61	0xbf0a81aa	-0.541041
62	0xbf0cb876	-0.54968965
63	0xbf4f53a6	-0.8098701
64	0xbee2430a	-0.44191772
65	0xbe1f91f0	-0.15583014
66	0xbf244e91	-0.6418238
67	0xbf29b798	-0.66295767
68	0xbf3b1e95	-0.7309354
69	0xbed42592	-0.41434914
70	0xbf0bc45e	-0.5459651
71	0xbecdebcb	-0.40218958
72	0xbf21ac4a	-0.6315352
73	0xbe72c916	-0.2370952
74	0xbed3d26b	-0.41371474
75	0xbf37ccab	-0.71796674
76	0xbeee72b2	-0.4657188
77	0xbf00f604	-0.5037539
78	0xbf1a0d80	-0.6017685
79	0xbf515a33	-0.8177826
80	0xbf5e0087	-0.86719555
81	0xbf3ee302	-0.74565136
82	0xbeba6955	-0.36408487
83	0xbf64c7f0	-0.8936758
84	0xbf06b1f5	-0.5261529
85	0xbf502a31	-0.8131438
86	0xbdb7b430	-0.08969915
87	0xbea663a9	-0.3249791
88	0xbf2c1a6e	-0.6722783
89	0xbebb57f0	-0.36590528
90	0xbf4fc76f	-0.81163687
91	0xbed7dc31	-0.4216018
92	0xbf800b86	-1.0003517
93	0xbf0a70f5	-0.5407861
94	0xbf247300	-0.64237976
95	0xbf4d3b1d	-0.80168325
96	0xbf087337	-0.53300804
97	0xbf2779de	-0.6542033
98	0xbf188cc3	-0.59589785
99	0xbf83f8e2	-1.0310328
100	0xbebe7cc4	-0.37204564
101	0xbf57eb3c	-0.84343314
102	0xbf53aaed	-0.8268269
103	0xbf2c9ea5	-0.6742957
104	0xbf107774	-0.5643227
105	0xbe8e8208	-0.2783358
106	0xbe814765	-0.25249782
107	0xbc710a54	-0.014711935
108	0xbee881c7	-0.45411512
109	0xbf283d6b	-0.65718716
110	0xbea66115	-0.32495943
111	0xbf02f816	-0.511598
112	0xbf68b3f8	-0.9089961
113	0xbf2d0f32	-0.6760131
114	0xbf5f6e23	-0.8727743
115	0xbeafd0f6	-0.34339112
116	0xbf0893a7	-0.533503
117	0xbf34d5dc	-0.70638824
118	0xbf6fcb59	-0.9366966
119	0xbea791d5	-0.3272845
120	0xbe198a26	-0.14994106
121	0xbd8cf8ee	-0.06883417
122	0xbdb9f82b	-0.090805374
123	0xbd4090ac	-0.04701297
124	0xbf86e576	-1.0538776
125	0xbf3eff93	-0.74608725
126	0xbec502d6	-0.38478726
127	0xbea7c9d8	-0.32771182
128	0xbe016d7b	-0.1263942
129	0xbd20852f	-0.039189514
130	0x3d002a00	0.031290054
131	0xbebb60da	-0.3659733
132	0xbee8c074	-0.4545933
133	0xbd922a15	-0.07136933
134	0xbe22788b	-0.15866296
135	0xbee634fb	-0.44962296
136	0xbd8fb429	-0.07016785
137	0xbf12d5aa	-0.57357275
138	0xbf502959	-0.8131309
139	0xbf2af3c0	-0.66778183
140	0xbea27617	-0.3173072
141	0xbe894ada	-0.2681492
142	0xbe86cc15	-0.26327577
143	0xbf4d0e94	-0.8010037
144	0xbed6a601	-0.41923526
145	0xbd69811c	-0.057007894
146	0xbee6859a	-0.45023805
147	0xbf43140e	-0.76202476
148	0xbdb33240	-0.08749819
149	0xbee45d2d	-0.44602337
150	0xbddc772d	-0.107649185
151	0xbe8e94a7	-0.27847788
152	0xbf19e153	-0.6010944
153	0xbeb0aadd	-0.34505358
154	0xbeea4631	-0.45756677
155	0xbed053a8	-0.40688825
156	0xbf4e8d62	-0.80684483
157	0xbe8b6fd0	-0.27233744
158	0xbf3a5a05	-0.7279361
159	0xbd406806	-0.046974204
160	0xbf044596	-0.5166868
161	0xbf04b803	-0.5184328
162	0xbf19ceb2	-0.60081017
163	0xbf0bbb30	-0.545825
164	0xbf0f2724	-0.559191
165	0xbecd2d18	-0.40073466
166	0xbf16a87d	-0.5885084
167	0x3e1c41d1	0.15259482
168	0xbead5a9f	-0.338582
169	0xbf24675e	-0.64220226
170	0xbf105cea	-0.56391776
171	0xbeccab78	-0.3997457
172	0xbefb4ab2	-0.49080426
173	0xbe90712f	-0.28211352
174	0xbf0f2515	-0.5591596
175	0xbf4df209	-0.8044744
176	0xbdf444e8	-0.11927205
177	0xbd65a266	-0.05606308
178	0xbf1dabf9	-0.61590534
179	0xbf61dc62	-0.882269
180	0xbf0daf92	-0.55346024
181	0x3e8bb6db	0.27287945
182	0xbe595aa7	-0.21225987
183	0xbe1b792f	-0.15182947
184	0xbf19a1d9	-0.60012585
185	0xbeb09f84	-0.344967
186	0xbf464c73	-0.774604
187	0xbf143f65	-0.5790923
188	0xbf76f6b6	-0.964702
189	0xbf1cbc3c	-0.6122472
190	0xbf36b283	-0.7136614
191	0xbf1be88e	-0.60901725
192	0xbedb5409	-0.4283755
193	0xbef2e3a5	-0.47439304
194	0xbf4e0dd4	-0.8048985
195	0xbf1a8e49	-0.6037336
196	0xbf2f7882	-0.68543255
197	0x3e90482d	0.28180066
198	0xbf203c28	-0.6259179
199	0xbeb38ced	-0.35068455
200	0xbe613b49	-0.21995272
201	0xbeb3e158	-0.3513286
202	0xbede1787	-0.43377325
203	0xbf348eba	-0.70530283
204	0xbf07cd40	-0.5304756
205	0xbf110728	-0.56651545
206	0xbec31438	-0.38101363
207	0xbec0cd92	-0.37656838
208	0xbf2a5139	-0.66530186
209	0xbf1999ec	-0.6000049
210	0xbefee9a5	-0.49787632
211	0xbf28366f	-0.6570806
212	0xbefb97d1	-0.49139264
213	0xbf085f77	-0.5327067
214	0xbe30067f	-0.17189978
215	0xbed33d66	-0.4125778
216	0xbf03ab65	-0.514334
217	0xbe9f4036	-0.31103677
218	0xbe4f7c73	-0.20262317
219	0xbe41cda5	-0.18926103
220	0xbf4dead0	-0.8043642
221	0xbd7b7456	-0.061390243
222	0xbe6ffd97	-0.2343658
223	0xbe406cfb	-0.18791573
224	0xbf0d9753	-0.5530903
225	0xbf3a345c	-0.72736144
226	0xbe4595e2	-0.19295457
227	0xbf2f6218	-0.68509054
228	0x3dcb4a2b	0.09926256
229	0xbee7f585	-0.45304504
230	0xbe81d46f	-0.25357386
231	0xbe95324e	-0.29139942
232	0xbed634c0	-0.4183712
233	0x3d7c6ba4	0.06162609
234	0x3d2a8d0d	0.041638423
235	0x3e670be0	0.22563124
236	0xbec8ac26	-0.3919384
237	0xbe94cd27	-0.2906277
238	0x3dcd9f0d	0.10040102
239	0x3d2c78cd	0.042107392
240	0xbf2daa73	-0.6783821
241	0xbf45f690	-0.7732935
242	0xbf35f983	-0.7108385
243	0xbe8ba3f5	-0.27273527
244	0xbe8d7c94	-0.27634108
245	0xbf37a206	-0.71731603
246	0xbf4a501a	-0.79028475
247	0x3dc6f86b	0.09715351
248	0xbdceafdb	-0.100921355
249	0x3d9965ef	0.074901454
250	0x3e25a290	0.16175294
251	0x3e82947d	0.25503913
252	0xbf101f79	-0.56298023
253	0xbf490b3e	-0.7853278
254	0xbeeb1af5	-0.45919004
255	0xbe8a221c	-0.26979148

lstm.bias_hh_l0 f4 [512]
0	0xbe88a876	-0.26691025
1	0xbe059025	-0.13043268
2	0xbed8fbd6	-0.42379636
3	0xbf2e1ed6	-0.680158
4	0xbefb00fd	-0.49024191
5	0xbf307ea8	-0.6894326
6	0xbf171928	-0.5902276
7	0xbf23b803	-0.63952655
8	0xbf22edfd	-0.6364439
9	0xbf68c0f6	-0.90919435
10	0xbf662add	-0.89909154
11	0xbeccb40b	-0.39981112
12	0xbf0a7524	-0.5408499
13	0xbeff43aa	-0.4985631
14	0xbeb73ade	-0.357871
15	0xbf8ebf6b	-1.1152166
16	0xbf07e46c	-0.5308292
17	0xbf4c6634	-0.7984345
18	0xbf881cd2	-1.0633795
19	0xbf7376ac	-0.95102954
20	0xbe9c0b68	-0.30477452
21	0xbf1bf9e8	-0.609282
22	0xbea69f32	-0.3254333
23	0xbefb038e	-0.4902615
24	0xbf669b31	-0.90080553
25	0xbf27ac3c	-0.65497184
26	0xbf571408	-0.8401494
27	0xbec4fe39	-0.38475206
28	0xbf3a334a	-0.7273451
29	0xbf1e04d9	-0.61726147
30	0xbf62a8ed	-0.8853901
31	0xbe02b32d	-0.12763663
32	0xbf71fcfb	-0.9452664
33	0xbec260f3	-0.3796459
34	0xbf4de2c8	-0.80424166
35	0xbf2b3108	-0.6687169
36	0xbf046422	-0.5171529
37	0xbf2cb5fb	-0.6746518
38	0xbf028840	-0.5098915
39	0xbf3a33ee	-0.7273549
40	0xbecfb30d	-0.40566292
41	0xbf1cf3f9	-0.6130977
42	0xbf3a5f95	-0.72802097
43	0xbf202b13	-0.62565726
44	0xbf03bd2d	-0.51460534
45	0xbf4faea4	-0.81125855
46	0xbf344d82	-0.7043077
47	0xbf169aa9	-0.5882974
48	0xbef281a5	-0.47364536
49	0xbdc9e94c	-0.09858951
50	0xbee3df3a	-0.44506246
51	0xbf8fe542	-1.1241839
52	0xbf4b77f7	-0.79479927
53	0xbe061e9c	-0.13097614
54	0xbecab081	-0.39587787
55	0xbefd86ce	-0.4951691
56	0xbf79212e	-0.97316253
57	0xbf4f9ba2	-0.8109685
58	0xbeeb5c9e	-0.459691
59	0xbee10d6b	-0.4395555
60	0xbfbbe9ec	-1.4680762
61	0xbf25272d	-0.645129
62	0xbf24924f	-0.6428575
63	0xbf4d038c	-0.8008354
64	0xbeb0bcb8	-0.3451898
65	0xbdd717ec	-0.105026096
66	0xbf0fbbcc	-0.5614593
67	0xbf127d74	-0.57222676
68	0xbf4a99a4	-0.79140687
69	0xbef223c8	-0.47292924
70	0xbef9918c	-0.48743856
71	0xbee22c0d	-0.44174233
72	0xbf06dcc8	-0.52680635
73	0xbea3320f	-0.3187413
74	0xbed2bbc7	-0.41158888
75	0xbf39a935	-0.72523814
76	0xbecc2178	-0.39869285
77	0xbf0b0208	-0.54299974
78	0xbeeefd16	-0.46677464
79	0xbf50a7c1	-0.8150597
80	0xbf5c9cc7	-0.86176723
81	0xbf58990a	-0.8460852
82	0xbeda620b	-0.42652926
83	0xbf660d54	-0.8986409
84	0xbf0c04db	-0.5469491
85	0xbf5a3f56	-0.8525289
86	0xbdb31719	-0.0874464
87	0xbea169ba	-0.31525975
88	0xbf15a9bf	-0.58462137
89	0xbee53a1f	-0.44770905
90	0xbf5fbf62	-0.874014
91	0xbee97954	-0.4560038
92	0xbf803e3a	-1.001899
93	0xbefbac53	-0.4915491
94	0xbf134b60	-0.5753689
95	0xbf52bb55	-0.82317096
96	0xbf228356	-0.6348165
97	0xbf16cd1b	-0.58906716
98	0xbf2b2c36	-0.66864336
99	0xbf861285	-1.0474402
100	0xbef8a339	-0.4856203
101	0xbf375300	-0.7161102
102	0xbf4e5494	-0.80597806
103	0xbf1bdd69	-0.6088472
104	0xbf0b899f	-0.5450687
105	0xbe5af32a	-0.21381822
106	0xbe96e9cd	-0.2947525
107	0x3d545cee	0.051846437
108	0xbed880e2	-0.4228583
109	0xbf405d20	-0.751421
110	0xbea0ee53	-0.31431827
111	0xbf0ddea7	-0.55417866
112	0xbf5687f3	-0.8380119
113	0xbf2f0c47	-0.6837811
114	0xbf59e3bb	-0.85113114
115	0xbeaa97de	-0.3331899
116	0xbef9ac27	-0.48764154
117	0xbf222654	-0.63339734
118	0xbf7bdfe9	-0.98388535
119	0xbebb1148	-0.36536622
120	0xbe3930f8	-0.18085086
121	0xbe0d7628	-0.13814604
122	0xbd957231	-0.07297171
123	0xbdea01f6	-0.11426155
124	0xbf721800	-0.9456787
125	0xbf47f196	-0.78103006
126	0xbf09b86f	-0.5379705
127	0xbed4600c	-0.41479528
128	0x4037f479	2.8742964
129	0x403a98f2	2.915585
130	0x4040140e	3.001224
131	0x402bd276	2.6847205
132	0x40249c95	2.572057
133	0x403a8b79	2.9147627
134	0x403908db	2.8911655
135	0x40200ac7	2.5006578
136	0x40381aa3	2.8766258
137	0x401a6701	2.4125369
138	0x40118fb1	2.2743952
139	0x40151119	2.3291686
140	0x4029b248	2.6515064
141	0x402fb477	2.7453897
142	0x40312c59	2.7683318
143	0x4008f8f5	2.1401951
144	0x4022a0ac	2.5410566
145	0x4041a059	3.0254118
146	0x401e828e	2.4767184
147	0x4013ea2a	2.3111672
148	0x403a09c7	2.9068468
149	0x4022ba4d	2.542621
150	0x403465d4	2.818715
151	0x402a83b1	2.6642878
152	0x401bcbf2	2.4343228
153	0x4025d152	2.590901
154	0x40225a8c	2.5367765
155	0x40245228	2.5675144
156	0x400e92f4	2.2277193
157	0x402ad775	2.6694005
158	0x400c856d	2.1956437
159	0x40375cd2	2.8650403
160	0x4023cda7	2.559427
161	0x401dd192	2.4659162
162	0x401653fb	2.3488758
163	0x401c7059	2.4443572
164	0x401768fc	2.3657827
165	0x40214f2f	2.520458
166	0x40173948	2.3628712
167	0x4044ae4e	3.0731387
168	0x4028348f	2.628208
169	0x4016be70	2.3553734
170	0x4020c62b	2.5120952
171	0x4021ba90	2.5270119
172	0x401f51ba	2.4893632
173	0x402c52c3	2.6925514
174	0x401861e0	2.3809738
175	0x400b0671	2.1722682
176	0x403bedf3	2.9363983
177	0x403c3d07	2.9412248
178	0x401c7b39	2.445021
179	0x40042676	2.0648475
180	0x401ba3e9	2.4318793
181	0x404f24ed	3.2366288
182	0x4036ebf9	2.8581526
183	0x4039800c	2.8984404
184	0x40149639	2.3216689
185	0x40258d23	2.5867393
186	0x400e520e	2.2237582
187	0x401e759f	2.475929
188	0x40053178	2.0811443
189	0x40160fef	2.3447225
190	0x40101d0c	2.2517729
191	0x40171dc8	2.3611927
192	0x4021bd95	2.5271962
193	0x402741f0	2.6133995
194	0x400c80e2	2.1953664
195	0x40154008	2.3320332
196	0x40124d93	2.2859848
197	0x40509bdc	3.259513
198	0x4016d568	2.3567753
199	0x402dc621	2.7152178
200	0x4035a7d1	2.8383677
201	0x40247729	2.569773
202	0x40229dc4	2.5408792
203	0x40130e5e	2.297752
204	0x40197864	2.397973
205	0x401a31cc	2.4092894
206	0x402740e7	2.6133363
207	0x4025a10a	2.587954
208	0x4016d6e3	2.3568656
209	0x4014fdc7	2.3279893
210	0x401f1e5b	2.4862278
211	0x40129ae6	2.2907043
212	0x401e8791	2.4770243
213	0x401ba4c4	2.4319315
214	0x4031d5f8	2.7786846
215	0x4025cf87	2.5907915
216	0x401eba71	2.4801295
217	0x402a6ab8	2.6627636
218	0x40309736	2.7592292
219	0x4030702f	2.7568471
220	0x400c9cf8	2.1970806
221	0x4036f1b7	2.858503
222	0x40317366	2.7726684
223	0x40306a2f	2.756481
224	0x4021af6d	2.5263321
225	0x400f6f6c	2.2411757
226	0x4030f74f	2.7650945
227	0x4010ea19	2.2642882
228	0x404566e1	3.0844042
229	0x40248bb3	2.5710266
230	0x4031e54d	2.7796204
231	0x402ada2e	2.6695666
232	0x4029845a	2.648703
233	0x403f8c7e	2.99295
234	0x40401776	3.001432
235	0x404a6b46	3.1627975
236	0x40240bd5	2.5632222
237	0x402b68e2	2.6782765
238	0x4045d528	3.091135
239	0x40440205	3.0626233
240	0x40194a27	2.395151
241	0x400ccb12	2.1998944
242	0x400d2f9f	2.2060316
243	0x402af7b6	2.671369
244	0x402a890b	2.6646144
245	0x401764d6	2.3655295
246	0x400b8d95	2.1805165
247	0x4043e48f	3.060825
248	0x403e0edb	2.9696567
249	0x40416bab	3.0221965
250	0x404b5445	3.1770184
251	0x404aadcd	3.166858
252	0x401a31b9	2.4092848
253	0x400d5d58	2.2088223
254	0x4022b0bc	2.542037
255	0x402e2d28	2.721506

head.net.0.weight f4 [1, 128]
0	0x3a455560	0.00075276755
1	0xbb375fce	-0.0027980688
2	0x3c0a1616	0.008428117
3	0x3c8ca1c4	0.01716698
4	0x3b8ab016	0.004232417
5	0xbc94db9a	-0.01817112
6	0x3adb7b7c	0.0016745175
7	0xbd880085	-0.06640724
8	0xbbeb258a	-0.007176106
9	0x3f3892be	0.7209891
10	0xbc0021e0	-0.007820576
11	0xbc0ed393	-0.008717435
12	0x3d659955	0.056054432
13	0xbc5f2da0	-0.013621718
14	0xbd4c9e23	-0.0499555
15	0x3f25bfe5	0.6474593
16	0x3d0f5331	0.034991447
17	0xbca121ce	-0.01966944
18	0xbb3f0188	-0.00291452
19	0x3f12c347	0.5732922
20	0xbd1d5664	-0.038412467
21	0x3b83209d	0.0040016905
22	0xbcb56a3a	-0.02214538
23	0xbd285a36	-0.041101657
24	0xbe3f8aed	-0.1870534
25	0xbcb87877	-0.02251838
26	0xbd554c62	-0.052074797
27	0xbd964789	-0.07337863
28	0xbcfa2831	-0.030536743
29	0x3d27f89e	0.041008584
30	0x3c8639a8	0.016384915
31	0x3bb658ee	0.0055648005
32	0xba959db1	-0.0011414794
33	0xbd293685	-0.04131176
34	0xbcc85569	-0.02445479
35	0xbdac81c4	-0.08423188
36	0xbcd17855	-0.025570074
37	0x3bcd0010	0.006256111
38	0xbcb2ce15	-0.021826783
39	0xbab3a186	-0.0013704754
40	0xbbe3fe24	-0.006957786
41	0xbc55ef5d	-0.013057557
42	0xbd347155	-0.044053394
43	0xbdbba56e	-0.091624126
44	0xbdd6fd85	-0.10497574
45	0x3b6d5e07	0.0036219375
46	0xbdf50044	-0.11962941
47	0xbcfeb83b	-0.031093707
48	0xbc977609	-0.0184889
49	0xbbddc94e	-0.006768382
50	0x3d9b0b14	0.07570472
51	0xbf99e864	-1.2024045
52	0x3bb85b49	0.0056261164
53	0x3ca680cb	0.020325085
54	0x3be33501	0.006933809
55	0xbccebbed	-0.025236094
56	0x3f956a3f	1.1673049
57	0xbc723625	-0.014783417
58	0x3da1aa9e	0.07893871
59	0x39dd62ba	0.00042225962
60	0xbee2b0b4	-0.4427544
61	0x3c9a9827	0.01887138
62	0x399165fa	0.00027732534
63	0xbe9c0f38	-0.3048036
64	0xbd1ad7a9	-0.037803326
65	0x3d01f148	0.031724244
66	0xbbd05566	-0.0063578365
67	0xbd7ee129	-0.06222645
68	0xbe620c20	-0.22074938
69	0x3c216b92	0.009852307
70	0x3ba0c165	0.004905867
71	0x3c3d4721	0.011552603
72	0xbcc973b6	-0.024591308
73	0x3b2e1acc	0.0026566265
74	0x3d608161	0.054810885
75	0xbcc0252a	-0.023455221
76	0x3c44a9c7	0.012003369
77	0xbd57943b	-0.052631598
78	0x3d3fb645	0.046804685
79	0x3d2166ee	0.039404802
80	0xbcd573c8	-0.026056185
81	0xbcd4d831	-0.025981994
82	0x3c8623fe	0.016374584
83	0xbb1d0183	-0.00239572
84	0xbc8ff293	-0.017571723
85	0xbbc382c2	-0.0059665153
86	0x3aac0eb4	0.001312694
87	0x3ce8bcf2	0.028410409
88	0x3c501d97	0.012702367
89	0xbc8d6b36	-0.017263036
90	0x3c99190d	0.018688703
91	0xbd03c77d	-0.03217267
92	0xbf447462	-0.76740086
93	0xbcaafa42	-0.020871285
94	0xbc6d886a	-0.014497856
95	0xbce56f90	-0.028007299
96	0x3bc9c4f6	0.006157513
97	0xbd20cbcc	-0.039256856
98	0x3ca8bd7e	0.02059817
99	0x3d4b75c1	0.049672846
100	0x3bdcb780	0.006735742
101	0x3da90ea7	0.08254748
102	0xbd794a95	-0.060862143
103	0xbce53f6b	-0.027984342
104	0xbcab91f4	-0.02094362
105	0x3ad17f5f	0.0015983394
106	0x3b8381f1	0.004013293
107	0x3c45b009	0.012065896
108	0xbb127335	-0.00223465
109	0x3ca72222	0.020402018
110	0xba590377	-0.00082784094
111	0x3c12f5c6	0.00896973
112	0xbda6d321	-0.081457384
113	0xbe39799e	-0.181128
114	0x3e7eafd8	0.24871767
115	0xbc87fb22	-0.016599242
116	0x3c41df32	0.011832999
117	0x3d20e1ac	0.039277717
118	0x40798d15	3.899236
119	0x3c97a708	0.018512264
120	0xbd28378f	-0.04106861
121	0xbbd4bad8	-0.006492
122	0xba2997e8	-0.0006469474
123	0x3a8219ef	0.0009925942
124	0x3c41fbd4	0.011839826
125	0xbe11c4d9	-0.14235248
126	0xbb8aec81	-0.0042396192
127	0xbbf8771d	-0.007582559
