examples/catchment_models/training/runs/globe_basin_split_2404_220637/model_epoch020.pt (torch, 316229 bytes, 5 tensors)

lstm.weight_ih_l0 f4 [512, 23]
000000 fd 47 98 be b1 f8 25 3f 0c d4 ef 3c 8b 35 0a be
       -0.29742423 0.648326 0.029275917 -0.13496988
000010 ac a1 98 3e d1 0a 30 3f 3f 1c 1b 3f 3e 8c 82 be
       0.29810846 0.68766505 0.60589975 -0.2549762
000020 34 37 25 3f 90 de 46 be 0a c8 37 be be 32 13 3e
       0.6453736 -0.19420838 -0.17947403 0.14374825
000030 87 e9 69 3e 51 d0 1b be 8a 42 8e 3d 4d e1 65 3f
       0.2284299 -0.15216185 0.06946285 0.89796907
000040 e8 c7 d6 bd a8 18 8e 3e 6e 8c 84 bd 88 6b f3 3b
       -0.10487348 0.27753186 -0.06472097 0.00742859
000050 f3 2d 0a 3f 0b c9 f3 3e c1 9b 10 3e 2a b8 41 3f
       0.5397636 0.4761432 0.14121915 0.7567164
000060 2e 6c c4 bd f4 1d 6b 3f 86 96 2e 3f c3 83 86 3e
       -0.09590946 0.9184258 0.6819843 0.262724
000070 31 2c 0d 3f 98 4a 5b 3e 77 72 15 3f 1b b7 a1 3e
       0.55145556 0.21415174 0.58377784 0.3158501
000080 e8 d2 ce be ad a5 c3 3e 33 7f d3 be db a8 d1 be
       -0.40395284 0.38212338 -0.41307983 -0.4094914
000090 ee eb 0d 3c 93 ce 0c 3f 1a f8 e7 3e 18 64 b5 38
       0.008662207 0.5500271 0.45306474 8.6493965e-05
0000a0 ad 82 9b bd 44 6a bd 3e 14 7f 2d bf 1d 88 45 bd
       -0.07593284 0.36995137 -0.6777203 -0.04822551
0000b0 4d b1 18 3e 4a 6b 99 3e be cd 3f 3e ea 9c ba 3d
       0.14911385 0.29964668 0.18730828 0.0911196
0000c0 0f 75 2e 3d 23 d8 11 3d 2e d0 3e 3e 4a 54 47 be
       0.042592105 0.035606515 0.18634102 -0.19465747
0000d0 be 0f 81 3e 50 bd e7 bd 11 d5 ae 3e ea 8e b4 be
       0.25207323 -0.11315405 0.34146932 -0.35265285
0000e0 af 71 68 be 39 85 30 bf 83 67 2e bf 79 d7 24 3d
       -0.22699617 -0.6895328 -0.68126696 0.040244553
0000f0 bb dc b2 3e 2a a6 7f 3e 14 73 1d bf 90 20 5d bf
       0.3493403 0.2496573 -0.6150372 -0.8637781
000100 2e ca 25 3e 4a 23 39 bd 87 13 2d be c3 77 c8 be
       0.16190407 -0.04519967 -0.1690198 -0.3915387
000110 69 ba a4 3e 95 0b ec bd f3 52 f8 3e 0c a6 1b 3d
       0.3217347 -0.115256466 0.48500785 0.03800015
000120 eb 12 3c be 4d 6c 8d 3d 9a 12 9b 3e f0 6c 73 3f
       -0.18366592 0.06905422 0.3028763 0.950881
000130 d7 ad 63 be ba 3f 8a 3f 92 25 fc bb e6 8c 4f be
       -0.22234283 1.0800698 -0.0076949084 -0.20268592
000140 3a 3c 44 3c 50 fc 87 3e 00 cf 32 bf 48 b0 01 be
       0.01197725 0.26559687 -0.69847107 -0.12664902
000150 ab 12 7a 3f bf b2 92 3e 05 2b eb 3e 61 ec 50 be
       0.97684735 0.28651997 0.4593126 -0.20402671
000160 56 61 b6 3e 72 88 52 3f cf ec 3e 3f ae 35 d9 3e
       0.35621136 0.8223945 0.7458009 0.42423767
000170 94 3f be bd d8 7c 0a 3e 88 c3 8f 3f 5a 39 db 3e
       -0.0928947 0.13524187 1.1231546 0.42817193
000180 5a 2c 96 be ab 3c fb 3e 59 d5 da 3e f8 85 bd 3d
       -0.29330713 0.49069723 0.42740896 0.09254068
000190 3c 43 9d 3e 75 c5 a3 be 60 1f c1 3f 9e b8 63 be
       0.30715358 -0.31986585 1.50877 -0.22238395
0001a0 44 9c 6c be 79 50 f6 3e 91 eb 44 3f 2a 20 9e 3f
       -0.23106486 0.4810827 0.76921946 1.2353566
0001b0 10 53 fc 3d 35 61 b9 3d d0 01 31 3e 90 90 bd be
       0.123205304 0.09051744 0.17285848 -0.37024355
0001c0 26 ff 95 3e bd a1 3a 3f 15 aa 88 3d 3a 3e 2d bd
       0.29296225 0.72903043 0.066730656 -0.042295672
0001d0 ae 4d 81 be a8 d4 9a 3d 2e c3 32 3e 59 1f c2 3d
       -0.25254577 0.07560092 0.17457268 0.09478635
0001e0 76 a6 09 3f 86 dc dd bc c9 c5 bf be 60 60 95 3e
       0.53769624 -0.027082693 -0.37455586 0.2917509
0001f0 24 16 0b 3f 84 e9 26 3f 7f b8 0b 3f aa 81 31 3e
       0.5433066 0.65200067 0.54578394 0.17334619
000200 96 c6 3e be ec 2b 5a 3d 85 fd 4b 3f 8c 16 61 3f
       -0.18630442 0.053264543 0.79683715 0.8792503
000210 11 58 65 3f be bf 39 be 18 7b 17 3e ba a4 17 3f
       0.89587504 -0.1813955 0.1479305 0.5923573
000220 e4 23 17 3f 2b 6b 2b 3d 21 bb 9f 3e ae e0 92 3e
       0.5903914 0.04185025 0.31197456 0.28687042
000230 c8 fc 16 3f 05 a9 4a 3f 96 d7 83 3d af f9 87 3f
       0.58979464 0.79164153 0.06437604 1.0623072
000240 31 7e 4f bf dc c5 cc 3e f4 cc 07 bf ad 97 1c 3f
       -0.8105193 0.39994705 -0.5304711 0.6116894
000250 40 ec 1c 3e c1 c6 49 3e cb 91 38 be 73 7e 6c 3f
       0.15324497 0.19704725 -0.18024366 0.92380446
000260 36 37 ab 3e 2b ee c7 3d ff 7c c3 bd 39 01 03 bf
       0.3344056 0.09762224 -0.095453255 -0.5117374
000270 27 10 c7 3e ae aa 06 bf 1b 1b 0f 3f e2 b1 d8 3d
       0.3887951 -0.52604187 0.55900735 0.105808035
000280 eb 09 b3 be 04 70 1c be ee 7f c4 3e 28 75 52 bd
       -0.34968504 -0.15277106 0.38378853 -0.05138126
000290 05 36 9b be bd d3 6e 3e 68 bf fc 3e 06 b5 8a 3f
       -0.3031465 0.23322959 0.4936478 1.0836494
0002a0 e8 21 f4 be 1f a8 a8 3f d0 6b 43 ba 33 04 bf be
       -0.47682118 1.3176306 -0.0007454725 -0.3730789
0002b0 05 24 0d 3e 17 2d 60 3e 6b 06 11 bf 12 07 73 bd
       0.13783272 0.218922 -0.5665042 -0.059332915
0002c0 57 1a 72 3f 6e 4c a9 3e f7 21 05 3f 9a 69 a9 bd
       0.9457144 0.33066124 0.5200495 -0.08272095
0002d0 1f 71 8d 3e a0 27 2b 3f 06 30 45 3f c0 a1 b5 3e
       0.27625367 0.6685734 0.770264 0.35474968
0002e0 94 7f ea 3e f4 dc 74 3f fd 73 2b bd e3 6f 07 3e
       0.4580046 0.9564965 -0.041858662 0.13226275
0002f0 31 1f 04 3f 25 b3 4b 3f 01 eb 10 3f 9b 84 58 3e
       0.51610094 0.7957023 0.5660859 0.21144335
000300 5a 5e 02 3f ad 83 ce 3d 8c 4d 15 bf 56 0e 5b 3d
       0.5092522 0.10083709 -0.5832145 0.05348047
000310 a8 17 64 3e 5a 63 54 be fb ca 7c 3c c4 84 fe 3e
       0.22274649 -0.20741025 0.015429254 0.49710667
000320 3a c1 2f be 8e b8 89 3e 05 24 6f be eb ab 16 bd
       -0.17163554 0.26898617 -0.23353584 -0.036785048
000330 f7 71 15 3f 7a 72 c5 3e 3f 8a a4 bc b2 ca 81 3e
       0.5837702 0.385639 -0.020085452 0.25349957
000340 65 84 96 be c1 07 4c 3f 82 e3 1f 3f 6b 24 25 3f
       -0.29397884 0.7969933 0.62456524 0.64508694
000350 1d 0f de 3e 95 7c 9b 3e bf 1f 81 3f 59 92 db 3e
       0.43370906 0.30368486 1.0087813 0.42885092
000360 db a9 96 be 27 e6 99 3e 62 45 bf be a7 c0 3f bf
       -0.29426464 0.30058405 -0.37357622 -0.7490334
000370 98 36 c8 3e 82 65 54 3f 1b 33 5a 3f 90 15 9b 3e
       0.39104152 0.8296739 0.8523423 0.30289888
000380 06 b8 2f 3f 1a 63 cd bd 43 a2 44 bf 5c f1 ac 3e
       0.6864017 -0.10028668 -0.7681009 0.33777893
000390 e0 46 0f 3d 43 1d e3 3e 46 79 fa bd 40 78 77 3e
       0.0349797 0.44358262 -0.12230162 0.24166965
0003a0 1e bf a2 bd ae 83 5d be 0f ff bb 3d 3e d1 5b 3e
       -0.07946609 -0.21632263 0.09179508 0.21466538
0003b0 43 76 3a 3f c1 fa 75 be a4 39 25 3f ed 71 2f be
       0.72836703 -0.24021436 0.6454108 -0.17133303
0003c0 4c 31 f4 be 8f fc 44 3e ac c6 7d 3e c2 8e a3 be
       -0.4769386 0.19236968 0.24782819 -0.31944853
0003d0 60 05 48 3e 1a fd 9a 3f 5f 6c 45 3f d5 85 11 3f
       0.195333 1.210849 0.77118486 0.56844836
0003e0 b8 eb 34 3e 40 a3 c6 3b 38 37 58 3f 8c 6a 18 3f
       0.17668045 0.0060619414 0.8445926 0.5953758
0003f0 90 43 82 3d 9a da b0 3d e7 38 30 3d 70 2a 1d 3f
       0.06360543 0.08635445 0.043023016 0.6139288

lstm.weight_hh_l0 f4 [512, 128]
000000 d6 f9 99 3e ac cb c6 3d 3e 6c d4 bd 4e 2b a7 bd
       0.30073422 0.09706816 -0.10372208 -0.081625566
000010 f7 94 be bc 62 6f 0d be dc be 9a 3e 3f 8a 3e bd
       -0.023264391 -0.1381202 0.3022374 -0.04651856
000020 22 41 96 3c 65 da 58 be 09 b2 56 bd 4f 13 bc be
       0.018341605 -0.21177061 -0.05241588 -0.3673348
000030 33 ed c3 3c c6 d9 86 3b c8 09 02 3e f6 77 7e 3e
       0.023916816 0.004115316 0.12699044 0.24850449
000040 11 82 5e 3e e9 e8 fe 3d 06 6c 42 be 92 c3 e0 bd
       0.21729304 0.12446768 -0.1898652 -0.10974802
000050 d8 32 70 3e 8e 86 c3 be 69 bb bf be 7c 5f 14 be
       0.23456895 -0.38188595 -0.3744767 -0.1448955
000060 34 67 cb 3d 8a 57 40 be 46 24 59 bc fc ce 40 3e
       0.09931794 -0.18783394 -0.013253277 0.18828958
000070 48 d4 30 bd 49 92 73 3d 09 b4 e9 be d4 b8 9f 3e
       -0.043171197 0.05946568 -0.45645168 0.311957
000080 38 50 8b 3e 09 76 30 3e de 79 4c 3e 42 ba 43 be
       0.2720964 0.17232527 0.19968364 -0.1911402
000090 6b 7b 49 be 71 7c 9d be 0b 1f 87 bc af 89 08 bf
       -0.19675986 -0.30759004 -0.016494295 -0.5333509
0000a0 64 e9 c6 3e 63 2f 68 3e 6f 81 fb bc 34 87 62 be
       0.38849938 0.22674327 -0.030701367 -0.22121888
0000b0 a9 b1 d5 be 4e d8 9f 3c 66 50 c9 be 3b f7 05 3f
       -0.41737106 0.019512322 -0.39319152 0.5233037
0000c0 5d 08 7c bc 8d cf 07 be 0d 4d 01 bf 42 c0 23 3c
       -0.015382853 -0.13262768 -0.50508195 0.009994568
0000d0 43 1b df be 91 ee 94 be 8c d4 46 3e e9 06 b9 be
       -0.43575487 -0.29088262 0.19417018 -0.36138085
0000e0 95 46 ab be 8a 46 e2 be a7 88 dd bd f3 35 0e bd
       -0.33452287 -0.44194442 -0.1081708 -0.03471942
0000f0 3d e7 1a be a9 e8 a2 be bf e6 c5 bd 39 22 b6 be
       -0.15127273 -0.3181813 -0.09663152 -0.35572985
000100 f2 de bf be 10 a8 0f bf 5d 25 e4 be 35 dc f0 be
       -0.3747478 -0.5611582 -0.44559756 -0.47043005
000110 a5 97 b9 be 19 7a ee bd d5 4e 37 3c 2d d2 9d 3b
       -0.36248508 -0.11644382 0.011188229 0.0048163147
000120 75 1f fe be 89 d9 3f 3e 71 27 37 3e 09 18 74 3d
       -0.49633375 0.18735327 0.1788614 0.059593234
000130 ca 60 88 3d b9 f5 84 3e 42 07 d1 3e e1 65 14 bd
       0.06659086 0.25968722 0.4082585 -0.03622997
000140 38 0e 5c 3e 0c 8b 2b be 92 08 2c 3e 76 bd 5c 3d
       0.21489799 -0.16752261 0.16800144 0.05389162
000150 14 44 54 bd 1d 3d a5 3e 92 62 90 be 68 99 d7 bd
       -0.051822737 0.32273188 -0.28200203 -0.10527307
000160 89 d7 e2 3d 74 95 b4 be c8 1b bb 3e 70 ea bd be
       0.11076266 -0.35270274 0.36544633 -0.37092924
000170 db 7f 0a 3e 60 d6 73 bd 84 a5 af bd 81 cb 91 bd
       0.13525335 -0.059530616 -0.085764915 -0.071188934
000180 8a c5 d1 be 30 41 cf bc cf 1b af 3e 32 59 47 be
       -0.40971023 -0.025299639 0.34200904 -0.19467619
000190 2f 4f 74 3e 1a 78 1f bd ca 93 6f bd 02 96 af bd
       0.23858331 -0.038932897 -0.058490552 -0.085735336
0001a0 17 f3 a8 3d a8 94 db be 9e 1a ef 3e 2b 6d 02 3f
       0.08249491 -0.42886853 0.46699995 0.5094783
0001b0 90 08 a7 be d4 f8 a9 bd 74 c9 4c 3e 75 74 a8 3e
       -0.3262372 -0.08299413 0.19998723 0.3290135
0001c0 fd f5 df be c0 be b2 3d a6 84 0c 3e eb fc e8 3c
       -0.43742362 0.08727789 0.13722476 0.028440913
0001d0 25 2a 5e 3e 6e 84 ae bd 6c 8b 83 be cb e1 f7 bd
       0.21695764 -0.08521353 -0.25692308 -0.121036135
0001e0 32 6a 18 bf 95 53 4d 3e 2a 0b 99 3d 72 d1 37 bf
       -0.5953704 0.20051415 0.074728325 -0.71803963
0001f0 27 61 3e 3f 75 f4 44 3e 81 8a 26 3b 07 b9 8b be
       0.7436699 0.19233878 0.0025412145 -0.27289602
000200 48 24 bf ba 9b 78 c1 bd aa 0c 3e 3c 99 b2 3c 3d
       -0.0014582956 -0.09446832 0.011599699 0.04606876
000210 ff 1c 4b be 1c a1 d3 3d 01 eb 0a 3e 76 3f 69 be
       -0.1983528 0.103334635 0.1356621 -0.22778115
000220 c7 98 12 bd a7 18 9e be f0 47 54 3e 1a 2b 91 be
       -0.03579023 -0.30878183 0.20730567 -0.28353196
000230 70 d6 0b be e4 60 d4 3d 2b d7 56 3e 6b e5 17 3e
       -0.1365602 0.10370043 0.20980518 0.1483361
000240 f6 73 81 3e ea f9 de bd de e2 29 be a1 58 4e be
       0.25283784 -0.10887511 -0.16590449 -0.20150997
000250 6b d9 0d 3e 18 f1 06 bf 10 f7 86 3e df a8 e2 bd
       0.1385247 -0.5271163 0.2636037 -0.11067366
000260 44 3c 06 3e 5a c2 c8 bd a1 1b 4f be 55 fd 96 bd
       0.13108927 -0.098026946 -0.20225383 -0.07372538
000270 83 26 cb 3d 46 f5 37 be 87 b4 d7 be 3a a2 12 3e
       0.09919455 -0.17964658 -0.4212992 0.14319697
000280 19 a6 1d 3e d6 a9 05 3d 0f 62 c4 3e f4 b8 40 3d
       0.15395392 0.03263267 0.38356063 0.047051385
000290 65 9a d5 be 41 fa 03 be b0 cf 02 3e be 0c 47 be
       -0.41719356 -0.12888433 0.12774539 -0.19438455
0002a0 93 39 c5 3e 70 e8 aa 3e 79 41 5f bd ef 35 60 be
       0.38520488 0.3338046 -0.0545058 -0.21895574
0002b0 c0 06 a6 bd 74 cb 30 3e 69 4d de bd 42 95 eb 3e
       -0.08106756 0.17265111 -0.108546086 0.46012312
0002c0 92 21 3a 3d 67 40 b6 3d 33 b7 7a be 57 bc 3c 3e
       0.04544217 0.088990025 -0.24483947 0.18431221
0002d0 9d a3 90 be 90 ef 23 bd a0 1e 67 3c 6e 5a 54 be
       -0.28249827 -0.040023386 0.014106423 -0.20737621
0002e0 f3 f0 61 be 4f f7 52 be 4b 71 13 3d 87 27 50 bd
       -0.22064571 -0.20602153 0.035996716 -0.050818946
0002f0 8a 27 ab 3a 7c 14 a9 be 15 8d 13 be 76 65 48 be
       0.0013058048 -0.3302344 -0.14409287 -0.19569954
000300 db cc 7d be 22 c3 4c be ec 9e d2 be c6 e9 59 bd
       -0.24785177 -0.19996312 -0.41136873 -0.05320146
000310 98 a3 95 be 7a a1 85 bc 53 be e3 3c 55 d5 a0 3e
       -0.29226375 -0.01631235 0.027800715 0.3141276
000320 eb 48 98 be a7 5c 52 3e e9 3b 8c bd a9 26 24 bf
       -0.29743132 0.20543157 -0.068473645 -0.6412149
000330 1b 80 c1 3d 89 49 e6 bc 77 46 c0 3e 66 d0 9a bd
       0.09448262 -0.028111236 0.3755376 -0.0755928
000340 a3 38 9f 3e 32 1f 02 be 1f 15 b2 3d 46 60 3e 3e
       0.31097898 -0.12707213 0.08695435 0.18591413
000350 d9 8e 49 be 45 2b 38 3e d2 48 60 3c 4a 54 d6 bd
       -0.19683398 0.17985256 0.013689237 -0.104652956
000360 07 f6 93 be d6 90 c5 3a 42 94 5f 3d 04 5a 20 bd
       -0.2889864 0.0015073072 0.05458475 -0.039148346
000370 f2 91 d9 3e 4c 9f a4 bd 1d e6 1f be 8d 9d e2 bd
       0.4249416 -0.08038196 -0.15615125 -0.11065207
000380 02 85 f9 3d fc cb 86 3d 7e b4 23 3d 58 af a7 bd
       0.12183572 0.06581876 0.039967053 -0.08187741
000390 22 1d 64 3e 26 bb 3d be 7d 4b 08 3e ce 2b 3a bd
       0.22276738 -0.18528423 0.13310046 -0.04545193
0003a0 6e 97 92 3c 60 3d be bd 73 aa 18 be 45 dd 7b 3e
       0.017894473 -0.0928905 -0.14908771 0.24596126
0003b0 0d 9e ad be 86 60 7e 3e 9a ae 3d 3e 71 a9 b1 3e
       -0.33909646 0.24841508 0.18523636 0.34699586
0003c0 c6 d6 3b be 91 3a 72 3d 0e fb 72 3e ab fc be 3d
       -0.18343648 0.059137885 0.23728582 0.09325536
0003d0 04 5f 4f 3d 51 5d 36 be 74 59 90 be d2 21 ce be
       0.050627723 -0.17809035 -0.28193247 -0.40260178
0003e0 3d 1c 00 bf 9c 81 8a 3e 83 50 64 bd 0f 6c b8 be
       -0.5004309 0.2705201 -0.055740844 -0.36019942
0003f0 4f a4 ca 3e 5c 32 d1 3d 71 d7 46 3c b8 ff a8 bd
       0.39578483 0.102146834 0.012136326 -0.082518995

lstm.bias_ih_l0 f4 [512]
000000 ea ec 8d bf df ab 30 bf b1 b6 2d 3e d6 98 02 bf
       -1.1087925 -0.69012254 0.16964222 -0.5101446
000010 b8 26 69 bf 52 f4 19 bf 93 1c 0b bf b7 eb 44 bf
       -0.91074705 -0.6013843 -0.54340476 -0.7692217
000020 f5 8c 60 bf 66 35 e8 be fe bc 24 bf f4 32 54 bf
       -0.87715083 -0.4535324 -0.6435088 -0.8289025
000030 95 42 c1 bf b3 f7 ab bf cb 32 3f bf a7 9b 4e bf
       -1.5098444 -1.3434967 -0.7468688 -0.80706257
000040 70 da 70 bf 10 01 2f bf df 3c 3f bf 72 35 80 be
       -0.9408331 -0.68360996 -0.74702257 -0.25040776
000050 42 62 df be 26 d7 68 bf cc 2c 22 3e f0 be 49 bf
       -0.43629652 -0.9095329 0.15837401 -0.7880697
000060 be ff 84 bf a7 1a fc be 2b 9c 25 bf ad b0 4f bf
       -1.0390546 -0.49239084 -0.6469142 -0.8112896
000070 70 26 9f be fd b5 de be d8 95 af be 52 bf c7 be
       -0.31084013 -0.4349822 -0.3429401 -0.39013153
000080 bd dd 76 bf d1 5f 8a bf ef da 67 bf a4 bb 60 bf
       -0.96432096 -1.0810491 -0.9056844 -0.87786317
000090 f5 4d 4b be 1c 6b 99 be ac b7 27 bf ee ab 66 bf
       -0.19853957 -0.2996453 -0.65514636 -0.90106094
0000a0 cc e9 9f be 44 d9 98 be b8 12 8d bf 55 8d 42 bf
       -0.3123306 -0.2985326 -1.1021338 -0.75996906
0000b0 47 60 4f bf 39 55 83 bf a1 97 49 be 8f 5e e7 be
       -0.8100628 -1.0260383 -0.19686748 -0.4518933
0000c0 e0 da 5b bf b0 76 ae bf ac 92 56 bf 9a 75 06 bf
       -0.8588085 -1.362997 -0.83817554 -0.52523196
0000d0 44 b5 98 be 20 12 10 bf 6c cc 44 bf 4a 19 12 bf
       -0.29825795 -0.56277657 -0.76874423 -0.5706984
0000e0 3c 50 4e bf f1 4d 9a bf 19 22 61 bf c8 df b8 bf
       -0.8059118 -1.2055036 -0.87942654 -1.4443293
0000f0 5e ff 26 bf f0 60 ec 3d f1 a7 82 bf 36 e9 43 bf
       -0.6523341 0.11541927 -1.0207502 -0.76527727
000100 17 26 1e bf 65 8a 36 bf 17 8e b2 be 1f 1e dc be
       -0.6177687 -0.71304923 -0.3487403 -0.4299173
000110 39 b7 87 be fe 28 4e bf 9f d7 4e bf 08 9c 17 bf
       -0.26506975 -0.805313 -0.8079776 -0.5922246
000120 69 5e 22 bf b9 5d 62 bf 4a 08 82 bf 33 35 42 bf
       -0.6342531 -0.8842426 -1.015878 -0.75862426
000130 87 86 94 bf b3 31 24 bf 4b 69 5e bf f7 bd 83 bf
       -1.1603554 -0.64138335 -0.86879414 -1.0292348
000140 59 99 b5 be d1 a5 42 bf d6 0b 08 bf f9 bb 23 bf
       -0.35468557 -0.76034266 -0.5314306 -0.639587
000150 3d a0 41 bf 53 e3 22 bf d7 22 88 bf 29 34 bf bf
       -0.7563513 -0.6362812 -1.0635632 -1.4937793
000160 bc 76 0e bf 69 3d 6a bf d7 15 b2 be a9 75 bf 3d
       -0.55649924 -0.91499954 -0.34782287 0.09348614
000170 26 15 41 bf af 87 97 bf e5 1c 27 bf fc 39 2c bf
       -0.75422895 -1.1838282 -0.65278465 -0.6727598
000180 d2 37 20 bf a5 9f 63 bf 05 68 43 bf d8 2e 83 bf
       -0.62585175 -0.88915473 -0.76330596 -1.024867
000190 e4 fd 14 bf 51 12 7c bf bf ca 8b bf b5 11 9f bf
       -0.58199906 -0.9846545 -1.0921248 -1.2427279
0001a0 3f f2 6e bf 8f 7c 6d bf 51 84 04 bf 89 ea d5 be
       -0.9333839 -0.92768186 -0.517644 -0.417805
0001b0 12 30 d4 be 1c 7f 28 bf b0 7a 72 bf 5d d6 ad be
       -0.41442925 -0.65818954 -0.94718456 -0.3395261
0001c0 4e b9 43 bf d6 c8 64 bf 39 b8 59 bf 42 20 8a bf
       -0.7645463 -0.8936895 -0.85046726 -1.0791094
0001d0 d0 9e 4c bf 8b a6 21 bf 27 32 ea be da 66 19 bf
       -0.7992983 -0.6314475 -0.45741388 -0.59922564
0001e0 3c 2b 15 3c ec 2c 3b bf ad 3e 5f bf d2 c1 3d be
       0.009104546 -0.7311542 -0.8720501 -0.18530968
0001f0 57 09 16 3e 19 3c bb be 16 14 70 bf 75 a1 55 bf
       0.14652 -0.36569288 -0.9378065 -0.8344949
000200 28 38 5e bf 4e fd ca be b7 ad 33 3e f2 23 30 bf
       -0.8680444 -0.3964638 0.17546736 -0.6880485
000210 99 51 4a bf cb 69 8a be a2 7c 07 3e 69 f5 21 bf
       -0.7903076 -0.2703384 0.13231137 -0.6326509
000220 f1 fe 25 bf 79 99 85 be 5e fd bf be a3 29 5a bf
       -0.64842135 -0.26093653 -0.3749799 -0.8521978
000230 02 57 27 bf dc 94 04 3e 88 3d 14 bf 45 4c 2f bf
       -0.6536714 0.1294741 -0.5790639 -0.68475753
000240 1f 35 53 bf 7b e7 29 be fe 47 69 bf ed 24 ea be
       -0.8250293 -0.16592209 -0.91125476 -0.45731297
000250 65 67 f1 be 38 1f 31 bf 67 e1 91 be 25 23 52 be
       -0.47149196 -0.6918826 -0.2849228 -0.20521219
000260 33 97 3e bf 8e 1a 69 be 45 3a 1f bf e2 ab cf be
       -0.7444946 -0.22764036 -0.6219829 -0.40560824
000270 d0 b1 4a be d8 97 70 3d 53 14 09 3d db 78 24 3d
       -0.19794393 0.05873856 0.03346665 0.04015432
000280 a3 0f d6 be 8e 00 62 bf dd 8a 6b bf 76 4b 6d bf
       -0.41808805 -0.88282096 -0.92008764 -0.9269327
000290 13 50 a1 3e dc f7 cc be 73 68 4e bf f1 d2 49 3e
       0.31506404 -0.40032852 -0.80628127 0.19709374
0002a0 e2 47 46 3e ea 5c 1d 3e a0 16 63 bf 40 56 86 3e
       0.19363359 0.15367475 -0.887064 0.2623768
0002b0 8a 1b 04 be 9c 3e 27 bf b9 bc e6 bd 05 2d be bd
       -0.1290113 -0.6532991 -0.11266465 -0.092859305
0002c0 e3 68 78 bf 49 ea 98 bf 34 f6 1f bf 1c 24 8f be
       -0.97035044 -1.1946498 -0.6248505 -0.27957237
0002d0 0c b7 1c bf 06 1c 29 bf 4b 8b 6f bf c9 4f 20 be
       -0.6121681 -0.66058385 -0.9357192 -0.15655436
0002e0 a1 bb 19 bf 67 82 76 3d cc 6e 4e bf 26 50 82 bf
       -0.60051924 0.060182955 -0.8063781 -1.0180709
0002f0 65 8e cc be d7 71 13 3e e0 ff 23 bf de 4a 92 be
       -0.39952388 0.14398895 -0.6406231 -0.28572744
000300 18 ca 85 3d 6c ab bf be 8c 84 2f 3f 24 a0 ab be
       0.06532687 -0.37435472 0.68561625 -0.33520615
000310 e8 61 ed be b1 c5 71 bf fd 21 6b bf ce 1a 63 bf
       -0.4636376 -0.9444228 -0.91848737 -0.88712776
000320 8a 85 24 bf 96 2e 41 be 78 55 8c bf ce 65 b4 be
       -0.64266264 -0.18865427 -1.0963583 -0.3523392
000330 cd d3 9d be 0a 28 aa be c7 f9 a5 be a8 29 a4 bf
       -0.30825654 -0.33233672 -0.32417127 -1.2825212
000340 53 24 78 be f9 0f 84 bf 2b 05 c7 be 97 15 7f bf
       -0.24232607 -1.0317374 -0.3887113 -0.9964232
000350 5a aa 7b be ea d7 32 bf c4 a8 15 bf 6d 03 80 bf
       -0.24576703 -0.6986071 -0.5846064 -1.0001045
000360 03 a3 44 3e 4a 21 a1 be 72 97 82 be d8 ce a0 3e
       0.19202809 -0.3147071 -0.2550617 0.3140781
000370 8e 1c 17 bf 62 4f 47 bf 5e 50 03 bf 95 f9 40 be
       -0.59027946 -0.77855504 -0.51294506 -0.18845208
000380 7d 36 98 be e1 36 f2 be e9 02 50 bf 19 30 e7 be
       -0.2972907 -0.47307494 -0.8125444 -0.45153883
000390 05 cf e1 be 57 d9 6e bf 7e b0 ad be 82 8c 0d bf
       -0.44103256 -0.93300384 -0.33923715 -0.5529252
0003a0 52 53 49 bf 02 5d 68 bf 0d 25 e6 bd de 5d e5 be
       -0.7864276 -0.9076692 -0.112375356 -0.44798177
0003b0 7a b8 0b be 94 a7 ab 3e 46 81 0e bd c0 8d e8 bd
       -0.13644591 0.3352629 -0.034791254 -0.11355162
0003c0 1f 3f 06 bf b4 ee be be 8a 95 42 bf 58 88 49 bf
       -0.52440065 -0.3729149 -0.7600943 -0.7872367
0003d0 d4 ae 0e bf b7 35 d6 be 14 e6 11 bd fc 7d 3e bf
       -0.55735517 -0.41837856 -0.03561981 -0.74410987
0003e0 b0 40 79 be 7b af 17 bf c2 61 35 bf a7 4f a7 3e
       -0.24341083 -0.59252137 -0.7085229 0.32677957
0003f0 38 a8 c5 be 50 63 b6 be c7 de ab bf c3 31 37 bf
       -0.38604903 -0.35622644 -1.3427361 -0.71560305

lstm.bias_hh_l0 f4 [512]
000000 74 48 91 bf 3c fd 3c bf 04 bc e6 3d 50 62 1b bf
       -1.1350236 -0.73823905 0.1126633 -0.6069689
000010 67 fc 84 bf 8e 65 22 bf 2f 03 27 bf 55 b8 29 bf
       -1.0389527 -0.6343621 -0.6523923 -0.66296893
000020 8d d1 60 bf ea 9c 0c bf 79 06 3f bf e3 94 5b bf
       -0.8781975 -0.5492693 -0.7461925 -0.8577406
000030 70 e6 ca bf f4 5d a5 bf ac 4e 51 bf ef 58 53 bf
       -1.5851574 -1.2919297 -0.8176067 -0.82557577
000040 fa d6 66 bf a9 94 17 bf 78 06 43 bf c2 b1 9c be
       -0.9017178 -0.5921121 -0.76181746 -0.30604368
000050 bf 79 10 bf 85 af 68 bf 7d e5 9f 3d f6 59 44 bf
       -0.5643577 -0.9089282 0.07807443 -0.7669977
000060 01 1b 88 bf bb 50 0c bf 0d 17 31 bf 9d 1b 51 bf
       -1.0633241 -0.54810685 -0.691758 -0.8168276
000070 e5 75 b5 be 32 a0 dc be 7f 3f a2 be 94 fa d6 be
       -0.3544151 -0.4309097 -0.3168907 -0.4198805
000080 1e 37 57 bf 50 06 8b bf 03 47 71 bf e1 05 63 bf
       -0.8406848 -1.0861301 -0.9424898 -0.88680845
000090 62 72 c5 bd df 86 9d be fe 5c 44 bf 91 65 82 bf
       -0.096409574 -0.3076696 -0.76704395 -1.0187246
0000a0 a2 62 7a be 6b e5 93 be 84 05 89 bf cf 99 39 bf
       -0.24451688 -0.2888597 -1.0704808 -0.7250032
0000b0 54 dc 5f bf bd a5 80 bf 04 e6 54 be 4e 19 c0 be
       -0.8744557 -1.0050579 -0.20790869 -0.37519306
0000c0 70 bc 4e bf 77 b1 b0 bf 12 74 55 bf 5b 2f 09 bf
       -0.8075628 -1.3804158 -0.83380234 -0.53587884
0000d0 15 12 b0 be 03 bb 11 bf 54 f3 5b bf 4a 0d 2b bf
       -0.34388795 -0.5692598 -0.85918164 -0.6681715
0000e0 64 1b 4a bf 91 94 97 bf 1a 83 4e bf 56 44 a8 bf
       -0.78948045 -1.1842214 -0.80668795 -1.3145854
0000f0 c8 2e 50 bf ad a7 39 3c a2 94 8e bf 15 99 41 bf
       -0.8132138 0.011331481 -1.1139109 -0.7562421
000100 4e 62 05 bf 08 89 29 bf bf 68 89 be 6a a9 ad be
       -0.52103126 -0.6622472 -0.26837727 -0.33918315
000110 3c ad a6 be ab 27 5d bf 05 dc 3f bf ce bb 21 bf
       -0.32554042 -0.86388654 -0.749451 -0.6317719
000120 4c 8f 07 bf aa 44 77 bf a3 c2 81 bf cc 11 44 bf
       -0.5295303 -0.9658915 -1.0137523 -0.76589656
000130 2e f2 8b bf b6 3d 2e bf 4d da 3b bf b3 64 83 bf
       -1.0933282 -0.68062913 -0.73379976 -1.0265106
000140 26 d2 b2 be 48 5b 5c bf 68 08 18 bf 57 01 25 bf
       -0.34925956 -0.86076784 -0.59387827 -0.6445517
000150 07 f3 46 bf 99 f8 2c bf 02 d9 87 bf aa f5 bd bf
       -0.7771458 -0.6756683 -1.06131 -1.4840596
000160 97 0b f0 be 3d 2f 7f bf b3 05 d2 be 89 05 72 3d
       -0.46883842 -0.99681455 -0.41019973 0.05908731
000170 9a 7a 41 bf b4 3a 91 bf 46 f5 15 bf 2f ba 31 bf
       -0.755777 -1.134604 -0.5857738 -0.6942472
000180 b3 47 3a bf 1f f3 52 bf 4f 07 56 bf ab 48 85 bf
       -0.72765654 -0.82402223 -0.836049 -1.0412802
000190 61 11 32 bf 93 7a 5b bf 7c 1f 89 bf 10 b1 96 bf
       -0.6955777 -0.8573391 -1.0712733 -1.1772785
0001a0 8d 04 6a bf a1 f7 5c bf 66 55 0f bf b5 d6 b3 be
       -0.91413194 -0.8631535 -0.5598968 -0.35124746
0001b0 67 2f c4 be f0 9e 40 bf 68 c1 6f bf b1 a4 c3 be
       -0.38317415 -0.7524252 -0.9365449 -0.38211587
0001c0 1b 8d 31 bf dc c5 66 bf 08 2e 54 bf d3 d1 88 bf
       -0.69355935 -0.9014566 -0.8288274 -1.0689033
0001d0 2b e1 40 bf 0c f7 0e bf 19 2d 01 bf 92 26 23 bf
       -0.7534358 -0.55845714 -0.5045944 -0.6373073
0001e0 1b a1 b2 bc 52 eb 4c bf 14 ae 5a bf 2c 4f 81 be
       -0.021805337 -0.8004657 -0.8542187 -0.25255716
0001f0 c0 6a 82 3e 32 20 cd be ab a5 8b bf fa eb 6b bf
       0.2547207 -0.40063626 -1.0909933 -0.92156947
000200 77 7c 08 40 c0 bb 23 40 8b 4d 49 40 03 35 17 40
       2.1325967 2.5583344 3.1453578 2.3626106
000210 37 20 0f 40 7b cf 2d 40 f1 a6 4b 40 f0 53 14 40
       2.2363412 2.7157886 3.1820643 2.3176231
000220 0b 18 13 40 3d 69 2e 40 e8 98 2d 40 dd 43 09 40
       2.2983425 2.7251732 2.7124577 2.144767
000230 e3 2b 14 40 a6 26 49 40 83 f7 1c 40 c7 68 10 40
       2.3151786 3.142984 2.452607 2.256395
000240 14 a8 08 40 bd a6 3a 40 8b 02 01 40 e2 69 27 40
       2.1352587 2.916427 2.0157802 2.6158376
000250 b9 76 21 40 60 fe 12 40 73 0e 29 40 29 35 2f 40
       2.5228713 2.2967758 2.641507 2.7376196
000260 ca 9e 12 40 d7 53 2d 40 06 d5 17 40 76 67 24 40
       2.2909417 2.7082422 2.372377 2.5688148
000270 f1 8a 35 40 bf 07 40 40 f5 3f 3d 40 d6 ef 3c 40
       2.8366053 3.0004728 2.9570286 2.9521384
000280 e1 1c 2a 40 bd 7f 06 40 a0 e5 01 40 79 0b 04 40
       2.6580126 2.1015465 2.0296402 2.0632002
000290 29 5d 4f 40 a5 54 21 40 21 49 09 40 c1 87 47 40
       3.240061 2.5207913 2.1450884 3.1176608
0002a0 8c 44 4a 40 d5 ad 49 40 80 19 0c 40 f2 1a 4c 40
       3.1604338 3.1512349 2.1890564 3.1891446
0002b0 78 78 36 40 c4 90 14 40 4d f6 34 40 72 92 38 40
       2.8511028 2.3213358 2.827533 2.8839383
0002c0 71 76 05 40 68 bd e6 3f b3 e6 1b 40 ee b8 2a 40
       2.085354 1.8026552 2.4359558 2.6675372
0002d0 45 e2 17 40 26 67 13 40 54 9e 08 40 54 32 39 40
       2.3731854 2.3031707 2.1346636 2.8936968
0002e0 55 8f 14 40 62 7b 3f 40 e9 49 0c 40 84 5d 02 40
       2.3212483 2.9919057 2.192011 2.0369577
0002f0 52 5d 29 40 c8 75 46 40 0e ca 14 40 d2 cf 2b 40
       2.6463208 3.1009388 2.3248324 2.6845593
000300 8d 56 41 40 0e a9 2d 40 22 e5 6b 40 05 71 26 40
       3.0209076 2.7134433 3.6858602 2.6006482
000310 83 81 20 40 1d 21 02 40 bb 1b 04 40 21 70 0b 40
       2.5079048 2.033271 2.0641925 2.1787188
000320 2e 9a 1a 40 5d e0 2e 40 c3 69 f0 3f 6c a5 29 40
       2.4156604 2.732444 1.8782276 2.6507215
000330 42 b1 27 40 be 2e 29 40 88 e3 2a 40 df 4a d7 3f
       2.620194 2.643478 2.6701374 1.6819724
000340 85 e9 31 40 bd b9 f2 3f 06 1a 26 40 88 c5 f9 3f
       2.779878 1.8962933 2.5953383 1.9513407
000350 ef 3f 2e 40 ed 05 11 40 3b 6b 17 40 3e 34 00 40
       2.7226522 2.2659867 2.3659198 2.0031886
000360 7a ee 4b 40 97 2e 2a 40 c0 3c 2d 40 ce a7 50 40
       3.1864305 2.6590936 2.706833 3.260242
000370 7a 50 1a 40 66 0b 09 40 59 a0 1f 40 82 60 30 40
       2.411162 2.1413207 2.4941618 2.7558904
000380 e3 0e 32 40 96 b6 1f 40 6d 50 09 40 4a dd 1f 40
       2.7821586 2.4955192 2.1455338 2.4978814
000390 21 d2 22 40 58 d2 05 40 ba 69 2c 40 83 1c 1a 40
       2.5440753 2.0909634 2.693953 2.4079902
0003a0 88 f6 11 40 60 83 01 40 d4 3d 36 40 c6 4e 1f 40
       2.280672 2.0236435 2.8475237 2.489183
0003b0 57 66 34 40 7f 77 53 40 00 2f 3d 40 ef 0a 3a 40
       2.8187463 3.3041685 2.9559937 2.9069173
0003c0 f0 25 23 40 3a 6a 26 40 3c 08 0a 40 da 09 0a 40
       2.5491905 2.6002336 2.1567526 2.1568513
0003d0 6d 8e 18 40 5b 85 2a 40 ff d8 3b 40 68 0d 0e 40
       2.383693 2.6643894 2.9351194 2.2195683
0003e0 04 f0 34 40 b2 b4 16 40 3c a2 13 40 5b 45 4f 40
       2.8271494 2.3547788 2.306777 3.2386081
0003f0 a1 84 25 40 e0 d2 28 40 c2 4a d4 3f 34 a4 11 40
       2.58622 2.6378708 1.6585314 2.2756472

head.net.0.weight f4 [1, 128]
000000 5d 78 1a 3f fa 53 59 3d 98 5d 29 3d 4b 0b 06 bd
       0.6033991 0.053058602 0.041349024 -0.032725614
000010 2a 43 da bc 0c 16 17 bc 03 84 b7 3c da e1 77 bd
       -0.026643354 -0.009221565 0.022401815 -0.060518123
000020 e6 70 66 bd 2f d4 67 3a 75 8a 45 bc 16 98 d8 3c
       -0.056260012 0.00088435685 -0.0120569365 0.026439708
000030 9e 03 a9 40 bd 5e 36 bb 0a 2d bf 3d a1 a7 a6 bb
       5.2816916 -0.0027827465 0.093347624 -0.005085901
000040 12 7b 2e 3d 93 5e 89 3b 41 fe b7 bb 46 5b 07 3d
       0.042597838 0.0041921823 -0.005615026 0.03304603
000050 cb 32 58 3c 99 bd 60 3c 8f a5 b8 bc 22 c3 26 bc
       0.013195704 0.013717079 -0.022539882 -0.010178359
000060 f9 9d fa bd a7 c6 fc 3c 71 f4 22 3c 76 8e 3e 3c
       -0.12237162 0.030856444 0.009945975 0.011630645
000070 17 be e2 bb 3e bb 12 3c f6 32 df 3b da fa 1e 3b
       -0.006919633 0.008955775 0.006811495 0.0024258406
000080 e7 37 17 3d 37 15 16 3c a3 9f 1b bc 5c cb 8b bd
       0.036918547 0.009160331 -0.00949851 -0.06825897
000090 86 b7 ab 3b e7 91 1f 3b e9 29 26 3e 91 91 15 3a
       0.0052403836 0.002434844 0.16226925 0.000570559
0000a0 c5 6d 05 3c 95 29 18 3a a6 45 3a 3f 6c 38 4f bc
       0.008143847 0.0005804536 0.72762525 -0.012647729
0000b0 08 1a 7d bd 3b 5d 84 bc 52 6e 41 3d ab 65 41 ba
       -0.061792403 -0.016157737 0.04722435 -0.00073775154
0000c0 c3 1a 01 bd e3 21 50 3f fd be 48 3c c9 c8 ca 3c
       -0.031519663 0.8130171 0.012252566 0.024753945
0000d0 03 cd 0d 3c 92 04 6a bd 1c 45 f7 bd 7f a1 f9 3c
       0.008654836 -0.057133265 -0.120737284 0.030472515
0000e0 c5 ac 61 3b 8e d9 1d b7 22 9f 9e be a1 47 17 3e
       0.0034435254 -9.408583e-06 -0.30980784 0.14773418
0000f0 1b 8a 37 be c9 d8 9b bc c2 3a 12 3c 57 6f 00 3d
       -0.17923777 -0.01902427 0.008925142 0.031356182
000100 42 98 e5 bc dc 82 7c b9 9b e3 5f ba ed e4 84 bc
       -0.028026704 -0.00024081342 -0.0008540691 -0.016222442
000110 13 e4 98 ba 01 33 35 bd 18 31 54 3d 0c 4c b4 3b
       -0.0011664651 -0.044238094 0.051804632 0.0055022296
000120 8c 80 0d 3c 48 6e 94 bd bd bc 3f 40 51 4f 36 3a
       0.008636605 -0.07247597 2.9958947 0.0006954568
000130 be 6e 66 3d 52 64 23 3d 17 8b 6e bb 6e 21 a6 3b
       0.056257956 0.039890595 -0.0036398822 0.005069903
000140 25 74 89 3c 49 73 02 bc 02 c5 9a bd 50 b1 7e 3d
       0.016779015 -0.007962056 -0.075571075 0.062180817
000150 e3 5a b5 3c 08 9c f6 bb cd 59 0c bc bb a4 13 c0
       0.022138065 -0.0075259246 -0.008566332 -2.3069293
000160 72 3e a5 bc ee 57 4c bc a7 8f 49 3a 4e 30 81 3c
       -0.020171378 -0.012472136 0.00076889474 0.015770104
000170 d0 28 02 bc 99 dd 29 3c 06 6b d6 3c 5b 8f 7f bc
       -0.007944301 0.010367774 0.02617408 -0.015598143
000180 da 8d 32 bc 72 b7 0d 3d 8b e0 ec 37 1a d9 f1 bb
       -0.010898078 0.034598775 2.8237953e-05 -0.007380617
000190 5c 7f c3 ba 66 00 07 bf 93 1e ea ba c2 ad 52 3e
       -0.0014915275 -0.5273498 -0.0017861895 0.20574096
0001a0 de 03 fd 3e 06 e6 52 3d 60 26 d3 bb 72 4b 0d bb
       0.49417013 0.0514889 -0.0064437836 -0.0021559861
0001b0 a7 58 76 bb 10 a1 a1 bb 4b 2b da bb 85 00 c1 3c
       -0.0037589462 -0.00493253 -0.006657993 0.023559818
0001c0 bd f0 23 3d b2 f4 54 3d 5d d5 00 3d 9c b1 ad 3d
       0.040024508 0.051991172 0.03145348 0.08481142
0001d0 4f 00 0c be 61 d7 12 ba 86 f2 1c ba 18 ce 16 bd
       -0.13671993 -0.0005601552 -0.00059870665 -0.03681764
0001e0 f3 4b 31 3a df 3d c9 bb d4 98 ba bd 3c 0e 02 3b
       0.00067633315 -0.006141409 -0.09111181 0.001984491
0001f0 78 10 7c 3b f8 c6 8a bc af 25 08 3f ce ad 21 bd
       0.0038461965 -0.016940579 0.531825 -0.039472394
