examples/catchment_models/training/runs/globe_basin_split_2404_220637/model_epoch033.pt (torch, 316229 bytes, 5 tensors)

lstm.weight_ih_l0 f4 [512, 23]
00000000: 5fdd 9ebe ec6c 213f 9f18 633c 4341 20be
00000010: 8b93 a23e cefa 2c3f 550c 183f 06d7 4fbe
00000020: 8e5c 213f 13ea 67be e89c 5fbe 7daf 1a3e
00000030: f631 683e 61c5 ffbd a579 a73d 183a 603f
00000040: 5890 24be a289 6a3e 0503 7fbd 24d5 d6bc
00000050: 76e6 003f a5ae e23e ce11 dc3d 3711 473f
00000060: 4469 dcbd 2042 623f 4de8 243f 20e7 9c3e
00000070: e740 093f d149 623e fb9a 1d3f 67e9 a13e
00000080: b992 debe 61b3 bb3e e058 ebbe 6d39 c6be
00000090: 2473 5bbc 404f 073f a2fb e03e ee7d 43b8
000000a0: acec c5bd b9f8 af3e a2f0 2abf fc18 00bd
000000b0: 831c 323e 03b4 a03e c85c 473e 9ac8 a63d
000000c0: c33c 153d a8d9 ef3c cd04 333e 56f1 3ebe
000000d0: 306c 793e f27d d1bd e17a a93e 2429 bcbe
000000e0: f046 86be f235 34bf 82a2 3abf f3f3 383d
000000f0: 0e49 b03e 969d 7e3e 1c86 1ebf c0fe 62bf
00000100: d781 1b3e bfb8 2cbd dca9 2fbe 0348 cbbe
00000110: 84a5 9e3e 05c8 00be ed1e 053f 6554 bfbb
00000120: d43e 6ebe 774a d33d a1b0 9c3e 66e5 753f
00000130: 06f9 51be f4af 8b3f 94c0 4dbc 46de 66be
00000140: 9606 ff3c 4e87 9b3e 4834 2fbf 3f0b f5bd
00000150: 3a8c 793f 1bb3 9a3e 0425 f23e cbcd 6cbe
00000160: 61b0 c43e 4e80 473f 2d10 363f b7ec e33e
00000170: 3666 96bd f4f9 d83d 1176 883f 7975 ac3e
00000180: 04ea a3be 606b eb3e 8688 cd3e f483 123e
00000190: ccfd 8e3e 7fe9 dbbe 81d6 be3f f650 69be
000001a0: 9375 71be 8016 fc3e 5ffb 473f 82dc 9c3f
000001b0: 58d6 a53d 4e65 c03b 77e6 303e 5394 c9be
000001c0: a52e 883e a2ab 373f f091 263d 0bce f0bc
000001d0: 6194 78be bebf d03d 9392 593e db10 d83d
000001e0: a9dd 083f b45b 5dbd 53a8 c5be 5123 8c3e
000001f0: 2989 083f 36eb 273f bf83 083f eb62 3b3e
00000200: f458 46be 40c9 c63c 4f24 433f c4fb 643f
00000210: 9555 693f 5aff 47be 71a4 303e c60b 213f
00000220: 1958 203f aeaa 183d d265 a53e a9f9 a33e
00000230: d449 143f 108c 4a3f 35cd 673d 59dd 863f
00000240: 0f56 50bf d558 c93e beae 03bf 5248 1b3f
00000250: 8b2a 2b3e 1ca8 5b3e 5b89 d2bd ccd3 6d3f
00000260: 7af8 b23e 3da0 ce3d 8b2d b7bd 0d6b 04bf
00000270: 8430 ca3e 0593 02bf e1c8 093f 0dde af3d
00000280: 45ed a5be 4a2f 2fbe 34dc c33e ca17 4abd
00000290: b82c a1be 6bb6 673e f4aa fb3e bb00 8b3f
000002a0: d8a1 f5be 375a a93f 7f70 44bc ec3c babe
000002b0: 95e9 013e 1deb 7c3e cbc8 15bf 3226 82bd
000002c0: 066c 713f ebe5 ad3e ba87 0a3f bd0c 8dbd
000002d0: fdec 863e cbc7 2f3f 56ad 463f 126f bc3e
000002e0: 1bd9 d43e 6158 7c3f 0c83 7ebd 08d7 eb3d
000002f0: 4b6f 013f 4afa 4b3f 9b62 093f 191a 5e3e
00000300: c5ca fc3e f63e b53d 2112 12bf e3e8 283d
00000310: f81e 853e 5f51 51be af8d 1ebc 875b f43e
00000320: f195 23be 05bf 8b3e 3c25 80be 8326 83bc
00000330: 3f89 133f cd34 d13e 5b32 06bd 5463 853e
00000340: fbf6 b7be cb19 443f 39d5 1b3f c574 2c3f
00000350: e376 da3e d761 953e 1a78 7a3f ecb4 d43e
00000360: 3203 8abe cea8 973e d10c b0be f4df 40bf
00000370: 75c4 c13e 5c0e 523f ae55 5c3f 6c32 a03e
00000380: 6ec0 2f3f 0069 a8bd 0b04 47bf 122b aa3e
00000390: f61b dcba 78a6 d83e 4427 d6bd 60bd 8c3e
000003a0: 7237 55bd c413 51be e8b9 bb3d a9f8 673e
000003b0: 4774 353f 6f74 78be 3dd9 1e3f 4379 3fbe
000003c0: 48f9 04bf 5747 7c3e c2b2 833e b3f4 98be
000003d0: f987 4a3e 48b3 993f b1d1 4d3f 8c86 183f
000003e0: 0402 113e 5c04 193d 17eb 4f3f 553f 0a3f
000003f0: 5034 313d 9573 0c3e 91df 8a3d 8298 203f
-0.31028268 0.63056827 0.013860851 -0.15649895 0.3175319 0.675702 0.5939382 -0.20296869
0.6303185 -0.22647886 -0.21837199 0.15106006 0.22675309 -0.12488819 0.08177499 0.87588644
-0.16070688 0.22904065 -0.06225874 -0.02622468 0.50351655 0.44273868 0.107455835 0.7776064
-0.10762265 0.8838215 0.6441696 0.30645084 0.5361466 0.22098471 0.61564606 0.31623384
-0.43471316 0.36660293 -0.45966244 -0.38715687 -0.013394151 0.528553 0.4394198 -4.6608904e-05
-0.09664282 0.34369448 -0.66773427 -0.031273827 0.17393689 0.31387338 0.19468987 0.081437305
0.0364349 0.029278591 0.174823 -0.1864675 0.24357677 -0.102291 0.33101562 -0.36750138
-0.26225996 -0.70394814 -0.7290422 0.045154523 0.34430736 0.24864802 -0.61923385 -0.8866997
0.15186249 -0.042168375 -0.1715464 -0.39703378 0.30985653 -0.12576301 0.52000314 -0.005838918
-0.23266155 0.103169374 0.30603507 0.9605316 -0.20505151 1.0913072 -0.012558121 -0.22545728
0.03113107 0.30376667 -0.6843915 -0.11965036 0.97479594 0.30214772 0.47293866 -0.23125379
0.38415816 0.7793015 0.7111843 0.44516537 -0.07343714 0.1059455 1.0661031 0.33683375
-0.32014477 0.45980358 0.40143222 0.14308149 0.27928007 -0.4295158 1.4909211 -0.2278479
-0.23580007 0.49235916 0.78117937 1.2254794 0.080975235 0.0058714515 0.17275415 -0.39370975
0.26598087 0.71746266 0.04066652 -0.029395124 -0.24275352 0.10192822 0.2124732 0.1055009
0.53463227 -0.054042533 -0.38604984 0.27370694 0.5333429 0.6559328 0.5332603 0.18299453
-0.1936987 0.024265885 0.7622728 0.89446664 0.9114621 -0.19531003 0.1725023 0.6290859
0.62634426 0.037272148 0.32304245 0.32026413 0.5792515 0.7911997 0.056592185 1.05363
-0.81381315 0.39325586 -0.5143851 0.6065723 0.16715448 0.21450847 -0.10280105 0.929013
0.34955198 0.10089157 -0.089442335 -0.51725847 0.3949014 -0.51005584 0.5382214 0.08587275
-0.32407585 -0.17107883 0.3825394 -0.049339093 -0.3147943 0.2262818 0.49153864 1.0859598
-0.4797504 1.3230656 -0.011989712 -0.36374605 0.1268676 0.24699064 -0.5850951 -0.063549414
0.94305456 0.33964476 0.5411335 -0.06887195 0.26352683 0.68664235 0.7760824 0.3680349
0.41571888 0.98572356 -0.062136695 0.11515623 0.50560445 0.79678786 0.53666085 0.21689643
0.4937345 0.088498995 -0.5705891 0.041237723 0.2600019 -0.20441197 -0.009677335 0.4772608
-0.15975167 0.27294174 -0.25028408 -0.016009575 0.57631296 0.40860596 -0.032762866 0.26052344
-0.3593062 0.76601857 0.60872227 0.67365676 0.42668828 0.29176208 0.9783951 0.41544282
-0.26955563 0.29620975 -0.34384778 -0.75341725 0.37845197 0.8205316 0.86068237 0.3128847
0.68653 -0.08223152 -0.77740544 0.33235985 -0.0016793001 0.42314506 -0.10456708 0.27488232
-0.05205483 -0.20417696 0.09166318 0.2265345 0.7088055 -0.24263166 0.6205023 -0.18698601
-0.51942873 0.24636589 0.2572232 -0.2987419 0.19778432 1.2007837 0.8039809 0.595803
0.14160925 0.037357673 0.81218094 0.54002887 0.04326278 0.13715966 0.06780923 0.6273271

lstm.weight_hh_l0 f4 [512, 128]
00000000: 1aaf 993e 6df2 c43d db0d d8bd 13bc a6bd
00000010: 0c62 d1bc e69f 19be 5984 9a3e 6b8e 3abd
00000020: 52f1 bf3c 91dd 5bbe 5dbd ccbc 6e1a d1be
00000030: 0cb9 c33c ede3 c8bb e089 fa3d 7bac 813e
00000040: f5e0 603e fafc 073e 4251 43be e982 efbd
00000050: 7bd2 783e 7fdb c3be 6ef1 b9be 817d 11be
00000060: b62a c93d 6cd0 43be ed4f ebbc 2ec8 463e
00000070: f8c1 2abd 84c4 613d 35b1 e9be 60a4 a93e
00000080: 6cb3 863e b087 2c3e 3bec 4b3e fe4b 3bbe
00000090: 3a65 4fbe 8f6d 9dbe 2644 c8bc 3456 0bbf
000000a0: 9cfe c73e 51ed 843e fccf 01bd a59e 64be
000000b0: 5e70 d5be 1207 833c f921 d5be 3ee1 053f
000000c0: 9963 1b3a 36df 08be 91e8 02bf f604 e83b
000000d0: d1a3 e3be f8a6 95be 924c 4c3e 5fa7 bbbe
000000e0: 1e92 acbe d329 f1be fcc9 dabd 1b48 32bd
000000f0: efed 13be c06a b1be 091d c2bd 1872 b4be
00000100: fcfc c0be 5d5f 0ebf ba5e e8be a8b1 f5be
00000110: 506b b8be 81dd f1bd 885f cb3b a010 81bc
00000120: f3df febe 2fe7 403e 08e4 363e ff8f 653d
00000130: a2ed 713d 9b9f 853e b99e d43e 5ec1 16bd
00000140: a50d 5f3e 971e 2bbe b1c7 2c3e f409 4f3d
00000150: 26a4 73bd 9549 a53e c88b 8bbe 6b1f e1bd
00000160: faa3 f93d 1d58 afbe 93b6 bb3e f8e0 bebe
00000170: c327 073e 76c7 8ebd 970e adbd 47b5 91bd
00000180: e134 d4be 73f7 0bbd 6bf4 ac3e 0dc5 4abe
00000190: 1703 683e 2bc4 0cbd 3ccc 48bd 3bb4 c2bd
000001a0: d655 a73d af94 ddbe 7038 e93e a3a9 023f
000001b0: 7f59 a7be 2f39 bbbd ccec 513e 824e a93e
000001c0: 2122 e0be 0b13 aa3d 42d8 033e e3fd b83c
000001d0: f6bb 643e 68a4 6dbd ad2a 84be 10ac 06be
000001e0: 1447 18bf 0176 543e 9a1a b63d 816f 38bf
000001f0: 36b9 413f f5b2 4c3e 07e7 263b c4f3 8abe
00000200: afbf 64ba 5274 b0bd 2c5b 303c fc53 153d
00000210: e76d 52be e16d f13d 45c1 0e3e 3e11 6bbe
00000220: e3c5 42bd 00d4 a8be 62ac 443e 6d7f 8abe
00000230: 55b6 0bbe 0765 0f3e b91b 653e 6469 103e
00000240: b37c 803e e8df f5bd 9c9c 2abe b31d 42be
00000250: 8b55 0d3e ade5 06bf 74ad 893e b3d1 f7bd
00000260: a3b8 fe3d ee80 b2bd 6a83 46be 5f4b 99bd
00000270: a68d b43d 29b0 2bbe 6a78 dabe 737f 273e
00000280: a208 153e 8b10 263d 5bf9 c63e e53f 403d
00000290: bcae ddbe 676d fabd 6f71 083e c4b5 1abe
000002a0: 210a c63e 949b b23e 60b6 5dbd d1de 62be
000002b0: 5ebf cbbd 8bd6 2f3e 0287 cdbd 996d f13e
000002c0: 65a4 3c3d 4165 b83d c22d 85be 817b 553e
000002d0: f9a8 8fbe 770e 75bd 0465 0f3c e4ee 65be
000002e0: 0420 63be 3146 32be 6960 0d3d 9d72 47bd
000002f0: 7e17 953a cd57 bebe fdd4 0cbe 5d64 4bbe
00000300: ee55 83be 0eb9 68be c2ef dcbe 468f aabd
00000310: c00a 9dbe 9c9a 11bd 2732 0c3d 15d6 953e
00000320: d563 9bbe 7388 4f3e f46f 8bbd 773a 2fbf
00000330: 5bc1 df3d 2ef0 37bd c8c5 c03e c414 9fbd
00000340: c015 933e e836 08be d504 973d bb0b 423e
00000350: 37bb 4dbe 8bd6 383e a807 943c 7525 d7bd
00000360: d7eb a0be 0249 aebc c857 3c3d 9168 03bd
00000370: 46ea d73e b124 8ebd af9d 19be d42e 07be
00000380: 2770 a93d ce9a 953d b073 673d 3b10 9ebd
00000390: 342a 3d3e dca8 3ebe 0ba6 073e 65c6 36bd
000003a0: c67f 9b3c 2a10 b7bd b7c5 05be 959a 853e
000003b0: 583b b5be 55cf 693e bbe6 313e dc39 b53e
000003c0: ad4a 42be 2fa1 a73d e987 783e 53bc e23d
000003d0: 1c0a 543d 94d9 4dbe a347 97be 4f87 d0be
000003e0: 1fac efbe 9e00 8a3e 1d57 75bd 9a1c b1be
000003f0: 4427 e13e f8e4 b83d 92f3 553c 7a05 babd
0.30016404 0.096165515 -0.10549518 -0.08141341 -0.025559448 -0.15002403 0.30179098 -0.045545977
0.0234305 -0.2147124 -0.02499264 -0.40840477 0.023891948 -0.0061306865 0.12233329 0.25326905
0.21960814 0.13280097 -0.19073966 -0.11694891 0.24299042 -0.382534 -0.3631701 -0.14208032
0.098225996 -0.19122475 -0.028724635 0.194123 -0.04168889 0.055119053 -0.4564301 0.3313322
0.26308763 0.16848636 0.19914334 -0.18290707 -0.20253459 -0.3074765 -0.024446558 -0.5442841
0.3906144 0.25962308 -0.03169249 -0.22326143 -0.41687292 0.015994582 -0.41627482 0.5229682
0.0005927622 -0.13366398 -0.5113612 0.0070806695 -0.4446092 -0.2922895 0.19951084 -0.36651132
-0.3370523 -0.47102222 -0.10683057 -0.043525796 -0.14446233 -0.34651756 -0.09478194 -0.35243297
-0.37693012 -0.5561426 -0.4538477 -0.47987103 -0.36019373 -0.11809827 0.0062064566 -0.015754998
-0.49780235 0.1883819 0.17860425 0.05604553 0.059064515 0.26098332 0.41527346 -0.036805503
0.21782549 -0.16710888 0.16873051 0.0505466 -0.059482716 0.322827 -0.27255082 -0.109923206
0.12189479 -0.34246913 0.3666273 -0.37281013 0.13198762 -0.06971638 -0.084500484 -0.07114654
-0.41446593 -0.034171533 0.33780226 -0.19801731 0.22657429 -0.034366768 -0.049022898 -0.095070325
0.08170669 -0.432775 0.4555087 0.51040095 -0.32685468 -0.09141766 0.20500487 0.3306771
-0.43776038 0.083044134 0.12875465 0.022582 0.22337326 -0.05801812 -0.2581381 -0.13151574
-0.59483457 0.2074814 0.088917926 -0.7204514 0.75673234 0.19990142 0.0025467293 -0.27139103
-0.0008726073 -0.08615936 0.010763925 0.036457047 -0.20549737 0.11788536 0.13940914 -0.22955796
-0.047552 -0.32974243 0.19206384 -0.27050343 -0.13643773 0.14003383 0.22373857 0.14102703
0.25095138 -0.12005597 -0.16661304 -0.18956642 0.13802163 -0.5269421 0.26890147 -0.12100544
0.124375604 -0.08715998 -0.19386068 -0.07485079 0.0881608 -0.16766419 -0.42669994 0.16357212
0.14554074 0.04054312 0.38862118 0.046935935 -0.43297374 -0.12227898 0.13324521 -0.151084
0.38679603 0.34884322 -0.054129004 -0.2215531 -0.0994861 0.17171685 -0.10035516 0.4715393
0.046055216 0.09003688 -0.26011473 0.20847894 -0.28058603 -0.059828248 0.008752111 -0.22454411
-0.22180182 -0.17409588 0.034515772 -0.048693288 0.0011374799 -0.37176362 -0.13753124 -0.19862504
-0.25651497 -0.22726843 -0.4315167 -0.083281085 -0.30672264 -0.035547838 0.034227517 0.29264894
-0.30349603 0.20266895 -0.06808463 -0.68448585 0.109255515 -0.044906788 0.37650895 -0.077676326
0.2872753 -0.13302195 0.073739685 0.18949787 -0.20090948 0.18050592 0.018070057 -0.10505191
-0.31429932 -0.021275047 0.045982152 -0.032082144 0.42170924 -0.06940592 -0.15001558 -0.13201457
0.082733445 0.07304917 0.056506813 -0.077179395 0.1847313 -0.18619102 0.13246934 -0.044622798
0.018981826 -0.0893863 -0.13063703 0.260945 -0.35396838 0.22832997 0.17373173 0.35395706
-0.18973799 0.0818504 0.24270596 0.11071076 0.051767454 -0.2010253 -0.29546842 -0.40728232
-0.46811005 0.26953596 -0.05989753 -0.34592134 0.4397527 0.09028047 0.01305856 -0.09083076

lstm.bias_ih_l0 f4 [512]
00000000: f635 8ebf 5957 26bf 506e 243e b85b 01bf
00000010: 4a70 63bf e557 15bf 858b 06bf ef3d 41bf
00000020: 0d58 66bf bccf e2be f126 25bf edf2 50bf
00000030: 4e86 c4bf bb63 a5bf feb5 3cbf 2e65 49bf
00000040: 26da 6ebf 104b 32bf f367 3abf d600 80be
00000050: 51f0 d7be 6c4d 59bf 8337 323e ce5b 4dbf
00000060: 883c 86bf a622 f6be 5c47 1ebf b2cc 4bbf
00000070: ca0d 81be 452d dfbe dc80 8fbe 916c ddbe
00000080: 05ac 6fbf bb80 8dbf 5244 67bf d2fa 5bbf
00000090: c51e 31be 542a 9ebe 8113 2ebf 9d4d 71bf
000000a0: efd2 85be baac 89be 64d7 95bf d66c 42bf
000000b0: 2337 40bf d09d 84bf 0dfa 52be 7686 fbbe
000000c0: e6d8 55bf 3dc8 b5bf 2139 51bf 3604 07bf
000000d0: b6f6 91be 1a91 11bf b489 46bf e3f0 13bf
000000e0: 6627 47bf 5be7 96bf 3fe2 5dbf 5837 b7bf
000000f0: a95f 29bf 58fa 043e e9c3 82bf 15e6 37bf
00000100: 2906 1dbf de06 31bf f409 bbbe baaa c4be
00000110: dd39 71be 2511 4dbf 9b62 4bbf c00a eabe
00000120: c4dd 1abf 4550 5cbf cf7b 84bf b88d 3cbf
00000130: c8cc 93bf f87b 1ebf 55f8 57bf 08f8 81bf
00000140: 1e8e 92be 3ae6 3abf a333 06bf 10d6 23bf
00000150: 21a3 43bf ad97 20bf 1155 8abf 9fd1 c3bf
00000160: 0794 0abf a84a 6cbf 2aa8 acbe 3dd6 c93d
00000170: cfb0 48bf fbb4 98bf 39de 27bf 6e31 3cbf
00000180: 1ebb 12bf 7765 5fbf d713 40bf 7ab0 80bf
00000190: c426 10bf bd7b 7bbf 95e8 8cbf 670a a3bf
000001a0: 39c2 70bf f46b 6abf dc04 02bf e275 babe
000001b0: efa5 bebe b606 38bf 5414 7bbf f450 9fbe
000001c0: 8034 39bf 25fb 65bf 8367 55bf a425 8ebf
000001d0: 50dd 4ebf f768 23bf 8184 f2be b3e4 19bf
000001e0: 5890 efbb 58a6 30bf 8001 69bf f280 1fbe
000001f0: 0e80 463e b0f7 b7be 7dd5 6dbf 4154 4fbf
00000200: dcc0 64bf a58a b2be 8b4c 483e 3786 2cbf
00000210: d634 4abf fbff 8cbe 70cf 273e e1b9 1dbf
00000220: 600e 2ebf 5377 57be d7de babe 627b 62bf
00000230: e9cb 24bf 6faa 383e c191 16bf cd14 27bf
00000240: a450 50bf 34a9 26be 85fb 64bf b0c9 e6be
00000250: 1229 e8be 7eab 23bf af2e 46be aedd 54be
00000260: 0fab 42bf dc74 58be a868 1bbf 5d08 bdbe
00000270: b1c3 16be 5b5b 773d e473 d13d 8eac dc3c
00000280: 4fa9 cbbe 9c70 61bf 62a8 6abf 3acc 6dbf
00000290: 7818 a53e c56b d3be 3bfe 59bf 237a 3b3e
000002a0: 1d00 683e c006 853e e4c0 7abf c7d1 8c3e
000002b0: 30cc 35bd e4c0 23bf 0a14 a7bd 02e8 cdbd
000002c0: 705b 72bf 6327 a2bf aaee 1ebf 0e89 a1be
000002d0: 85ff 20bf 07e4 25bf 44e2 79bf de6f 1bbe
000002e0: d639 14bf efc8 0c3e 5df4 53bf cadf 82bf
000002f0: 9679 cfbe 052c 243e 7d41 27bf ab55 8bbe
00000300: 0b0e 903d b0da cfbe 262b 343f 8b45 a1be
00000310: 0868 ebbe 1e6a 74bf 3607 74bf 0164 44bf
00000320: fe31 24bf 8e45 0bbe 94ba 93bf 5849 b7be
00000330: 447e 91be f470 99be bec2 a2be 145a a4bf
00000340: 6f04 61be 9286 84bf d16f bebe 5047 7ebf
00000350: f51d 75be c998 2ebf 86f1 16bf eef4 84bf
00000360: abbd 4d3e 0096 97be ab1d 7bbe 4baa b03e
00000370: 53da 1bbf a171 46bf 58bf 08bf b463 60be
00000380: 63a2 89be 52bb f4be 6893 4ebf 9554 e9be
00000390: df32 d8be a54b 79bf 24a7 bcbe 6945 18bf
000003a0: b4e8 51bf 1a0d 62bf f715 a3bd 4a3b d1be
000003b0: ee18 f6bd 50bc 933e 270d 2abd aba6 a8bd
000003c0: 2ee6 ffbe ce73 e9be f07d 34bf e556 4ebf
000003d0: 300b 10bf daab cebe add3 9ebc 1167 41bf
000003e0: f858 69be 76d1 11bf c1f1 40bf 3899 b33e
000003f0: b766 c0be c71a c0be 96a1 b0bf 71aa 33bf
-1.1110218 -0.6497703 0.16057706 -0.50530577 -0.88843215 -0.5833724 -0.5255664 -0.7548513
-0.89978105 -0.44299114 -0.64512545 -0.81620675 -1.5353487 -1.292106 -0.737152 -0.7867001
-0.9330162 -0.69645786 -0.72814864 -0.25000638 -0.42175534 -0.8488376 0.17403989 -0.8021821
-1.0487223 -0.4807331 -0.61827636 -0.79609215 -0.25205833 -0.43589225 -0.28028 -0.43246892
-0.93621856 -1.105491 -0.90338624 -0.85929596 -0.17296894 -0.3089167 -0.6799851 -0.94259053
-0.26137492 -0.26889592 -1.1706357 -0.7594732 -0.7508413 -1.036066 -0.206032 -0.49126023
-0.83534086 -1.4201733 -0.81727797 -0.527408 -0.28508538 -0.5686203 -0.7755387 -0.5778944
-0.7779449 -1.1789354 -0.8667335 -1.4313765 -0.6616159 0.12986124 -1.0216037 -0.7183545
-0.61337525 -0.69151103 -0.3653103 -0.38411504 -0.2355723 -0.80104285 -0.79447335 -0.45711327
-0.6049464 -0.8605998 -1.0350283 -0.73653746 -1.1546869 -0.6190791 -0.843633 -1.0153818
-0.28624052 -0.7300755 -0.5242254 -0.6399851 -0.7642079 -0.6273144 -1.080721 -1.5298346
-0.5413212 -0.92301416 -0.3372205 0.09855316 -0.7839479 -1.1930231 -0.6557346 -0.73512924
-0.5731677 -0.872642 -0.75030273 -1.0053856 -0.5630915 -0.98235685 -1.1008478 -1.273755
-0.9404636 -0.91570973 -0.50788665 -0.36418062 -0.37235972 -0.7188524 -0.98077893 -0.3111645
-0.72345734 -0.8983634 -0.8336107 -1.1105237 -0.80806446 -0.6383204 -0.47366717 -0.6011459
-0.0073109083 -0.6900382 -0.91017914 -0.15576532 0.19384786 -0.35931158 -0.9290388 -0.80987936
-0.8935678 -0.34871402 0.19560449 -0.67392296 -0.7898687 -0.27539048 0.16387725 -0.61611754
-0.67990685 -0.21041612 -0.36498138 -0.8846952 -0.6437364 0.18033765 -0.5881615 -0.65266114
-0.8137305 -0.16275483 -0.8944629 -0.4507575 -0.45343834 -0.6393355 -0.19353746 -0.20787689
-0.76042265 -0.21138328 -0.6070657 -0.36920443 -0.14723088 0.060389858 0.102271825 0.02693775
-0.3977761 -0.88062453 -0.9166318 -0.9288975 0.3224523 -0.4129316 -0.8515355 0.1830831
0.22656293 0.25981712 -0.9795058 0.27503797 -0.04438418 -0.639662 -0.08158119 -0.100540176
-0.9467077 -1.266827 -0.6208292 -0.31549877 -0.6288989 -0.6480107 -0.9761088 -0.15179393
-0.5790075 0.13748525 -0.82794744 -1.0224545 -0.4052245 0.16032417 -0.653343 -0.27213797
0.070339285 -0.40596533 0.7037834 -0.3149837 -0.45977807 -0.9547442 -0.95323503 -0.76715094
-0.6413878 -0.13600752 -1.1541314 -0.35798144 -0.28416646 -0.2996899 -0.31789201 -1.283999
-0.21974348 -1.0353568 -0.37194684 -0.99327564 -0.23937209 -0.6820188 -0.58962286 -1.0387247
0.20091884 -0.29606628 -0.24523036 0.34504923 -0.6088001 -0.77517134 -0.5341697 -0.21913034
-0.26881704 -0.47799164 -0.80693674 -0.45572343 -0.42226312 -0.9738105 -0.36846268 -0.5948091
-0.819957 -0.8830124 -0.07963174 -0.40865546 -0.12016474 0.2885461 -0.04151645 -0.082349144
-0.499803 -0.45596164 -0.70504665 -0.8060134 -0.5626707 -0.40365487 -0.019388044 -0.7554789
-0.22787845 -0.5696024 -0.7536889 0.35077834 -0.37578365 -0.3752043 -1.3799312 -0.7018195

lstm.bias_hh_l0 f4 [512]
00000000: 8091 91bf b6a8 32bf 242c d43d 3225 1abf
00000010: 8b21 82bf 21c9 1dbf 2172 22bf 8d0a 26bf
00000020: a59c 66bf bdea 09bf 6c70 3fbf dc54 58bf
00000030: 292a cebf fcc9 9ebf dfd1 4ebf 7622 4ebf
00000040: b0d6 64bf a9de 1abf 8c31 3ebf 407d 9cbe
00000050: dcc0 0cbf cb25 59bf bffa bf3d d4f6 47bf
00000060: cb57 89bf 1653 09bf 3ec2 29bf a237 4dbf
00000070: 3f5d 97be 7a17 ddbe 832a 82be d3a7 ecbe
00000080: 6605 50bf 3a27 8ebf 66b0 70bf 0f45 5ebf
00000090: 0114 91bd 1746 a2be d3b8 4abf 50b6 87bf
000000a0: 2435 46be e1b8 84be 30ca 91bf 5079 39bf
000000b0: 30b3 50bf 54ee 81bf 7048 5ebe 3541 d4be
000000c0: 76ba 48bf 0403 b8bf 871a 50bf f7bd 09bf
000000d0: 8753 a9be fd39 13bf 9cb0 5dbf e3e4 2cbf
000000e0: 8ef2 42bf fb2d 94bf 4043 4bbf e69b a6bf
000000f0: 138f 52bf 3623 d33c 9ab0 8ebf f495 35bf
00000100: 6042 04bf 8105 24bf 9ce4 91be 0536 96be
00000110: 6a92 97be d20f 5cbf 0167 3cbf 1c4a febe
00000120: a70e 00bf 3637 71bf 2836 84bf 516a 3ebf
00000130: 6f38 8bbf fb87 28bf 5769 35bf c49e 81bf
00000140: ebc6 8fbe b19b 54bf 3530 16bf 6e1b 25bf
00000150: ebf5 48bf f3ac 2abf 3c0b 8abf 2093 c2bf
00000160: dd45 e8be 009e 80bf 0698 ccbe a462 833d
00000170: 4316 49bf 0068 92bf 9ab6 16bf a1b1 41bf
00000180: ffca 2cbf f1b8 4ebf 21b3 52bf 4dca 82bf
00000190: 413a 2dbf ffe3 5abf 523d 8abf c2a9 9abf
000001a0: 87d4 6bbf 06e7 59bf f1d5 0cbf 0e62 98be
000001b0: 44a5 aebe 8a26 50bf 0c5b 78bf 481f b5be
000001c0: 4d08 27bf 2bf8 67bf 52dd 4fbf 35d7 8cbf
000001d0: ab1f 43bf 78b9 10bf 5155 05bf 6ba4 23bf
000001e0: 7f8d 1cbd be64 42bf e770 64bf 545d 64be
000001f0: e1a6 9a3e c9db c9be 2886 8abf c69e 65bf
00000200: 2cda 0640 10ca 2640 7f97 4a40 3f1d 1840
00000210: f826 0f40 8a7d 2d40 30ac 4d40 f762 1540
00000220: d414 1140 9da5 3140 8c3c 2e40 302f 0740
00000230: 80ce 1440 8867 4c40 ea61 1c40 7476 1240
00000240: 6861 0940 bada 3a40 5a15 0240 71d5 2740
00000250: 7f9e 2240 695b 1640 84e7 2e40 dc08 2f40
00000260: 2099 1140 995e 2e40 79c9 1840 d5bb 2640
00000270: 91ca 3840 a223 4040 4fa8 4140 7217 3c40
00000280: b069 2b40 7aa3 0640 4b1e 0240 45eb 0340
00000290: bbd5 4f40 de86 2040 fa63 0640 f9a1 4640
000002a0: 8e5f 4c40 5f79 5040 9f2f 0640 1cea 4c40
000002b0: 7de3 3b40 5b6f 1540 bff3 3640 1f14 3840
000002c0: daf9 0640 4e80 dd3f 8828 1c40 a36c 2840
000002d0: 67d0 1640 b534 1440 ee07 0640 b780 3940
000002e0: 8def 1540 976d 4440 8be8 0a40 9c16 0240
000002f0: 5e00 2940 3881 4740 e5f9 1340 75ae 2c40
00000300: 61a9 4140 dda2 2b40 770e 6d40 00bc 2740
00000310: ccc1 2040 4178 0140 5fe2 0140 221e 1340
00000320: 73ae 1a40 1d3f 3240 a704 e93f da48 2940
00000330: 3b3b 2940 0645 2b40 874b 2b40 731a d73f
00000340: 8e5b 3340 2443 f23f 892d 2740 372c fa3f
00000350: 7fa8 2e40 5a14 1240 4419 1740 f876 fb3f
00000360: 4980 4c40 4061 2b40 07df 2d40 f3a2 5240
00000370: 0521 1940 eb42 0940 ea44 1e40 fe69 2e40
00000380: 16e1 3340 4c66 1f40 c5ac 0940 3a99 1f40
00000390: c405 2440 9935 0340 918a 2a40 3d6f 1740
000003a0: b0d0 0f40 8b17 0340 8056 3840 ddd2 2140
000003b0: cf70 3540 067a 5040 a1c0 3c40 c309 3c40
000003c0: 98b8 2440 7719 2140 2f8d 0d40 f5d5 0840
000003d0: a637 1840 ba76 2b40 5ae3 3c40 a552 0d40
000003e0: 8cee 3540 4e2c 1840 5abe 1040 67ce 5040
000003f0: 7d2c 2640 639c 2740 f387 cf3f d685 1240
-1.1372528 -0.6978868 0.10359982 -0.60213006 -1.0166487 -0.61635023 -0.63455397 -0.6485985
-0.9008277 -0.5387381 -0.7478092 -0.84504485 -1.6106616 -1.2405391 -0.8078899 -0.80521333
-0.8939009 -0.60496 -0.7429435 -0.30564308 -0.5498178 -0.8482329 0.09373998 -0.78111005
-1.0729917 -0.53642404 -0.66312015 -0.80163014 -0.2956333 -0.43181974 -0.2542306 -0.4622179
-0.8125824 -1.1105721 -0.9401916 -0.86824125 -0.070838936 -0.316941 -0.7918827 -1.0602512
-0.19356209 -0.259223 -1.1389828 -0.72450733 -0.8152342 -1.0150857 -0.2170732 -0.41456
-0.78409517 -1.437592 -0.8129048 -0.5380549 -0.3307154 -0.5751036 -0.8659761 -0.67536753
-0.7615136 -1.1576532 -0.7939949 -1.3016326 -0.82249564 0.025773626 -1.1147645 -0.70931935
-0.5166378 -0.640709 -0.28494728 -0.2933809 -0.29603893 -0.8596164 -0.7359467 -0.49665916
-0.5002236 -0.9422487 -1.0329027 -0.74380976 -1.0876597 -0.6583249 -0.7086386 -1.0126576
-0.2808145 -0.83050066 -0.5866731 -0.6449498 -0.7850024 -0.6667015 -1.0784678 -1.5201149
-0.453658 -1.0048218 -0.39959735 0.064152986 -0.78549594 -1.1437988 -0.5887238 -0.75661665
-0.6749725 -0.8075095 -0.8230458 -1.0217987 -0.67667013 -0.85504144 -1.0799963 -1.2083056
-0.92121166 -0.8511814 -0.5501395 -0.2976231 -0.34110463 -0.81308806 -0.97013927 -0.35375428
-0.6524704 -0.9061305 -0.81197083 -1.1003176 -0.76220196 -0.56533 -0.5208331 -0.63922757
-0.03822088 -0.7593497 -0.89234775 -0.22301227 0.30205444 -0.39425495 -1.0822191 -0.89695394
2.1070662 2.606083 3.1654966 2.376785 2.2367535 2.7107873 3.2136345 2.3341653
2.2668962 2.7757332 2.7224455 2.112255 2.3251038 3.193819 2.4434762 2.2884798
2.1465702 2.9196 2.0325532 2.6224024 2.5409238 2.3493292 2.7328806 2.7349157
2.274971 2.7245238 2.387297 2.6052144 2.8873637 3.0021749 3.0258977 2.938931
2.6783257 2.1037278 2.033099 2.0612347 3.24742 2.5082316 2.099852 3.103636
3.1933322 3.257408 2.0966566 3.201789 2.9357598 2.3349216 2.858627 2.876228
2.1089997 1.730478 2.4399738 2.6316307 2.3564699 2.315717 2.094234 2.8984811
2.342746 3.0691888 2.1704433 2.03263 2.6406474 3.117262 2.3121274 2.698148
3.025963 2.6818154 3.7040079 2.6208496 2.5118284 2.0229647 2.0294416 2.2987142
2.4168975 2.7851021 1.8204545 2.6450715 2.6442401 2.6760879 2.6764848 1.6804947
2.802463 1.892674 2.6121542 1.9544743 2.7290342 2.2824922 2.360917 1.9645681
3.19533 2.6778107 2.7167375 3.2911956 2.3926404 2.1447093 2.4729562 2.7252192
2.8106132 2.4906187 2.15117 2.4937272 2.562852 2.0501463 2.6647074 2.3661644
2.2471123 2.048312 2.8802795 2.528495 2.8350103 3.2574477 2.9492571 2.9380958
2.5737667 2.5171793 2.2117422 2.138059 2.3783965 2.6791215 2.9513764 2.2081692
2.8426847 2.3777041 2.2616181 3.2625978 2.5964653 2.61892 1.6213363 2.2894187

head.net.0.weight f4 [1, 128]
00000000: 6375 3b3f 8849 463d cad9 453d 1de7 e8bc
00000010: d9da 91bb e2a2 cbba 2d91 3f3b 23d0 70bd
00000020: e8c1 13bd 77e5 0dbb 9fb7 35bc 4ca1 0f3d
00000030: 8127 ac40 c421 80ba 34ce 623d 4afe 3abb
00000040: df72 b83b eb3c 653c b61d c93c 6b1f fd3c
00000050: 924f 7d3a 36b8 553b 41a6 3abc aca2 30bc
00000060: ded4 37be 0edd 003d f035 fd3c ad96 8a3b
00000070: c469 04bc c041 133b ee55 193b 0c5e 023b
00000080: 11fc 453d b21b 0e3c c53d e8bb c385 92bd
00000090: 5d76 dc3b 4d39 ce3c dd24 0a3e c6a4 3539
000000a0: 277d 6fba 60a2 a939 e181 4d3f d79e 95bb
000000b0: 036e bebc 0654 4bbc ec39 063d 6e42 a4b9
000000c0: fcc9 fabc 4f51 663f 1119 7a3c 82f3 7a3c
000000d0: 479b c33b 0f8c e3bc 00d6 2bbe 8170 c23c
000000e0: ffe3 193b e66b af3a 12e6 c7be f786 553e
000000f0: b4a6 4fbe c406 9cbb ce2f fa3c 9050 763c
00000100: 94d6 f5bc cce7 4eba 8fe3 75ba 5d32 70bc
00000110: 6822 893a 3adb 18bd 6b07 913d 06f0 f6bb
00000120: 329d cdbb 1b72 8ebd 9f51 4940 127f ac38
00000130: 6979 453d 9d05 e53c df61 bdbb 77a0 763c
00000140: 6743 d9b8 0371 0ebd 61b1 9ebd dd07 8e3d
00000150: 736d 3e3c 7b83 eebb be2d d3bb f53c 1bc0
00000160: c884 93bc 62f4 60bc 1bfd ccba 9934 313c
00000170: b865 9dbb 6114 913c efe3 e13c 7b71 8abc
00000180: 5e76 b2bb e527 bd3c 01e4 553c de64 eebb
00000190: 66cc f3bb 08d9 21bf 3fb5 08bb a53d 423e
000001a0: fde7 0d3f 4800 ad3c d4af 7d3b 8fcc 2fbb
000001b0: 3db6 30ba 26a7 5fbc 2ca4 28bc 89c3 77bb
000001c0: bbc7 b33c 6482 cf3c 8993 0c3d 14ba 583d
000001d0: 978d 0abe 1bf4 64bb bd80 e7bb 1e7e c4bc
000001e0: 95f4 9839 03c8 bebb b8d9 8cbd 459c ae3a
000001f0: 6fef f13a bfca 57bb e022 283f 8fd9 0dbd
0.7322599 0.04840997 0.048303403 -0.028430516 -0.0044511375 -0.0015536214 0.0029230819 -0.058792245
-0.036073595 -0.0021651664 -0.011091142 0.035065934 5.3798223 -0.0009775688 0.055372432 -0.0028532916
0.005628928 0.013991575 0.0245503 0.03089877 0.0009663041 0.003261102 -0.011392177 -0.0107809715
-0.17952296 0.031460814 0.030909508 0.0042293877 -0.008081857 0.002246961 0.0023397165 0.0019892482
0.048336092 0.008673595 -0.0070874416 -0.07154419 0.006727977 0.025173808 0.13490625 0.00017322888
-0.00091357756 0.0003235517 0.80276304 -0.0045660543 -0.023245817 -0.0124101695 0.032770082 -0.00031330012
-0.030613892 0.8996782 0.015264765 0.015316846 0.0059694382 -0.027776746 -0.16780853 0.023735287
0.0023481844 0.0013383597 -0.39042717 0.20852266 -0.20278436 -0.0047615487 0.030540373 0.015033856
-0.030009545 -0.0007892817 -0.0009379917 -0.014660445 0.0010462524 -0.037318446 0.07081493 -0.0075359372
-0.0062748427 -0.06955358 3.1456068 8.225268e-05 0.04821149 0.027956778 -0.0057794894 0.015052906
-0.00010359921 -0.034775745 -0.07748676 0.069350936 0.011622774 -0.0072788573 -0.006444662 -2.4255955
-0.018007651 -0.01373014 -0.0015639396 0.010815763 -0.0048033856 0.017709913 0.027574508 -0.016899815
-0.0054462394 0.023090312 0.013054849 -0.007275208 -0.0074401377 -0.6322179 -0.0020859984 0.18968828
0.5543211 0.021118298 0.0038709538 -0.0026824807 -0.0006741023 -0.013650691 -0.010293048 -0.0037805757
0.021945825 0.02533073 0.034320388 0.052911833 -0.13530575 -0.0034935537 -0.0070649073 -0.023985919
0.00029173927 -0.005822183 -0.06877464 0.0013321718 0.0018458198 -0.0032927243 0.65678215 -0.03463131
