examples/catchment_models/training/runs/globe_basin_split_2404_220637/model_epoch007.pt (torch, 316229 bytes, 5 tensors)

lstm.weight_ih_l0 f4 [512, 23]
000000 8c 12 41 be cf 38 ba 3e ab 56 48 3e c4 66 50 3e
       -0.18854731 0.36371467 0.19564311 0.20351702
000010 61 6a 12 3e f3 b3 06 3f ca d9 e3 3e 89 4f 9d be
       0.14298393 0.5261833 0.44502097 -0.30724743
000020 6e a0 16 3f 76 8e 99 3d 8f 8b ae bc 35 fa 91 3d
       0.58838546 0.074978754 -0.021306781 0.07127801
000030 92 33 09 3e 58 32 75 be 3c 8f b3 3d 54 ef 1e 3f
       0.13398579 -0.23944986 0.08767554 0.62083936
000040 58 8a b3 3d a9 6e 96 3e 12 29 00 bd 62 91 c0 3d
       0.08766621 0.29381302 -0.031289168 0.094027296
000050 5f c1 f0 3e c2 48 db 3e 1a a5 ad 3e 65 8f 96 3e
       0.4702253 0.42828947 0.33915025 0.29406276
000060 99 1d 35 3d 80 28 30 3f 4e 13 07 3f e9 11 2d 3e
       0.04421768 0.688118 0.5276383 0.16901363
000070 c8 09 b4 3e f7 0d 1c 3d 44 e0 a8 3e da d9 9b 3e
       0.35163713 0.038099255 0.329836 0.30439645
000080 2b bb 9e be b8 76 ca 3e b8 8b 65 be 00 da 83 be
       -0.31002173 0.395437 -0.2241658 -0.25752258
000090 44 12 7b 3e 33 87 dd 3e 28 d3 97 3e 77 56 2a be
       0.24518687 0.4326721 0.29653287 -0.16634546
0000a0 97 58 09 be 7f 9e 08 3e 53 c8 98 be 50 71 60 3d
       -0.134127 0.13341711 -0.29840335 0.054795563
0000b0 85 ec 54 3c 0d da 8e 3e 5d a4 ac bc 28 50 b2 bd
       0.012995844 0.27900735 -0.021074468 -0.08706695
0000c0 76 81 63 3e bb 36 cb 3d 36 f7 73 3e f5 bd bf bd
       0.22217354 0.099225484 0.23824772 -0.09362403
0000d0 c9 de 18 3e 28 e0 e9 3b 72 0d 5e 3e 33 24 cc be
       0.14928736 0.007137317 0.21684816 -0.39871368
0000e0 8c d0 30 be 86 d7 46 be 60 20 96 be 3e ff 9e bd
       -0.17267054 -0.19418153 -0.29321575 -0.07763527
0000f0 db 4e 22 3e 10 8f 0e 3e b1 41 84 be 22 a5 88 be
       0.15850393 0.13921762 -0.2583137 -0.26688486
000100 d2 a8 ef 3c f5 46 ac 3c 21 b6 2f 3a 30 29 86 bc
       0.029255304 0.021029929 0.00067028595 -0.016377062
000110 c0 ac 5b 3e 1c 62 4c b9 cc 98 d1 3e 10 46 09 3e
       0.21452618 -0.00019491505 0.40936887 0.13405633
000120 08 d3 4b 3d e1 e8 28 3d d1 00 d6 3e fe 50 29 3f
       0.049761802 0.041237716 0.41797498 0.6613921
000130 ce 6f 92 be 3d 1e 3c 3f 39 8b 87 3d a5 17 b5 bd
       -0.28600925 0.7348364 0.066183515 -0.088424005
000140 5d 11 0e 3e 3a be 2d 3e c1 43 ba be 25 ed 5f 3c
       0.13873811 0.16967097 -0.36379817 0.0136673795
000150 e4 95 36 3f b5 ca 37 3e e0 bc 76 3e 20 7b 11 bd
       0.71322465 0.1794842 0.24095488 -0.03551781
000160 5a d7 57 3e ae 9c 00 3f f4 f9 ca 3e b9 7b 8d 3e
       0.21078244 0.50239074 0.39643824 0.27633455
000170 40 35 b4 3c 87 58 a6 3e 7f 45 54 3f 55 91 19 3f
       0.021998048 0.32489416 0.8291854 0.59987384
000180 8f 9f 6a 3d 48 55 c0 3e e7 a5 87 3e b3 61 c6 be
       0.057281073 0.37565064 0.2649376 -0.38746414
000190 e3 a4 46 3e 38 e6 c6 be e3 8e 75 3f 3f b5 92 bd
       0.19398837 -0.38847518 0.9592115 -0.07163476
0001a0 d4 9e c8 be 34 60 bb 3e 66 f4 20 3f 42 9f 4a 3f
       -0.39183676 0.36596835 0.6287292 0.7914926
0001b0 fb b9 9b 3d f1 7e 2f 3e f2 a8 e1 3e af a9 86 be
       0.07603832 0.17138268 0.44074208 -0.26301333
0001c0 a7 9b 9c bc 70 c1 9e 3e 4a 1c c7 3d 91 5d 91 bd
       -0.01911719 0.31006956 0.097221926 -0.070979245
0001d0 a7 fe f2 3d b2 f3 2a 3d 22 4c bc 3d 2c 78 07 be
       0.11864977 0.041736312 0.09194209 -0.13229436
0001e0 15 d2 c6 3e a6 42 e5 3e 5d d7 7b be 2e f2 02 3f
       0.38832155 0.4477741 -0.24593873 0.51150787
0001f0 00 2b c6 3e da a0 38 bd c6 8c bb 3e 7c 12 17 3e
       0.3870468 -0.045075275 0.3663084 0.14753145
000200 00 83 87 be 27 d7 f2 3c 0a de 2d 3f 57 fd e7 3e
       -0.26467133 0.029643608 0.6791693 0.4531047
000210 0b 73 e9 3e 24 95 ae be 18 3f 8b 3e fe 48 b9 3e
       0.45595583 -0.3409816 0.27196574 0.361885
000220 38 da ee 3e ff 5e 6c 3c f8 47 02 3f f8 83 8c 3e
       0.46650863 0.014426946 0.50891066 0.27444434
000230 4c 08 f0 3e ab 87 c3 3e ed 9e cc 3d 51 48 2f 3f
       0.4688133 0.38189444 0.0999125 0.6846972
000240 8d e8 27 bf 93 d4 e6 3e b1 35 0d bf ed 77 12 3f
       -0.6558922 0.45084056 -0.5516005 0.5721424
000250 03 e5 26 3e 03 88 cd bd ce c4 a4 be 2b d2 36 3f
       0.16298299 -0.10035708 -0.321814 0.7141444
000260 08 85 75 3e 3f 87 6d 3e b7 ba cf 3d c9 17 62 3d
       0.23976529 0.23196124 0.10143035 0.055198465
000270 91 b1 5f 3d f7 b7 d8 be 81 d6 04 bc 8e bd e6 bc
       0.0546127 -0.42327854 -0.008107782 -0.028166559
000280 64 91 d4 be 40 7f bc 3d 22 c7 8e 3e bd 78 5d bd
       -0.41517174 0.092039585 0.278863 -0.054070223
000290 7c da 17 be e6 a7 9e 3e 52 bb ab 3e c3 1d 50 3f
       -0.14829439 0.3098747 0.33541352 0.8129541
0002a0 d1 20 b2 be 24 4e 83 3f 72 4e e9 bc 6f b9 5a be
       -0.34790662 1.0258222 -0.028479788 -0.213598
0002b0 59 8c 61 3d 57 2c e2 3d bb ee c3 be be 45 70 3b
       0.055065487 0.110436134 -0.38268074 0.0036662663
0002c0 1c 0a 30 3f 8d 86 cf 3d fc a3 8c 3e b0 cc 51 bd
       0.68765426 0.101330854 0.2746886 -0.051220596
0002d0 30 58 53 3e 4a 8d c9 3e d2 3c f7 3e 26 78 a2 3e
       0.2063911 0.39365608 0.4828859 0.3173229
0002e0 14 8c f9 3c d4 c4 1a 3f 29 39 8a 3d df 8c 0f 3e
       0.030462302 0.60456586 0.06749184 0.14018582
0002f0 44 cd 5e 3e a7 8e 0c 3f 1c 5c fb 3e bc 36 b7 be
       0.2175799 0.5490517 0.4909371 -0.35783947
000300 17 17 05 3f b6 0c 50 3e 2a 0d 97 be 80 93 f7 3d
       0.5198836 0.20317349 -0.2950223 0.1208868
000310 08 cc dd 3e 6a 4e ab be cc 61 e0 3d 31 80 0c 3f
       0.43319726 -0.33458263 0.10956153 0.54883105
000320 fe a8 6e 3d 1b df 9e 3e 2d a2 63 bb 6d 00 87 3d
       0.058266632 0.3102959 -0.0034734115 0.06591878
000330 eb 0a ea 3e 99 ab 09 3f 86 ec 26 3e 7c da 0e 3e
       0.45711455 0.5377746 0.16301164 0.13950533
000340 2f 7b ce 3d 1c 97 37 3f 97 e2 00 3f bc c9 9f 3e
       0.10082089 0.7171495 0.5034575 0.312086
000350 c8 5d e8 3e c2 f1 af 3e 15 a3 b2 3e 3a cf be 3e
       0.4538405 0.34364134 0.34890047 0.37267476
000360 a9 3b 96 be 82 af a3 3e 0e ff a3 be 3b bd bc be
       -0.29342392 0.3196984 -0.3203053 -0.3686312
000370 5f d4 bc 3e ae 6c 20 3f d3 68 31 3f 4d 41 3c 3e
       0.36880776 0.6266583 0.69300574 0.18384285
000380 0c 8e 04 3f eb d6 18 be 1e e5 4f be 23 13 84 3e
       0.51779246 -0.14925735 -0.20302245 0.2579585
000390 da de d8 3d 06 56 cd 3e 90 73 80 bd 61 e1 af 3e
       0.105893806 0.40104693 -0.06272042 0.34351638
0003a0 7d 8a 0f be 27 82 04 bd fb 90 12 3e be 6c 65 3e
       -0.14017673 -0.032350685 0.14313118 0.22404763
0003b0 3e fb 1d 3f 2b ce 94 be 94 2a 03 3f 87 3d 96 3d
       0.6171149 -0.29063544 0.51236844 0.07335954
0003c0 99 bf 14 be d6 92 d6 3c 53 74 5a 3e 23 3c 8f be
       -0.14526214 0.026193064 0.21333437 -0.27975568
0003d0 21 87 41 3e 54 24 4e 3f c2 fb 9b 3e 19 dd 92 3e
       0.18899204 0.8052418 0.30465513 0.2868431
0003e0 d2 5d 03 3e 2c d5 ec 3d 41 8c f7 3e fc 90 00 3f
       0.12828758 0.11564097 0.48349193 0.5022123
0003f0 2c eb 7c 3e 2b 82 06 3e 3b 71 05 3e ea db 05 3f
       0.24699086 0.13135593 0.13031475 0.5228869

lstm.weight_hh_l0 f4 [512, 128]
000000 f5 40 92 3e 8e b7 a4 3d 16 0c 85 bd 4b 04 94 bd
       0.28565183 0.08042823 -0.06496446 -0.07227381
000010 a0 4c 62 3d 52 7c dd bd 4d 37 53 3e ef bb 74 bd
       0.055248857 -0.10814728 0.20626564 -0.05974954
000020 28 3c 31 3e f3 9e 80 be 8c 5c 27 3c 03 2c 4b be
       0.17308104 -0.2512127 0.010214936 -0.19841008
000030 1f 28 b8 3c 77 c7 68 3d 61 b3 92 bc 00 26 60 3e
       0.022480069 0.05683085 -0.0179078 0.21889496
000040 d3 e7 6e 3e 97 b4 c5 3d dd 13 36 be 56 2e c9 bd
       0.23330621 0.096535854 -0.17781015 -0.09823291
000050 ae 19 d2 3d bc ab c9 be 28 a6 8b bd 6a b3 6d bd
       0.10258804 -0.39388835 -0.06818801 -0.05803243
000060 4b 3c 3e 3e e6 9d 60 be 38 ed 72 bd 73 85 28 3e
       0.18577687 -0.21935233 -0.05930826 0.16457157
000070 2c bd 25 3e 3b fd 6e 3c 77 a1 bd be 00 4f 4f 3e
       0.16185445 0.014586742 -0.3703725 0.2024498
000080 e9 ed d0 3d 79 ac ad 3d 5d 61 3e 3e 64 9b 24 be
       0.10201628 0.08480162 0.18591829 -0.16074902
000090 d8 01 47 be ff 4c 9e be 56 44 e4 bd 8a 98 25 be
       -0.19434297 -0.30918118 -0.111458465 -0.1617147
0000a0 b4 e6 6f 3e 5f e7 23 3c d9 ea 60 bd 65 28 f2 bd
       0.2342785 0.010003894 -0.05491147 -0.11824111
0000b0 0c 57 b9 be 9c b7 93 3c 52 34 d9 be 46 8a a4 3e
       -0.36199224 0.018031888 -0.4242273 0.32136744
0000c0 8c 74 45 3d 18 7e 15 be 80 5c da be 93 4f d6 bd
       0.04820685 -0.14598882 -0.42648697 -0.10464396
0000d0 40 53 b3 be 47 01 59 be 70 a8 39 3e 8e 05 b9 be
       -0.35024452 -0.21191894 0.1813066 -0.3613705
0000e0 38 96 7a be 84 0a 8d be 1e e5 c8 bd 2a b4 ab bd
       -0.24471366 -0.27547085 -0.09809326 -0.08383973
0000f0 09 33 13 be f3 5f 25 be 0f 68 ea bd f5 95 dd be
       -0.14374937 -0.16149883 -0.11445629 -0.4327847
000100 36 2b b8 be fd 19 86 be 52 c8 9d be 67 48 64 be
       -0.35970467 -0.26191702 -0.30816895 -0.22293244
000110 70 bf 6e be 08 93 3c bd bb 3a e5 bd fe f8 1e 3e
       -0.23315215 -0.046038657 -0.111928426 0.1552467
000120 cf 8e d2 be 07 28 32 3e 10 ee 35 3e 56 ce c3 3d
       -0.4112458 0.17398082 0.17766595 0.0956084
000130 e2 c3 8a 3d d2 ac 88 3e 85 6d d7 3e 3c 56 b7 bc
       0.06775643 0.2669435 0.42075744 -0.022379987
000140 e9 89 77 3e 48 41 37 be 3e c9 28 3e b0 59 2b 3d
       0.24173702 -0.17895997 0.16483018 0.04183358
000150 38 e5 03 be 91 a2 94 3e 2b 8a 02 bd c6 e5 a6 bd
       -0.12880409 0.29030278 -0.03187005 -0.081492946
000160 3a 65 09 3e d0 1e 13 be 26 e3 84 3e dd bf b1 be
       0.13417521 -0.14367223 0.2595455 -0.34716693
000170 27 3a f7 3d 16 6d c5 bc 2a 9b 90 bd 80 ac 31 3d
       0.120716386 -0.024099868 -0.07060845 0.0433774
000180 f0 fb 75 bd 21 5d 14 bd e5 99 d7 3d 33 61 10 be
       -0.06005472 -0.036221627 0.105274 -0.14099579
000190 a9 26 92 3e 8b 14 42 3d 19 e3 4f be 5c dd d8 bd
       0.2854512 0.047382873 -0.20301475 -0.10589096
0001a0 18 58 8c 3d 23 21 cc be b2 a6 9f 3e 17 b6 f6 3e
       0.0685274 -0.3986903 0.31181866 0.481858
0001b0 a4 29 4b be 24 d4 12 bd c0 c3 ed 3d 57 f7 b1 3e
       -0.19840103 -0.035846844 0.11609602 0.34759018
0001c0 a9 c6 c7 be 67 27 61 bd 7b b1 1b 3e f7 98 c4 bd
       -0.39018753 -0.054969218 0.15204422 -0.09599488
0001d0 50 13 38 3e 32 8b c7 bd 2f 45 c6 bd 2e bc a8 bd
       0.17976117 -0.09743346 -0.096811645 -0.082390174
0001e0 36 d1 a3 be d7 c7 24 3e c9 e1 e1 3d 2e 66 09 bf
       -0.31995553 0.16091858 0.11029393 -0.5367154
0001f0 3d 9f a6 3e cd a2 a7 3d 33 48 74 3c 6a 46 77 be
       0.32543364 0.08185349 0.014909792 -0.24147955
000200 4a f6 0f bc 5f c0 47 3c 17 f4 83 bd de 76 da 3d
       -0.008786747 0.012191861 -0.06443041 0.10667203
000210 21 a6 b4 bd 94 04 d3 bd 4c 6b f7 3d 7e 23 53 be
       -0.08820749 -0.103036076 0.12081012 -0.20619008
000220 88 88 ea 3d 4d fa fc bd fa 16 15 3e 48 e1 77 be
       0.114518225 -0.123524286 0.14559546 -0.24207032
000230 2f aa 0f be 77 0a 99 3c f5 67 9c 3d ce 23 ec 3d
       -0.14029764 0.018681748 0.07637016 0.11530267
000240 05 d7 47 3e 95 bc 0c bd f4 1c 1d be 38 4b 2e be
       0.19515617 -0.034359533 -0.15343076 -0.17020881
000250 fb e7 23 3e 37 d9 c4 be e9 69 ab 3d 26 9c 9a 3d
       0.16006462 -0.38446972 0.0836981 0.07549314
000260 40 8a 0a 3e 90 d3 d3 bd b8 cc 56 be ab b2 d5 bd
       0.135293 -0.10343087 -0.20976532 -0.10434469
000270 7e 2f 26 bc 26 56 7b bd 64 1d 90 be e0 65 f1 bb
       -0.010143159 -0.061361454 -0.28147423 -0.007366881
000280 66 60 bf 3d 1f 52 c5 bb a9 29 93 3e d2 12 9d 3d
       0.093445584 -0.0060217525 0.28742722 0.07669605
000290 62 dc 0c be e4 34 ff bd 77 11 d1 3d 6d d1 ce be
       -0.13755944 -0.1246126 0.10208409 -0.40394154
0002a0 10 4d a3 3e 55 a3 75 bd e6 ec a7 bd cc 1c 48 be
       0.31894732 -0.05997022 -0.08199482 -0.19542235
0002b0 8f 33 e5 bd e3 f2 85 3c 39 00 47 be 7b e1 87 3e
       -0.11191475 0.016351169 -0.19433679 0.26539215
0002c0 08 70 40 3c 4d 35 5c 3d 58 c1 17 be a3 52 83 3c
       0.01174546 0.05376177 -0.14819849 0.016030615
0002d0 68 6d 6f be 4f b9 a3 bd 2e 03 bf 3b 5d 53 18 be
       -0.23381579 -0.07994329 0.0058292365 -0.1487555
0002e0 c4 cf df bd 33 6c ca be a6 c2 7d 3d 52 4f 96 bd
       -0.109283 -0.39535674 0.06195321 -0.07339348
0002f0 39 38 80 3d 71 9d cb bd e6 67 01 be 91 ab 20 be
       0.062607236 -0.09942139 -0.1263729 -0.15690447
000300 4b 33 2c be 25 be 20 be 90 dc 02 be a7 bb 8e 3d
       -0.16816442 -0.15697534 -0.1277945 0.069693856
000310 ec 97 34 be 9f 9b 29 3d be 2f 9b 3c dd 0f a0 3e
       -0.17636079 0.041408177 0.018943664 0.31262103
000320 47 e6 a3 be 99 80 63 3e 64 b8 98 bd 60 80 ad 3c
       -0.32011625 0.22217025 -0.07457045 0.021179378
000330 4e e6 ca 3c 31 d7 c6 3d f2 ca 88 3e 8b 54 9a bd
       0.024768021 0.09709013 0.26717335 -0.075356565
000340 23 37 a8 3e cc 72 c4 bd d1 b4 c3 3d 2d a5 11 3e
       0.32854566 -0.09592208 0.09555972 0.14223166
000350 81 e9 3a be 8f 6d 20 3e 5d f4 36 3c 8b f2 92 bd
       -0.18253137 0.15666793 0.011166659 -0.07175168
000360 9c 1e c9 3c ff 78 bd 3d de 10 ae 3d f7 fe 24 be
       0.024550728 0.09251594 0.08499311 -0.16112886
000370 0b e4 3e 3e 13 30 8a 3c 73 b5 bb bd 00 7c 38 bc
       0.18641679 0.016868627 -0.09165468 -0.011260033
000380 92 f2 2b 3e c8 7e 00 3d 53 38 23 3c 33 80 85 bd
       0.16791752 0.031370908 0.009962159 -0.06518593
000390 96 d8 a2 3e 4a 79 fc bd 3e af e3 3d e1 bd c2 bd
       0.31805867 -0.123278216 0.11117409 -0.09508873
0003a0 f8 ba 5a bb 35 0c 3f be 50 7d 60 3d 53 d6 16 3e
       -0.0033375602 -0.18657 0.054807007 0.14730196
0003b0 6a b7 85 bd 8c 00 47 3d b0 5c 31 3e fb 6e 78 3e
       -0.06529124 0.048584506 0.17320514 0.24261086
0003c0 6a 5a 49 be 2f 3e b6 3d 3a 7e 3c 3e 62 43 3f 3c
       -0.19663396 0.08898579 0.18407527 0.01167378
0003d0 9b cd 6a 3d 3f f4 91 bd fa e5 7c be 40 ab a9 be
       0.057324987 -0.07126664 -0.24697104 -0.33138466
0003e0 07 a5 77 be 62 6b a4 3e e6 b0 82 bb e0 14 af be
       -0.24184047 0.32113177 -0.003988373 -0.34195614
0003f0 1f 6a 7c 3d a1 8c 66 3e ce f6 23 3b 16 34 d6 bd
       0.061624642 0.22514583 0.0025018933 -0.10459153

lstm.bias_ih_l0 f4 [512]
000000 95 be 11 bf db 38 02 bf 19 ae ad 3d 62 e6 ef be
       -0.5693143 -0.50868005 0.08480472 -0.46855456
000010 40 f2 1c bf 5e 45 f6 be 53 6f 0a be 88 f6 e9 be
       -0.61307144 -0.48099798 -0.1351903 -0.456959
000020 fa 29 19 bf b4 aa ea be 57 b0 05 bf 61 da b3 be
       -0.59829676 -0.4583336 -0.522222 -0.35127547
000030 91 73 89 bf 96 94 5e bf 4e c6 16 bf a0 a0 12 bf
       -1.0738393 -0.86945474 -0.5889634 -0.57276344
000040 3d 63 a6 be 50 0c 04 bf 6c e3 fe be 91 f3 74 be
       -0.32497588 -0.5158129 -0.49782884 -0.23921038
000050 4b 2a c0 be b1 31 e0 bc 72 de 6d be 7b 6b 0d bf
       -0.37532267 -0.027367445 -0.23229387 -0.5524213
000060 6c ae 3a bf e1 bd cf be 55 84 1d bf 13 8f e3 be
       -0.72922397 -0.40574554 -0.6153005 -0.44445094
000070 bb 4a 5d be b2 61 a8 be e8 32 3a be b7 49 b1 be
       -0.21610539 -0.32887036 -0.18183482 -0.34626552
000080 dc f2 42 bf 0e 02 37 bf 8b 57 0f bf 66 f4 15 bf
       -0.76151824 -0.7148751 -0.55992955 -0.5857605
000090 d8 e2 58 be e0 67 f0 bd 8c 0e 08 bf e8 d2 02 bf
       -0.21180284 -0.117385626 -0.53147197 -0.5110307
0000a0 45 35 bf be d8 13 b5 be e4 f4 53 bf 96 5c 17 bf
       -0.3734533 -0.35366702 -0.8279555 -0.5912565
0000b0 73 24 d1 be fc c8 37 bf 06 5c 33 be ec 70 23 be
       -0.4084812 -0.7179105 -0.17515573 -0.15961045
0000c0 7b 8c 14 bf 24 f7 5d bf 45 27 b6 be 87 b9 07 bf
       -0.58026856 -0.8670523 -0.35576835 -0.5301747
0000d0 b6 43 83 be f1 02 ae be cd 4d f9 be c2 e6 dd be
       -0.25637597 -0.3398662 -0.4869217 -0.43340117
0000e0 21 76 c6 be 08 96 1c bf 4f 77 0e bf 76 a1 86 bf
       -0.38762 -0.6116643 -0.556508 -1.0518024
0000f0 b6 75 d7 be f4 b8 b7 3c b2 c3 26 bf 7f 49 c5 be
       -0.42081994 0.02242706 -0.6514236 -0.38532636
000100 83 fa cb bd 34 52 0f bf 1c 2c c7 be d5 4c fd be
       -0.09959891 -0.55984807 -0.3890084 -0.4947268
000110 af c1 38 be 87 c1 15 bf b7 96 1b bf e0 3b e6 be
       -0.18042634 -0.58498424 -0.6077685 -0.44967556
000120 6c f4 48 be d4 f2 28 bf 94 82 3c bf 03 c8 11 bf
       -0.1962449 -0.65995526 -0.73636746 -0.5694582
000130 6c 56 64 bf b6 d2 1c be 0a a7 10 bf 07 90 32 bf
       -0.8919437 -0.15314755 -0.5650488 -0.6975102
000140 1b a5 cb be 68 06 1a bf fb b2 81 be 7b ef f5 be
       -0.39774403 -0.60166025 -0.25331864 -0.48034272
000150 62 78 f6 be 5d 1f df be 34 c7 34 bf c6 75 6a bf
       -0.4813872 -0.43578616 -0.7061646 -0.9158596
000160 33 32 d0 be b6 cf f4 be 1c b4 79 be 6f f1 b3 3d
       -0.406633 -0.4781472 -0.24385113 0.08786284
000170 f6 2f 04 bf be c2 76 bf 4a 14 f9 be 57 47 13 bf
       -0.5163568 -0.96390903 -0.48648292 -0.5753073
000180 8e e8 c7 be 28 ec 3a bf a1 e3 00 bf b6 62 35 bf
       -0.39044613 -0.73016596 -0.50347334 -0.70853746
000190 30 82 3d be 4c a9 30 bf c8 ae 17 bf 08 3b 4d bf
       -0.18506694 -0.69008327 -0.5925107 -0.801682
0001a0 bd 01 20 bf 0a f8 57 bf 88 e5 9b be a8 c6 90 be
       -0.6250265 -0.8436285 -0.30448556 -0.28276563
0001b0 04 ce 1c bf 25 36 83 be 32 3b 22 bf db fc f2 bd
       -0.61251855 -0.25627246 -0.63371575 -0.118646346
0001c0 82 86 97 be 63 9c 0d bf b7 d0 f1 be 81 5d 42 bf
       -0.2959481 -0.5531675 -0.4722955 -0.75923926
0001d0 66 f5 f5 be 04 e2 1b bf 4d e3 e2 be 20 dd 07 bf
       -0.48038787 -0.6089175 -0.44314042 -0.53071785
0001e0 a6 b9 0d 3d 6d 0c 4f be 8a dc 16 bf f9 fb a5 3c
       0.034600876 -0.20219584 -0.58930266 0.020261751
0001f0 90 56 9f 3e 0a ee 5b be cf bb 2e bf e6 fc d5 be
       0.3112073 -0.21477523 -0.68255323 -0.4179451
000200 83 7b fe be f4 86 bd be 8c 63 bd 3a 42 ec 15 bf
       -0.49703607 -0.37017024 0.0014449223 -0.58563626
000210 81 ee 17 bf 9c ca 8c be 98 78 72 3d 62 b0 86 be
       -0.59348303 -0.2749833 0.05919704 -0.26306444
000220 5a 25 f4 be 38 71 1f be 21 8f d1 be 5e b0 e9 be
       -0.47684747 -0.15570533 -0.4092951 -0.4564237
000230 b0 40 2a bf 6d 9b 97 bb e6 fc c0 be 5c 8f ea be
       -0.66504955 -0.0046266825 -0.37692946 -0.458125
000240 2a 23 4c be 62 6b f2 bd 2f 00 45 bf ff 2c cf be
       -0.19935289 -0.11836888 -0.76953405 -0.40464017
000250 a9 6e 9e be 4a 14 07 3e 9d ec 47 be ae 5e 7a be
       -0.30943802 0.13191333 -0.19523855 -0.2445018
000260 8e 82 18 bf 49 d2 9b be 32 df 2c bf 6d 41 84 be
       -0.5957421 -0.30433872 -0.6752807 -0.25831166
000270 cb 6d 96 be 33 78 5d 3b 98 2e 5c 3d fc 02 04 bd
       -0.2938064 0.0033793568 0.053755373 -0.03222941
000280 8f 60 0e bf 44 ae 1e bf 38 f6 11 bf 2a 5c 29 bf
       -0.55616087 -0.6198466 -0.57016325 -0.66156256
000290 50 ba 11 3e 47 db 72 be 0f a4 f6 be a7 b4 55 3d
       0.14231229 -0.2371646 -0.48172042 0.052174237
0002a0 74 59 c9 bd 02 07 ea bd 77 b8 27 bf e7 58 26 3e
       -0.09831515 -0.11427118 -0.65515846 0.16244851
0002b0 64 dd 44 be 09 c5 fe be d8 bd 92 bd 7e aa 00 be
       -0.19225079 -0.497597 -0.07165116 -0.12565038
0002c0 6a 67 3a bf 9b be 36 bf 30 f7 4d be bf e1 cf be
       -0.7281405 -0.7138459 -0.20113826 -0.40601918
0002d0 8c c0 cf be 20 f2 13 be a6 a5 ed be f5 d3 56 be
       -0.4057659 -0.14447832 -0.46415442 -0.20979293
0002e0 4d 48 88 be d8 06 58 3c 81 df 1c bf d9 4d 48 bf
       -0.2661766 0.013185225 -0.6127854 -0.78243786
0002f0 bd 7a 13 bf fc 26 2a 3e 81 98 18 bf 39 1f 26 be
       -0.5760916 0.16616434 -0.596077 -0.16222848
000300 33 0a 57 3e 22 fc 19 be f6 23 08 3e e1 e9 4a be
       0.20999984 -0.15037587 0.13294968 -0.1981578
000310 71 3d a5 be ef 16 1e bf 10 34 1c bf c5 6a 26 bf
       -0.3227344 -0.61753744 -0.6101694 -0.6500667
000320 c0 1f 9b be d0 53 a2 be 74 62 2b bf 7e 33 69 be
       -0.3029766 -0.3170457 -0.669471 -0.22773549
000330 d1 8b cc be 85 ab 26 3c 7c fa 9b be 32 5d 30 bf
       -0.3995042 0.010172729 -0.30464542 -0.68892205
000340 2a 48 74 be cd 41 6a bf 16 7c c9 be 63 7a 19 bf
       -0.23855653 -0.91506654 -0.39352483 -0.5995237
000350 89 7c 7a be 13 97 b6 be b1 07 02 bf 20 22 45 bf
       -0.24461569 -0.35662135 -0.50792986 -0.77005196
000360 90 0f d9 3d 3d 2f 96 be 78 59 63 be 7b b9 89 3e
       0.105986714 -0.29332915 -0.22202098 0.26899323
000370 a3 5f e1 be f7 76 2e bf 98 2a c8 be 0a a1 89 be
       -0.44018278 -0.68150276 -0.39094996 -0.26880676
000380 2f f5 ea be 54 a6 14 bf 96 bb 0e bf 95 7a 71 be
       -0.45890185 -0.58066297 -0.55754983 -0.23581918
000390 12 a7 27 be cf f7 2b bf 21 b9 52 be 01 d9 20 bf
       -0.16372326 -0.67175 -0.20578434 -0.6283112
0003a0 22 1d 4c bf fa 57 3e bf ee d5 b5 bd 4e e4 67 be
       -0.79731953 -0.7435299 -0.088786945 -0.22645685
0003b0 1f df c4 be 84 8a 5d 3e cb 6d a3 be e3 6a 41 bd
       -0.38451478 0.21634871 -0.31919703 -0.047221076
0003c0 22 b4 86 be dd cc 31 be af 2f 29 bf 2e fa 19 bf
       -0.26309305 -0.17363305 -0.66088384 -0.6014737
0003d0 e2 9e 92 be fc 5d dc be e8 68 3f be 1a a5 44 bf
       -0.28636843 -0.43040454 -0.18692362 -0.76814425
0003e0 57 83 6b be 82 3a 6b be f1 fb 1a bf 36 f4 47 3e
       -0.22999321 -0.22971538 -0.6054068 0.19526753
0003f0 62 ae 34 be c3 5d 8c be 7e 0a 67 bf 60 85 d2 be
       -0.17644647 -0.27415285 -0.90250385 -0.41117382

lstm.bias_hh_l0 f4 [512]
000000 da 75 18 bf 61 8a 0e bf b6 f3 e3 3c 0c bd 10 bf
       -0.5955483 -0.556799 0.027826171 -0.5653846
000010 53 c4 3d bf d6 93 03 bf 0f 0b 7a be 2a 90 b3 be
       -0.7412769 -0.51397455 -0.24418281 -0.35070926
000020 92 6e 19 bf 56 d7 0d bf d2 f9 1f bf 57 9e c2 be
       -0.5993434 -0.554067 -0.6249057 -0.3801143
000030 6c 17 93 bf 26 61 51 bf 2f e2 28 bf e8 5d 17 bf
       -1.1491523 -0.8178886 -0.6597013 -0.59127665
000040 5d 5c 92 be d7 3e d9 be 38 3b 03 bf a4 f5 96 be
       -0.28586093 -0.42430755 -0.51262236 -0.29484284
000050 be de 00 bf b0 3d db bc 3d 0c a0 be 81 06 08 bf
       -0.5033988 -0.026762813 -0.31259337 -0.53134924
000060 ea e4 40 bf a1 45 ec be 37 ff 28 bf 03 65 e6 be
       -0.75349295 -0.46146873 -0.66014427 -0.4499894
000070 ea f4 84 be e7 4b a6 be 62 85 1f be 1d 85 c0 be
       -0.25968105 -0.32479784 -0.15578225 -0.37601557
000080 3d 4c 23 bf 10 4f 38 bf 9f c3 18 bf a3 3e 18 bf
       -0.63788205 -0.7199564 -0.59673494 -0.59470576
000090 fa a0 e0 bd a2 6b 00 be de b3 24 bf a6 f2 20 bf
       -0.10968204 -0.12541059 -0.64336956 -0.6287025
0000a0 3e 7d 9c be cb 1f b0 be b0 da 4b bf 10 69 0e bf
       -0.30564302 -0.34399256 -0.79630566 -0.5562906
0000b0 ab 1c f2 be 40 6a 32 bf b5 aa 3e be 15 cf a9 bd
       -0.47287497 -0.69693375 -0.18619807 -0.08291451
0000c0 ff 6d 07 bf e6 6c 62 bf 0e ea b3 be 84 73 0a bf
       -0.52902216 -0.88447416 -0.35139507 -0.5408251
0000d0 57 a0 9a be cf 54 b1 be cd cd 13 bf c2 e7 07 bf
       -0.30200455 -0.34635016 -0.577359 -0.5308801
0000e0 79 0c be be 59 23 17 bf 03 b1 f7 be 19 0c 6c bf
       -0.3711889 -0.5903831 -0.48377237 -0.9220596
0000f0 31 ea 14 bf 05 3e a7 bd 37 9d 3e bf 53 a9 c0 be
       -0.5816985 -0.08166126 -0.7445864 -0.37629184
000100 64 1b 3c bb d7 50 02 bf e6 06 9e be 8d d8 ce be
       -0.002870285 -0.509046 -0.30864638 -0.4039959
000110 8f ae 76 be 34 c0 24 bf 1d 9b 0c bf a2 7b fa be
       -0.24090026 -0.6435578 -0.54924184 -0.4892245
000120 b2 6f bb bd c5 d9 3d bf 44 f7 3b bf 9c a4 13 bf
       -0.091521636 -0.74160415 -0.7342417 -0.5767305
000130 00 2e 53 bf 7d 02 45 be b2 2f dc be 9a dd 31 bf
       -0.82492065 -0.1923923 -0.4300514 -0.6947876
000140 e8 dd c8 be df bb 33 bf de ab a1 be 43 7a f8 be
       -0.392318 -0.70208544 -0.31576437 -0.48530778
000150 eb 8e 00 bf b6 49 f3 be 95 33 34 bf ba f8 67 bf
       -0.50218076 -0.47517174 -0.7039121 -0.906139
000160 fd 50 a3 be b0 59 0f bf 31 ca 9c be 64 fb 5a 3d
       -0.31897727 -0.5599623 -0.3062301 0.0534624
000170 6e 95 04 bf e2 27 6a bf fa c4 d6 be 8a c7 18 bf
       -0.5179051 -0.91467106 -0.41947156 -0.5967947
000180 e7 08 fc be a2 3f 2a bf eb 82 13 bf 5f 96 39 bf
       -0.49225542 -0.66503346 -0.5762164 -0.72495073
000190 16 e8 98 be 8e 11 10 bf 37 58 12 bf 9e 79 3c bf
       -0.29864568 -0.56276786 -0.57165855 -0.73623073
0001a0 0b 14 1b bf bd 73 47 bf a2 87 b1 be 10 65 5d be
       -0.6057746 -0.7791098 -0.34673792 -0.21620584
0001b0 8d cd 14 bf 08 76 b3 be ea 81 1f bf e8 1a 25 be
       -0.58126146 -0.35050988 -0.6230761 -0.16123545
0001c0 1e 5d 66 be 69 99 0f bf 1b bc e6 be d7 c0 3f bf
       -0.22496459 -0.5609346 -0.45065388 -0.74903625
0001d0 50 7a de be 7a 32 09 bf bc 0b fb be 82 9c 11 bf
       -0.43452692 -0.53592646 -0.4903239 -0.56879437
0001e0 94 e0 71 3b 19 03 8b be f1 4b 12 bf 5a 73 40 bd
       0.003690754 -0.271508 -0.5714713 -0.046985008
0001f0 9a bc d6 3e f9 b5 7f be 23 f3 55 bf 71 49 01 bf
       0.41940767 -0.24971761 -0.8357412 -0.5050269
000200 a8 3b 20 40 29 6a 25 40 d7 2a 3e 40 f0 c2 1d 40
       2.5036411 2.5846045 2.9713647 2.465023
000210 d0 b8 1b 40 b0 83 2d 40 6d fa 46 40 5b fb 2b 40
       2.433155 2.7111626 3.1090348 2.6872165
000220 16 13 1e 40 94 25 35 40 ce 67 2b 40 2c 98 22 40
       2.469915 2.8304186 2.6782107 2.5405378
000230 5a 70 13 40 f7 90 40 40 a7 e6 29 40 e4 e9 1e 40
       2.3037324 3.008848 2.654703 2.4830256
000240 2b b3 30 40 87 b2 3d 40 e6 13 0a 40 f1 c9 2a 40
       2.7609355 2.9640214 2.1574645 2.6685755
000250 60 d5 2b 40 10 b7 47 40 86 cb 2e 40 af b0 2c 40
       2.6848984 3.1205482 2.731172 2.698284
000260 0c 24 1c 40 c2 6b 28 40 c7 6b 14 40 30 d5 2d 40
       2.4397001 2.631577 2.3190782 2.716137
000270 cb 67 2f 40 de 7c 3c 40 dd 8b 3e 40 c1 4d 38 40
       2.74071 2.9451213 2.9772866 2.8797457
000280 03 47 21 40 0b 54 17 40 36 4a 18 40 9a 07 15 40
       2.5199592 2.3645046 2.3795295 2.328589
000290 1c 4f 44 40 99 c6 2b 40 08 0f 1e 40 c4 41 3e 40
       3.0673285 2.6839964 2.4696674 2.972764
0002a0 ba 94 37 40 60 88 38 40 bd ef 1a 40 8f b5 45 40
       2.8684525 2.8833237 2.4208825 3.0892065
0002b0 03 6d 32 40 38 88 1e 40 84 95 37 40 bc 78 36 40
       2.7879035 2.4770641 2.8685007 2.851119
0002c0 87 f6 14 40 e7 23 12 40 b9 05 37 40 94 a1 22 40
       2.3275468 2.2834413 2.8597243 2.541112
0002d0 56 18 25 40 fc 6e 34 40 4e cc 26 40 60 ca 35 40
       2.5796103 2.819274 2.6062198 2.840477
0002e0 e7 f4 29 40 57 79 3c 40 03 ad 18 40 51 72 11 40
       2.6555727 2.944906 2.3855598 2.2726023
0002f0 61 10 1e 40 1d e1 47 40 c3 a3 17 40 73 b6 33 40
       2.4697497 3.1231148 2.3693702 2.8080108
000300 d4 98 4a 40 7c fe 3b 40 a8 86 48 40 a3 35 2f 40
       3.165578 2.9374075 3.1332188 2.7376487
000310 63 85 29 40 68 0d 17 40 8c d7 17 40 eb 9c 1a 40
       2.6487663 2.3601933 2.372531 2.4158275
000320 da 57 30 40 86 a8 26 40 1d 87 13 40 4f 9e 31 40
       2.755362 2.6040359 2.3051217 2.7752874
000330 8e da 21 40 ef 1a 3f 40 99 23 2c 40 d6 a2 11 40
       2.5289645 2.986019 2.6896727 2.2755637
000340 b6 27 32 40 3b d4 00 40 71 cb 25 40 14 4a 16 40
       2.7836738 2.0129535 2.590542 2.3482714
000350 27 53 2e 40 ff e8 26 40 d0 53 1c 40 ff ed 0e 40
       2.7238252 2.607971 2.4426155 2.2332761
000360 c2 6c 46 40 76 8c 2b 40 b8 59 2f 40 03 c5 4d 40
       3.100388 2.680448 2.739851 3.2151496
000370 b6 eb 23 40 34 41 0f 40 31 6e 27 40 75 3c 2b 40
       2.5612617 2.2383547 2.6161005 2.675565
000380 b6 b6 27 40 24 d3 18 40 75 a2 19 40 b4 aa 2d 40
       2.6205268 2.387887 2.4005406 2.713544
000390 68 91 34 40 4f 8b 16 40 fe f4 34 40 1e 4a 15 40
       2.821375 2.3522527 2.8274531 2.3326488
0003a0 1d 44 11 40 fd 04 0c 40 17 bf 37 40 0b 7c 2d 40
       2.2697823 2.1878045 2.8710382 2.710696
0003b0 b7 85 24 40 d4 db 4b 40 65 fa 2a 40 6e 49 3e 40
       2.5706613 3.1852922 2.6715329 2.9732318
0003c0 f0 de 33 40 12 2b 33 40 0f 62 10 40 ef ed 15 40
       2.810482 2.7995038 2.255985 2.3426473
0003d0 9b e5 29 40 e1 c0 29 40 33 2a 32 40 f9 83 0c 40
       2.654639 2.6523974 2.7838256 2.195555
0003e0 2d cc 35 40 f3 ec 2d 40 38 3b 1a 40 75 da 46 40
       2.840587 2.7175872 2.4098644 3.1070836
0003f0 4c ee 32 40 b3 13 2e 40 08 52 06 40 42 20 25 40
       2.7957945 2.7199523 2.0987568 2.5800939

head.net.0.weight f4 [1, 128]
000000 ab 69 3f 3d 23 67 16 3c a5 38 c2 3c eb 79 58 bc
       0.046731632 0.009179863 0.02370865 -0.013212661
000010 96 5f 67 bd 65 bd 73 bb 8e 72 09 bb b6 3a 80 bc
       -0.056487642 -0.0037191745 -0.002097282 -0.015652996
000020 46 bc 4b bd 15 74 83 ba 57 b8 88 bc a5 dc dd 3c
       -0.0497401 -0.0010029102 -0.016689463 0.02708275
000030 3b bc 9b 3f 6c 19 56 3c 4b 39 9f 3d b1 ab d6 ba
       1.2166818 0.0130675845 0.077746 -0.0016378072
000040 27 c8 17 3c e7 b3 ee 3c 43 9b a0 3c 2c 08 8d 3c
       0.009264029 0.029138518 0.019605285 0.01721581
000050 ff a4 55 bc b0 75 41 3a fe 9f f6 bc 59 85 2d bc
       -0.013039826 0.00073799025 -0.030105587 -0.010590875
000060 64 fb 0e be b6 d7 78 3c 6b d6 88 bc 7c 19 91 3c
       -0.13963085 0.015188148 -0.016703805 0.017712347
000070 47 4d 97 ba 2a 4b cb 3b e6 4f 7e bb 2f b8 66 bb
       -0.0011543416 0.0062040286 -0.0038804947 -0.0035204997
000080 26 c1 c3 3d f2 6a cf 3b 9a ff 40 bd b8 90 8b bd
       0.095583245 0.0063298875 -0.04711876 -0.06814712
000090 74 45 68 3c 4c 9f 5c bc aa 90 66 3d 32 42 5c 39
       0.014176715 -0.013465714 0.056290306 0.00021005495
0000a0 0e de b6 b8 2e 70 4a 3c 1d 5a 27 3e 98 70 8a ba
       -8.719797e-05 0.012355847 0.16342969 -0.001056212
0000b0 ac 8b 5d bd ed 54 93 bc 05 59 14 3c af 67 72 3a
       -0.05408828 -0.017984832 0.009054427 0.00092470174
0000c0 38 9b 64 bd 0a 5a be 3e 1d 84 86 3a a5 28 30 3d
       -0.05581209 0.3717807 0.0010262761 0.04300751
0000d0 7f c7 ca bb 9a 84 0f bc fe d9 b8 3b 60 9f 5d 3a
       -0.0061883326 -0.008759642 0.005641221 0.00084542297
0000e0 cf 41 30 3b a8 79 10 3c 90 a0 0b bd 0e 4e 80 3d
       0.0026894694 0.008818068 -0.03408867 0.06264888
0000f0 6c 47 c6 bd 27 ab 28 bb bb fb c9 3c e1 5d 19 3c
       -0.096815914 -0.002573678 0.024656167 0.009360761
000100 b8 89 8e bb 4c 34 b0 ba c1 46 de bc 9d 88 22 bd
       -0.0043499134 -0.001344332 -0.027133347 -0.039681066
000110 63 ea 1f 3c 4f 1d 11 bd ac 35 8b 3d 23 e8 04 bc
       0.009760472 -0.03542834 0.067973465 -0.008111986
000120 22 c1 56 bb 2c 6c 24 bc aa 60 27 3f a8 8f 79 bb
       -0.0032768925 -0.010035556 0.6538187 -0.003808001
000130 d1 65 c5 3d 4a 17 2e bc 03 c1 0e 39 e8 69 bc bd
       0.096385606 -0.01062567 0.00013614078 -0.091998875
000140 8e de 27 3d 37 67 d0 ba 2c 73 be bd a2 36 e7 3d
       0.04098373 -0.0015899901 -0.09299311 0.11289717
000150 f2 c1 cc 3c 24 56 41 bc 21 e3 12 bc 28 bb a5 be
       0.024994824 -0.011800323 -0.008965285 -0.3236935
000160 32 16 0d bd 25 56 d4 bc 26 28 d3 bb 2e eb 0a 3c
       -0.034444995 -0.025919983 -0.006443995 0.008478923
000170 db 09 fa bb 51 be 59 3d f3 66 67 3a 94 59 0f bd
       -0.0076305694 0.053160015 0.00088272913 -0.034997538
000180 7d c6 36 bc 55 04 2d 3d 69 21 45 3d de 7f 8c 3a
       -0.011155722 0.04224046 0.048127566 0.001071926
000190 98 2d bf ba 0b 64 0d bd 5d de 5e ba 42 be 2d 3e
       -0.0014585732 -0.034519237 -0.00085017626 0.16967109
0001a0 7c 1f 96 3e ab b8 1f bd 65 e6 ad 3b 24 da 41 b9
       0.29320896 -0.038994472 0.005307006 -0.00018487178
0001b0 8e 44 74 3b 6a ee c0 bc ef b9 21 bc 94 3a fb ba
       0.0037272307 -0.023551185 -0.00987099 -0.0019167238
0001c0 d1 9e c6 3b 02 ab 84 3d 7f 6d 09 3c 5f 18 3e 3d
       0.006061413 0.0647793 0.008387922 0.04640996
0001d0 8d 0d 02 3c 48 86 fa bb 1f 4f 18 bc 11 6c be bd
       0.007937801 -0.007645402 -0.009296208 -0.09297956
0001e0 97 3e 37 b9 2a d1 58 bc 8a cd 51 bc 42 cf 05 3b
       -0.00017475557 -0.013233462 -0.012805352 0.0020417725
0001f0 84 84 e0 3a e2 ef 60 3c dd 95 9b 3e ec 69 91 3b
       0.0017129336 0.0137290675 0.30387774 0.0044376757
