examples/catchment_models/training/runs/globe_basin_split_2404_220637/model_epoch013.pt (torch, 316229 bytes, 5 tensors)

lstm.weight_ih_l0 f4 [512, 23]
0	0xbe846df6	-0.25865144
1	0x3eecee80	0.4627571
2	0x3df30daa	0.118678406
3	0x3bbc5c35	0.0057482966
4	0x3e62b510	0.22139382
5	0x3f25ac53	0.6471607
6	0x3f0e23a5	0.5552314
7	0xbebeeaee	-0.37288612
8	0x3f276640	0.65390396
9	0xbd114dfc	-0.035474762
10	0xbe08da0a	-0.13364425
11	0x3e0f40aa	0.13989511
12	0x3e8e8c8f	0.27841613
13	0xbeac8c98	-0.33701015
14	0xbaa76a40	-0.0012772754
15	0x3f39ba3b	0.7254979
16	0x3cb9435f	0.022615133
17	0x3e98da00	0.2985382
18	0xbd2df8dc	-0.04247366
19	0x3dafe6ec	0.08588967
20	0x3f006da7	0.50167316
21	0x3f058d78	0.5216899
22	0x3e8d1988	0.2755854
23	0x3eee0f3b	0.46495995
24	0x3d9fa703	0.07795527
25	0x3f3bce81	0.73361975
26	0x3ef2d9f5	0.47431913
27	0x3e130c14	0.14360076
28	0x3ed21f64	0.41039574
29	0x3e0fad3c	0.14030927
30	0x3eecb515	0.46231905
31	0x3ea64fdb	0.324828
32	0xbeef3eee	-0.467277
33	0x3ebf1b42	0.37325484
34	0xbe9f3cfc	-0.31101215
35	0xbeb7487b	-0.35797486
36	0x3e205c60	0.15660238
37	0x3f0e6048	0.55615664
38	0x3ece2cfd	0.40268698
39	0xbe20ae35	-0.15691455
40	0xbe0a7362	-0.13520578
41	0x3e950a19	0.29109266
42	0xbf07864a	-0.52939284
43	0x3c663853	0.014051515
44	0x3dae9d2f	0.08526074
45	0x3e833c22	0.25631815
46	0x3e189557	0.14900719
47	0x3d88191f	0.066454165
48	0x3ddba001	0.10723878
49	0x3d64b554	0.05583699
50	0x3e9ab088	0.30212808
51	0xbe0c55ba	-0.13704577
52	0x3e8de238	0.27711654
53	0xbe16f71d	-0.14742704
54	0x3ec1eabb	0.37874398
55	0xbeab3f17	-0.3344657
56	0xbdd62803	-0.104568504
57	0xbee3c92a	-0.44489413
58	0xbf05034f	-0.51958174
59	0xbd5e74eb	-0.05431072
60	0x3eb2eddb	0.34947094
61	0x3e7b4e68	0.24541628
62	0xbefa78ac	-0.4892019
63	0xbf2003bf	-0.62505716
64	0x3e20d930	0.1570785
65	0xba9da642	-0.0012027698
66	0xbccec88d	-0.025242114
67	0xbe563bd6	-0.20921263
68	0x3eb7f544	0.3592931
69	0xbd6b74a1	-0.057484273
70	0x3ed67e36	0.41893166
71	0x3d9b135f	0.07572054
72	0xbd0f7d7e	-0.035031788
73	0xbc8972db	-0.0167784
74	0x3ea67871	0.32513765
75	0x3f5a7800	0.85339355
76	0xbeafed02	-0.3436051
77	0x3f74f5de	0.95687664
78	0x3c220f0f	0.009891286
79	0xbe0eda19	-0.13950385
80	0x3d23354a	0.039845742
81	0x3e5e4b02	0.217083
82	0xbf101edb	-0.5629708
83	0xbd525fd9	-0.05136094
84	0x3f6cb926	0.92470014
85	0x3e7646a3	0.24050383
86	0x3ec3f28f	0.38270995
87	0xbdc1e5f4	-0.09467688
88	0x3e97cea6	0.29649848
89	0x3f369588	0.71321917
90	0x3f273c0a	0.6532599
91	0x3eb31dfd	0.34983817
92	0xbc117f0b	-0.008880387
93	0x3e385d4c	0.1800434
94	0x3f82123a	1.0161812
95	0x3f078993	0.52944297
96	0xbdc455df	-0.09586691
97	0x3ee46e35	0.4461533
98	0x3ea00894	0.31256545
99	0xbe655793	-0.22396688
100	0x3e3449af	0.17606233
101	0xbed839af	-0.4223151
102	0x3fb64d77	1.424239
103	0xbe1d2333	-0.15345459
104	0xbee618f5	-0.44940916
105	0x3ed49f14	0.41527617
106	0x3f1bb2a9	0.6081949
107	0x3f94dd42	1.1630023
108	0x3d836d14	0.064172894
109	0x3e830296	0.2558791
110	0x3ec59776	0.38592118
111	0xbeb9d176	-0.3629262
112	0x3dd69200	0.10477066
113	0x3f043351	0.516408
114	0xbd89ed1b	-0.067346774
115	0x3d9a31ad	0.07529006
116	0xbd94841e	-0.07251762
117	0x3e1018d7	0.14071976
118	0x3dfe8169	0.12427027
119	0xbd56468a	-0.052313365
120	0x3ed87bcc	0.4228195
121	0x3de2e1f6	0.11078255
122	0xbe8fc7ba	-0.28082067
123	0x3eb1554c	0.3463539
124	0x3f020fbe	0.5080527
125	0x3eb8f050	0.36120844
126	0x3f00d01b	0.50317544
127	0x3ebcd42f	0.36880633
128	0xbdd7cb3b	-0.1053681
129	0x3e032662	0.1280761
130	0x3f5025f0	0.8130789
131	0x3f2be569	0.6714693
132	0x3f2a8dbf	0.6662254
133	0xbe3561b3	-0.1771305
134	0x3dff7ac5	0.12474588
135	0x3ef34824	0.47515976
136	0x3eeaaa67	0.45833132
137	0x3cc3e660	0.023913562
138	0x3eaa7f74	0.33300364
139	0x3e9ef4ca	0.31046134
140	0x3f16eed9	0.589582
141	0x3f217f36	0.63084733
142	0x3e199c4b	0.15001027
143	0x3f687534	0.9080384
144	0xbf488bd8	-0.78338385
145	0x3ee8e2f7	0.4548566
146	0xbf2028b9	-0.6256214
147	0x3f19fec1	0.6015435
148	0x3dca24f9	0.09870333
149	0x3e19fdfa	0.1503829
150	0xbe885e8b	-0.2663463
151	0x3f5c4530	0.8604307
152	0x3e84f0f2	0.25965077
153	0x3da24639	0.0792355
154	0x3de834a0	0.113381624
155	0xbe8df922	-0.27729136
156	0x3e3f84e7	0.18703042
157	0xbeeaa8f8	-0.45832038
158	0x3ea4c856	0.32184094
159	0x3ddce72e	0.107862815
160	0xbee0afaf	-0.43884036
161	0xbb854cd3	-0.004067996
162	0x3ed9b817	0.42523262
163	0xbe26b727	-0.16280805
164	0xbe8fd595	-0.28092638
165	0x3e396098	0.18103254
166	0x3ef6afbf	0.4818096
167	0x3f80423f	1.0020217
168	0xbef3a4da	-0.4758671
169	0x3f9c18b6	1.2195041
170	0x3d97eedb	0.07418605
171	0xbeafeff6	-0.34362763
172	0x3e2f7223	0.17133383
173	0x3e5c8555	0.21535237
174	0xbf07f46f	-0.5310735
175	0xbdc03883	-0.09385779
176	0x3f60428e	0.87601554
177	0x3e85d437	0.2613847
178	0x3ee42e99	0.445668
179	0xbe131e3a	-0.14367
180	0x3e9a017a	0.30079252
181	0x3f0caf68	0.5495515
182	0x3f279e1c	0.6547563
183	0x3e80d819	0.2516487
184	0x3e04770c	0.12936038
185	0x3f3b045e	0.7305354
186	0xbb86db12	-0.0041154707
187	0x3e0053f1	0.12532021
188	0x3ec05ab9	0.37569216
189	0x3f32a951	0.69789606
190	0x3f26a625	0.65097266
191	0xbcbe48e2	-0.023228113
192	0x3f120c6e	0.57050216
193	0x3e4fe378	0.20301616
194	0xbf0e4ae9	-0.55583054
195	0x3e313134	0.17303926
196	0x3eb352d0	0.35024118
197	0xbe6cdf80	-0.23132133
198	0x3dfd0785	0.1235495
199	0x3f205ce9	0.6264177
200	0xbdff0fab	-0.1245416
201	0x3e99fdf7	0.30076572
202	0xbe1afb4e	-0.15134928
203	0x3cb6b35f	0.022302328
204	0x3f2d0a08	0.6759343
205	0x3f0037fd	0.5008543
206	0x3d95f51f	0.07322144
207	0x3dd5a1f1	0.104312785
208	0xbd370b44	-0.044688478
209	0x3f5a5c2b	0.8529689
210	0x3f2752de	0.6536082
211	0x3f105f87	0.56395763
212	0x3eeaa436	0.45828408
213	0x3ea3bd00	0.31980133
214	0x3f4c885a	0.79895556
215	0x3ec57736	0.38567513
216	0xbe99b541	-0.30021098
217	0x3e9c3432	0.30508572
218	0xbec43559	-0.3832195
219	0xbf3f7725	-0.74791175
220	0x3ebff607	0.3749239
221	0x3f325ab0	0.6966963
222	0x3f43ea94	0.7652981
223	0x3ebaeab4	0.3650719
224	0x3f2411f8	0.6408992
225	0xbdc92b9b	-0.0982277
226	0xbf156a5b	-0.5836541
227	0x3ea8e029	0.3298352
228	0x3d0e8a5b	0.034799915
229	0x3ec79153	0.3897806
230	0xbdd724e9	-0.10505087
231	0x3e5d641b	0.21620218
232	0xbd464d8c	-0.0484138
233	0xbc787a1c	-0.015165832
234	0x3d3a5629	0.045492325
235	0x3e694662	0.22780755
236	0x3f338f8c	0.7014091
237	0xbec59695	-0.38591447
238	0x3f1e17c1	0.61754996
239	0xbdba7217	-0.09103792
240	0xbe92ac19	-0.28646925
241	0x3b94927e	0.004534065
242	0x3e3c693b	0.18399517
243	0xbea2ef53	-0.31823215
244	0x3e462fc8	0.19354165
245	0x3f864b06	1.0491645
246	0x3f14a4c0	0.5806389
247	0x3ebeb247	0.3724539
248	0x3e4f9576	0.20271859
249	0x3d932727	0.07185202
250	0x3f147835	0.5799592
251	0x3f11e7e1	0.56994444
252	0x3e0a477c	0.13503832
253	0x3e3e0084	0.18554884
254	0x3e28f3cf	0.16499256
255	0x3f0e7326	0.5564445

lstm.weight_hh_l0 f4 [512, 128]
0	0x3e9f5ed4	0.31127036
1	0x3db26d9f	0.08712315
2	0xbd7d4709	-0.061835323
3	0xbdbead95	-0.09310452
4	0x3d3cccb5	0.04609366
5	0xbdb50fd4	-0.088409096
6	0x3e9550ea	0.29163295
7	0xbd63982e	-0.05556505
8	0x3d989747	0.07450729
9	0xbe88772d	-0.26653424
10	0xbdb7ca1a	-0.08974095
11	0xbe6d527a	-0.23175994
12	0x3cc4c295	0.024018565
13	0x3d864059	0.06555242
14	0x3d9cbc42	0.07653095
15	0x3e7bc9b5	0.24588664
16	0x3e7e0b1d	0.24808927
17	0x3df7b3f8	0.12094873
18	0xbe3de172	-0.18543032
19	0xbd837dee	-0.064205036
20	0x3e178c2b	0.14799564
21	0xbeba6e38	-0.36412215
22	0xbe83c390	-0.2573514
23	0xbe1c8d0a	-0.15288177
24	0x3e08327d	0.1330051
25	0xbe3e3b22	-0.18577245
26	0xbce134bb	-0.027490964
27	0x3e2dac49	0.16960253
28	0x3d0945ad	0.033513714
29	0x3d5c1b07	0.053736713
30	0xbedd50c8	-0.43225694
31	0x3e945cfb	0.28977188
32	0x3e48dbc7	0.19615088
33	0x3e07e0cd	0.13269348
34	0x3e42da79	0.19028653
35	0xbe62daf1	-0.22153832
36	0xbe3cad31	-0.18425442
37	0xbe93e248	-0.28883576
38	0xbd01535c	-0.03157364
39	0xbed029a1	-0.4065676
40	0x3e9fdce2	0.31223208
41	0x3dcb275d	0.09919617
42	0xbcdb8af5	-0.026799658
43	0xbe247279	-0.16059293
44	0xbed1cf8e	-0.40978664
45	0x3cafb96c	0.02145072
46	0xbeb47cf0	-0.3525157
47	0x3eec33e3	0.46133336
48	0xbc110736	-0.008851817
49	0xbe023854	-0.127168
50	0xbeeeb350	-0.4662118
51	0xbcd17a15	-0.025570909
52	0xbecb6d95	-0.39732042
53	0xbe9aa3e1	-0.30203155
54	0x3e35bbde	0.17747447
55	0xbebc494a	-0.36774665
56	0xbe968715	-0.29399934
57	0xbeb37af0	-0.3505473
58	0xbdedbcd4	-0.11608282
59	0xbd8a0ed8	-0.067411125
60	0xbe30a40e	-0.17250082
61	0xbe8707dd	-0.26373187
62	0xbd9c128b	-0.07620724
63	0xbec24a6e	-0.3794741
64	0xbebcbc75	-0.3686253
65	0xbecece79	-0.403919
66	0xbecb63d0	-0.39724588
67	0xbec07121	-0.3758631
68	0xbea86114	-0.32886565
69	0xbdd801f5	-0.10547248
70	0xbcaab293	-0.020837104
71	0x3cdb7287	0.02678801
72	0xbee85fc7	-0.45385572
73	0x3e1bc665	0.152124
74	0x3e37dd2e	0.17955467
75	0x3d9dc15a	0.077028945
76	0x3ddea4c9	0.10871274
77	0x3e8496ec	0.25896394
78	0x3ed2630a	0.41091186
79	0xbd31b769	-0.043387804
80	0x3e76919c	0.24078983
81	0xbe36b13c	-0.17841047
82	0x3e273b58	0.16331232
83	0x3d784388	0.060611278
84	0xbd61f744	-0.05516745
85	0x3ea7b61a	0.3275612
86	0xbe0ca700	-0.1373558
87	0xbdb8f23b	-0.09030577
88	0x3de2a95a	0.110674575
89	0xbe857f08	-0.2607348
90	0x3eac78d5	0.33685938
91	0xbeac7828	-0.33685422
92	0x3e1f93df	0.15583752
93	0xbd50e377	-0.050998177
94	0xbd9f7464	-0.077858716
95	0xbd71d032	-0.05903644
96	0xbe96f8b9	-0.29486635
97	0x3c421196	0.011845013
98	0x3e89f719	0.26946333
99	0xbe3816f7	-0.1797751
100	0x3eb0eb55	0.34554544
101	0xbcd75f3f	-0.026290534
102	0xbe0b6210	-0.13611627
103	0xbd898714	-0.06715217
104	0x3db5ab48	0.0887056
105	0xbed83777	-0.42229816
106	0x3ed4a65e	0.41533178
107	0x3f00d80d	0.5032967
108	0xbe80f00e	-0.25183147
109	0xbd756263	-0.059908282
110	0x3e27a059	0.16369762
111	0x3eab81fc	0.33497608
112	0xbedab672	-0.4271732
113	0x3d0dff4f	0.03466731
114	0x3e3f4e05	0.18682106
115	0x3b6df432	0.0036308882
116	0x3e4cc401	0.19996645
117	0xbdbcd960	-0.092211485
118	0xbe554db1	-0.20830418
119	0xbd925691	-0.071454175
120	0xbf0491c0	-0.51784897
121	0x3e40800d	0.18798847
122	0x3d8310e3	0.06399705
123	0xbf27c4cd	-0.6553467
124	0x3f073ce3	0.5282728
125	0x3e16ceec	0.14727372
126	0x3c93e149	0.01805176
127	0xbe8a360e	-0.26994365
128	0xba4c6e87	-0.0007798452
129	0xbc3c3683	-0.011487606
130	0x3c85ab3c	0.016317002
131	0x3d5ebcce	0.054379277
132	0xbe30e248	-0.1727382
133	0x3c9c313c	0.019066446
134	0x3e04f37c	0.12983507
135	0xbe6028cd	-0.21890564
136	0x3c6cba2d	0.014448685
137	0xbe62a5dd	-0.22133584
138	0x3e082a71	0.1329744
139	0xbe863ad7	-0.26216766
140	0xbe0b56aa	-0.13607278
141	0x3d7384a1	0.059452657
142	0x3e3510b9	0.1768216
143	0x3deb9b29	0.11504204
144	0x3e5a9164	0.21344525
145	0xbd2f7dc1	-0.042844538
146	0xbe196071	-0.14978196
147	0xbe29254f	-0.16518138
148	0x3e1c34ba	0.15254489
149	0xbeeb8474	-0.4599949
150	0x3da8bfb4	0.082396895
151	0xbbcd16d0	-0.006258823
152	0x3ddcb966	0.107775494
153	0xbdb27387	-0.08713441
154	0xbe417f8d	-0.18896313
155	0xbdc607ba	-0.096694425
156	0x3d92aeb7	0.071622305
157	0xbe0e32d6	-0.1388658
158	0xbebd68ac	-0.3699392
159	0x3d785246	0.060625337
160	0x3e2f4d2d	0.17119284
161	0x3d0757bc	0.033042654
162	0x3ea8b320	0.32949162
163	0x3d1804c5	0.037113924
164	0xbe89018f	-0.26759002
165	0xbe039cf4	-0.12852842
166	0x3e0c2246	0.1368495
167	0xbe76b253	-0.24091463
168	0x3e9b183c	0.30291927
169	0x3de9c299	0.1141407
170	0xbd6f2d03	-0.058392536
171	0xbe84ccb2	-0.2593742
172	0xbe064107	-0.13110743
173	0x3d98fa33	0.07469597
174	0xbdeab74d	-0.11460743
175	0x3e9b52dd	0.30336657
176	0xbd04f37c	-0.032458767
177	0x3dad8be8	0.084739506
178	0xbe3a37ae	-0.18185303
179	0x3e153b2b	0.14573352
180	0xbe7f99c6	-0.24961004
181	0xbdc0b4a1	-0.09409452
182	0x3c508559	0.012727105
183	0xbe36c781	-0.17849542
184	0xbe0ee6fb	-0.139553
185	0xbe9d02f8	-0.30666327
186	0x3d3ea02d	0.046539474
187	0xbd0431e9	-0.03227416
188	0x3c8dd9f5	0.017315844
189	0xbe753968	-0.2394768
190	0xbdfb0f41	-0.12258769
191	0xbe068f60	-0.1314063
192	0xbe57824e	-0.21045801
193	0xbe41ba57	-0.1891874
194	0xbe5bdc95	-0.21470864
195	0x3c120e7c	0.008914586
196	0xbe6c50b9	-0.23077668
197	0xbb3cfa1a	-0.0028835596
198	0x3d38a81f	0.045082208
199	0x3e88f3fb	0.26748642
200	0xbea21383	-0.3165551
201	0x3e396c93	0.18107824
202	0xbd8f2f5f	-0.06991457
203	0xbe895098	-0.268193
204	0x3dda2ad0	0.10652697
205	0x3d9868ba	0.0744185
206	0x3ec2ddd4	0.38059866
207	0xbd8d1f67	-0.06890755
208	0x3e969607	0.29411337
209	0xbdad48b7	-0.08461135
210	0x3d9edece	0.0775734
211	0x3e269b0c	0.16270083
212	0xbe18c5a0	-0.14919138
213	0x3e268ff4	0.16265851
214	0xbcd35756	-0.025798481
215	0xbdd4798c	-0.10374746
216	0xbe129328	-0.14313948
217	0x3c8593e6	0.016305875
218	0x3db61446	0.088905856
219	0xbdc09c1e	-0.09404777
220	0x3e90ef7d	0.28307715
221	0xbcdd19bd	-0.026989812
222	0xbdbce2b7	-0.0922293
223	0xbd5709c0	-0.052499533
224	0x3ddd903f	0.108185284
225	0x3d908f07	0.0705853
226	0x3da09742	0.0784135
227	0xbdc4ab63	-0.09603002
228	0x3e8b6ca7	0.27231333
229	0xbe377177	-0.17914377
230	0x3e131f26	0.14367351
231	0xbd34288d	-0.043983985
232	0x3c6ff514	0.0146458335
233	0xbe1491a4	-0.14508682
234	0xbda6b87c	-0.08140656
235	0x3e27adb6	0.16374859
236	0xbd2e2d24	-0.04252352
237	0x3de1b265	0.11020354
238	0x3e5769dd	0.21036477
239	0x3e8883c3	0.26663026
240	0xbe2d5f0c	-0.16930789
241	0x3dfbaaef	0.12288462
242	0x3e896711	0.26836446
243	0x3df5d852	0.120041505
244	0x3d43045b	0.047611576
245	0xbdbdf2f7	-0.092748575
246	0xbe96763f	-0.2938709
247	0xbeb7fecc	-0.35936582
248	0xbec07b31	-0.37593988
249	0x3ea369be	0.31916612
250	0xbd227892	-0.039665766
251	0xbee565a0	-0.44804096
252	0x3e58091a	0.21097222
253	0x3e24a744	0.16079432
254	0x3c6be914	0.014398832
255	0xbdde81b0	-0.1086458

lstm.bias_ih_l0 f4 [512]
0	0xbf62b939	-0.8856388
1	0xbf0ae473	-0.54254836
2	0x3e01e870	0.12686324
3	0xbf02a1ed	-0.5102833
4	0xbf507dd6	-0.8144201
5	0xbf05e3c0	-0.52300644
6	0xbeb85248	-0.36000276
7	0xbf2562f7	-0.64604133
8	0xbf4916e8	-0.7855058
9	0xbecb574f	-0.3971505
10	0xbf10ccc6	-0.5656246
11	0xbf4260c8	-0.75928926
12	0xbfb60777	-1.4221028
13	0xbf9ec767	-1.2404603
14	0xbf37a084	-0.717293
15	0xbf4a6f2c	-0.79075885
16	0xbf34bef8	-0.70603895
17	0xbf0ea914	-0.5572674
18	0xbf291f8c	-0.6606376
19	0xbe6b96e2	-0.23006776
20	0xbeecb7f3	-0.46234092
21	0xbf0542a5	-0.52054816
22	0xbd9ff76c	-0.07810864
23	0xbf428d5f	-0.75996965
24	0xbf5e44d1	-0.86823756
25	0xbeff3ffd	-0.49853507
26	0xbf1b65d4	-0.6070225
27	0xbf4272e4	-0.7595656
28	0xbe5317de	-0.20614573
29	0xbe9ce021	-0.30639747
30	0xbe3b6b89	-0.1830274
31	0xbed0d9fb	-0.40791306
32	0xbf5244e9	-0.821364
33	0xbf659a2f	-0.8968839
34	0xbf41a9e0	-0.75649834
35	0xbf44d843	-0.7689249
36	0xbea74600	-0.32670593
37	0xbe2932bc	-0.1652326
38	0xbf0c304b	-0.5476119
39	0xbf36e694	-0.71445584
40	0xbe816293	-0.2527052
41	0xbe8aa4b6	-0.2707879
42	0xbf7f4de0	-0.997282
43	0xbf3be858	-0.73401403
44	0xbf294004	-0.66113305
45	0xbf689879	-0.90857655
46	0xbe80a67a	-0.25127012
47	0xbe9b6e65	-0.30357662
48	0xbf34d8be	-0.7064322
49	0xbf969fbd	-1.1767498
50	0xbf390309	-0.72270256
51	0xbf06ef8d	-0.52709275
52	0xbe6dc3b9	-0.23219194
53	0xbecfbadf	-0.4057226
54	0xbf44aaae	-0.76822937
55	0xbf11ed6d	-0.5700291
56	0xbf1b3528	-0.60627985
57	0xbf838e28	-1.0277758
58	0xbf4405d6	-0.76571405
59	0xbfa0ce18	-1.2562895
60	0xbf1a4a1d	-0.6026934
61	0x3e1b5874	0.15170461
62	0xbf416f42	-0.7556039
63	0xbf170eac	-0.5900676
64	0xbefe1d1a	-0.49631578
65	0xbf2fa362	-0.6860868
66	0xbea8f869	-0.33002022
67	0xbee143db	-0.43997082
68	0xbe3011f1	-0.17194344
69	0xbf4b06d6	-0.79307306
70	0xbf3ab6a4	-0.7293494
71	0xbee99f99	-0.45629576
72	0xbf09e3cf	-0.53863233
73	0xbf4b9a72	-0.7953254
74	0xbf689262	-0.9084836
75	0xbf2a07cc	-0.6641815
76	0xbf8bd975	-1.0925738
77	0xbee89399	-0.45425108
78	0xbf3e2e84	-0.7428973
79	0xbf59d052	-0.85083497
80	0xbebf3c1a	-0.3735054
81	0xbf31c003	-0.6943361
82	0xbf0491fd	-0.5178526
83	0xbf15a6c5	-0.58457595
84	0xbf2283a4	-0.6348212
85	0xbef7c96f	-0.4839587
86	0xbf6fc31d	-0.93657094
87	0xbfa24b4f	-1.2679232
88	0xbf1582d0	-0.5840273
89	0xbf3d5d77	-0.7397074
90	0xbe30b4ad	-0.17256422
91	0x3ddc845f	0.10767435
92	0xbf332acf	-0.69987196
93	0xbf8aa237	-1.0830754
94	0xbf1c4099	-0.6103607
95	0xbf1e2157	-0.6176962
96	0xbf0b2d2c	-0.543658
97	0xbf6888f3	-0.9083397
98	0xbf213f37	-0.62987083
99	0xbf6d738f	-0.92754453
100	0xbf130b30	-0.57438946
101	0xbf5694e5	-0.83820945
102	0xbf4a0195	-0.78908664
103	0xbf8a7438	-1.0816717
104	0xbf402c2f	-0.7506742
105	0xbf7723df	-0.9653911
106	0xbe9532ad	-0.29140225
107	0xbebbdf3b	-0.3669375
108	0xbee24b7e	-0.4419822
109	0xbf007a27	-0.5018639
110	0xbf56f557	-0.8396811
111	0xbe9f269f	-0.31084153
112	0xbf07bf8a	-0.5302664
113	0xbf47b13c	-0.78004813
114	0xbf3b32d0	-0.7312441
115	0xbf8296c2	-1.0202258
116	0xbf2dea6b	-0.6793582
117	0xbf2ba66c	-0.67050815
118	0xbed9e2da	-0.42555887
119	0xbf01bd75	-0.50679713
120	0xbd257d74	-0.040402845
121	0xbf02666a	-0.5093752
122	0xbf456802	-0.7711183
123	0xbde23908	-0.11046034
124	0x3e19123d	0.14948364
125	0xbe9e4d70	-0.30918455
126	0xbf3c5a87	-0.73575634
127	0xbf24a4d4	-0.6431401
128	0xbf2f77c6	-0.68542135
129	0xbebd84e1	-0.3701544
130	0x3dae1c9c	0.085015506
131	0xbf220bd0	-0.63299274
132	0xbf342abe	-0.7037772
133	0xbe672ea7	-0.2257639
134	0x3df0c744	0.11756757
135	0xbf1415f1	-0.5784598
136	0xbefe3036	-0.49646157
137	0xbdc70e86	-0.09719567
138	0xbeab342d	-0.33438244
139	0xbf2875fb	-0.65805024
140	0xbf2a9a99	-0.6664215
141	0x3de49ee3	0.11163118
142	0xbef61b4e	-0.48067707
143	0xbf1f977a	-0.6234051
144	0xbf0ec435	-0.5576814
145	0xbe1604f4	-0.14650327
146	0xbf66b4a1	-0.9011937
147	0xbef8aab6	-0.48567742
148	0xbec43725	-0.38323322
149	0xbedcdf61	-0.43139175
150	0xbe628548	-0.22121155
151	0xbe6e6e75	-0.23284324
152	0xbf34c043	-0.7060587
153	0xbe9fe999	-0.31232908
154	0xbf0f4186	-0.55959356
155	0xbef17bb1	-0.47164682
156	0xbe3415f4	-0.175865
157	0x3dbcd89e	0.09221004
158	0x3c9727fa	0.01845168
159	0x3ce5b431	0.028040024
160	0xbf00a5cc	-0.50252986
161	0xbf4fa571	-0.8111182
162	0xbf54ac5c	-0.830755
163	0xbf7da3b3	-0.9907791
164	0x3e0a08e1	0.1347995
165	0xbe650107	-0.22363673
166	0xbf2e29bf	-0.6803245
167	0x3db5b954	0.08873239
168	0x3e05f7f4	0.13082868
169	0x3dbd142d	0.09232364
170	0xbf4c70d2	-0.7985965
171	0x3e4a9aed	0.19785662
172	0xbe5046e1	-0.20339538
173	0xbf456271	-0.77103335
174	0xbe835995	-0.25654283
175	0xbe0c7554	-0.13716632
176	0xbf829862	-1.0202754
177	0xbf863a7d	-1.0486599
178	0xbf12aa6d	-0.572913
179	0xbe969cbd	-0.29416457
180	0xbef4445c	-0.47708404
181	0xbea9f5ce	-0.33195347
182	0xbf42e3c8	-0.76128817
183	0xbe73d264	-0.23810726
184	0xbeef05c9	-0.466841
185	0x3e0652c9	0.13117518
186	0xbf3e9066	-0.74439085
187	0xbf66264f	-0.89902204
188	0xbf0b6d1b	-0.54463357
189	0x3dbe04cb	0.09278258
190	0xbf0752d3	-0.52860755
191	0xbe349045	-0.1763316
192	0x3dbac40e	0.09119426
193	0xbe7cc2c7	-0.24683677
194	0x3ece65b6	0.40311974
195	0xbe61e60b	-0.2206041
196	0xbee63e42	-0.44969374
197	0xbf4cde1c	-0.8002641
198	0xbf36f23e	-0.7146338
199	0xbf2d86ed	-0.67784005
200	0xbf241d6f	-0.6410741
201	0xbe887471	-0.26651338
202	0xbf7612b4	-0.9612229
203	0xbe86cabe	-0.26326555
204	0xbec3e023	-0.3825694
205	0xbe946e89	-0.28990582
206	0xbec803cf	-0.39065406
207	0xbf9522d1	-1.165125
208	0xbe5b1cda	-0.21397725
209	0xbf79a43b	-0.9751622
210	0xbee36e11	-0.44419912
211	0xbf5632e6	-0.83671415
212	0xbe671a92	-0.2256873
213	0xbf0715ed	-0.5276783
214	0xbf096ded	-0.5368336
215	0xbf7757ac	-0.9661815
216	0x3d9d4fbe	0.07681225
217	0xbe8687e6	-0.26275557
218	0xbdd75b84	-0.10515502
219	0x3e754aa9	0.23954262
220	0xbefe8817	-0.49713203
221	0xbf4454d2	-0.76691926
222	0xbf140e1b	-0.57834023
223	0xbe503025	-0.20330866
224	0xbeb86ca8	-0.36020398
225	0xbf10318b	-0.56325597
226	0xbf32c3a4	-0.69829774
227	0xbed33701	-0.41252902
228	0xbee4281f	-0.4456186
229	0xbf4a8cb5	-0.7912095
230	0xbe8c0ab9	-0.2735193
231	0xbf212dc9	-0.6296049
232	0xbf2ae853	-0.6676075
233	0xbf5f5999	-0.8724609
234	0xbdd0b64f	-0.101910226
235	0xbebd4966	-0.3697006
236	0xbea090bc	-0.31360424
237	0x3e5918d5	0.21200879
238	0xbe544fa3	-0.20733504
239	0xbe3a4094	-0.18188697
240	0xbeffeeee	-0.49986976
241	0xbea415f5	-0.32048002
242	0xbf5cb7da	-0.86218035
243	0xbf1fd1e4	-0.6242964
244	0xbf0c386b	-0.54773587
245	0xbeeb26fd	-0.45928183
246	0xbe0f4ed5	-0.13994916
247	0xbf46e84b	-0.776982
248	0xbe78d070	-0.24298263
249	0xbef92e98	-0.4866836
250	0xbf3b13d5	-0.73077136
251	0x3eba6c0a	0.36410552
252	0xbe8f4aab	-0.27986655
253	0xbeeaa121	-0.45826057
254	0xbfa3a466	-1.2784545
255	0xbf2a9d72	-0.6664649

lstm.bias_hh_l0 f4 [512]
0	0xbf69707e	-0.91187274
1	0xbf1735d1	-0.5906649
2	0x3d8f1f42	0.06988384
3	0xbf1b6b9a	-0.6071106
4	0xbf714fe9	-0.9426256
5	0xbf0e54fd	-0.5559843
6	0xbef02030	-0.46899557
7	0xbf0a2f95	-0.53978854
8	0xbf495b80	-0.7865524
9	0xbefc5b46	-0.49288386
10	0xbf2b1641	-0.6683083
11	0xbf49c2b7	-0.78812736
12	0xbfbfab52	-1.4974158
13	0xbf982da8	-1.1888933
14	0xbf49bc65	-0.7880309
15	0xbf4f2c74	-0.80927205
16	0xbf2abb82	-0.66692364
17	0xbeee7970	-0.46577024
18	0xbf2ce925	-0.6754325
19	0xbe924743	-0.28569993
20	0xbf172504	-0.59040856
21	0xbf051b04	-0.5199435
22	0xbe22357e	-0.15840718
23	0xbf3d2865	-0.7388976
24	0xbf647b4f	-0.89250654
25	0xbf0de36e	-0.55425155
26	0xbf26e0b6	-0.6518663
27	0xbf43ddd4	-0.7651036
28	0xbe7fb6e1	-0.24972107
29	0xbe9aca56	-0.30232495
30	0xbe20be82	-0.15697673
31	0xbee01561	-0.4376631
32	0xbf329e4a	-0.6977278
33	0xbf66e731	-0.9019652
34	0xbf4b15f4	-0.7933037
35	0xbf472280	-0.7778702
36	0xbe65f8e6	-0.22458228
37	0xbe316a6d	-0.17325754
38	0xbf28d59d	-0.6595095
39	0xbf550651	-0.83212763
40	0xbe3d5486	-0.18489274
41	0xbe85b0db	-0.26111493
42	0xbf7733a2	-0.9656316
43	0xbf32f4d2	-0.69904816
44	0xbf39bc11	-0.7255259
45	0xbf6339bd	-0.88759977
46	0xbe864daf	-0.26231143
47	0xbe68531d	-0.22687955
48	0xbf27ba4e	-0.65518653
49	0xbf98da84	-1.1941686
50	0xbf37e46f	-0.71832937
51	0xbf09a953	-0.53773993
52	0xbe8e3ecd	-0.27782288
53	0xbed30cbd	-0.41220656
54	0xbf5bd196	-0.8586668
55	0xbf2ae16d	-0.6675022
56	0xbf170050	-0.5898485
57	0xbf80d4c7	-1.0064934
58	0xbf3166d7	-0.69297546
59	0xbf9032a6	-1.1265457
60	0xbf437987	-0.7635731
61	0x3d4308f3	0.047615957
62	0xbf5948c7	-0.84876674
63	0xbf14be8b	-0.58103245
64	0xbecc9616	-0.39958256
65	0xbf22a205	-0.6352847
66	0xbe7fa62f	-0.24965738
67	0xbeb2cf26	-0.34923667
68	0xbe6dfe15	-0.23241456
69	0xbf5a0583	-0.8516466
70	0xbf2bbb0a	-0.67082274
71	0xbefddf50	-0.49584436
72	0xbede2973	-0.43390998
73	0xbf608163	-0.8769743
74	0xbf680712	-0.9063579
75	0xbf2be465	-0.6714538
76	0xbf83451c	-1.0255466
77	0xbefcab99	-0.4934967
78	0xbf1b9f86	-0.6079029
79	0xbf591de5	-0.8481124
80	0xbebc74e7	-0.3680794
81	0xbf4b757a	-0.7947613
82	0xbf148ea3	-0.58030146
83	0xbf16ec23	-0.58954066
84	0xbf27d66e	-0.6556157
85	0xbf05f9f7	-0.5233454
86	0xbf6f2f7e	-0.9343184
87	0xbfa10cd0	-1.2582035
88	0xbefe23b4	-0.49636614
89	0xbf524f0f	-0.82151884
90	0xbe709449	-0.23494066
91	0x3d9610f5	0.07327453
92	0xbf339043	-0.70142
93	0xbf84553c	-1.0338511
94	0xbf0b18f9	-0.5433498
95	0xbf23a18a	-0.63918364
96	0xbf253d0c	-0.64546275
97	0xbf57dc6d	-0.8432072
98	0xbf33de81	-0.7026139
99	0xbf71a738	-0.9439578
100	0xbf301ea8	-0.6879678
101	0xbf35fd27	-0.71089405
102	0xbf44ab04	-0.7682345
103	0xbf821393	-1.0162224
104	0xbf3b3e7d	-0.73142225
105	0xbf669f92	-0.90087235
106	0xbeaad4bb	-0.33365425
107	0xbe99cb8c	-0.30038106
108	0xbed24ad3	-0.4107271
109	0xbf1899f7	-0.5960993
110	0xbf543c0f	-0.8290414
111	0xbeb4f4dd	-0.35343066
112	0xbeeb268f	-0.45927855
113	0xbf49ae42	-0.7878152
114	0xbf35a89f	-0.7096042
115	0xbf814848	-1.0100183
116	0xbf222cc6	-0.6334957
117	0xbf18f6e2	-0.59751713
118	0xbef20b2e	-0.47274154
119	0xbf0b7d03	-0.5448763
120	0xbd920caf	-0.071313255
121	0xbf1424d0	-0.5786867
122	0xbf40d769	-0.7532869
123	0xbe35f8fe	-0.17770764
124	0x3e83eec9	0.25768116
125	0xbeb03189	-0.34412792
126	0xbf6391db	-0.8889443
127	0xbf3aef59	-0.73021466
128	0x40142cce	2.3152347
129	0x40256acc	2.5846434
130	0x404383ca	3.0549188
131	0x401aba86	2.4176345
132	0x4014a9d6	2.322866
133	0x4030a9ef	2.760372
134	0x404ab614	3.1673632
135	0x4017cc26	2.3718352
136	0x401cd19e	2.450294
137	0x4038e41b	2.8889225
138	0x4030329f	2.7530897
139	0x4015b0db	2.3389194
140	0x401359fa	2.3023667
141	0x4048020d	3.1251252
142	0x40234311	2.5509684
143	0x40145612	2.3177533
144	0x4019c469	2.402613
145	0x403be582	2.935883
146	0x4001a6c0	2.0258026
147	0x402599f9	2.5875227
148	0x40271cc7	2.6111314
149	0x4023a9e5	2.5572445
150	0x402d2200	2.7052002
151	0x402d6fb2	2.7099423
152	0x401514ed	2.3294022
153	0x4027e871	2.623562
154	0x401bd35d	2.4347756
155	0x40202d90	2.502781
156	0x4036f46a	2.8586679
157	0x40422c54	3.0339556
158	0x403c4969	2.9419806
159	0x403c2923	2.9400108
160	0x4024b561	2.5735705
161	0x400b1654	2.1732378
162	0x40079ca1	2.1189349
163	0x3fffebe9	1.9993869
164	0x4043d3be	3.0597987
165	0x402ca421	2.6975176
166	0x4011591d	2.271064
167	0x4040985e	3.0092998
168	0x40463f59	3.0976164
169	0x4045c073	3.0898712
170	0x4011c283	2.277497
171	0x4047fa01	3.124634
172	0x4031b5ff	2.7767332
173	0x400d0830	2.2036247
174	0x402bc0a6	2.6836333
175	0x4035bbfa	2.8395982
176	0x40024432	2.0354123
177	0x3ff96d24	1.9486432
178	0x401f3a14	2.4879198
179	0x4029c9fc	2.6529531
180	0x4020880b	2.5083034
181	0x40286fba	2.6318192
182	0x4013c810	2.3090858
183	0x4033fa1f	2.8121412
184	0x401d1d40	2.4549103
185	0x40440633	3.0628784
186	0x401040f6	2.253965
187	0x4009fc30	2.1560173
188	0x4020140f	2.5012243
189	0x40432eb3	3.0497253
190	0x401bf532	2.4368405
191	0x4032cff3	2.7939422
192	0x4042fe63	3.0467765
193	0x4035d27b	2.8409717
194	0x4059d0be	3.4033656
195	0x402dc5e6	2.7152038
196	0x402165c6	2.5218368
197	0x400b5af1	2.1774256
198	0x401127ba	2.2680497
199	0x4018d58a	2.3880334
200	0x401ab49b	2.4172733
201	0x4029e48c	2.6545744
202	0x4000db05	2.013368
203	0x402f58b0	2.739788
204	0x4022efe9	2.545893
205	0x402be66d	2.685939
206	0x4026a217	2.6036432
207	0x3fe651b6	1.7993686
208	0x4033ba22	2.8082356
209	0x3ff9f76e	1.9528635
210	0x40228d1b	2.5398624
211	0x40071bce	2.111072
212	0x402f8939	2.7427504
213	0x401bf654	2.4369097
214	0x401a7a40	2.4137115
215	0x4002608c	2.0371428
216	0x40448eb3	3.0712097
217	0x402d817e	2.7110286
218	0x4036d4b6	2.8567328
219	0x404be278	3.1856976
220	0x4020471c	2.5043402
221	0x4009c9db	2.1529453
222	0x401b7073	2.4287384
223	0x402f6d89	2.7410605
224	0x402e07eb	2.7192333
225	0x4019f04b	2.4052913
226	0x40109ff6	2.2597632
227	0x40225c06	2.5368667
228	0x4022870a	2.5394921
229	0x400ee5ed	2.2327836
230	0x40309ee7	2.7596986
231	0x4015344d	2.3313172
232	0x40199165	2.3994992
233	0x4003c445	2.0588543
234	0x4036e891	2.8579447
235	0x40245125	2.5674527
236	0x40290f88	2.641573
237	0x404b946d	3.1809342
238	0x4032231f	2.7833936
239	0x4035ab39	2.8385756
240	0x4024b7ae	2.573711
241	0x4029c531	2.6526606
242	0x40038002	2.054688
243	0x401477d7	2.3198144
244	0x40192b4b	2.3932674
245	0x4027e77b	2.6235034
246	0x40352b74	2.8307772
247	0x400bf343	2.1867225
248	0x4034f73d	2.8275902
249	0x401d7ad4	2.4606218
250	0x401235fc	2.284545
251	0x4051a903	3.2759407
252	0x402c4ff0	2.692379
253	0x40224b4e	2.5358462
254	0x3fdc8523	1.722813
255	0x4014c936	2.324781

head.net.0.weight f4 [1, 128]
0	0x3e380d8f	0.17973922
1	0x3d6c07af	0.057624515
2	0x3ce3e906	0.027821075
3	0xbcd9a9bb	-0.026570192
4	0xbc2146a4	-0.009843502
5	0xbbcc99f9	-0.006243941
6	0xbb129357	-0.0022365653
7	0xbcb50cc8	-0.022100821
8	0xbcdbcdbd	-0.026831502
9	0xbc038e56	-0.008029541
10	0xbc709d48	-0.014685936
11	0x3c6a9c42	0.014319481
12	0x4078da51	3.888325
13	0xbca1d1b1	-0.019753309
14	0x3d21657f	0.039403435
15	0xbbe5e003	-0.0070152297
16	0xbcf38ae3	-0.029729312
17	0x3c83a7ad	0.016071165
18	0x3c32a0db	0.010902609
19	0x3c69a996	0.014261624
20	0x3cbaf7bc	0.022823207
21	0x3c2fa302	0.010720016
22	0xbcb805f1	-0.02246377
23	0xbcb6b559	-0.02230327
24	0xbdd37fcc	-0.1032711
25	0x3ceabef7	0.028655512
26	0x3d0c41bf	0.034242388
27	0x3d152635	0.03641339
28	0xbc1e108f	-0.009647503
29	0xb9c9a08a	-0.00038457318
30	0x3b2e96b7	0.0026640126
31	0x3adcb07c	0.0016837264
32	0x3d7c48f8	0.061593026
33	0x3bf13139	0.007360604
34	0x3bf296cd	0.0074032308
35	0xbcbc8d8f	-0.02301672
36	0x3b88f723	0.0041798516
37	0xbd665a58	-0.056238502
38	0x3de45331	0.1114868
39	0x3ad659d3	0.0016353674
40	0xba2a136d	-0.000648788
41	0x3af91763	0.0019004162
42	0x3eb49e51	0.35277036
43	0xbbd6b1f6	-0.0065519763
44	0xbab27ad9	-0.0013616934
45	0xbc8c065f	-0.017092882
46	0x3d210060	0.039307
47	0x3ad6a8ae	0.0016377175
48	0xbd3b04c4	-0.04565884
49	0x3f276390	0.65386295
50	0x3cea71ca	0.028618712
51	0x3cbffbd7	0.023435516
52	0x3c7647eb	0.015031795
53	0xbd2c4b06	-0.042063735
54	0xbd950ae1	-0.072774656
55	0x3ccd4a38	0.025059804
56	0x3aaec88e	0.0013334916
57	0xba981054	-0.0011601546
58	0xbe3b4e9a	-0.18291703
59	0x3dc2cfc0	0.095122814
60	0xbe0dbc6a	-0.13841406
61	0x3aa1f79a	0.0012357116
62	0x3cac3f40	0.021026254
63	0x3be81635	0.0070827254
64	0xbce967db	-0.028491905
65	0x3a4ad06d	0.00077367463
66	0xbb680d4d	-0.0035408319
67	0xbc9b6da4	-0.01897318
68	0x3b55bc9c	0.003261364
69	0xbd0844e6	-0.03326883
70	0x3d41dfe7	0.04733267
71	0xbc44ba40	-0.012007296
72	0x399b47ac	0.00029617304
73	0xbda772db	-0.08176204
74	0x40172a89	2.3619711
75	0x3b6467a4	0.0034851814
76	0x3d7b8655	0.061407406
77	0x3d291c35	0.041286666
78	0xbbf89ebc	-0.007587282
79	0x3da9e93a	0.082964376
80	0xb9b8b33a	-0.0003522875
81	0xbd19e802	-0.037574776
82	0xbd84c9fe	-0.064838395
83	0x3c14691a	0.009058261
84	0x3c602532	0.013680743
85	0x3b278f01	0.0025567415
86	0xbc73eedb	-0.014888491
87	0xbfa487c2	-1.285393
88	0xbd2e2e2a	-0.042524494
89	0xbc18cc5b	-0.009326066
90	0xbbf99493	-0.0076165884
91	0x3bd32e56	0.0064447327
92	0xbb90ed5f	-0.004422828
93	0x3cee653e	0.02910101
94	0x3bf6875d	0.007523461
95	0xbcdc18be	-0.026867267
96	0xbc3f3751	-0.011670903
97	0x3d10282a	0.035194553
98	0x3c8da6ff	0.017291544
99	0x3ca24404	0.019807823
100	0x3c602866	0.013681507
101	0xbe54148b	-0.20710962
102	0x3b882643	0.004154952
103	0x3e4ef1e3	0.2020946
104	0x3eb575bb	0.35441384
105	0x3ca2e745	0.019885669
106	0x3b494487	0.0030711011
107	0xbb076757	-0.002066096
108	0xbb8fd5ab	-0.004389485
109	0xbb6accb6	-0.0035827584
110	0xbc20d6ab	-0.009816806
111	0xbc561daf	-0.013068601
112	0xbaeb0938	-0.0017931825
113	0x3d41ba78	0.04729697
114	0x3c289625	0.0102897035
115	0x3d2003bf	0.039066073
116	0xbdbfb7ee	-0.09361254
117	0xbb6f18ef	-0.0036483367
118	0xbb4fe2e4	-0.003172093
119	0xbdb37ce2	-0.08764054
120	0x3a363190	0.00069501344
121	0xbce52187	-0.027970089
122	0xbd107212	-0.035265036
123	0xbbd23522	-0.0064150253
124	0x3b1f0d1d	0.002426929
125	0xbba37c03	-0.0049891486
126	0x3f0cfee7	0.5507645
127	0xbd3df887	-0.046379592
