examples/catchment_models/training/runs/globe_basin_split_2404_220637/model_epoch005.pt (torch, 316229 bytes, 5 tensors)

lstm.weight_ih_l0 f4 [512, 23]
-0.14860971 0.2778058 0.14698133 0.19177021 0.028805425 0.44377208 0.3524273 -0.27050737
0.5133355 0.090936005 0.025630666 0.052321482 0.08921169 -0.21888475 0.09126207 0.5524963
0.12404091 0.30291775 -0.043609824 0.11707361 0.3978322 0.34285983 0.34817687 0.21153785
0.08521853 0.63398707 0.4912741 0.11083498 0.3842215 0.07077474 0.3099852 0.29429677
-0.2482074 0.40488952 -0.12808067 -0.22093076 0.20132405 0.45035928 0.2780915 -0.06446141
-0.046313588 0.055411782 -0.23053654 0.0675828 0.041979033 0.253497 -0.045174796 -0.071658425
0.19645739 0.11305796 0.15212642 -0.07343375 0.14094517 -0.022361223 0.1959527 -0.32580164
-0.12318778 -0.10170631 -0.29881805 -0.111766756 0.14919388 0.14093664 -0.14629406 -0.15445723
-0.01411394 0.06903782 0.006903224 0.009635615 0.18414952 0.030995052 0.39279944 0.12801784
0.050907318 0.09349782 0.40774256 0.5312204 -0.24378899 0.5589075 0.048371952 -0.016879855
0.11767308 0.1275205 -0.28117436 0.032239933 0.56464064 0.14675176 0.1915372 -0.004126205
0.19253728 0.41934937 0.30214942 0.26963326 0.09736424 0.3492701 0.62049407 0.5693621
0.094593346 0.2980993 0.26536614 -0.21372151 0.19622168 -0.1921027 0.66439104 -0.25659952
-0.2207758 0.24794465 0.60456616 0.48636973 0.27005136 0.13798335 0.37465972 -0.2743757
0.15347528 0.16370356 0.16446942 -0.034781575 0.09573102 0.029590769 0.09488529 -0.024964137
0.3199279 0.41207057 -0.120075956 0.45917103 0.29825628 -0.085757755 0.29219916 0.1683771
-0.21177883 0.026252262 0.51669633 0.34125456 0.3538472 -0.33629668 0.22869709 0.23797631
0.36068878 0.079146996 0.6555256 0.28735396 0.41710797 0.35342154 0.030289501 0.49663025
-0.5847034 0.3227619 -0.5074893 0.50465256 0.15038581 -0.25773442 -0.3229573 0.56111383
0.14314425 0.21911883 0.09370237 0.06811287 -0.017030673 -0.30347067 -0.051315 -0.12912251
-0.3316511 0.010570955 0.102362715 -0.08918962 -0.1818124 0.21795292 0.3735435 0.79430366
-0.412992 0.9484362 0.040436216 -0.24468024 0.10434805 0.13845846 -0.41495213 -0.062365014
0.6720295 0.16058286 0.3166667 -0.083672136 0.2456197 0.4271521 0.5068019 0.20516159
0.009620657 0.5161599 0.09958635 0.14588755 0.20751692 0.52329177 0.50116724 -0.415898
0.57237333 0.16462132 -0.2569687 0.08377277 0.3906188 -0.36190513 0.11882367 0.5830601
0.08338789 0.2848394 -0.027214464 0.109753154 0.4583776 0.5313091 0.20544216 0.023104137
0.23476416 0.68805057 0.4872759 0.105763376 0.40418643 0.37435526 0.04734717 0.40321374
-0.21768616 0.30909988 -0.2337751 -0.16466552 0.18459386 0.5650587 0.6887773 0.08221775
0.3501993 -0.050598226 -0.14438471 0.21568039 0.21012202 0.41785204 -0.10287449 0.34123948
-0.13540101 -0.069470175 0.19384797 0.295912 0.63235116 -0.28689402 0.56254804 0.12421279
-0.111694194 0.07875452 0.1602818 -0.31804723 0.15705809 0.7392311 0.26396468 0.29777947
0.09114362 0.13296525 0.52418554 0.47206414 0.28828508 0.12767734 0.19072826 0.4544174
00000000: 252d 18be 903c 8e3e 4682 163e 695f 443e
00000010: 5bf9 eb3c 1836 e33e 5a71 b43e f17f 8abe
00000020: f569 033f a83c ba3d 67f7 d13c 0d4f 563d
00000030: 9eb4 b63d 5323 60be 9ce7 ba3d 6670 0d3f
00000040: 2909 fe3d 0918 9b3e 37a0 32bd 4ac4 ef3d
00000050: aab0 cb3e 538b af3e 3d44 b23e 619d 583e
00000060: 0d87 ae3d fa4c 223f 4788 fb3e 73fd e23d
00000070: aeb8 c43e 59f2 903d 61b6 9e3e 11ae 963e
00000080: 152a 7ebe ae4d cf3e 9427 03be ac3b 62be
00000090: e427 4e3e 7e95 e63e 0262 8e3e 5804 84bd
000000a0: 51b3 3dbd 77f7 623d c511 6cbe da68 8a3d
000000b0: 35f2 2b3d 5cca 813e 3509 39bd a7c1 92bd
000000c0: 202c 493e ef8a e73d 07c7 1b3e 6f64 96bd
000000d0: ee53 103e e22e b7bc d3a7 483e 79cf a6be
000000e0: e049 fcbd 664b d0bd aefe 98be f8e5 e4bd
000000f0: 48c6 183e b251 103e 1cce 15be 092a 1ebe
00000100: 283e 67bc b363 8d3d 7134 e23b b3de 1d3c
00000110: b191 3c3e 56e9 fd3c 021d c93e 1c17 033e
00000120: 3184 503d c97b bf3d a2c3 d03e 0ffe 073f
00000130: d2a3 79be 9014 0f3f ab21 463d 9f47 8abc
00000140: 95fe f03d bc94 023e 16f6 8fbe 050e 043d
00000150: 4a8c 103f 1846 163e 5422 443e 1e35 87bb
00000160: 7e28 453e f6b4 d63e 54b3 9a3e 5f0d 8a3e
00000170: e766 c73d 88d3 b23e b3d8 1e3f b7c1 113f
00000180: 28ba c13d 79a0 983e 12de 873e d0d9 5abe
00000190: 56ee 483e 92b6 44be 8815 2a3f 0361 83be
000001a0: 0d13 62be 34e5 7d3e d9c4 1a3f 7405 f93e
000001b0: 2c44 8a3e 824b 0d3e 66d3 bf3e f97a 8cbe
000001c0: a028 1d3e e8a1 273e ac6a 283e 2077 0ebd
000001d0: a00e c43d 5768 f23c 3853 c23d 9781 ccbc
000001e0: 97cd a33e eafa d23e 62ea f5bd 7718 eb3e
000001f0: 0cb5 983e c3a1 afbd 219b 953e 0c6b 2c3e
00000200: 8ddc 58be fc0e d73c 3646 043f ebb8 ae3e
00000210: 762b b53e 142f acbe 922f 6a3e 10b0 733e
00000220: 33ac b83e d217 a23d 87d0 273f 0f20 933e
00000230: 2d8f d53e abf3 b43e b021 f83c 5246 fe3e
00000240: 1faf 15bf 0c41 a53e d2ea 01bf e930 013f
00000250: bdfe 193e c4f5 83be a95a a5be 28a5 0f3f
00000260: 6894 123e b060 603e 07e7 bf3d c37e 8b3d
00000270: e983 8bbc 8260 9bbe ad2f 52bd b138 04be
00000280: 2cce a9be cd31 2d3c 8ba3 d13d 0ca9 b6bd
00000290: 082d 3abe 0d2f 5f3e 1841 bf3e 7c57 4b3f
000002a0: b073 d3be b7cc 723f 72a0 253d 758d 7abe
000002b0: 6eb4 d53d 0ec8 0d3e 9b74 d4be 7572 7fbd
000002c0: 200a 2c3f d56f 243e 2322 a23e 4c5c abbd
000002d0: bb83 7b3e aeb3 da3e c5bd 013f e115 523e
000002e0: f69f 1d3c 0e23 043f eef3 cb3d 8c63 153e
000002f0: 517f 543e 73f6 053f 7f4c 003f 95f0 d4be
00000300: 0f87 123f 7e92 283e 6791 83be 0f91 ab3d
00000310: 30ff c73e a14b b9be d359 f33d 6d43 153f
00000320: 45c7 aa3d 78d6 913e def0 debc 43c6 e03d
00000330: 78b0 ea3e e003 083f 6e5f 523e e344 bd3c
00000340: 0466 703e 1524 303f 3a7c f93e 789a d83d
00000350: 86f1 ce3e 7eab bf3e 1bef 413d 0872 ce3e
00000360: 1fe9 5ebe 5742 9e3e bd62 6fbe 149e 28be
00000370: 2c06 3d3e b0a7 103f b653 303f c861 a83d
00000380: 534d b33e 1640 4fbd 96d9 13be 52db 5c3e
00000390: 3a2a 573e b4f0 d53e dcaf d2bd f1b6 ae3e
000003a0: 90a6 0abe 6146 8ebd 1580 463e c781 973e
000003b0: c4e1 213f c6e3 92be 2603 103f 4663 fe3d
000003c0: edbf e4bd 0d4a a13d ea20 243e 16d7 a2be
000003d0: d6d3 203e 403e 3d3f 6126 873e 8d76 983e
000003e0: 82a9 ba3d 0b28 083e 0631 063f 64b2 f13e
000003f0: 1a9a 933e d9bd 023e 454e 433e 66a9 e83e

lstm.weight_hh_l0 f4 [512, 128]
0.27213964 0.07419479 -0.07483314 -0.061532654 0.03337169 -0.10359459 0.21088797 -0.040494
0.18757513 -0.22353445 0.024671001 -0.15704505 0.021712743 0.047631692 -0.020650439 0.21413854
0.2154073 0.07484819 -0.16902003 -0.110090606 0.08106828 -0.20013146 -0.061003443 -0.047003992
0.19280757 -0.22096807 -0.056086265 0.1818519 0.17626393 0.0026737638 -0.31982815 0.15846944
0.101800635 0.07408073 0.18193118 -0.14665063 -0.18399632 -0.3274066 -0.113439076 -0.055514507
0.20608401 0.0045976937 -0.055907127 -0.12834397 -0.3492764 0.006750998 -0.41543746 0.25607264
0.05232907 -0.14681806 -0.35286838 -0.12202508 -0.3401696 -0.16980077 0.1403334 -0.34831223
-0.25008574 -0.22717406 -0.09014618 -0.09366598 -0.1479769 -0.14994097 -0.14048214 -0.38662773
-0.33901542 -0.2475767 -0.29361793 -0.19705543 -0.15872982 -0.03277261 -0.12114954 0.16218545
-0.37273014 0.1754431 0.17536329 0.13263611 0.06967889 0.2553843 0.37445775 0.027033446
0.1985989 -0.17306364 0.16707791 0.027118867 -0.095493406 0.26522496 -0.05586711 -0.07559912
0.14494087 -0.10539445 0.25272217 -0.34881514 0.091029294 -0.023822453 -0.048876774 0.06267662
-0.018727634 -0.039280754 0.10992801 -0.13041203 0.13533974 0.04965169 -0.19070885 -0.110475
0.065942146 -0.3697148 0.20277736 0.36181563 -0.19787899 -0.027835177 0.112523474 0.3571882
-0.34859386 -0.08415028 0.13666299 -0.10454334 0.16824245 -0.09283684 -0.10466433 -0.103341885
-0.16426384 0.13307473 0.10692911 -0.38354048 0.25246176 0.13570786 0.01061694 -0.22594966
-0.026979545 0.015982594 -0.05403425 0.12283791 -0.09254434 -0.057502616 0.094096795 -0.18815766
0.10585955 -0.13191278 0.13678361 -0.16683047 -0.12720467 -0.015015547 0.06722775 0.118775286
0.21884538 -0.02346725 -0.18225868 -0.1598225 0.206808 -0.3354921 0.08883623 0.05806624
0.11207862 -0.08829967 -0.2127898 -0.09921848 -0.019906526 -0.07358593 -0.2760189 0.0025566171
0.08084604 -0.018179271 0.30939162 0.15084791 -0.10583802 -0.13005781 0.10356701 -0.39535618
0.33615363 -0.052059103 -0.088226736 -0.19358803 -0.08603933 -0.0068248804 -0.17826171 0.30532563
-0.004859237 0.056712635 -0.14382398 0.03413253 -0.2025499 -0.053838056 8.947484e-05 -0.15073667
-0.078333884 -0.43054184 0.05103402 -0.06787693 0.08795786 -0.06629541 -0.15630734 -0.17265
-0.15798305 -0.15118127 -0.12749936 0.07310939 -0.17603858 0.035596967 0.024593841 0.3261995
-0.25777677 0.212474 -0.06477641 0.03240086 0.03335338 0.12280317 0.23485862 -0.081683986
0.33370903 -0.120225735 0.09714287 0.1925928 -0.16298896 0.16224411 0.060154982 -0.064616024
0.030519731 0.080505505 0.07073559 -0.17119713 0.20523025 0.014514042 -0.061908316 -0.013498758
0.1439441 0.005588529 0.021596527 -0.062136184 0.28947282 -0.123843744 0.12042834 -0.10347743
-0.010060319 -0.18546282 0.08212034 0.069607824 -0.067058586 0.037534315 0.15801056 0.2716676
-0.18774915 0.041095745 0.20359677 0.018507658 0.026438897 -0.09343941 -0.191513 -0.34239602
-0.17048799 0.31172302 -0.021572327 -0.30896056 0.071890935 0.23002379 0.01355658 -0.110513344
00000000: e355 8b3e 70f3 973d 1e42 99bd aa09 7cbd
00000010: c1b0 083d 6729 d4bd 04f3 573e 09dd 25bd
00000020: b213 403e 37e6 64be d71a ca3c 6bd0 20be
00000030: ecde b13c 7319 433d 1c2b a9bc 2247 5b3e
00000040: bb93 5c3e 024a 993d 9613 2dbe 2f77 e1bd
00000050: 2007 a63d 43ef 4cbe bfde 79bd 4287 40bd
00000060: 596f 453e 7445 62be b6ba 65bd 6237 3a3e
00000070: 887e 343e 503a 2f3b 84c0 a3be d045 223e
00000080: da7c d03d a3b7 973d 2b4c 3a3e 952b 16be
00000090: 8869 3cbe d6a1 a7be bf52 e8bd 2e63 63bd
000000a0: b007 533e 40a8 963b dffe 64bd 9a6c 03be
000000b0: 5bd4 b2be 7a37 dd3b 38b4 d4be f41b 833e
000000c0: 0257 563d 7957 16be 2aab b4be 49e8 f9bd
000000d0: b62a aebe 41e0 2dbe 8fb3 0f3e fb55 b2be
000000e0: 3d0b 80be 51a0 68be 8f9e b8bd f3d3 bfbd
000000f0: 4287 17be 208a 19be 8dda 0fbe 12f4 c5be
00000100: 6e93 adbe bf84 7dbe 1755 96be e6c8 49be
00000110: 128a 22be 933c 06bd 401d f8bd f113 263e
00000120: 7cd6 bebe 5ba7 333e 6f92 333e c3d1 073e
00000130: ceb3 8e3d bbc1 823e edb8 bf3e 3f75 dd3c
00000140: 835d 4b3e 9837 31be 7916 2b3e 6328 de3c
00000150: 0c92 c3bd 91cb 873e e9d4 64bd b6d3 9abd
00000160: 616b 143e 0cd9 d7bd cd64 813e e697 b2be
00000170: 916d ba3d 4e27 c3bc 0333 48bd 9a5c 803d
00000180: b26a 99bc dbe4 20bd f021 e13d bb8a 05be
00000190: 8096 0a3e 925f 4b3d 2e49 43be b840 e2bd
000001a0: ad0c 873d 424b bdbe dea4 4f3e e63f b93e
000001b0: caa0 4abe 9906 e4bc b572 e63d 5fe1 b63e
000001c0: e57a b2be fb56 acbd 62f1 0b3e d21a d6bd
000001d0: c047 2c3e 3e21 bebd 415a d6bd e9a4 d3bd
000001e0: c834 28be be44 083e a6fd da3d 6b5f c4be
000001f0: ab42 813e 00f7 0a3e adf2 2d3c 595f 67be
00000200: 3504 ddbc eeed 823c 0553 5dbd 7192 fb3d
00000210: e387 bdbd dd87 6bbd d2b5 c03d 67ac 40be
00000220: e4cc d83d 2514 07be 0111 0c3e 9bd5 2abe
00000230: f141 02be c503 76bc b4ae 893d 7540 f33d
00000240: 0119 603e 643e c0bc 05a2 3abe 82a8 23be
00000250: 7ac5 533e 9fc5 abbe c5ef b53d ded6 6d3d
00000260: 7a89 e53d 75d6 b4bd 92e5 59be 0f33 cbbd
00000270: 0313 a3bc 38b4 96bd 5952 8dbe eb8c 273b
00000280: 9c92 a53d b2ec 94bc 9468 9e3e e077 1a3e
00000290: 9bc1 d8bd e02d 05be f11a d43d 206c cabe
000002a0: 541c ac3e ed3b 55bd 38b0 b4bd f13b 46be
000002b0: 6335 b0bd 3fa3 dfbb 3d8a 36be a453 9c3e
000002c0: 3c3a 9fbb 824b 683d 9846 13be 8dce 0b3d
000002d0: 3e69 4fbe 4b85 5cbd 70a4 bb38 b75a 1abe
000002e0: 846d a0bd fb6f dcbe 0c09 513d 0f03 8bbd
000002f0: 4023 b43d e3c5 87bd 080f 20be 29cb 30be
00000300: 4fc6 21be 43cf 1abe 318f 02be 60ba 953d
00000310: 7543 34be 20ce 113d 0679 c93c 9f03 a73e
00000320: 51fb 83be c992 593e 7fa9 84bd c4b6 043d
00000330: 8e9d 083d 3a80 fb3d c77e 703e ef49 a7bd
00000340: e9db aa3e e938 f6bd d7f2 c63d 0c37 453e
00000350: 94e6 26be 5223 263e 1265 763d 6855 84bd
00000360: 8404 fa3c 12e0 a43d d2dd 903d 4d4e 2fbe
00000370: e127 523e 4ecc 6d3c 9393 7dbd e529 5dbc
00000380: 1566 133e fb1f b73b 33eb b03c 8382 7ebd
00000390: c835 943e caa1 fdbd 22a3 f63d faeb d3bd
000003a0: 09d4 24bc f7e9 3dbe b52e a83d 8c8e 8e3d
000003b0: 0356 89bd 95bd 193d 85cd 213e 0418 8b3e
000003c0: 5041 40be 0354 283d ac7b 503e 5f9d 973c
000003d0: 6396 d83c 295d bfbd fc1b 44be 884e afbe
000003e0: 6794 2ebe 299a 9f3e 73b8 b0bc 1430 9ebe
000003f0: 8e3b 933d 5b8b 6b3e 6b1c 5e3c d254 e2bd

lstm.bias_ih_l0 f4 [512]
-0.42675114 -0.50297385 0.07026734 -0.38677782 -0.42001873 -0.38881353 -0.048070148 -0.4779204
-0.57032365 -0.3789082 -0.5093041 -0.3038438 -0.91876656 -0.669727 -0.43922833 -0.55570066
-0.14954096 -0.5051304 -0.47005963 -0.19982506 -0.35891375 -0.05588813 -0.30098638 -0.56429064
-0.6305939 -0.34341517 -0.54075164 -0.40197372 -0.33141428 -0.40550256 -0.07209192 -0.3835815
-0.74045813 -0.65207314 -0.57451606 -0.48300385 -0.2006541 -0.19614334 -0.46790725 -0.29341584
-0.20615812 -0.3384861 -0.8097342 -0.43082199 -0.36668253 -0.6634787 -0.2818095 -0.029041031
-0.6327599 -0.7662501 -0.32773864 -0.46657303 -0.009243362 -0.43705025 -0.48729822 -0.32426825
-0.22289722 -0.40278575 -0.48052323 -0.76303434 -0.4423212 0.00817247 -0.6983101 -0.10217774
-0.056512944 -0.48815343 -0.32800195 -0.56961286 -0.22651117 -0.5446472 -0.53303796 -0.48376396
-0.20614849 -0.5018857 -0.60904163 -0.44139934 -0.8224624 -0.04778561 -0.48710388 -0.56095356
-0.03668684 -0.42006713 -0.19610834 -0.4374372 -0.42834127 -0.1384288 -0.62044966 -0.8530679
-0.34209672 -0.46760213 -0.21274409 0.051454287 -0.5328848 -0.65740967 -0.4105761 -0.48990393
-0.35220346 -0.6991794 -0.48011115 -0.61216885 -0.18181688 -0.5795116 -0.54305565 -0.809452
-0.59104985 -0.4748131 -0.19037451 -0.24435084 -0.4395927 -0.25982183 -0.5473259 -0.04534617
-0.28156543 -0.4393603 -0.43962494 -0.67048705 -0.43141574 -0.5112002 -0.4347356 -0.39452636
-0.06639871 -0.103106335 -0.47261024 -0.040742476 0.093459316 -0.12535983 -0.6492301 -0.37372836
-0.36575145 -0.35053232 -0.0060376693 -0.5911135 -0.4581982 -0.24108721 0.0312665 -0.2388341
-0.48359433 -0.15138939 -0.41090104 -0.30384588 -0.6583336 -0.07133672 -0.3906277 -0.4308481
-0.020167064 -0.22234051 -0.5963538 -0.32108063 -0.31697085 0.11100542 -0.1547503 -0.39847806
-0.4899733 -0.2694288 -0.51152927 -0.22053316 -0.3608026 -0.043185398 0.217006 -0.15163729
-0.50961626 -0.5901151 -0.47501665 -0.575102 0.016690388 -0.19448455 -0.39784124 0.1702064
0.043606132 -0.20808269 -0.58100146 0.2937122 -0.16974735 -0.46757632 -0.15151276 0.028300816
-0.68353224 -0.6759478 -0.19247086 -0.35891718 -0.24971582 -0.25374213 -0.4467296 -0.15856205
-0.14784756 0.0029323606 -0.5233097 -0.5390217 -0.47310147 0.1790132 -0.4561438 0.0301042
0.22388238 -0.25220758 -0.018347291 -0.25108078 -0.21758941 -0.5743348 -0.541495 -0.5564818
-0.2279864 -0.43663386 -0.56429285 -0.13687171 -0.3899138 0.06985829 -0.35427302 -0.4692444
-0.026601648 -0.7550419 -0.28531468 -0.45088783 -0.27250245 -0.1231411 -0.37629426 -0.7293769
0.08984215 -0.3018405 -0.23942518 0.15952024 -0.39391702 -0.47583875 -0.36806804 -0.20534731
-0.45337883 -0.449832 -0.527531 -0.27943143 -0.16454296 -0.61907136 -0.2544713 -0.60539913
-0.75230753 -0.37446463 0.0046699904 -0.18859991 -0.22477376 -0.032572865 -0.32707405 -0.015002477
-0.2748731 -0.07308786 -0.6301003 -0.598814 -0.26231351 -0.39567408 -0.2112728 -0.17834751
-0.23935439 -0.11201996 -0.6349222 0.10007199 -0.36846697 -0.19570595 -0.67055374 -0.36784753
00000000: 207f dabe e5c2 00bf 53e8 8f3d be07 c6be
00000010: b20c d7be 9112 c7be 34e5 44bd fcb1 f4be
00000020: bb00 12bf 4100 c2be c161 02bf 6a91 9bbe
00000030: 4934 6bbf 3b73 2bbf 89e2 e0be 6642 0ebf
00000040: 4421 19be 3a50 01bf a8ab f0be f19e 4cbe
00000050: 8bc3 b7be f4ea 64bd e31a 9abe 5a75 10bf
00000060: 9a6e 21bf 1dd4 afbe b36e 0abf 80cf cdbe
00000070: 22af a9be 089e cfbe eea4 93bd cb64 c4be
00000080: aa8e 3dbf 44ee 26bf 7c13 13bf 484c f7be
00000090: 4578 4dbe cdd9 48be 8a91 efbe 9a3a 96be
000000a0: 1d1b 53be 0d4e adbe be4a 4fbf b394 dcbe
000000b0: d0bd bbbe bdd9 29bf 5649 90be 75e7 edbc
000000c0: 8efc 21bf f728 44bf 5ccd a7be a9e2 eebe
000000d0: 7871 17bc 0dc5 dfbe 277f f9be 7d06 a6be
000000e0: 2b3f 64be ef39 cebe 2407 f6be 3856 43bf
000000f0: ed77 e2be d3e5 053c 73c4 32bf 9042 d1bd
00000100: 1e7a 67bd 3fef f9be dfef a7be 26d2 11bf
00000110: 8bf2 67be 006e 0bbf 2d75 08bf e9af f7be
00000120: 9718 53be 957b 00bf 27ea 1bbf 18ff e1be
00000130: e58c 52bf d8ba 43bd ae65 f9be a79a 0fbf
00000140: f144 16bd 0a13 d7be a0d0 48be c5f7 dfbe
00000150: 8c4f dbbe 48c0 0dbe cad5 1ebf a862 5abf
00000160: 4d27 afbe 8c69 efbe 96d9 59be bbc1 523d
00000170: 236b 08bf 004c 28bf 0837 d2be b0d4 fabe
00000180: 0354 b4be 6cfd 32bf 21d1 f5be 19b7 1cbf
00000190: 342e 3abe df5a 14bf b205 0bbf 3f38 4fbf
000001a0: 0b4f 17bf b41a f3be 89f1 42be 1b37 7abe
000001b0: 4b12 e1be 5e07 85be 8d1d 0cbf e8bc 39bd
000001c0: 5829 90be d5f3 e0be 8516 e1be 0aa5 2bbf
000001d0: 86e2 dcbe 04de 02bf aa95 debe 5cff c9be
000001e0: 0cfc 87bd 6a29 d3bd f8f9 f1be 95e1 26bd
000001f0: 9967 bf3d 545e 00be f233 26bf 5359 bfbe
00000200: c643 bbbe f978 b3be a4d7 c5bb 3753 17bf
00000210: f498 eabe 91df 76be 4d11 003d ed90 74be
00000220: ad99 f7be d205 1bbe 9f61 d2be b091 9bbe
00000230: 8d88 28bf fc18 92bd 5b00 c8be 1f98 dcbe
00000240: 6635 a5bc 3bad 63be a5aa 18bf ae64 a4be
00000250: 014a a2be cf56 e33d dd76 1ebe 5105 ccbe
00000260: c8dd fabe 92f2 89be 95f3 02bf 72d3 61be
00000270: 1ebb b8be 2ce3 30bd d236 5e3e ce46 1bbe
00000280: 3676 02bf c811 17bf 6235 f3be e239 13bf
00000290: 48ba 883c f526 47be d9b1 cbbe 964a 2e3e
000002a0: 589c 323d a113 55be 83bc 14bf 7261 963e
000002b0: 40d2 2dbe 2a66 efbe 2926 1bbe 1dd7 e73c
000002c0: f8fb 2ebf ea0a 2dbf 1517 45be fec3 b7be
000002d0: 81b5 7fbe 7dea 81be beb9 e4be 175e 22be
000002e0: 5a65 17be d92c 403b a0f7 05bf 53fd 09bf
000002f0: 5b3a f2be 3c4f 373e ae8b e9be 159d f63c
00000300: 6c41 653e 5a21 81be 0f4d 96bc a98d 80be
00000310: c2cf 5ebe 9b07 13bf 6b9f 0abf 9775 0ebf
00000320: 4475 69be 798e dfbe 7f75 10bf 1928 0cbe
00000330: c8a2 c7be dd11 8f3d 4663 b5be cd40 f0be
00000340: b3eb d9bc 6d4a 41bf c414 92be c5da e6be
00000350: 7185 8bbe 6731 fcbd a4a9 c0be 72b8 3abf
00000360: 29ff b73d d78a 9abe e02b 75be 4659 233e
00000370: 7eaf c9be 23a1 f3be 6a73 bcbe 9146 52be
00000380: 4521 e8be 6150 e6be 460c 07bf a311 8fbe
00000390: f37d 28be 767b 1ebf 104a 82be 70fb 1abf
000003a0: 3a97 40bf d4b9 bfbe b806 993b 5620 41be
000003b0: 182b 66be 206b 05bd 4076 a7be f3cc 75bc
000003c0: 2bbc 8cbe 17af 95bd 414e 21bf e04b 19bf
000003d0: f54d 86be cb95 cabe e657 58be bba0 36be
000003e0: 5119 75be b96a e5bd 438a 22bf 8bf2 cc3d
000003f0: b4a7 bcbe 2467 48be 69a9 2bbf 8356 bcbe

lstm.bias_hh_l0 f4 [512]
-0.45298254 -0.55109197 0.013288914 -0.48360786 -0.5482266 -0.42179066 -0.15706423 -0.37167066
-0.5713703 -0.47464153 -0.6119904 -0.3326826 -0.9940838 -0.6181609 -0.5099654 -0.57421386
-0.1104261 -0.41362137 -0.48485258 -0.25545657 -0.4869902 -0.055283528 -0.38128576 -0.5432186
-0.6548629 -0.39913836 -0.5855954 -0.40751192 -0.37498853 -0.40143004 -0.046039484 -0.41333154
-0.61682194 -0.65715444 -0.61132145 -0.49194914 -0.09853424 -0.20416886 -0.5798038 -0.4110876
-0.13834693 -0.32881173 -0.7780844 -0.3958565 -0.4310755 -0.6425019 -0.29285112 0.04765506
-0.58151364 -0.7836719 -0.32336536 -0.47722372 -0.054870613 -0.44353423 -0.5777322 -0.421744
-0.20646575 -0.38150454 -0.40778401 -0.6332899 -0.6032028 -0.09591622 -0.7914729 -0.09314332
0.040215388 -0.43735206 -0.24763964 -0.47888136 -0.2869841 -0.60322076 -0.47451288 -0.5233151
-0.101425335 -0.5835346 -0.6069159 -0.44867107 -0.75543934 -0.0870306 -0.35210985 -0.558231
-0.03126087 -0.52049595 -0.25855273 -0.44240245 -0.44913414 -0.1778166 -0.61819714 -0.8433473
-0.25444034 -0.5494123 -0.27512345 0.017053638 -0.5344328 -0.6081717 -0.34356475 -0.511393
-0.45401275 -0.6340469 -0.55285835 -0.6285821 -0.2953946 -0.4521936 -0.5222035 -0.74400073
-0.5717979 -0.41029614 -0.23262723 -0.17779055 -0.40833548 -0.35406014 -0.53668624 -0.08793611
-0.21058144 -0.4471281 -0.41798207 -0.66028404 -0.3855548 -0.43820605 -0.48191908 -0.4326063
-0.09730884 -0.17242159 -0.45477813 -0.10798955 0.20165966 -0.16030122 -0.8024181 -0.4608099
2.6349273 2.6042397 2.9638848 2.4595625 2.5684457 2.7450533 3.0811126 2.711444
2.4631948 2.834739 2.6765904 2.6931143 2.310442 2.9421449 2.6409917 2.5102878
2.940131 2.8600533 2.33065 2.7521255 2.6773865 3.0996692 2.7716517 2.5443273
2.545467 2.6664846 2.4828453 2.7539055 2.6737382 2.8985586 3.1405346 2.760337
2.5665162 2.3942358 2.4746761 2.4150617 2.9416885 2.7266848 2.5535479 3.0907776
3.010361 2.7894917 2.4950464 3.2204792 2.810405 2.5070744 2.788642 3.005067
2.3721492 2.3213415 2.8683803 2.5882077 2.7356746 2.709991 2.6236353 2.891718
2.773905 2.9346566 2.475049 2.5160153 2.5727391 3.135957 2.5092943 3.0003428
3.1794593 2.8355792 2.981919 2.6847134 2.7539048 2.403389 2.4412043 2.509404
2.8303432 2.4844494 2.4103053 2.8661299 2.5385368 3.0457 2.6400528 2.4952517
2.9956293 2.1729803 2.698767 2.4969094 2.6959443 2.8414693 2.574263 2.2739403
3.084254 2.671937 2.722437 3.1056633 2.607513 2.444044 2.6389964 2.7390292
2.6260564 2.5187073 2.4305623 2.6699255 2.8205516 2.404936 2.778756 2.3555543
2.3147953 2.5568943 2.96451 2.7485478 2.7303886 2.9363678 2.6636846 3.005472
2.7986932 2.9000676 2.2867615 2.3453093 2.6787148 2.68713 2.759499 2.785342
2.831219 2.8352847 2.380358 3.0118992 2.603763 2.7984092 2.330702 2.623431
00000000: 54ed e7be 5d14 0dbf bfb9 593c 739b f7be
00000010: 9458 0cbf f2f4 d7be 72d5 20be 9e4b bebe
00000020: 5345 12bf 3704 f3be 67ab 1cbf 6055 aabe
00000030: 477c 7ebf cb3f 1ebf 188d 02bf aeff 12bf
00000040: 1427 e2bd 2ec6 d3be 993e f8be 34cb 82be
00000050: c856 f9be fb70 62bd e337 c3be 6010 0bbf
00000060: 18a5 27bf dd5b ccbe 95e9 15bf 67a5 d0be
00000070: 7ffe bfbe 3d88 cdbe e693 3cbd 31a0 d3be
00000080: 0be8 1dbf 463b 28bf 907f 1cbf c2e0 fbbe
00000090: 52cc c9bd a411 51be 066e 14bf 137a d2be
000000a0: d1aa 0dbe 035a a8be 8a30 47bf b4ad cabe
000000b0: eeb5 dcbe 017b 24bf 95f0 95be f431 433d
000000c0: 14de 14bf b99e 48bf 2590 a5be ab56 f4be
000000d0: 02c0 60bd eb16 e3be 42e6 13bf d4ee d7be
000000e0: c26b 53be 9054 c3be 11c9 d0be 491f 22bf
000000f0: 806b 1abf b96f c4bd f89d 4abf edc1 bebd
00000100: e4b8 243d 9cec dfbe 3f95 7dbe f02f f5be
00000110: 94ef 92be ad6c 1abf 5af3 f2be faf7 05bf
00000120: 16b8 cfbd 8662 15bf d75e 1bbf 37b8 e5be
00000130: 7964 41bf 193d b2bd be47 b4be 3ae8 0ebf
00000140: 660b 00bd 393f 05bf 0661 84be 9382 e2be
00000150: e9f4 e5be 8e15 36be 2b42 1ebf 9ce5 57bf
00000160: 0146 82be 49a6 0cbf fbdc 8cbe 12b4 8b3c
00000170: 97d0 08bf 24b1 1bbf b8e7 afbe a7ea 02bf
00000180: 5c74 e8be e650 22bf 2088 0dbf c2ea 20bf
00000190: f63d 97be eb85 e7be 21af 05bf d576 3ebf
000001a0: 5961 12bf 5612 d2be d535 6ebe ba0e 36be
000001b0: 5911 d1be 5f47 b5be 4564 09bf d917 b4bd
000001c0: a9a2 57be f9ed e4be bf01 d6be 6008 29bf
000001d0: 7067 c5be 8b5c e0be 19be f6be 937e ddbe
000001e0: db49 c7bd 498f 30be aed8 e8be a029 ddbd
000001f0: df7f 4e3e 0126 24be 466b 4dbf 46ef ebbe
00000200: a6a2 2840 ddab 2640 4ab0 3d40 7969 1d40
00000210: 6a61 2440 f4ae 2f40 f330 4540 4c88 2d40
00000220: fca4 1d40 5d6c 3540 424d 2b40 fc5b 2c40
00000230: 48de 1340 1a4c 3c40 0206 2940 8ea8 2040
00000240: 1b2b 3c40 1d0b 3740 5f29 1540 d322 3040
00000250: 4d5a 2b40 fb60 4640 be62 3140 42d6 2240
00000260: eee8 2240 afa7 2a40 f0e6 1e40 fd3f 3040
00000270: 871e 2b40 fc81 3940 85fe 4840 5da9 3040
00000280: cd41 2440 293b 1940 1861 1e40 5f90 1a40
00000290: a044 3c40 0182 2e40 546d 2340 4dcf 4540
000002a0: c1a9 4040 0887 3240 d7ae 1f40 551c 4e40
000002b0: addd 3340 e873 2040 1c79 3240 0553 4040
000002c0: 4bd1 1740 dc90 1440 8b93 3740 32a5 2540
000002d0: 4b15 2f40 7e70 2d40 a4e9 2740 e811 3940
000002e0: a987 3140 6ad1 3b40 3467 1e40 6506 2140
000002f0: c2a7 2440 85b3 4840 4798 2040 9e05 4040
00000300: 437c 4b40 217a 3540 c3d7 3e40 58d2 2b40
00000310: fa3f 3040 20d1 1940 b13c 1c40 139a 2040
00000320: 5824 3540 3801 1f40 7142 1a40 ac6e 3740
00000330: 6377 2240 c0ec 4240 a0f6 2840 34b2 1f40
00000340: 64b8 3f40 1c12 0b40 99b8 2c40 5dcd 1f40
00000350: 5a8a 2c40 a2da 3540 bac0 2440 3d88 1140
00000360: 6b64 4540 0401 2b40 683c 2e40 30c3 4640
00000370: 7ee1 2640 386b 1c40 51e5 2840 414c 2f40
00000380: 4f11 2840 8032 2140 558e 1b40 0fe0 2a40
00000390: eb83 3440 79ea 1940 23d7 3140 67c1 1640
000003a0: 9b25 1440 28a4 2340 88ba 3d40 35e8 2f40
000003b0: b0be 2e40 73ed 3b40 cf79 2a40 a759 4040
000003c0: ca1d 3340 b59a 3940 4d5a 1240 8c19 1640
000003d0: 1070 2b40 f0f9 2b40 a29b 3040 0b43 3240
000003e0: b132 3540 4e75 3540 c957 1840 f5c2 4040
000003f0: 0ea4 2640 2319 3340 392a 1540 4be6 2740

head.net.0.weight f4 [1, 128]
-0.0035665797 -0.013644418 0.056640055 -0.044140507 -0.027955916 6.020877e-05 -0.0024520643 0.006052909
-0.037271075 -0.0260015 -0.019799925 0.0034201362 0.3479238 -0.025801936 0.09474237 -0.005776761
-0.026868349 0.031713486 -0.019824564 0.0029202364 0.013449298 0.00035709952 0.004123029 -0.020439172
-0.068095006 0.018898766 0.029546482 0.03504304 -0.019257171 0.011048985 0.0033438294 -0.008215619
0.12354042 -0.025766836 -0.026215997 -0.044785075 0.009870596 -0.040546045 0.082470596 0.0010219511
-0.02007655 0.03706917 0.18662885 -0.002525298 -0.068104535 -0.008784013 0.024267701 -0.0021308146
-0.016379746 0.22885299 0.003171226 -0.008532595 0.019299341 -0.00031427684 -0.011440868 -0.006594399
-0.010713144 0.0016541079 -0.012793115 0.044008307 -0.025244987 -0.006048003 0.017419985 0.009080458
-0.02995897 -0.011379226 -0.03207846 -0.02111819 -0.009464925 0.014088502 0.05092556 -0.012644898
0.00090942916 -0.11170886 0.12524913 -0.019903278 0.09732328 -0.0034563171 -0.026486387 0.0011105252
0.0031310662 0.0033940696 -0.07701376 -0.04500127 0.016524002 -0.019584421 -0.014514696 -0.14509544
-0.025577746 -0.032112587 -0.016226457 0.027548974 0.0011498381 -0.009799398 0.017264977 -0.0065590013
-0.009316053 0.010422942 0.0260676 0.03769463 -0.000572538 -0.040678747 0.0017413292 0.09972774
0.25734013 0.014646649 0.0011777304 0.0017712094 0.023018416 -0.045399662 -0.029975455 0.024601523
0.026805645 0.033297535 0.10065661 0.05307171 0.011495765 -0.03777789 -0.0059051784 0.016812824
-4.347931e-05 -0.026501652 -0.06759083 -0.001119131 0.021249827 0.012666791 0.1013021 0.009333566
00000000: 47bd 69bb d68c 5fbc 67ff 673d adcc 34bd
00000010: ce03 e5bc ad88 7c38 d0b2 20bb 7b57 c63b
00000020: 8ea9 18bd 1901 d5bc 7433 a2bc 5d24 603b
00000030: 1123 b23e 955e d3bc 4a08 c23d fc4a bdbb
00000040: 031b dcbc 00e6 013d 2067 a2bc 7061 3f3b
00000050: 725a 5c3c 1639 bb39 791a 873b 0d70 a7bc
00000060: 6575 8bbd 96d1 9a3c 770b f23c 4a89 0f3d
00000070: 37c1 9dbc cd06 353c 2624 5b3b ce9a 06bc
00000080: c202 fd3d f914 d3bc eec2 d6bc 8e70 37bd
00000090: 48b8 213c 9c13 26bd 58e6 a83d fdf2 853a
000000a0: 9477 a4bc d8d5 173d a21b 3f3e 787f 25bb
000000b0: 647a 8bbd d2ea 0fbc 0fcd c63c 23a5 0bbb
000000c0: d12e 86bc 7058 6a3e 58d4 4f3b 4ccc 0bbc
000000d0: a719 9e3c 86c5 a4b9 7a72 3bbc d415 d8bb
000000e0: 2f86 2fbc a7ce d83a 379a 51bc 0e42 343d
000000f0: 93ce cebc 542e c6bb 5bb4 8e3c 34c6 143c
00000100: 846c f5bc ef6f 3abc b464 03bd 0e00 adbc
00000110: c612 1bbc 76d3 663c 5297 503d 8c2c 4fbc
00000120: c266 6e3a 9dc7 e4bd 4f41 003e 330c a3bc
00000130: 6e51 c73d 6183 62bb fbf9 d8bc 0b8f 913a
00000140: 9332 4d3b 0a6f 5e3b 64b9 9dbd 4053 38bd
00000150: 585d 873c 826f a0bc 0ccf 6dbc e693 14be
00000160: 6c88 d1bc 7d88 03bd 59ed 84bc 63ae e13c
00000170: 2ab6 963a a78d 20bc 486f 8d3c e4ec d6bb
00000180: 5ca2 18bc fdc4 2a3c b88b d53c af65 1a3d
00000190: 6016 16ba c29e 26bd 503d e43a 0f3e cc3d
000001a0: 16c2 833e 80f8 6f3c 135e 9a3a ed27 e83a
000001b0: 1e91 bc3c fff4 39bd 168f f5bc 2289 c93c
000001c0: 8397 db3c ff62 083d 0e25 ce3d b961 593d
000001d0: bc58 3c3c fdbc 1abd 3a80 c1bb 0cbb 893c
000001e0: 8e5d 36b8 fe19 d9bc 106d 8abd ceaf 92ba
000001f0: 1e14 ae3c 5f88 4f3c 7a77 cf3d d0eb 183c
