examples/catchment_models/training/runs/globe_basin_split_2404_220637/model_epoch010.pt (torch, 316229 bytes, 5 tensors)

lstm.weight_ih_l0 f4 [512, 23]
00000000: f686 3fbe ed1b 053f b870 043e 3851 703d
00000010: 5772 793e 7e46 1c3f 356b 053f e659 a0be
00000020: 883b 203f 6061 303d 854a c6bd 9c24 1b3e
00000030: e933 793e 7520 92be 30e0 493d de62 303f
00000040: f930 443d 2da7 9f3e 6222 6ebd 52bb 9c3d
00000050: 811e fa3e 8100 013f 0677 903e 872e cb3e
00000060: 2ad6 f63d 0b59 2a3f 54a3 eb3e de68 1e3e
00000070: 1c13 be3e 4fe6 0a3d ba35 d63e f3d5 863e
00000080: d06a b6be bbb3 aa3e c783 5cbe 0b8c 7dbe
00000090: 1266 8a3e c21f f43e 8559 953e 5d5f 82be
000000a0: 3d58 30be 3d32 243e 6bdd cabe a1dc 48ba
000000b0: 15c2 4e3c cb9a 733e 3b6d 773d 19d1 89bd
000000c0: d024 2c3e 2d29 933d 7b64 8a3e 7ad1 e1bd
000000d0: 7417 563e 7c61 a2bd d4ab 973e 4b0f b8be
000000e0: f4ba bbbd 927a a7be 7346 c1be 4e4f b8bc
000000f0: 2890 873e 07b5 563e d067 cabe b6f5 f5be
00000100: f745 fd3d 1982 02bd 185d 9f3c 25aa 19be
00000110: 6bd0 8e3e 558c b5bc 968e c43e e4aa 093e
00000120: 714b 503d e23c e53d 1a37 a93e 6dea 413f
00000130: ee12 a7be 3eb7 553f 536a 373c f1ad 06bd
00000140: b362 9a3d ed59 853e b961 edbe ca1a b4bb
00000150: a097 4f3f d62e 4d3e a982 ac3e 1111 44bc
00000160: f0cd 693e 2105 1d3f fc09 0f3f 4909 aa3e
00000170: 71de d0bd 6a9b 493e d98c 683f b253 0a3f
00000180: 26d2 61bd 6448 f13e 2804 9d3e da55 d7be
00000190: 6263 493e 14c2 c0be c008 993f 1ad6 09be
000001a0: 5f3f b4be cbe4 cb3e 59d4 1d3f 24d0 8c3f
000001b0: a7e7 503d fc5d 883e c9e4 0b3f 50dd c1be
000001c0: 11e4 933c 48d1 e63e a749 2bbc 8b0c 313d
000001d0: 7b51 b03d c19f dc3d e725 b33d f806 52be
000001e0: c434 d53e 6106 7f3e d07a 8dbe 0122 cc3e
000001f0: 875d 003f 7e8f 1d3e 2d37 013f 055f c83e
00000200: 2992 09be c410 d53d d53c 443f 4511 1a3f
00000210: eb87 0e3f c389 a9be 3103 8d3e acb4 d43e
00000220: 9172 e63e e333 debc 43ae e53e 21a9 983e
00000230: 1f57 033f 6335 fd3e 5a9e 1a3e be67 533f
00000240: e61d 44bf c769 de3e 5fa4 22bf 8596 1f3f
00000250: 607c 073e 15e9 403d 5308 8dbe 14f6 453f
00000260: c9e3 493e 5a8c c43d c502 e33d 9c39 72bd
00000270: a16d f23d f785 dfbe a2d4 393e 4c07 f33c
00000280: b9c8 e4be 0dff e23d 4183 ef3e b6aa bbbd
00000290: 4009 4ebe 2738 9f3e cc94 c43e 7120 5d3f
000002a0: 6801 bfbe 00d9 8a3f 8b9f 093c bf8a 82be
000002b0: e777 c23d 20ee 273e df40 d3be 83d8 d2bc
000002c0: 5bbf 3e3f 5fcf 0a3e 4642 9f3e c2b0 c7bd
000002d0: cc67 763e e4d7 d83e 8112 043f 88d5 8d3e
000002e0: 951b cc3d abd6 2e3f f8f5 55ba 5c44 af3d
000002f0: 5ae2 a93e b5c0 1d3f 2955 173f f074 11be
00000300: d967 0d3f b5a3 613e 5d5f ddbe 8fdb 383e
00000310: c96b d33e e764 32be 5f96 223e 257c 173f
00000320: ead7 e7bd f925 653e ccf0 d5bd 3163 873d
00000330: 8d5e 063f a998 f53e 4074 ea3d 5764 2e3e
00000340: f9f9 b03d d6b7 573f cd57 1c3f 682c e53e
00000350: 1fc4 e43e ecd6 a93e 873a 1f3f 7795 be3e
00000360: 5527 a9be 39fc 983e 74dd d0be c0dc ffbe
00000370: 5d22 d93e 9d75 2b3f e98b 403f a15a 8a3e
00000380: 4001 163f 7149 23be f4db b5be 3c92 693e
00000390: 9480 a83c 74a4 c13e d2fe 07be a856 743e
000003a0: f420 06be b36e 04bd 408d ed3d f52c 663e
000003b0: e4ff 2a3f d496 b5be cf05 113f 3454 dcbc
000003c0: 5a83 95be e3e4 8f3c 9449 8d3e 47c0 a4be
000003d0: 1c7d 303e 7e9a 653f 3b2b dc3e 99b1 ae3e
000003e0: 150f 223e 7d64 f93d 07bd 0f3f 91cb 113f
000003f0: 0279 2b3e 45ae 403e 0624 183e 4bfe 163f
-0.18703827 0.51995736 0.12933624 0.058671206 0.24360023 0.6104506 0.5211671 -0.31318587
0.6259084 0.043061614 -0.09682182 0.15150684 0.24336208 -0.28540388 0.049286067 0.6890086
0.047898266 0.31182232 -0.05813826 0.07652916 0.48851398 0.50391394 0.28215808 0.39683935
0.12052567 0.6654212 0.46023047 0.15469691 0.37123954 0.033911046 0.41837865 0.26335105
-0.35628366 0.33340248 -0.21534644 -0.24760453 0.27030998 0.4768048 0.2916986 -0.2546338
-0.1722116 0.1603479 -0.39622054 -0.0007662271 0.012619515 0.23789518 0.060406905 -0.06729335
0.16810918 0.07185588 0.27029786 -0.110262826 0.20907384 -0.0792875 0.29623282 -0.35949168
-0.09166518 -0.327107 -0.3774906 -0.022498753 0.2647717 0.20967494 -0.39532328 -0.48039025
0.1236686 -0.031862352 0.01945357 -0.15006311 0.27893385 -0.022161642 0.38390034 0.13444096
0.050853197 0.11193253 0.33049852 0.7574833 -0.3263163 0.8348273 0.011194783 -0.032880727
0.07538357 0.2604517 -0.4636362 -0.0054963576 0.81090736 0.20037398 0.33693436 -0.01196696
0.22832465 0.6133595 0.5587461 0.3321021 -0.10198677 0.19688192 0.90839916 0.5403396
-0.055132054 0.47125542 0.30667233 -0.42057687 0.19666818 -0.3764807 1.1955795 -0.1346058
-0.35204598 0.39822993 0.6165214 1.100102 0.05100217 0.26634204 0.54645973 -0.3786416
0.018053086 0.45081544 -0.010454572 0.043224853 0.08609291 0.10772658 0.08747464 -0.20510471
0.4164182 0.24904777 -0.2763276 0.39869693 0.5014271 0.15386769 0.50474817 0.39134994
-0.13434662 0.104035884 0.7665532 0.601826 0.55676144 -0.33112916 0.27541497 0.41544092
0.45009282 -0.02712435 0.44859514 0.29816535 0.5130481 0.49454793 0.15099469 0.82580173
-0.7660812 0.43440077 -0.6353206 0.6233905 0.13231039 0.047097284 -0.27545413 0.7732861
0.197158 0.095970824 0.110845126 -0.05913697 0.11837316 -0.43656895 0.18147519 0.029666565
-0.4468439 0.11083803 0.46779826 -0.0916342 -0.20120716 0.31097528 0.38394773 0.86377627
-0.3730576 1.0847473 0.008399854 -0.2549648 0.09495526 0.16399431 -0.4126043 -0.025738006
0.74510735 0.13555668 0.3110525 -0.09750511 0.24063033 0.4235221 0.51590735 0.27701974
0.09966198 0.6829631 -0.00081619574 0.085579604 0.33180505 0.6162217 0.5911432 -0.14204764
0.55236584 0.22035106 -0.4323682 0.18052505 0.4129317 -0.17421304 0.15877675 0.59173805
-0.11320479 0.22377767 -0.10446319 0.06610716 0.52488023 0.47968033 0.11447954 0.17030464
0.086414285 0.84264886 0.61071473 0.44760442 0.4468088 0.33171785 0.6219868 0.37223408
-0.3303782 0.2987993 -0.40793955 -0.49973106 0.4240903 0.6697634 0.75213486 0.2702227
0.5859566 -0.15945984 -0.35519373 0.2280969 0.020569123 0.3782078 -0.132808 0.23861182
-0.13098508 -0.032332134 0.11599207 0.22478087 0.6679671 -0.35466635 0.5664949 -0.02689562
-0.29201776 0.017565196 0.27595198 -0.32177946 0.17235225 0.8968886 0.43001732 0.3411987
0.15826066 0.1217737 0.5614781 0.5695124 0.1674538 0.18816479 0.14857492 0.5898177

lstm.weight_hh_l0 f4 [512, 128]
00000000: 505d 9b3e 0b33 a73d 6571 4cbd 0a1f c6bd
00000010: 9a38 643d 4038 b7bd b958 7e3e 4f2f 5dbd
00000020: 71d1 e73d c104 92be 47d3 bdbd 5783 5dbe
00000030: 6aeb c03c 592f b53d 3ecb bd3c 3cd2 663e
00000040: 2093 843e 04ce 173e 5012 38be d9a6 87bd
00000050: 989c fa3d c28a bcbe f7d0 3cbe 0e0c debd
00000060: f87a 163e e6a3 3cbe 9803 d1bc 10b4 2a3e
00000070: cd22 d03d e364 2f3d ae2d c4be fe54 7c3e
00000080: 33fc 163e 553b 043e 7c30 3b3e 5627 5fbe
00000090: 0f1e 4abe 4524 91be 30ba 6fbd 762c 90be
000000a0: 907c 8f3e 0427 943d cd5a 0cbd 8771 02be
000000b0: b6a1 cbbe 7f0b d63a e42a c1be 9a4b d23e
000000c0: b7ca a53c e88b 09be e192 e5be 017f 51bd
000000d0: 2352 c3be 7729 91be 3f96 333e cbc9 b8be
000000e0: 3349 8fbe e4fe 8ebe 24eb e6bd 5d03 a3bd
000000f0: fbbb 27be 6d2f 6cbe b8e9 6dbd 0ef4 cabe
00000100: f035 c0be 16f5 b2be fc06 bfbe 83a5 a4be
00000110: af98 9fbe 89c3 b2bd 3cc9 4fbd e2f8 493d
00000120: 3d4a e6be f791 223e b094 373e 04d5 f53c
00000130: 9ce3 d13d 5f4d 813e 9b5d d83e 6718 3dbd
00000140: df0b 6e3e d33a 35be 8d8a 2b3e 9dc4 1c3d
00000150: 1e99 aebd 6da1 a43e 0495 aebd da20 b4bd
00000160: a4bc df3d f5c6 6dbe e581 a13e 95e3 aabe
00000170: 5dc1 d23d ca22 17bd fde0 99bd 323a 17bd
00000180: c223 43be c7a0 293c 935e 4e3e c4b5 18be
00000190: a628 aa3e 7fbc 93b9 e20f 2cbe 20a0 9cbd
000001a0: 6170 a73d f315 d4be cc90 d23e e743 023f
000001b0: 514c 6dbe 21ed 81bd b0e2 fc3d 7edd b03e
000001c0: ccfc d8be ae79 183c 81cd 443e 2a38 babc
000001d0: c0dd 4a3e c81d efbd a2c3 29be 44e8 82bd
000001e0: 48f3 cbbe f948 413e aed5 d63d 2e9e 1fbf
000001f0: 5c95 e63e a45f 0d3e 2c64 c53c 11a5 89be
00000200: a07b 0d39 8fba 2ebb 8345 89bb 85c9 a53d
00000210: 0c6e f5bd a58d 2bbd 1125 083e e437 5bbe
00000220: dc03 663d 37a4 23be e48e 0e3e 9bd3 7dbe
00000230: 81ea 0bbe 64a9 1b3d 29e1 0d3e 9c3d e53d
00000240: ac37 4b3e 7dce d03a 999a 17be 1b98 0ebe
00000250: fd76 2a3e 5148 eabe bcb8 903d 2af5 603d
00000260: 6746 d93d 2160 e8bd 1a09 42be 7634 c8bd
00000270: cb7f c33d c500 afbd 5a1f b1be 4d4b e43c
00000280: 22db 1a3e 41aa 0f3d 03af 933e b516 353d
00000290: 1b6d 51be a58f fdbd 6ae9 0d3e 75e0 8bbe
000002a0: a14b 9d3e 350c c0bb c43b 74bd d41c 75be
000002b0: ded8 15be 703f 0e3d 1ec6 2fbe 9b4c 983e
000002c0: 40e9 7cbc a263 a83d 2ca9 2cbe b5a6 ad3d
000002d0: 3916 72be 551e a5bd 8350 b43c 278a 16be
000002e0: 6bfa e2bd 0d42 aabe f453 563d 094d 30bd
000002f0: a024 cf3c bc4b 12be d8e6 e4bd c542 19be
00000300: 808b 42be 8be9 54be a652 f6bd 5fee 343d
00000310: 73d7 82be d2e1 903c 9623 213d 083c 903e
00000320: 0b6c a0be 7030 393e ee85 8fbd 0cba ddbd
00000330: 157e 983d b0fe e53d 672d a23e bd6f 8ebd
00000340: 5645 9e3e 7fd3 b1bd 55d4 603d 6ee2 1a3e
00000350: 9474 37be 31c5 243e 7aed 34bd fd77 cabd
00000360: 2620 54bd 897d 1e3d 76d5 ef3d b5e2 08be
00000370: 5fc4 723e 4f83 0c3d 4765 f4bd 5730 84bd
00000380: 48d5 023e 405a 263d 0eb8 9e3d 6a43 64bd
00000390: feb0 a73e f662 26be cd24 1c3e cba9 20bd
000003a0: 0ef8 3a3c b59f 20be 67ab c2bc e440 153e
000003b0: b57f 29bc f23c 543d 4bcf 423e ee83 793e
000003c0: 5089 32be 7d8a 0c3e d662 7d3e 4b4c bc3d
000003d0: ba3b 3d3d d272 5bbd 24de 8fbe f2ee acbe
000003e0: a678 b4be c930 a93e 1178 28bc cf86 eebe
000003f0: 3ce3 df3d 4e74 603e e8c8 9d3c 9aa6 f0bd
0.3034463 0.081640325 -0.04991283 -0.09673889 0.055718042 -0.08946276 0.24838533 -0.054000195
0.11319245 -0.28519252 -0.092688136 -0.21632133 0.023549754 0.088469215 0.023168202 0.22541136
0.25893497 0.14824682 -0.17975736 -0.066236205 0.12236899 -0.36824614 -0.18439089 -0.10842143
0.14695346 -0.18421897 -0.025514409 0.16670251 0.10162888 0.042820822 -0.383161 0.24641797
0.14744644 0.12913258 0.18280214 -0.21792349 -0.19738029 -0.28347984 -0.05852717 -0.2815892
0.2802472 0.07234004 -0.034266282 -0.1273862 -0.39771813 0.001633033 -0.37728035 0.41073304
0.020238264 -0.13432276 -0.44838622 -0.05114651 -0.38148603 -0.28351948 0.17537783 -0.36091456
-0.27985534 -0.2792884 -0.11275318 -0.07959626 -0.16380303 -0.23064966 -0.05808422 -0.39639324
-0.3754115 -0.3495261 -0.37310016 -0.32157525 -0.31171176 -0.087287016 -0.05072902 0.04930962
-0.44978514 0.15875994 0.17927814 0.0300088 0.10248491 0.25254342 0.42258915 -0.04616585
0.23246716 -0.17698221 0.16752072 0.038273443 -0.085252985 0.32154408 -0.08524516 -0.087953284
0.10924652 -0.23220427 0.31544414 -0.33376756 0.10290787 -0.03689841 -0.07513616 -0.036920734
-0.1905661 0.010353274 0.20153265 -0.14913088 0.33234137 -0.00028178465 -0.16802934 -0.07647729
0.081757315 -0.41422996 0.41126096 0.5088486 -0.23173644 -0.06344057 0.12347925 0.34543985
-0.4238037 0.009306354 0.19219019 -0.02273186 0.19811153 -0.11675602 -0.16578534 -0.063919574
-0.39834046 0.18875493 0.10489975 -0.6235074 0.45035827 0.13806015 0.024095617 -0.26883748
0.00013492862 -0.002666149 -0.0041891946 0.080950774 -0.119838804 -0.04188313 0.1329539 -0.2140804
0.056156024 -0.15980612 0.13921696 -0.24787752 -0.13663675 0.03800334 0.13855423 0.11193392
0.19845456 0.0015930679 -0.14805068 -0.13925211 0.16646953 -0.45758298 0.07066485 0.054921307
0.10609131 -0.1134646 -0.18948784 -0.09775631 0.09545859 -0.08545069 -0.34594232 0.027867937
0.15122655 0.035074476 0.2884446 0.04421111 -0.20451777 -0.12380914 0.13858572 -0.27319685
0.30721763 -0.00586083 -0.05962731 -0.23936778 -0.1463351 0.034728467 -0.1716542 0.29745945
-0.0154364705 0.082221285 -0.16861409 0.084790625 -0.2364129 -0.08062426 0.022011047 -0.14701138
-0.1108292 -0.33253518 0.052326158 -0.043042216 0.025286019 -0.14286703 -0.111768425 -0.14966877
-0.18998528 -0.20792215 -0.12027483 0.04417264 -0.25555 0.017685805 0.039340578 0.281708
-0.3133243 0.18084884 -0.07007967 -0.10826501 0.07445923 0.112302184 0.31675264 -0.06954906
0.30912274 -0.08682918 0.054889996 0.15125439 -0.17915565 0.16090848 -0.044171788 -0.09886167
-0.05178847 0.03869394 0.11710636 -0.13367732 0.23707722 0.034304913 -0.119333796 -0.064545326
0.12776673 0.040613413 0.077499494 -0.055728354 0.32752222 -0.16248688 0.15248413 -0.039224427
0.01141168 -0.15685923 -0.023763372 0.14575535 -0.010345389 0.051815934 0.19024388 0.24366733
-0.17435193 0.13724704 0.24744734 0.09194239 0.046199538 -0.053576298 -0.28099167 -0.3377605
-0.35248297 0.33045033 -0.010282532 -0.46587226 0.109320134 0.21919367 0.019260839 -0.11750527

lstm.bias_ih_l0 f4 [512]
00000000: a089 3abf a0f3 f8be 0fa4 ca3d cc5e f0be
00000010: b268 44bf bd1a 0dbf d03a 82be 32f6 fcbe
00000020: dcf7 33bf 6842 cbbe 2122 12bf 1f69 cfbe
00000030: 79c7 a3bf 0d64 8dbf 908d 3bbf 2124 3bbf
00000040: 6bab 25bf cd8b 0dbf 9c2c 0ebf 80ba 72be
00000050: 2408 ebbe 3e69 a13d 648b 36be 3683 2ebf
00000060: 9757 51bf 0c98 01bf 2d06 0fbf 8cdb 45bf
00000070: 62bf 3bbe 371e aabe 4366 14be 5665 c3be
00000080: 4e11 55bf 8040 57bf 317b 2abf c35d 23bf
00000090: 2ca1 9ebe bd83 433d adba 0fbf 3045 1abf
000000a0: aacc b4be 3c78 7fbe 47b7 67bf 9d49 38bf
000000b0: 9942 1abf 82a9 59bf 3eda 84be dd07 87be
000000c0: 2eda 24bf d1ba 84bf 1311 08bf fb7d 04bf
000000d0: 9c40 a4be e273 d9be df2f 1ebf c8a8 dcbe
000000e0: 3289 f9be ca7c 4ebf a40d 2fbf 89d4 95bf
000000f0: 1371 0dbf 0fcd ce3d b065 3bbf 015b 0fbf
00000100: ee6b c6be 8162 1ebf 29a5 abbe e8cc 00bf
00000110: b68c 5fbe f137 33bf b486 32bf 92d2 e2be
00000120: b357 debe 66ce 41bf 7f5f 59bf bd6d 27bf
00000130: e1c2 83bf 326f ddbe f593 27bf 3386 38bf
00000140: e00f d7be 68b2 27bf 5a53 e3be 48ce 0cbf
00000150: ad1f 10bf 2054 d6be 03e5 69bf 0cea 8abf
00000160: 1e0e 03bf 4654 1dbf 7152 31bd caab bd3d
00000170: ef07 18bf bea7 85bf b30e 06bf 7190 20bf
00000180: 30f1 02bf 90c4 48bf e29d 23bf 7057 67bf
00000190: 73f6 97be c863 4fbf 6d2d 38bf 0783 75bf
000001a0: e463 3abf 5a63 56bf 6be8 8cbe 88c5 c4be
000001b0: 3009 f8be 182b cebe a7b3 39bf e3f6 73be
000001c0: f683 e2be fd62 22bf babc 0dbf cee4 6dbf
000001d0: a897 06bf faa3 28bf ebac b8be 2260 08bf
000001e0: f116 24bd 595c e6be 7446 1fbf 3244 d2bd
000001f0: cc2a 8a3e 9079 7abe 844a 42bf 952f 04bf
00000200: 747b 24bf ac2f a9be 3503 893d f071 17bf
00000210: 368f 2dbf 5db2 8bbe aeb5 fa3d 716d dcbe
00000220: e73e 09bf 3be9 11be 910f c9be 5afb e0be
00000230: c99e 31bf 1258 433d 3049 00bf ab18 13bf
00000240: cce4 f1be fdc5 9abd d210 5cbf 13ef e8be
00000250: ea0c c4be 55a4 373e 7ef9 42be 2ba1 55be
00000260: 3dac 23bf 6ed7 b2be 2e83 13bf 0a0a f6be
00000270: 8bf6 87be 61ed 4b3d a9c0 843d 2c84 f6bc
00000280: de51 05bf 8138 35bf 4518 3ebf 20e4 82bf
00000290: 609e 063e 44d3 23be 1b38 0abf 7c81 d43d
000002a0: 09d8 97bb 1c94 173d 8a59 30bf 9767 c33d
000002b0: fc3a 7fbe 3fdb 45bf 6099 6dbe ebe8 09be
000002c0: 6a03 4abf de7f 61bf 303e d9be d053 c2be
000002d0: 8b2d d9be 7fc4 88be a01e 24bf ebf3 46be
000002e0: 5aa8 cbbe 4a16 ad3d 9fbb 30bf 6f01 56bf
000002f0: 8883 12bf 2af8 283d becd 0cbf f0cc 70be
00000300: b190 223e bca9 43be 5a26 883e 5e16 89be
00000310: 86fc d0be 25c1 32bf a85f 2ebf b19c 18bf
00000320: 9aeb 1ebf eba9 9fbe a4e6 69bf 5b49 4bbe
00000330: 061d d6be 35e5 9bbe d6f5 a1be b2a9 65bf
00000340: 2543 7fbe f223 71bf f39c dabe b43f 4cbf
00000350: 6a86 8cbe d59d 02bf 4c1b 0cbf 4adc 63bf
00000360: bfbd 293e 670c 8ebe 4347 923c 7125 763e
00000370: 86e8 d6be 5ac4 36bf cb21 08bf 6a0e 7ebe
00000380: 43dc c9be c10d 26bf 3876 1cbf bfd6 b8be
00000390: c2b1 58be f014 4cbf 5c4a acbe 97b4 2fbf
000003a0: f1e5 33bf aee5 4ebf 620c 7dbd f61c aabe
000003b0: a7d9 afbe 7d82 363e 394c 85be 799e 0ebe
000003c0: f2a4 f8be 44d7 79be f628 4fbf ffd7 25bf
000003d0: 3285 a2be da05 edbe 5d8a 1cbe 9b2e 2ebf
000003e0: 866f 91be 50d9 d4be 0dc5 31bf a0b1 8b3e
000003f0: 1a6d 8abe be5c c2be c2b9 82bf 47af 11bf
-0.7286625 -0.4862337 0.09894573 -0.46947324 -0.7672225 -0.55118924 -0.25435495 -0.49406582
-0.7030008 -0.396991 -0.57083327 -0.4050989 -1.2795249 -1.1046158 -0.7326288 -0.73102003
-0.6471469 -0.55291444 -0.5553682 -0.23703957 -0.45904648 0.078814015 -0.17826611 -0.6816896
-0.81774276 -0.5062263 -0.558688 -0.77288127 -0.18334725 -0.33226177 -0.14492135 -0.3816325
-0.8322953 -0.84082794 -0.66594225 -0.63814944 -0.3098234 0.047733057 -0.5614422 -0.6026182
-0.35312396 -0.2494821 -0.90514034 -0.71987325 -0.6025787 -0.85024273 -0.25947756 -0.26373187
-0.64395416 -1.0369512 -0.53151053 -0.5175473 -0.32080543 -0.42471224 -0.61791795 -0.4309752
-0.48737484 -0.80659163 -0.6838019 -1.1705486 -0.5525066 0.100977056 -0.7320204 -0.55998236
-0.3875422 -0.61869055 -0.33524445 -0.5031266 -0.2183102 -0.70007235 -0.6973679 -0.44301277
-0.43426284 -0.75705564 -0.8491134 -0.6540182 -1.0293847 -0.43248898 -0.6546014 -0.7207977
-0.420043 -0.655066 -0.4439953 -0.5500226 -0.56298333 -0.41861057 -0.9136507 -1.0852675
-0.51193416 -0.61456716 -0.043291513 0.09261282 -0.59387106 -1.0441816 -0.5236618 -0.627204
-0.5114927 -0.7842493 -0.63912785 -0.90367794 -0.29680213 -0.8101163 -0.71944314 -0.95903057
-0.7280867 -0.8374535 -0.2752107 -0.38431954 -0.4844451 -0.40267253 -0.7253975 -0.23824649
-0.44241303 -0.63432294 -0.553661 -0.92927253 -0.5257516 -0.6587521 -0.36069426 -0.5327169
-0.04006094 -0.4499233 -0.6221688 -0.102669135 0.26985776 -0.24460435 -0.7589495 -0.51635104
-0.64250875 -0.33044183 0.06690065 -0.5915823 -0.6779665 -0.27284518 0.12241684 -0.43052247
-0.53611606 -0.14249127 -0.3926969 -0.43941766 -0.6938291 0.047691412 -0.50111675 -0.57459515
-0.4724487 -0.075572945 -0.85963166 -0.454949 -0.38291103 0.17933781 -0.19040486 -0.20862262
-0.6393469 -0.34929985 -0.5762204 -0.48054534 -0.26555285 0.04978693 0.064820595 -0.030092321
-0.52078044 -0.70789343 -0.7425578 -1.0225868 0.13146353 -0.1599856 -0.5399186 0.1037626
-0.0046339077 0.037006482 -0.68886626 0.095412426 -0.24924845 -0.7728767 -0.23203039 -0.13467757
-0.7891146 -0.88085735 -0.42430258 -0.3795457 -0.4241756 -0.26712415 -0.6410923 -0.19428985
-0.3977688 0.08451517 -0.6903629 -0.8359594 -0.5723195 0.041252293 -0.5500144 -0.23515677
0.15875508 -0.19107717 0.2659176 -0.26774877 -0.4081766 -0.69825965 -0.6811471 -0.5961409
-0.6207825 -0.31184325 -0.91367555 -0.19852202 -0.41819018 -0.3044831 -0.3163287 -0.8971206
-0.24927957 -0.94195473 -0.42697868 -0.79784703 -0.274463 -0.5102208 -0.5472915 -0.8900801
0.16576289 -0.27743837 0.017856246 0.2403772 -0.41974276 -0.7139336 -0.53176564 -0.24810186
-0.3942586 -0.64864737 -0.6111789 -0.36101338 -0.21161559 -0.7971945 -0.33650482 -0.68634933
-0.7027274 -0.80819213 -0.061779387 -0.3322522 -0.34345743 0.17823215 -0.26034716 -0.1392764
-0.48563343 -0.24398524 -0.80921876 -0.6478271 -0.31742245 -0.46293527 -0.15287156 -0.68039864
-0.28405398 -0.41572046 -0.694413 0.27283955 -0.27036363 -0.37961382 -1.0212939 -0.56908077

lstm.bias_hh_l0 f4 [512]
00000000: e540 41bf 43cb 08bf 5fe5 2b3d 3ef9 10bf
00000010: c53a 65bf f18b 15bf 9a08 babe d48f c6be
00000020: 743c 34bf a845 fcbe 9c6b 2cbf 152d debe
00000030: 546b adbf 4eca 86bf 71a9 4dbf 69e1 3fbf
00000040: f5a7 1bbf 313d ecbe 35f6 11bf 4ed9 95be
00000050: 2f4d 16bf 38a6 a23d db62 84be 3c1e 29bf
00000060: 158e 57bf d3db 0fbf 0f81 1abf 7c46 47bf
00000070: 6f5e 68be 6c08 a8be ca71 f3bd bca0 d2be
00000080: af6a 35bf 828d 58bf 45e7 33bf 00a8 25bf
00000090: 57af 54be e1a4 223d ff5f 2cbf ed64 38bf
000000a0: a314 92be 6d90 75be 139d 5fbf 1756 2fbf
000000b0: a6be 2abf c64a 54bf 9a81 8abe 3386 3fbe
000000c0: bebb 17bf 98f5 86bf 79f2 06bf f437 07bf
000000d0: 649d bbbe c0c5 dcbe c756 35bf 4148 07bf
000000e0: 891f f1be 1b0a 49bf a56e 1cbf 1739 85bf
000000f0: 7da0 36bf c3ef 4bbb 353f 53bf e00a 0dbf
00000100: 11e5 94be 2461 11bf ee7f 82be 2d25 d3be
00000110: 7fbc 8ebe 9e36 42bf 1a8b 23bf 4912 f7be
00000120: 8bb9 a8be 57b5 56bf 2fd4 58bf 564a 29bf
00000130: f05c 76bf 1b87 f1be ef04 05bf c6d3 37bf
00000140: ad48 d4be df67 41bf 39a6 01bf a613 0ebf
00000150: 7772 15bf 797e eabe 6451 69bf 8dab 89bf
00000160: e13a d9be de45 32bf d468 d8bd bf70 6e3d
00000170: 636d 18bf 5db5 7ebf 26ce e9be a410 26bf
00000180: 0f01 1dbf 0a18 38bf 2c3d 36bf 198b 6bbf
00000190: 711d d2be 0acc 2ebf dcd6 32bf 9dc1 64bf
000001a0: 3276 35bf 0ddf 45bf 798a a2be efb1 a2be
000001b0: 7108 e8be e06a febe 5ffa 36bf acc9 8fbe
000001c0: f32b bebe 0360 24bf 8932 08bf 2448 6bbf
000001d0: 1bb4 f5be 70f4 15bf 8ad5 d0be 791f 12bf
000001e0: 4259 91bd b6ec 04bf dbb5 1abf b1fe 2dbe
000001f0: c690 c13e b920 8fbe d881 69bf 1a7a 1abf
00000200: 79ec 1640 33f5 2740 155b 4240 1661 1d40
00000210: 0851 1640 d1a6 2d40 0306 4b40 e243 2140
00000220: 0648 1a40 fefd 3540 5a77 2c40 e1ae 2340
00000230: a398 1140 53ea 4340 0df4 2140 a275 1740
00000240: c838 1f40 726f 4040 994f 0440 8791 2740
00000250: aa21 2740 5ec0 4a40 8a1a 2f40 0afd 2e40
00000260: 085a 1940 098b 2540 dec2 1a40 479c 1f40
00000270: d136 3140 4875 3f40 f740 3f40 dd70 3840
00000280: ca8a 2340 7bb1 1140 d341 0d40 66d9 fb3f
00000290: 3b9d 4340 94b6 3040 6f55 1a40 f58e 4140
000002a0: 1894 3d40 6536 4240 f6c7 1840 816b 4140
000002b0: 10c7 2e40 2dea 0c40 fd51 2d40 d3e4 3540
000002c0: 730f 1140 e073 0740 f2bc 2840 1153 2440
000002d0: c2ea 2340 cd95 2c40 4579 1b40 3cc8 3640
000002e0: cb88 2140 d009 4140 cfb5 1340 a405 0e40
000002f0: 144e 1e40 b7e2 3f40 9296 1a40 d00b 2f40
00000300: 7451 4740 fb63 3940 ee08 5140 4bc1 2a40
00000310: 870d 2440 88e2 1140 784c 1340 1610 1e40
00000320: e100 1c40 c9fd 2640 fbe5 0340 5b7d 3340
00000330: 5da8 2040 b3f7 2a40 a863 2b40 b24f 0440
00000340: c177 3140 9937 fe3f 17a7 2340 8398 0940
00000350: 0d6a 2c40 7914 1d40 01cf 1940 863f 0740
00000360: 2c40 4a40 af90 2c40 c5b3 3e40 01f0 4b40
00000370: f53a 2540 012e 0d40 466b 1e40 c38f 2c40
00000380: 39da 2b40 2879 1440 5533 1640 94a7 2540
00000390: e380 3140 0684 0e40 4497 2c40 1f93 1140
000003a0: bc51 1740 8be1 0740 db79 3940 b5b6 2640
000003b0: 6926 2740 3c6b 4940 aebe 2e40 4c65 3840
000003c0: 06a1 2540 5faa 2e40 a2e3 0640 4ff6 1240
000003d0: bde8 2740 00ac 2740 e157 3440 c321 1240
000003e0: aa56 3240 aa05 2240 6589 1440 a3d1 4b40
000003f0: a2eb 2c40 fc53 2740 ca6f fd3f f504 1b40
-0.75489646 -0.5343515 0.041966792 -0.56630313 -0.895428 -0.5841666 -0.36334687 -0.38781607
-0.70404744 -0.49271894 -0.673517 -0.4339377 -1.3548379 -1.0530488 -0.8033667 -0.74953324
-0.6080316 -0.46140435 -0.5701631 -0.29267353 -0.5871152 0.0794186 -0.2585667 -0.6606176
-0.84201175 -0.561948 -0.6035318 -0.77841926 -0.22692274 -0.32818925 -0.11886938 -0.41138256
-0.7086591 -0.84590924 -0.70274764 -0.6470947 -0.20770012 0.039708022 -0.6733398 -0.72029
-0.2853137 -0.23980875 -0.8734905 -0.6849074 -0.66697156 -0.82926595 -0.27052003 -0.18703537
-0.59270847 -1.0543699 -0.52713734 -0.5281975 -0.36643517 -0.4311962 -0.70835537 -0.52844626
-0.47094372 -0.78531045 -0.6110633 -1.0408047 -0.71338636 -0.003111825 -0.8251832 -0.5509472
-0.29081014 -0.5678885 -0.25488228 -0.412393 -0.27878186 -0.7586459 -0.6388413 -0.48256138
-0.32954058 -0.8387045 -0.84698766 -0.6612905 -0.9623556 -0.4717339 -0.51960653 -0.71807516
-0.41461697 -0.7554912 -0.5064426 -0.5549873 -0.58377784 -0.45799616 -0.9113982 -1.0755478
-0.42427734 -0.6963786 -0.105668694 0.05821299 -0.5954191 -0.9949549 -0.4566509 -0.6486914
-0.6132974 -0.7191168 -0.7118709 -0.9200912 -0.41038087 -0.6828009 -0.698591 -0.8935793
-0.70883477 -0.77293473 -0.3174627 -0.31776378 -0.4531894 -0.49690914 -0.71475786 -0.2808355
-0.37142906 -0.64209 -0.5320211 -0.9190695 -0.47988972 -0.5857611 -0.40787917 -0.57079273
-0.07097103 -0.5192369 -0.6043374 -0.16991688 0.37805766 -0.27954653 -0.9121375 -0.6034256
2.3581831 2.6243408 3.0368092 2.4590507 2.3486958 2.7133067 3.172242 2.5197682
2.410646 2.8436275 2.6947846 2.5575488 2.2749412 3.061177 2.5305207 2.3665547
2.4878407 3.006802 2.0673583 2.6182573 2.6114297 3.1679912 2.7359948 2.7341943
2.39612 2.586611 2.4181437 2.4939134 2.7689707 2.9915333 2.9883401 2.8818886
2.555346 2.2764575 2.2071426 1.967572 3.0564716 2.7611437 2.4114645 3.0243504
2.962164 3.03457 2.3872046 3.0221865 2.7308998 2.201793 2.7081292 2.8420913
2.266568 2.1164474 2.6365323 2.56757 2.5612035 2.696643 2.4292767 2.8559713
2.5239742 3.016224 2.3079717 2.2190943 2.4735155 2.9982126 2.41544 2.735096
3.1143465 2.8967273 3.26617 2.6680477 2.5633256 2.2794514 2.3015423 2.4697318
2.4375536 2.6092398 2.060912 2.804526 2.510276 2.6713684 2.6779575 2.0673642
2.7729342 1.9860717 2.5570734 2.1499336 2.6939728 2.4543746 2.4032595 2.1132522
3.1601667 2.6963308 2.9797223 3.1865237 2.5817235 2.2059329 2.4752975 2.6962745
2.6851943 2.3198948 2.346883 2.5883532 2.7734916 2.226808 2.6967325 2.2746046
2.3643637 2.123141 2.8980625 2.6049016 2.6117194 3.14717 2.7303882 2.8811827
2.587953 2.7291486 2.1076436 2.2962835 2.6235802 2.619873 2.8178637 2.2833107
2.7865396 2.5315957 2.320886 3.1846702 2.701882 2.614501 1.979974 2.4221776

head.net.0.weight f4 [1, 128]
00000000: 34b5 ca3d 736a 2f3d 5421 df3c 8bc7 30bd
00000010: 20ea dbbc b2ca b7bb 81eb c0ba 2658 b8bc
00000020: 8ddf 1dbd 452b 5038 3ca4 30bc 9a2a 203a
00000030: b099 2440 7ef7 14bc 51b1 923d b0a6 c3bb
00000040: ae41 75bd 075f cb3c 3f55 0d3d ae3e e13c
00000050: 449f 973c dea4 653a dee0 b1bc af5f e4bc
00000060: dd94 e8bd 60ea 073d e6f5 5b3c e747 8b3d
00000070: 5730 0bbc bf9c 1e3c 9349 f43a 155d 2fb9
00000080: 669d 723d c8f8 353c c63a 80ba 9db0 fbbd
00000090: d887 143c 898f c0bc 07f0 c03d 8d6f 97b9
000000a0: cf06 bd3b 0582 423b 725d 213e 870b 28bd
000000b0: 336d 18bc d575 c9bc d159 0e3d 2f07 4b39
000000c0: 8c39 b5bb 01d2 033f 55c0 e43a 3d39 f23c
000000d0: a15a f93c 80e1 9dbc 3a76 3dbd d0e4 d43c
000000e0: 914b 09bb 79f3 e73a 58a6 e1bd a7fc 083d
000000f0: 3c28 cbbd bdc0 0c3c ed73 323c 1667 133d
00000100: 28c4 3ebd 74b9 a5b8 2a95 6cbb 4526 0cbd
00000110: 7ed2 113c 4f26 02bd 6b4b 9f3d 5493 80bc
00000120: 7197 d03b 485b 95bd 3ba5 f33f b6b2 46ba
00000130: 03a4 873d f075 0f3c 5a0b 96bb bacd dd3d
00000140: 7e1d 803c 388a 04bb a18d 6dbb 5e34 1f3d
00000150: 6977 823c cd95 703b 4339 febb d662 32bf
00000160: 0f2f 95bc f280 a5bc 527d f3bb 459e b63a
00000170: b0ae 0dbc 43d1 063d 6159 b93c a735 ecbc
00000180: 88de 65bc 18c2 503d 42d5 e73c 12a6 c03b
00000190: 2218 d2bc f6cb f9bd e926 663b b89d e23d
000001a0: 272a 7e3e c287 9d3c 49c6 9d3a fac8 1cbc
000001b0: 128b 70bb a742 a3bb 5374 5fbc f85f 463c
000001c0: e928 673c bb37 1c3d 8f83 cd3c 46c2 353d
000001d0: 0b1e 9abc 6af1 01bc 4885 ca38 6447 0bbd
000001e0: 889d 19ba 0074 093d e5db 53bd 8b23 86ba
000001f0: 7f5b 963b feb1 9cbc 1d73 a33e 5672 bebc
0.09897843 0.042826127 0.027237572 -0.04315905 -0.026845038 -0.00560888 -0.0014718623 -0.02250297
-0.038543273 4.9631362e-05 -0.010781344 0.0006109864 2.5718803 -0.00909221 0.07162727 -0.0059707984
-0.05987709 0.024825586 0.034505125 0.027495708 0.018508561 0.0008760224 -0.02171367 -0.027877657
-0.113565184 0.0331825 0.013425326 0.06800824 -0.008495412 0.009680926 0.001863765 -0.00016723976
0.059232138 0.011106677 -0.0009783141 -0.12289546 0.009065591 -0.023505943 0.094207816 -0.00028884076
0.005768634 0.0029679548 0.15758303 -0.04102662 -0.009303379 -0.02459232 0.034753624 0.00019362265
-0.0055305418 0.51492316 0.0017452339 0.029568309 0.030438723 -0.019272566 -0.046255328 0.025988013
-0.0020949582 0.0017696462 -0.11018056 0.033444073 -0.099197835 0.008590874 0.010891897 0.035986982
-0.046573788 -7.9023564e-05 -0.003609965 -0.034216184 0.008900283 -0.031774815 0.07778057 -0.015695252
0.0063657095 -0.07292801 1.9034799 -0.00075797306 0.0662308 0.008756146 -0.00457899 0.10830255
0.015639063 -0.0020223986 -0.0036247747 0.0388683 0.01592608 0.0036710382 -0.007758291 -0.6968206
-0.018210916 -0.020203087 -0.007430711 0.0013932666 -0.008647606 0.03291441 0.022625627 -0.028834177
-0.014030106 0.050966352 0.028299931 0.005879172 -0.025646273 -0.121971056 0.0035118407 0.11065239
0.24820767 0.019229773 0.0012037243 -0.009569401 -0.0036703986 -0.004982311 -0.013638574 0.012107842
0.014108875 0.038139086 0.025087146 0.044374727 -0.018813154 -0.007931093 9.656936e-05 -0.03400363
-0.0005859961 0.03355789 -0.05172338 -0.0010233981 0.004588544 -0.019127842 0.31923762 -0.023247879
