examples/catchment_models/training/runs/globe_time_split_2004_135301/model_epoch004.pt (torch, 316229 bytes, 5 tensors)

lstm.weight_ih_l0 f4 [512, 23]
000000 4d 34 c5 3d b5 23 fa 3d dd 54 3e 3d 2e 65 20 3e
       0.09629116 0.12213842 0.04646765 0.15663597
000010 45 3e e5 3d a0 84 01 3e 1b 0a 88 be 37 0a 89 3e
       0.111935176 0.12648249 -0.2657021 0.26765606
000020 57 e7 68 be b9 10 0a 3d ef be 7f 3e ba c8 42 3c
       -0.22744499 0.033707354 0.24975179 0.011888677
000030 a2 94 89 be 40 22 b7 bc 2b 84 83 be b7 73 8c be
       -0.2687121 -0.022355199 -0.25686774 -0.27432033
000040 e4 39 a1 be 33 fd 1e bd ce 7d 41 be 20 8f ad bd
       -0.3148948 -0.03881569 -0.18895647 -0.084745646
000050 5c 5f c7 3c 60 44 0e be a3 66 cf bc bf e3 38 be
       0.024337463 -0.1389327 -0.025317496 -0.18055628
000060 c6 7b 05 3e c2 c0 2f be 2b 18 a2 be 78 bc 02 38
       0.13035497 -0.17163375 -0.31659064 3.116994e-05
000070 02 7c 10 3f 42 b8 c3 3e d2 4c 33 bf 52 4c 16 3f
       0.5643922 0.38226515 -0.70039093 0.58710206
000080 3a 3f 7d 3e 62 d0 79 be f3 a4 25 3e 95 23 1d 3f
       0.2473115 -0.24395898 0.16176204 0.6138242
000090 0b 1e 38 bf 69 92 95 be 99 d8 a7 3e e9 1c dd 3d
       -0.7192084 -0.29213265 0.32782438 0.1079653
0000a0 34 29 74 3e 62 96 07 3f b6 c1 35 be 62 32 00 3f
       0.23843843 0.5296384 -0.17749676 0.5007688
0000b0 5f 95 ff 3e 23 7a b3 3e f9 51 52 3e a0 72 99 3d
       0.4991865 0.3505412 0.20539083 0.07492566
0000c0 b6 70 a8 3e c7 d6 c3 3e 42 21 7f bd b9 43 70 3d
       0.32898492 0.382498 -0.062287576 0.058658335
0000d0 63 14 e3 be 42 3a a6 3e dd 99 15 bf 33 8a 80 3d
       -0.4435149 0.32466322 -0.584379 0.062763594
0000e0 17 65 cd 3d 5a 81 59 3e 3c ee 44 be 61 b2 69 3e
       0.10029047 0.2124075 -0.19231504 0.22821952
0000f0 f6 d9 e2 3d 1d f2 a1 be e6 47 23 bd ed 80 84 bc
       0.11076729 -0.3163003 -0.03986349 -0.016174758
000100 7c 20 86 3e 8e c4 cc be 55 56 dd bd b3 9c 51 be
       0.2619666 -0.3999371 -0.10807482 -0.20469932
000110 ca d9 85 be 54 35 27 3b 66 ef 9f 3e b0 32 88 3e
       -0.26142722 0.0025513964 0.31237334 0.26601171
000120 a2 72 f2 3d 7c 60 ce bd 96 cd b8 3e 1f 54 e4 3e
       0.11838271 -0.10076997 0.3609435 0.4459543
000130 d4 95 0e bd 25 3f a4 3e 35 04 e0 bd a6 9a 49 3e
       -0.034810856 0.32079425 -0.109383024 0.196879
000140 83 3c d2 3c 1b e7 56 bd d7 b3 53 bd 85 8a 8c 3e
       0.02566362 -0.052466493 -0.05168518 0.27449432
000150 63 c5 dd 3e 0c 84 cf 3d 27 55 03 3e ad c1 1e 3e
       0.43314657 0.10132608 0.12825452 0.15503569
000160 54 8d 00 bc 06 37 89 3e b1 fa 84 3e 92 0e 97 3e
       -0.007846195 0.26799792 0.25972512 0.29503304
000170 3c d8 8b bd b9 25 8b 3e e7 87 d7 3d 92 24 13 bc
       -0.06828353 0.27177218 0.10523968 -0.008980887
000180 5a f7 ba 3d 03 dc 13 3f d0 6d 31 3f 0a a7 7e be
       0.0912921 0.57757586 0.69308186 -0.24868408
000190 60 27 2f 3f 4c 43 ef 3b b7 f6 0c be 77 a3 69 3d
       0.68419456 0.0073017236 -0.13765989 0.057040658
0001a0 ed 56 47 3d 75 86 53 be e7 fe bc bb 5c f7 43 3f
       0.048666883 -0.2065676 -0.0057676914 0.76549315
0001b0 bd eb 8c 3e f5 ca 93 3e 8a f4 b9 bd 36 a4 24 3e
       0.27523604 0.2886578 -0.09079845 0.16078267
0001c0 9e d8 f0 3e 7b b7 eb 3e 66 ec 15 3e d3 05 18 3f
       0.47040266 0.46038422 0.1464096 0.5938389
0001d0 80 d8 86 3e 54 30 ce 3e 0b d3 16 3f 20 0a 93 3e
       0.2633705 0.40271246 0.58915776 0.28718662
0001e0 60 18 b0 3e 6b a3 8b be f1 20 13 3e ba ca 4e be
       0.34393597 -0.27273116 0.14368035 -0.20194522
0001f0 f6 67 7c 3e 4c b2 22 3c c3 d5 4b 3e b2 04 87 3d
       0.24649033 0.009930205 0.19905762 0.065926924
000200 ff 80 19 3e 98 9f d4 bd a4 db 35 be 6a 5b 15 3e
       0.14990614 -0.103820026 -0.17759567 0.14585653
000210 bc 32 af 3d 55 84 bd bb ed e2 ce bd c6 76 8f bd
       0.08554599 -0.0057835975 -0.101018764 -0.07005076
000220 5a 61 09 bb fb 05 4c be 5b e2 08 3f cd 71 f7 3d
       -0.0020962567 -0.19924156 0.5347039 0.12082253
000230 02 23 75 3e c0 f9 03 3e 08 76 69 3e c4 cf a5 3e
       0.23939136 0.12888241 0.22798932 0.32385075
000240 f9 5a 3e 3e 7b be 0a 3d 89 ce 2f 3e fe 59 d2 bd
       0.18589391 0.033873063 0.1716863 -0.10271071
000250 02 7d 7d 3e 26 fe eb be af a9 2c be 75 ff c3 3e
       0.24754718 -0.46092337 -0.16861604 0.38280836
000260 54 c8 2d 3f f5 32 08 3f 0c e9 85 3d 71 55 b5 3c
       0.678838 0.53202754 0.06538591 0.022135468
000270 f9 5d 81 3e 78 8a 88 be a8 63 f5 3d 65 cb 23 bd
       0.25267008 -0.26668143 0.119818985 -0.039988894
000280 f5 8d 47 3e 45 a8 6b 3d 55 c7 1f 3e 99 5d d1 3d
       0.19487746 0.05753352 0.15603383 0.102229305
000290 94 78 f2 bc 3a 7c c9 3d 0d 1d da 3e c1 bb 30 3f
       -0.029598512 0.098381475 0.4260029 0.6903649
0002a0 b0 78 68 be 8a b7 58 3f 02 68 32 bc f0 d8 bf bb
       -0.22702289 0.8465506 -0.010889055 -0.0058547184
0002b0 5c e9 91 3c 42 72 69 3e 4c 76 a2 be 56 ab 3b 3d
       0.01781147 0.22797492 -0.31730878 0.045817696
0002c0 4a 56 19 3f fc 9d ae 3d a4 3e 95 3e a2 6f e4 3a
       0.5989729 0.08526227 0.29149354 0.0017428289
0002d0 b9 56 29 3d 79 ee d3 3e c4 3f fc 3e 7f 29 43 3e
       0.04134247 0.41392878 0.492674 0.19058798
0002e0 5b 60 99 3d 59 0d e2 3e 74 e4 ca 3b 2f 2a f9 bd
       0.074890815 0.44150808 0.0061917845 -0.12166249
0002f0 f5 02 ac 3e d6 6b a7 3e 7e 95 16 3f f5 37 04 bf
       0.33596006 0.3269946 0.58821857 -0.51647884
000300 39 09 5b 3f 8b 01 19 3e 29 3e 5a 3d 31 70 17 bc
       0.8556095 0.14941995 0.053281937 -0.009243057
000310 84 84 00 3c 35 09 6f be 57 d0 26 3e 43 a1 3a 3f
       0.007844094 -0.23343356 0.16290413 0.72902316
000320 fd 40 49 bb e6 78 ea 3d c1 36 8d bd 27 14 40 3e
       -0.0030708902 0.11448841 -0.06895209 0.18757688
000330 49 47 f9 3e 6e b9 d4 3e 0f 2b 9a 3e 60 19 00 bc
       0.486872 0.41547722 0.30110976 -0.00781855
000340 93 78 a4 3e ca 9d a6 3d 46 0a 84 bc 8b 69 e1 3d
       0.3212324 0.081355646 -0.01611818 0.11006459
000350 a6 42 df 3e 06 a8 0c 3f 37 43 84 be 25 cf 41 3f
       0.43605536 0.54943883 -0.2583253 0.757067
000360 50 a9 df 3d c5 4e 10 be 49 7e 98 3d e8 78 3a 3e
       0.10920966 -0.14092548 0.07445962 0.18210185
000370 8c 8b 94 be 65 bf 24 bd 4f a7 3b 3f 59 6b 21 3e
       -0.29012716 -0.04022159 0.7330217 0.15763606
000380 f0 bd 90 3e e9 d7 3f be d9 82 de 3d ea 77 86 3e
       0.2826991 -0.18734707 0.10864801 0.26263362
000390 6f 5d cb 3e cf c6 2e 3e ed 8b 5f be 18 f6 e6 3e
       0.39719722 0.17068027 -0.21830721 0.4510963
0003a0 ce 24 3d be 2f 7b 4a be da ff d2 3d 75 50 c5 3e
       -0.18471071 -0.19773553 0.10302706 0.38537946
0003b0 20 6e 11 3f c2 c3 b3 3b 4e a8 eb 3e b0 ba a2 3d
       0.5680866 0.0054859826 0.46026844 0.07945764
0003c0 e3 2a 08 be 12 33 a1 3c 1d d2 42 3e c6 66 2d be
       -0.1329761 0.019677673 0.19025464 -0.16933736
0003d0 d6 64 8b 3e e2 70 40 3f d6 76 80 3d 5f be cc 3d
       0.2722537 0.75172246 0.06272666 0.09997248
0003e0 f3 bc cf bd f3 99 d2 3d 5e ee fa 3e d4 c3 c5 3e
       -0.10143461 0.1028327 0.49009985 0.38625968
0003f0 ea 2a 49 3e 79 42 a3 bc 3c 65 6a 3e e6 a3 45 3f
       0.19645277 -0.019929158 0.2289018 0.77203214

lstm.weight_hh_l0 f4 [512, 128]
000000 68 89 65 3d 98 0d 9a bd d0 0e 15 be 42 03 0f be
       0.056039244 -0.07522124 -0.14556432 -0.13966087
000010 2c a9 a2 3c 04 3e 16 be cc 21 0a 3e c3 11 ec 3d
       0.019856058 -0.14672095 0.13489455 0.11526825
000020 f5 da 48 3e 6c 53 56 bb 98 71 1e be 80 82 83 bd
       0.19614775 -0.0032703532 -0.1547302 -0.06421375
000030 5d f0 15 bd bc ad a2 bc 5e 3d af bd e1 70 d8 bd
       -0.03660618 -0.019858234 -0.08556627 -0.10568405
000040 0d 10 18 3c bf 52 9d 3e 3d 20 8e bd 30 24 59 bd
       0.009281171 0.30727193 -0.06939743 -0.053013027
000050 26 39 99 be 98 ce 78 bd 8f 39 6d 3d a3 e3 ff 3b
       -0.29926413 -0.0607439 0.05791622 0.007809119
000060 78 b9 93 ba 2f b9 bb bd 46 0f ff bb df 57 04 3e
       -0.0011270484 -0.0916618 -0.007783803 0.12924145
000070 ed 9f 2a 3e 29 aa 6c be 91 80 01 be 96 36 8f 3d
       0.1666257 -0.23111786 -0.126467 0.06992833
000080 5b d9 e6 3d 09 6e f3 3c d3 48 63 bd d3 a0 f6 bc
       0.11271926 0.029715555 -0.055489372 -0.030105984
000090 0b b4 58 3e 7b d4 fa bc fe 05 28 be 61 14 49 be
       0.21162431 -0.030618897 -0.16408536 -0.1963668
0000a0 40 30 c1 3d 84 18 03 3d c2 62 93 3d 91 47 9c bd
       0.09433031 0.0320058 0.07196571 -0.07630838
0000b0 8c 56 35 3d 00 39 a2 bd ac 35 d9 bd 71 01 75 3d
       0.04427199 -0.07921028 -0.1060594 0.059815828
0000c0 9f 9e 93 3d ef a8 02 bd 33 df 37 be 31 09 26 bd
       0.07207989 -0.03189939 -0.17956237 -0.04053611
0000d0 6c 00 ca bd 11 06 5e bc dd 71 02 be 67 11 05 be
       -0.09863362 -0.013551251 -0.12738748 -0.1299492
0000e0 77 f2 69 3b 11 b1 70 3e 95 54 9d bd a5 d2 2f 3e
       0.0035697499 0.23505045 -0.07682148 0.17170198
0000f0 cc a6 94 bd 29 d7 7a be 66 a1 1c be 2c 81 b1 bd
       -0.072583765 -0.2449614 -0.15295944 -0.08667216
000100 c3 21 ed 3d 27 24 54 bd bc 4f 4d be 7c dd 9f 3b
       0.11578705 -0.05179229 -0.20049948 0.004878698
000110 1a 46 37 3e 02 30 b0 3d 77 0e 25 be 72 74 bb 3d
       0.17897835 0.08602907 -0.16118799 0.091530696
000120 92 6c 2e bc 6b 1a a6 3d e7 f6 a0 bd eb 37 9b 3d
       -0.010646002 0.081105076 -0.07859593 0.07579025
000130 6e 0a a0 bd 4f d1 68 3e f7 38 3f bd 0c 56 3c 3e
       -0.07814489 0.22736095 -0.046685185 0.183922
000140 a3 f4 6f 3d f5 b5 45 bb 32 3c cf 3c 98 57 00 3e
       0.058582913 -0.003016827 0.025297258 0.12533414
000150 bf 21 65 be 4f 16 57 3e a9 b1 07 be 47 66 8e 3d
       -0.22376154 0.21004604 -0.13251366 0.069531016
000160 08 29 2a 3e f0 06 ba 3d 89 90 12 3c 89 91 25 be
       0.16617215 0.090833545 0.008945593 -0.16168799
000170 f5 c7 f5 3c 1b d8 6e bd ff 61 1f 3b 6b f0 3a 3e
       0.030002574 -0.058311563 0.0024319885 0.18255775
000180 7c 9c 24 3d 3b 1d f3 bd 5f 95 d0 bb 36 ca ce bd
       0.040188298 -0.1187081 -0.0063654627 -0.100971624
000190 17 20 bc b6 4e c3 5c 3e 57 ba 35 bd 79 89 ea 3d
       -5.6065724e-06 0.21558878 -0.04436716 0.11452002
0001a0 63 3b 23 3d 42 f2 a1 bd ce 28 a0 3d ee 9f 19 3e
       0.039851557 -0.07907535 0.07820283 0.15002415
0001b0 9c a1 b0 bd 93 7f 0f be ec 52 df 3d 02 6b 81 3d
       -0.086245745 -0.1401351 0.10904488 0.06319238
0001c0 69 36 8c 3b 6e 01 6c bd c1 db c8 bd 74 86 07 be
       0.004278947 -0.05761855 -0.0980754 -0.13234884
0001d0 f0 b4 79 3d 90 58 a4 bd 3f 34 76 3c d0 80 f5 bc
       0.06096357 -0.080247045 0.015027105 -0.02996865
0001e0 0b 4b a4 3d 85 c5 59 be 90 f0 3f 3e 77 b3 4b 3d
       0.08022126 -0.21266754 0.18744111 0.049731698
0001f0 90 37 74 3b 67 0c 00 3d 57 a3 fb bd 82 63 94 bd
       0.0037264563 0.031261828 -0.12287014 -0.07245542
000200 08 79 ad bd 6b c3 97 3f e6 f1 15 bf df 52 94 bd
       -0.084703505 1.1856512 -0.5857223 -0.07242369
000210 98 70 b1 3c 17 04 b0 bd f9 50 a2 3e ef 0f 22 be
       0.021660134 -0.0859453 0.31702402 -0.1582639
000220 45 2c 77 bc d1 c4 7e bc bf 6a 9a bd 11 77 49 be
       -0.015086238 -0.015549854 -0.075398915 -0.19674326
000230 ab 91 20 bd 61 f2 55 3e 8e 96 60 3e f1 3b f4 bd
       -0.03920142 0.20893241 0.21932432 -0.119254954
000240 bc 5a 86 3e 44 d7 e9 3e 0e a6 2a 3d 1a 68 83 bd
       0.262411 0.45672047 0.04166227 -0.0641634
000250 41 c4 28 bd ba 0d 66 bd e5 e3 87 bd 7f 53 60 3e
       -0.041202787 -0.056165434 -0.06635264 0.21906851
000260 c8 6c 02 3e 42 fc a3 be 12 5d bb 3c a5 40 1e be
       0.12736809 -0.32028395 0.022871528 -0.15454347
000270 51 58 48 3e b3 bc 52 be 5b 14 d9 bd eb 2a 2e 3e
       0.1956494 -0.20579796 -0.105995856 0.1700856
000280 fe c7 d2 3e b8 58 51 3d 23 0e 15 bc 7b fd 65 3d
       0.41168207 0.05111 -0.009097609 0.05614994
000290 96 fc 2d 3d 94 5f 84 bd d6 17 a9 3d c8 15 7a bf
       0.042477213 -0.064635426 0.082564995 -0.97689486
0002a0 bf 18 9b 3e b4 be 4d bb 45 23 d9 bb 52 b9 8c be
       0.30292317 -0.0031394185 -0.006626519 -0.27485138
0002b0 8d cc 16 3e ee 73 e7 bd 74 ae 77 be 63 43 27 3e
       0.14726467 -0.11301409 -0.24187642 0.163343
0002c0 35 91 2d be 15 6f 83 3e d7 61 f5 bd a3 24 e5 3d
       -0.16949923 0.25670686 -0.11981552 0.111886285
0002d0 26 c0 99 be d8 f5 3f bd d2 1e 1c 3d e5 9a 5f bd
       -0.3002941 -0.046865314 0.03811533 -0.05459108
0002e0 a1 93 cd 3d ac dd 03 3e 38 b4 04 bc c4 44 1b bf
       0.100379236 0.1287753 -0.008099608 -0.60651803
0002f0 36 81 0b bc 38 f6 bf be f9 25 56 be b6 96 b3 bd
       -0.008514693 -0.37492537 -0.20912923 -0.0876898
000300 0a 93 0e be fd 44 8f bd 40 33 bf be 6b 50 79 be
       -0.13923278 -0.0699558 -0.37343788 -0.24347083
000310 f1 25 82 3d 34 78 46 3e ef af 69 be 87 fb 1c 3e
       0.06354893 0.19381791 -0.2282102 0.15330325
000320 64 90 70 3d da e6 2c bd 4a 4f 28 bd 77 9e 0d 3e
       0.05873145 -0.042212345 -0.04109124 0.13829981
000330 ae 55 b5 3b 4b 51 1b bd 0a 35 88 3d a0 69 39 3e
       0.0055338955 -0.037919324 0.066507414 0.18106699
000340 2d 8e f6 3d 2a 77 36 3e be 6f 3c be 32 69 c0 3e
       0.12038837 0.17818895 -0.18402001 0.37580258
000350 a4 e1 c6 be 09 11 49 3e eb f5 9b be 0e 4a cc 3d
       -0.38844025 0.19635405 -0.30461058 0.09975062
000360 bb df 44 3d b6 75 93 3d 4a 33 8f 3e e9 74 b8 bd
       0.04806493 0.07200186 0.27968818 -0.09006674
000370 33 dc 4c bc c2 0c 14 bf 42 1d 2e be 36 ef bd 3d
       -0.012503671 -0.57831967 -0.17003348 0.092741415
000380 f7 52 be 3e 5d e7 06 be 45 4a 90 be ed a9 be bd
       0.37172672 -0.13174196 -0.28181663 -0.093097545
000390 77 0d 1c 3e 7a 68 91 3e e5 90 4a bd 54 f6 92 3e
       0.15239511 0.28400022 -0.04945459 0.28703558
0003a0 a4 a5 6e be 2e 46 cd be 08 60 82 3d 92 69 6d 3e
       -0.23305374 -0.40092605 0.06365973 0.23184803
0003b0 c9 31 25 bd ac f8 65 3e f6 c4 68 3d f6 7e c5 3e
       -0.040330682 0.22458142 0.05682846 0.38573426
0003c0 42 94 e7 bc e9 f8 ab 3d e1 64 e8 bd 38 11 31 bb
       -0.028268937 0.08397085 -0.11347366 -0.002701832
0003d0 77 35 93 3e 73 39 04 be 21 57 0f be b0 18 99 be
       0.28751728 -0.1291254 -0.13998081 -0.29901648
0003e0 30 12 a8 3d 74 48 8d bc 71 2f 95 3e 1b 2b f5 bc
       0.08206594 -0.017246462 0.29137757 -0.02992778
0003f0 61 7a 88 3e b1 40 72 3d 01 95 de bc ae c2 27 3e
       0.26655868 0.059143726 -0.02717066 0.16382858

lstm.bias_ih_l0 f4 [512]
000000 fa ea 92 bd 69 7e 7a be f4 53 fc bd b0 bb ae be
       -0.071737245 -0.24462284 -0.123207 -0.3412757
000010 89 57 e9 be 99 c6 c8 be 9f 1b a8 be c0 dd fa be
       -0.45574597 -0.39214018 -0.32833573 -0.48997307
000020 08 64 bb be 48 fd c1 be f0 d0 15 bf 9e d4 ee be
       -0.36599755 -0.3788855 -0.5852194 -0.4664659
000030 e3 21 23 be c6 45 e7 be 76 76 57 be 60 9a 2f bf
       -0.15930896 -0.4517042 -0.21041283 -0.6859493
000040 11 4e 8a be a4 b1 d6 be 58 e9 30 bf 64 cd 16 bf
       -0.27012685 -0.41932404 -0.69106054 -0.5890715
000050 9d dd 02 3e 18 7c e2 be d3 2c 55 be da 01 c5 be
       0.12779851 -0.442353 -0.2081788 -0.38477975
000060 ad 83 00 bf 2b 35 c2 be 08 d0 19 bf 31 5b 91 be
       -0.5020092 -0.3793119 -0.60083055 -0.28389886
000070 a5 c8 87 be 39 6f 02 bf 66 ce 3b bf 69 00 e9 bd
       -0.26520267 -0.5095096 -0.73361814 -0.11377031
000080 30 67 45 bf 04 4e 9c be e5 89 0f bf 29 a9 0a bf
       -0.77110577 -0.3052827 -0.56069785 -0.5416437
000090 9a c6 b7 be 48 6c f3 be a9 44 4d be 77 2c 88 be
       -0.35893708 -0.4754355 -0.20045723 -0.26596424
0000a0 da d5 ba be bb 2d ac be 7f 85 f0 be f7 3d 0b bf
       -0.3649128 -0.3362864 -0.4697685 -0.54391426
0000b0 b5 71 c0 be 49 b9 10 bf 08 17 fd be 75 16 e7 be
       -0.37586752 -0.5653272 -0.49431634 -0.4513432
0000c0 aa 7b a7 be 0e 13 4e bd 28 4d d4 be 93 d7 3c bf
       -0.32711536 -0.05031114 -0.41465116 -0.7376644
0000d0 7f b8 b5 be 55 8e 2e be bc 9f ad be 8f bc a9 be
       -0.35492322 -0.17046483 -0.3391093 -0.3315167
0000e0 3b 4d 20 bf f8 4d 30 bf aa 6c bd be eb 2d fd be
       -0.62617844 -0.6886897 -0.36996967 -0.49449095
0000f0 f6 25 61 bf 85 e8 c6 be 94 2b e2 be a5 96 1e bf
       -0.8794855 -0.38849273 -0.44173872 -0.61948615
000100 d4 89 d2 be 0a 43 87 be 41 26 dd be 4b 51 fc be
       -0.4112078 -0.26418334 -0.43193248 -0.49280772
000110 4d 39 1f bf 37 4e 49 be 90 fe c1 be d9 b0 90 be
       -0.6219681 -0.19658743 -0.37889528 -0.28259924
000120 9c 37 f8 be 76 43 c1 bd 9b f3 c3 be 49 f9 03 bf
       -0.48479927 -0.09436695 -0.38271794 -0.51552254
000130 dd d5 a2 be 8b c2 b9 be 55 c1 d6 be 61 cc 0e bf
       -0.3180379 -0.36281237 -0.41944376 -0.5578061
000140 f9 33 e6 be 10 a3 f4 be 99 31 8c be c8 dd ba be
       -0.44961527 -0.47780657 -0.2738159 -0.3649733
000150 7e e6 98 be b8 41 2c bf 14 e2 ba be 30 2d 84 be
       -0.29863352 -0.6728778 -0.3650061 -0.25815725
000160 91 2e bc be c0 98 92 be 92 41 ff be 71 b8 fe bd
       -0.36754277 -0.28632164 -0.49854714 -0.12437523
000170 25 df 39 bf cf 3f b8 be cd e8 be be 6b 9f ba be
       -0.72606117 -0.35986182 -0.37286988 -0.3644975
000180 19 60 3c be 91 a7 05 bf d7 18 f2 be bc 93 27 bf
       -0.18396033 -0.5220881 -0.47284576 -0.654598
000190 da 52 a1 be 92 c7 22 bf ae 8d 29 bf 11 80 ee be
       -0.31508523 -0.6358577 -0.6623181 -0.46582082
0001a0 23 50 cb be f1 42 18 bd 3a d9 55 be c1 4c ab bd
       -0.39709577 -0.037173215 -0.20883647 -0.08364249
0001b0 b1 ab e6 bd c7 7a b7 be 26 7e a3 bd 3a 73 eb be
       -0.11263216 -0.3583586 -0.07983045 -0.45986348
0001c0 71 72 23 bf cd 44 1a bf ce 05 03 bf e6 35 ba 3c
       -0.638465 -0.6026123 -0.5118073 0.022730779
0001d0 a7 d0 bd be a2 e4 eb be 85 26 1f bf fb b4 74 be
       -0.37073252 -0.4607287 -0.6216815 -0.23897164
0001e0 15 8e 4f 3d 88 7f 62 bd af b0 8a bd 2d 18 8f 3c
       0.05067261 -0.055297405 -0.06771981 0.017467583
0001f0 ab c3 1c bf a1 bf 12 bf 25 76 9b bd 95 5f 07 3d
       -0.61236066 -0.5732365 -0.07590894 0.03305014
000200 32 30 c4 bc 48 b0 42 bd 87 fb f0 bc 57 64 80 be
       -0.023948763 -0.047531396 -0.029416813 -0.25076553
000210 d8 4d ee be b0 56 36 3d 49 18 4e be 70 78 94 be
       -0.46543765 0.044516265 -0.20126452 -0.28998137
000220 69 1c 81 be 61 09 d0 be c7 3f 10 bf 0b d9 c5 be
       -0.25216988 -0.40632156 -0.56347317 -0.38642153
000230 0c 75 e6 bd ad 46 4c be 9c 9d 14 be 57 db 10 bf
       -0.11252794 -0.19948836 -0.14513248 -0.56584686
000240 94 1d 8b be ab 8a ad 3b 75 e9 c5 be 05 86 22 bf
       -0.27171004 0.0052960715 -0.38654676 -0.6348575
000250 c7 88 ba bd 56 39 a0 be ce 9e 4c be b3 a2 83 be
       -0.091081195 -0.31293744 -0.19982454 -0.25710067
000260 3f a9 d7 be f0 db e2 bd c1 f6 a6 be 40 61 dc bd
       -0.42121312 -0.11077106 -0.32610133 -0.107607365
000270 a6 1f a7 be 20 4e 8c be 1f 78 fb be 8e e9 f9 bd
       -0.32641333 -0.27403355 -0.49115083 -0.1220275
000280 80 68 0e bf 2f ac cb be 1d 12 d4 be 42 a1 ee be
       -0.55628204 -0.39779803 -0.4142007 -0.46607405
000290 ce 4f 90 be 62 81 99 be d6 d1 be be 5f 1b a9 3d
       -0.28185886 -0.29981524 -0.37269467 0.08257174
0002a0 39 fb 72 be a3 f6 ce be 6b b6 08 bf 97 91 b2 be
       -0.23728646 -0.40422544 -0.5340335 -0.348767
0002b0 02 cb 9f be b3 35 e2 be 37 c3 c6 be c0 65 c0 be
       -0.3120957 -0.44181594 -0.38820812 -0.3757763
0002c0 ce f3 89 bd 49 5e 93 3c 76 66 f0 be 26 fb 1e bf
       -0.06735955 0.017989295 -0.46953171 -0.6210197
0002d0 93 d1 bf be fb 3e 0a 3e 4c 1b 85 be 97 7e f4 bd
       -0.3746458 0.13500588 -0.25997388 -0.119382076
0002e0 38 f8 f0 be 2d bb b2 be 1b 21 df be 45 bb 8a be
       -0.47064376 -0.3490843 -0.43579945 -0.27096
0002f0 53 a2 3c bf 44 66 d0 be 30 e5 16 bf 99 10 da be
       -0.7368519 -0.40703022 -0.5894346 -0.42590788
000300 89 56 d7 be 69 09 b4 be 03 39 0d bf cf 13 bd be
       -0.4205821 -0.3516343 -0.5516512 -0.36929175
000310 ff c2 0f bf 17 70 0d 3e 7f 02 e5 be b5 b4 96 be
       -0.56156915 0.1381229 -0.44728467 -0.29434744
000320 58 e8 c3 bd f1 6d 2c be 56 f5 8e be 73 bc 08 bf
       -0.095658004 -0.16838814 -0.2792155 -0.5341255
000330 71 46 df be f4 64 e1 be 4b 44 3c be c2 70 99 be
       -0.4360843 -0.44022334 -0.18385427 -0.2996884
000340 d2 97 a3 be f4 c8 e1 be 28 db c2 be 15 d6 b3 be
       -0.31951767 -0.44098628 -0.38057828 -0.3512427
000350 c1 f8 a9 be 36 26 0c bf d1 13 5b be 2d 17 6b be
       -0.33197597 -0.54745805 -0.21394278 -0.2295806
000360 fd 34 92 be 46 44 5a be 8c 49 62 be 25 81 01 bc
       -0.28556052 -0.21315107 -0.22098368 -0.007904326
000370 68 6b e1 be bf fb 1f be 81 79 55 be a2 2e c1 bd
       -0.44027257 -0.15623377 -0.20847131 -0.09432723
000380 dc d1 c9 be 48 9b 10 bf ff ff 98 be 5a 58 ad be
       -0.39417922 -0.5648694 -0.2988281 -0.3385647
000390 c4 56 cc bd a1 cf d0 be bc 11 b2 be 3e ae a5 be
       -0.09977487 -0.40783408 -0.34779155 -0.323595
0003a0 64 4d be be 69 74 f1 3d 1d 4d b8 bd 59 5a db 3d
       -0.3716842 0.117897816 -0.08999083 0.10710592
0003b0 85 1e 5c bd f7 ac 8e be c6 05 25 3e f0 61 01 be
       -0.053740043 -0.27866337 0.16115484 -0.12635016
0003c0 5c 20 15 bf 06 98 16 bf 76 fc db be 23 78 8c 3d
       -0.582525 -0.5882572 -0.4296605 0.06858852
0003d0 f1 90 cb bd 8a 7b 1e bf 8c 3f 16 bf 81 59 60 3d
       -0.09939755 -0.61907256 -0.58690715 0.054772858
0003e0 67 76 96 bd 19 bc 66 3d 66 6d 26 3d ef 64 05 3e
       -0.07346802 0.056331728 0.040631674 0.13026784
0003f0 8e 54 9e be b7 72 0f bf ef 3e 45 be 77 14 43 bd
       -0.30923885 -0.56034416 -0.19262289 -0.04762694

lstm.bias_hh_l0 f4 [512]
000000 1a a4 c8 bd 27 e2 95 be b6 82 38 be dc 4f e0 be
       -0.09796925 -0.29274103 -0.18018612 -0.43810928
000010 db 7d 15 bf e0 a8 d9 be 94 e9 df be c1 77 c4 be
       -0.58395165 -0.42511654 -0.43732893 -0.38372615
000020 36 ed bb be 15 01 f3 be c1 19 30 bf 69 98 fd be
       -0.36704415 -0.47461763 -0.687893 -0.49530342
000030 1d 42 70 be 0e df cc be b6 f2 8f be a3 57 34 bf
       -0.2346272 -0.40013927 -0.2811486 -0.70446223
000040 b2 8e 6c be 74 d7 a7 be da b2 34 bf 44 0b 25 bf
       -0.23101309 -0.32781565 -0.70585406 -0.64470315
000050 b0 4c 92 b9 e1 2c e2 be 8b b3 93 be e5 37 ba be
       -0.00027904427 -0.44174865 -0.28847918 -0.3637077
000060 43 ba 06 bf ba bc de be c3 4a 25 bf 0e 31 94 be
       -0.5262796 -0.43503362 -0.645672 -0.28943676
000070 2e 18 9e be 3b 64 01 bf fc 22 35 bf f0 f6 12 be
       -0.30877823 -0.50543565 -0.70756507 -0.14352012
000080 b1 c0 25 bf 0a e8 9e be f7 f5 18 bf 64 f3 0c bf
       -0.6474715 -0.31036407 -0.5975031 -0.55058885
000090 8d 7d 83 be 3f 88 f7 be 31 ec 9f be 51 6c c4 be
       -0.25681725 -0.48346135 -0.31234887 -0.3836389
0000a0 6e 1d 98 be b0 39 a7 be ef 50 e0 be 89 4a 02 bf
       -0.29709953 -0.326612 -0.43811747 -0.5089498
0000b0 86 69 e1 be a5 5a 0b bf 48 5f 01 bf a9 d1 bf be
       -0.4402582 -0.5443519 -0.5053601 -0.37464646
0000c0 af 3e 8d be db b6 8a bd eb 0f d2 be b1 91 3f bf
       -0.27586886 -0.06773158 -0.4102777 -0.7483168
0000d0 c3 14 cd be 19 32 35 be 21 ed db be 4e a5 db be
       -0.40054902 -0.17694892 -0.42954352 -0.42899555
0000e0 5f 18 1c bf 65 db 2a bf bf 2e 98 be b3 c0 ba be
       -0.6097469 -0.6674102 -0.29723164 -0.36475143
0000f0 a2 2a 85 bf ee 33 fc be be ef 08 bf 8b 46 1c bf
       -1.0403636 -0.4925837 -0.5349082 -0.6104514
000100 82 03 a1 be 59 80 5a be 7f 01 b4 be 05 dd cd be
       -0.3144799 -0.21338023 -0.3515739 -0.40207687
000110 5c b4 2e bf b5 a4 82 be b0 07 a4 be 1b f1 a4 be
       -0.68243957 -0.25516286 -0.32037115 -0.322152
000120 5a 99 c2 be 23 3c 34 be fe dc c2 be d3 d5 05 bf
       -0.38007623 -0.17601065 -0.3805923 -0.52279395
000130 b5 84 80 be 81 da cd be e9 a2 91 be ef 19 0e bf
       -0.25101247 -0.40205768 -0.28444603 -0.5550832
000140 c4 6c e3 be 81 07 14 bf 4f 2a ac be 8f 68 bd be
       -0.4441892 -0.5782395 -0.3362603 -0.36993834
000150 f1 8b a3 be dd 56 36 bf da ba b9 be 4d 66 7e be
       -0.31942704 -0.7122629 -0.3627537 -0.24843712
000160 2c 4d 8f be 00 7b bc be d8 98 0f bf 12 96 22 be
       -0.27988565 -0.36812592 -0.56092596 -0.1587756
000170 9d 44 3a bf 3d 0a 9f be a4 99 9c be e9 9f c5 be
       -0.72760946 -0.310625 -0.30585968 -0.38598564
000180 91 50 92 be 6d f6 e9 be ec ab 0b bf 62 c7 2b bf
       -0.28577092 -0.4569582 -0.54559207 -0.6710111
000190 bd 79 db be 57 2f 02 bf 55 37 24 bf 5e fd cc be
       -0.42866316 -0.50853485 -0.6414693 -0.40037054
0001a0 bb 74 c1 be 2f ff df 3c 81 8e 80 be b4 f3 8b bc
       -0.3778437 0.02734336 -0.25108722 -0.01708398
0001b0 32 a8 a6 bd 8c ba e7 be 27 b3 8d bd a5 a0 00 bf
       -0.081375495 -0.4525951 -0.06918936 -0.50245124
0001c0 6c 46 11 bf e2 41 1c bf c7 f6 fa be 77 e4 06 3d
       -0.5674808 -0.6103803 -0.490164 0.032932725
0001d0 89 55 a6 be c8 85 c6 be db 3a 2b bf b1 d9 8d be
       -0.32487133 -0.38773942 -0.6688668 -0.27705148
0001e0 98 e3 a1 3c 55 34 ff bd fe 55 4c bd 98 e6 4b bd
       0.019761845 -0.124611534 -0.049886696 -0.04978046
0001f0 02 11 01 bf a4 b1 1b bf 6a 97 6a be 35 51 5d bd
       -0.50416577 -0.60817933 -0.22909322 -0.054032523
000200 28 83 3e 40 a6 10 3a 40 40 31 3c 40 cf 31 33 40
       2.9767551 2.9072661 2.940506 2.799915
000210 17 eb 23 40 14 f6 41 40 ef 4e 36 40 98 42 2a 40
       2.5612237 3.0306444 2.8485677 2.6603146
000220 76 74 2c 40 3e 1b 25 40 d1 89 21 40 ee 12 27 40
       2.6946082 2.5797877 2.5240366 2.6105304
000230 35 cd 36 40 81 19 34 40 4d bc 38 40 80 05 18 40
       2.8562748 2.8140566 2.886493 2.3753357
000240 71 11 2c 40 d1 9c 45 40 f0 95 22 40 1a 0e 1c 40
       2.6885645 3.0876963 2.5404015 2.4383607
000250 01 cf 39 40 c2 3e 2b 40 ad 7f 2e 40 13 e2 2b 40
       2.9032595 2.6757054 2.7265427 2.6856735
000260 24 4f 27 40 c0 cf 34 40 8e c4 2a 40 8a 79 37 40
       2.6142054 2.82518 2.6682467 2.8667932
000270 87 52 2d 40 32 bc 2a 40 41 ac 1b 40 05 8f 32 40
       2.708162 2.6677365 2.4323885 2.7899792
000280 e2 44 21 40 32 8a 25 40 50 45 22 40 92 8a 21 40
       2.5198293 2.5865598 2.5354805 2.5240827
000290 4a 29 29 40 a9 c4 27 40 10 09 25 40 41 33 40 40
       2.643145 2.6213782 2.5786781 3.0031283
0002a0 0a b0 2e 40 ac f9 25 40 17 b0 22 40 c9 fd 24 40
       2.7294946 2.5933638 2.5419977 2.5779898
0002b0 66 c1 2a 40 95 19 22 40 fd 52 23 40 55 76 26 40
       2.668054 2.5328114 2.5519402 2.6009724
0002c0 92 40 3f 40 81 f9 40 40 25 d9 25 40 d1 de 14 40
       2.988316 3.0152285 2.5913785 2.3260996
0002d0 16 16 27 40 9a 51 46 40 c8 dd 33 40 bb 93 3b 40
       2.610723 3.0987306 2.8104115 2.9308918
0002e0 f2 de 1c 40 af 49 25 40 25 01 24 40 41 2e 32 40
       2.4511075 2.5826223 2.5625699 2.784073
0002f0 68 c6 13 40 15 32 23 40 7b 10 18 40 e5 d5 22 40
       2.3089848 2.5499318 2.376006 2.544305
000300 66 3d 22 40 41 1d 2f 40 58 b6 1c 40 95 40 24 40
       2.5349975 2.7361605 2.4486294 2.5664418
000310 4d 3b 1a 40 f9 69 47 40 3a 44 22 40 04 61 31 40
       2.4098694 3.115843 2.5354142 2.7715464
000320 55 9c 3d 40 4e 2c 30 40 d4 81 2c 40 88 02 1e 40
       2.9626667 2.7527041 2.695424 2.4689045
000330 fd 82 1f 40 f2 46 22 40 42 df 33 40 f0 8b 2a 40
       2.49237 2.5355802 2.8105016 2.664791
000340 48 f8 2c 40 32 2b 1f 40 86 a0 26 40 e8 2d 26 40
       2.702654 2.4870114 2.6035476 2.596552
000350 d3 bb 28 40 02 b3 1a 40 29 25 2f 40 f4 85 31 40
       2.6364639 2.4171758 2.736643 2.7738008
000360 47 5e 2d 40 09 ae 30 40 c3 6a 2f 40 b8 0b 3c 40
       2.7088792 2.7606223 2.7408912 2.9382153
000370 b0 ea 23 40 9d df 30 40 e5 1b 33 40 17 68 36 40
       2.5611992 2.7636483 2.7985775 2.8501031
000380 76 db 2b 40 96 d5 19 40 2e 31 2a 40 a7 17 27 40
       2.6852698 2.4036613 2.6592517 2.6108186
000390 10 a9 38 40 c1 6f 27 40 e8 dd 2b 40 bb ca 28 40
       2.8853188 2.616196 2.685419 2.6373737
0003a0 99 81 2c 40 a4 26 43 40 5c ab 37 40 f9 d4 42 40
       2.69541 3.0492334 2.869834 3.0442488
0003b0 cd b0 39 40 5c 2d 2c 40 02 b9 49 40 c0 39 39 40
       2.901416 2.6902685 3.151917 2.8941498
0003c0 c2 6c 1f 40 57 a2 18 40 a3 2e 1f 40 e2 cf 40 40
       2.491013 2.3849084 2.4872215 3.0126882
0003d0 8d dc 35 40 da ad 1d 40 35 91 18 40 03 2e 41 40
       2.8415864 2.463736 2.3838627 3.0184333
0003e0 ce d0 3f 40 69 3b 40 40 9a 93 43 40 59 b1 42 40
       2.9971194 3.003626 3.055884 3.0420744
0003f0 13 6f 2a 40 25 c3 1b 40 40 c0 33 40 8e 64 3c 40
       2.6630294 2.4337857 2.808609 2.9436374

head.net.0.weight f4 [1, 128]
000000 20 f9 e0 3c ef 4d c0 3a 51 26 51 bb 76 1f e6 bb
       0.027462542 0.0014671664 -0.0031913707 -0.0070227934
000010 bc 54 37 3b 84 2e 12 bc 58 58 96 38 d6 ad 4d bc
       0.002797409 -0.008922223 7.169013e-05 -0.012553653
000020 cc d6 95 bc 7b 93 72 3a 6b cb 49 3c 70 69 84 bd
       -0.0182909 0.00092535437 0.012316565 -0.06465423
000030 a7 fa e6 bb bd 92 c4 ba 06 c2 15 bd 55 ef 66 3e
       -0.007048923 -0.0014997345 -0.03656199 0.22552235
000040 ac 62 fa ba 1a 40 ee b9 e7 e2 e0 3b 28 e7 4c 3e
       -0.0019102893 -0.00045442657 0.0068629864 0.20010054
000050 c3 f2 3c 3a da 9a c9 bc 2a 6f c5 bb e6 02 e8 bc
       0.0007207805 -0.024609972 -0.0060252147 -0.028321695
000060 37 9b 97 39 0b 5e 5f 3c 03 9b 83 bd 0c 81 3b bd
       0.00028916608 0.013633261 -0.064260505 -0.045777366
000070 fa 5c ab 3b d2 91 4e 3c a0 2f 71 bc 97 59 3d 3a
       0.0052295895 0.012608008 -0.014720827 0.0007223128
000080 8f c4 07 bc 29 32 f8 bc c4 e8 24 bc 27 14 86 bc
       -0.008286609 -0.030297356 -0.010065261 -0.016367031
000090 a6 09 04 3c c6 65 00 bd ba a4 34 3b b8 f3 a5 b9
       0.008058941 -0.03134706 0.0027564005 -0.00031652837
0000a0 93 90 16 bb ed 70 e7 bc dc 15 b5 bc 1a 15 2b bd
       -0.0022974357 -0.02825209 -0.02210515 -0.04176817
0000b0 c1 6f 02 bd e2 b0 6b 3b b9 df 4a 3c c3 5a 8d bc
       -0.031844858 0.0035963585 0.012382441 -0.017255193
0000c0 95 b0 36 bc f0 42 0a bb e2 eb e6 3d d2 ff 5f be
       -0.011150499 -0.0021097027 0.1127546 -0.21874931
0000d0 11 cf 94 3c 68 9c 4b bc f8 31 49 3c e0 2f 16 bd
       0.018165143 -0.012427427 0.01227998 -0.03666675
0000e0 52 6e 42 bc 49 5f db bb 96 79 cd 3c 68 2e 9e bc
       -0.011867123 -0.0066947085 0.02508239 -0.019309238
0000f0 a8 48 90 be 6b ea fe ba 37 4e 04 3d 18 46 77 bd
       -0.28180432 -0.0019448524 0.032301154 -0.06036958
000100 57 bb b7 bc 2f b6 c8 3c 6b d2 81 3c af 14 09 bd
       -0.022428198 0.024500934 0.015847405 -0.03346699
000110 e7 ae a8 be 71 26 1e 3c 07 e3 dd bc f6 b7 09 37
       -0.3294594 0.00965272 -0.027085794 8.208668e-06
000120 63 76 05 3c 2b f4 16 3b df 14 87 3c 7a 3c 20 bd
       0.008145901 0.002303372 0.016489444 -0.039120175
000130 33 a9 84 3c 79 3e 3e bd 44 17 8b 3c 7d 6d b2 3b
       0.016193962 -0.046446297 0.016978867 0.005445181
000140 48 bf 7e b9 bd ce 2f bd 82 6a 0e 3c 58 a8 10 bc
       -0.00024294585 -0.04292177 0.008692386 -0.008829199
000150 c7 9f 6f 3b 4e c2 3c 3a 82 3e a9 bb ab 75 46 3c
       0.003656374 0.00072005845 -0.005164922 0.012113015
000160 ee 42 dd ba 99 df 2e 3c e2 96 76 bb ea 0d d1 3b
       -0.0016880909 0.010673427 -0.0037626554 0.0063798325
000170 f0 c3 fe be 87 aa e2 ba 43 27 9f 3b 0d a2 eb bb
       -0.49758863 -0.0017293253 0.0048569753 -0.007190949
000180 64 28 8f bb c1 cf 2d bd 7a 4c bb bc ea 21 97 3d
       -0.0043688286 -0.042434458 -0.022863615 0.073795155
000190 7c 89 a9 3c 8d 91 04 bd 24 6f a3 bd 92 ce 37 3c
       0.02069544 -0.03236537 -0.07980183 0.011218684
0001a0 ac 6b e9 b8 11 2e 96 3a 26 8c ac 3a 18 e6 1c bb
       -0.00011130361 0.0011457821 0.0013164326 -0.0023940857
0001b0 9d 06 92 3a 6c 26 d0 3c 61 54 b7 3a b5 c4 42 3d
       0.0011140887 0.025408946 0.0013986939 0.047550876
0001c0 af a4 75 bd 3c cf a6 bd 55 b2 05 3e 0d ce 85 3b
       -0.059971508 -0.081449956 0.1305631 0.004083401
0001d0 d8 2b c1 bc 55 93 7e 3d 34 ce 96 3f c4 f4 8a bc
       -0.023580477 0.062152226 1.1781678 -0.016962416
0001e0 7b ee e5 bc f1 45 ef 3b c2 f0 a2 ba c7 29 f6 bb
       -0.028067818 0.007302039 -0.001243137 -0.0075123045
0001f0 cd a0 5b 3d f0 00 9d bd ae a3 22 3c 3a 16 98 3c
       0.05362015 -0.076661944 0.00992672 0.018565286
