examples/catchment_models/training/runs/usa_basin_split_2404_020225/model_epoch015.pt (torch, 316229 bytes, 5 tensors)

lstm.weight_ih_l0 f4 [512, 23]
000000 b8 aa 27 3d b8 6d 5b 3e 50 cc 04 3d dc a6 4f bd
       0.040934294 0.21428573 0.03242141 -0.05069624
000010 3c 6c 89 bd e7 b7 1f 3f df 66 03 3f fd 11 95 be
       -0.06710097 0.6238999 0.51328844 -0.29115286
000020 e2 de 28 3f 87 13 11 bd a5 61 e5 be ff 95 8a 3e
       0.6596509 -0.035419013 -0.4480106 0.27067563
000030 42 60 bd bc 2e 35 d4 be 0f 95 e9 bd 00 8c 16 3f
       -0.023117188 -0.41446823 -0.11405384 0.58807373
000040 03 54 7b 3e 08 6b b5 3e 57 52 88 be a7 e3 95 3e
       0.24543767 0.3543322 -0.2662532 0.29275247
000050 83 56 cc 3e 74 2d e0 3e 8d ff 27 3e 0d 1b 0b 3b
       0.39909753 0.43784678 0.16406079 0.002122584
000060 97 f9 8d 3e 4d f7 10 be 2e 3a ee bd 3d 68 e6 3d
       0.27729484 -0.14156838 -0.11632191 0.112503506
000070 46 44 c2 3e ba 66 ef 3e 69 3a 50 3d 6c a6 2b 3f
       0.37942713 0.46758062 0.050836954 0.67050815
000080 05 ec 25 3d 6b 8f a0 be 06 1b cd 3e 64 d6 1d 3e
       0.04050829 -0.3135942 0.4005968 0.15413815
000090 50 1e e1 be 88 7e 31 be 68 01 21 3f 4d 87 90 3e
       -0.4396844 -0.17333424 0.6289277 0.28228226
0000a0 a2 a8 bc 3e 28 fa 8b be 8b 61 26 3e 4b fe e4 3e
       0.36847407 -0.27339292 0.16248147 0.4472526
0000b0 dd 4c af 3e 06 3c fb 3d 6d 6d 3f 3e 42 65 78 3d
       0.3423833 0.12267308 0.18694086 0.060643442
0000c0 32 e0 0c 3d df e7 8f 3d 89 08 58 bd 3d 67 48 3e
       0.034393497 0.07026648 -0.052742515 0.19570632
0000d0 d9 c6 34 3b 3b 4f 15 be 30 69 80 bd 02 0f 6a 3e
       0.0027584343 -0.14581005 -0.06270063 0.22857288
0000e0 db 85 83 be 3e d5 aa 3e fe 87 5a be d3 d6 8e be
       -0.2568806 0.33365816 -0.2134094 -0.27898273
0000f0 ef 94 9b be b3 09 33 bb d6 b5 4a 3e 83 b0 40 3e
       -0.30387065 -0.0027319014 0.19795927 0.18817334
000100 f9 3c bc be 65 5c a8 3e 2d 83 93 3e 25 66 86 3e
       -0.36765268 0.3288299 0.28811017 0.26249805
000110 88 09 b5 be f6 bb 81 3c b7 9e ba 3e c8 e2 78 be
       -0.35358834 0.015836697 0.36449215 -0.2430526
000120 4a f2 3c be 4b 2c 56 be 71 9e ad 3e 4e 37 35 3f
       -0.18451801 -0.20915334 0.33909944 0.70787513
000130 f6 db 6f bd 4e 80 2c 3f 51 56 a7 3d 09 bb bf be
       -0.05855938 0.6738328 0.081707604 -0.37447384
000140 ce 46 76 3e ca 61 93 bd 4c 57 e3 be 27 51 d5 bd
       0.24050447 -0.07196386 -0.4440254 -0.10415869
000150 04 4b f1 3e c9 a4 b7 3e 8f 33 c7 3e 05 1d b3 be
       0.47127545 0.3586791 0.38906524 -0.34983078
000160 55 6b b3 3e 79 36 c7 3e 0e 9b 02 3f 67 bb 91 3e
       0.35042825 0.38908747 0.51017845 0.2846329
000170 fd bb 7f 3e cd cd 21 3e 15 96 38 3e 81 77 b1 bc
       0.24974056 0.15801163 0.18026002 -0.02166343
000180 34 70 72 3e e1 6c 30 3e d8 61 76 3e 8c 1d 39 3e
       0.23675615 0.17229034 0.24060762 0.18077677
000190 1f b7 9c 3e c5 84 39 bf e3 9e cf 3d a2 c8 35 bf
       0.3060846 -0.72468215 0.10137727 -0.71009266
0001a0 21 00 a1 bd ec 70 67 3e a5 87 b6 3e 04 5a 94 3e
       -0.07861353 0.2260167 0.35650364 0.28974926
0001b0 c6 2c cb 3d 46 c6 33 3e 21 66 37 be 76 95 88 3d
       0.09920649 0.17556104 -0.17910053 0.066691324
0001c0 89 fc a9 bd f2 15 3e be dc e3 44 3e 38 c3 62 3f
       -0.083001204 -0.18563059 0.19227546 0.8857913
0001d0 fd 9a f4 3d 1d f2 82 3e 39 e1 86 3e fb 21 f3 3e
       0.11943624 0.25575343 0.26343706 0.47486863
0001e0 7a 23 b1 3d 3c cf ba be 42 f1 c5 3d be 5b af be
       0.08649345 -0.36486232 0.09665157 -0.3424968
0001f0 bf 88 0a 3e a2 4c 9b bd ce 01 a5 3c 5f e1 d2 be
       0.13528727 -0.07582976 0.020142462 -0.4118757
000200 ec 4d 98 3e dd 06 6d bd cd fd 04 bf 02 c6 75 bd
       0.2974695 -0.057867873 -0.5194977 -0.060003288
000210 98 a9 a4 be 10 16 f5 bd 97 f4 53 3c 3f 48 bc bd
       -0.3216064 -0.11967099 0.012936733 -0.09193467
000220 9f 1e 90 be 22 0f 1a be 6d 77 b4 3d d4 f3 6b 3e
       -0.28148362 -0.15044835 0.08811841 0.23042232
000230 8a 5b 1c 3e 20 46 b3 3c cd 2a 86 ba ca bb 25 3f
       0.15269294 0.021884024 -0.0010236144 0.6473967
000240 65 a9 37 3f 04 dc 4d be 29 72 2d 3f fa 07 fe bd
       0.7174285 -0.2010346 0.6775232 -0.12403865
000250 e0 b9 bf be 7d bc 40 bc 53 00 82 bd 0d be a2 be
       -0.374465 -0.011763689 -0.06347718 -0.31785622
000260 64 d5 2f 3d fc 56 1e 3f f0 fa 96 3e 2d 33 a8 3e
       0.042928115 0.6185148 0.29488325 0.32851544
000270 d6 69 e7 be 17 16 a0 3e 57 08 52 3e 14 80 fe 3e
       -0.45197934 0.31266853 0.20510994 0.4970709
000280 21 01 3c 3e 69 83 25 3f 53 ea 80 bc e0 5c c5 bd
       0.18359806 0.6465364 -0.015736734 -0.09636855
000290 19 07 7d be 8b ce 0e 3f 61 88 af 3e 78 2b 02 3e
       -0.24709739 0.5578391 0.34283736 0.12711895
0002a0 b3 dc 98 bd fd 7e 20 3e 29 b4 38 3e 94 c3 8e be
       -0.0746397 0.15673442 0.18037476 -0.2788359
0002b0 9a 57 e1 3d 25 3b 45 3f 02 04 82 be ce 5f 3c be
       0.11003037 0.7704337 -0.25393683 -0.18395922
0002c0 2a 6e 66 be 97 8d 1f 3e d5 86 94 3e 53 78 a6 be
       -0.22502962 0.15581356 0.2900912 -0.32513675
0002d0 e2 fe 8a 3e 35 34 66 3e 03 9c a6 3e 14 98 95 bd
       0.27147585 0.22480853 0.32540902 -0.07304397
0002e0 db d8 27 be 85 89 a4 be 4d b5 f1 3e 16 16 f8 3e
       -0.16391318 -0.3213617 0.47208634 0.4845435
0002f0 2b 83 b6 bc a8 8a 91 3d 2d f2 0b 3d 74 94 fc bd
       -0.022279343 0.07106525 0.034166504 -0.12333003
000300 e6 72 ee bd 7a 64 55 3e 1b 9d eb 3d 36 fe 4f 3e
       -0.11643009 0.2083911 0.11504575 0.20311818
000310 c3 e4 ab bc 2d 92 64 be 9b 2b a8 bd 24 4c ee bd
       -0.020983106 -0.22321387 -0.08211442 -0.116356164
000320 98 41 e2 3c 25 9e 04 3e 31 57 53 be 35 31 a6 3d
       0.027619168 0.12950952 -0.2063873 0.08114854
000330 ba e2 1d 3c 44 ef 57 3e d8 c7 6a be 80 7a b4 bd
       0.009636575 0.21087366 -0.22927797 -0.088124275
000340 3a b4 5f bd cd 86 a2 bd 04 1f 94 be dd d1 a3 3e
       -0.054615237 -0.079358675 -0.28929913 0.3199605
000350 c4 21 83 3e 4b 25 81 bc 33 0e 39 bd cc 7e 5c be
       0.256117 -0.015764853 -0.045179557 -0.21532744
000360 45 50 7b 3c a3 65 92 be 61 81 03 be 91 5a f8 bd
       0.015338962 -0.28593168 -0.12842323 -0.12126649
000370 1e f1 b4 bd 74 ea 3b bd 90 ac 84 bd 7b d4 a4 bd
       -0.08835052 -0.04587789 -0.06478226 -0.0804834
000380 34 ac 41 bd 92 f1 13 be e9 07 36 bb d0 f6 d5 3c
       -0.047283366 -0.1444762 -0.002777571 0.026118666
000390 0d 66 0d 3e 18 25 33 be c5 4a 0e 3e 85 9e 49 bd
       0.1380846 -0.17494619 0.1389571 -0.04922344
0003a0 43 a3 f6 3d 21 d7 92 3e 42 7e 02 3f cc 01 77 3e
       0.120428585 0.28679755 0.50973904 0.24121779
0003b0 57 8b 67 3e 09 3c 99 3e 23 45 84 3d dd 87 be bd
       0.22611748 0.29928616 0.06458499 -0.093032576
0003c0 ff 06 60 3d d5 47 67 be 72 d5 85 be c7 37 9d 3d
       0.054694172 -0.22585995 -0.26139408 0.07676654
0003d0 1b d1 55 3e 27 d7 94 3e 2b 82 98 bd 3a 33 27 3d
       0.20880549 0.29070398 -0.074467026 0.040820338
0003e0 1c 7d 4b be a0 03 e2 3d 4e 79 ac 3e b6 9f 65 3b
       -0.19871944 0.11035848 0.33686298 0.0035037822
0003f0 c3 ce 62 3e 70 be ee 3d 6c f6 08 3f 31 1f 12 bf
       0.22149186 0.11657417 0.5350101 -0.57078844

lstm.weight_hh_l0 f4 [512, 128]
000000 21 c1 b2 3e 8a 63 8c bd e5 eb b6 be 73 4d d2 3d
       0.3491297 -0.06854923 -0.35726848 0.102686785
000010 71 b2 65 3e 9d 15 ff be 08 a8 be 3b e1 f3 02 be
       0.22431351 -0.49821177 0.0058183707 -0.12788345
000020 ab b5 fb 3e 41 06 35 be f0 38 68 3e 89 78 74 be
       0.4916204 -0.17678167 0.2267797 -0.23874106
000030 e4 f6 96 be 2b 49 93 3d e2 53 03 be d5 4c eb 3e
       -0.29485238 0.0719169 -0.12824968 0.45957056
000040 30 b8 de bd 55 e6 42 3c dd 20 73 3e d8 6e 0e be
       -0.10874975 0.011895736 0.23743005 -0.13909471
000050 dc 07 12 be 11 46 99 3e 37 dd 90 be 82 d2 8a bd
       -0.1426081 0.2993627 -0.28293774 -0.067784324
000060 2c a1 a0 3d 8a 05 9b be b6 95 a8 be bf e7 88 3d
       0.07843241 -0.30277663 -0.3292672 0.06684827
000070 76 62 bf 3e 20 ec a3 be 5a 0c 3c be 62 88 c8 3e
       0.37379807 -0.32016087 -0.18364087 0.39166552
000080 e1 98 8e 3d 82 5a f0 bc 86 14 11 3d 8a 5d 70 be
       0.06962753 -0.029340032 0.035419963 -0.23473182
000090 e8 4e b0 be 4e a8 75 bd 86 88 f0 3c 26 98 49 3d
       -0.344352 -0.05997496 0.029361974 0.049217366
0000a0 9d 4f 33 be 16 b2 23 3e 38 fb 1e be ce cc 64 be
       -0.17510839 0.15985903 -0.1552552 -0.22343752
0000b0 7f 3b 86 be e9 cf 6f bd 17 2b b8 be 95 07 ce bd
       -0.26217267 -0.058547888 -0.35970375 -0.1006004
0000c0 99 d5 c6 be 33 ca dd 3d dd c0 15 be 03 e1 9d bd
       -0.38834837 0.10829582 -0.14624353 -0.07708933
0000d0 a5 f3 76 be 05 b1 ef 3d 5f d2 0f bd ac 69 9e be
       -0.2411638 0.11703686 -0.035112735 -0.30939996
0000e0 34 be a2 3e e5 a6 18 3e 2b 72 e4 be 5c 9b 94 bc
       0.31785738 0.14907415 -0.44618353 -0.018140487
0000f0 e5 7b a7 bb bf 03 ee be a3 f0 a3 be 7a 7e d9 be
       -0.005111205 -0.46487233 -0.3201953 -0.42479306
000100 1d 1a 18 3e df 48 3d 3d 62 35 e2 be 8a cc 7d be
       0.14853711 0.046212073 -0.44181353 -0.24785057
000110 81 20 16 be c3 98 6a bd 78 c3 1a be c9 94 10 3d
       -0.14660837 -0.05727459 -0.15113628 0.035298143
000120 1a e3 ab 3e 67 ab 33 3d 22 4e 86 3e 39 48 4e 3e
       0.33571702 0.043864634 0.26231486 0.20144738
000130 36 c6 a8 3e ed 4c be be 8b 96 3e 3c df 86 19 ba
       0.32963723 -0.37168065 0.011632572 -0.0005856584
000140 08 2e 87 be d1 75 95 be e1 cd 48 3e 6d 10 30 be
       -0.26402307 -0.2919145 0.19609787 -0.17193766
000150 a0 6f cf be d0 69 0b 3e 69 42 3c bd 65 52 79 3e
       -0.4051485 0.13614583 -0.04596177 0.24347837
000160 e4 55 4d 3e 0f cc d0 bd c2 d9 56 be 23 77 4e 3d
       0.20052296 -0.10195171 -0.20981506 0.050406586
000170 78 36 a0 3e 6c 4f 0d be 8a 0b a8 be e4 f4 89 3e
       0.31291556 -0.13799828 -0.32821304 0.2694465
000180 c7 44 8c 3d 5a 6c 67 3d 64 6e ea 3e af fe 37 3e
       0.06849056 0.056499816 0.45787346 0.17968248
000190 1d e3 20 3e 26 35 52 3e fe 8c 91 be 38 32 a9 bd
       0.15711637 0.20528087 -0.2842788 -0.082615316
0001a0 a1 6a 0d 3d 55 f3 cc be 40 ca 17 3f 20 0c 68 bd
       0.034525517 -0.40029398 0.59292984 -0.05665219
0001b0 a2 36 d2 bd 25 41 ac 3c 07 4e bd be 71 19 3b 3d
       -0.10264327 0.021027157 -0.36973593 0.04567856
0001c0 7a 69 c1 bd bb b8 29 3d e5 4f 15 bf ae 1c fc 3e
       -0.09443946 0.04143594 -0.58325034 0.4924063
0001d0 5d a5 56 3e e5 e4 23 bd 41 e0 b2 3e 83 41 92 3e
       0.20961519 -0.040013213 0.34936717 0.28565606
0001e0 30 f5 e2 3c 63 52 94 bc 38 79 5e be 79 3c 9e bd
       0.027704805 -0.018105691 -0.21725929 -0.07726378
0001f0 cf 1f 8a 3e 78 50 31 3e fd e4 b3 bc 88 c4 80 be
       0.26977393 0.17315853 -0.021959776 -0.2514994
000200 f9 c1 35 be 20 56 ac 3e 89 2f 53 be a5 41 6d bc
       -0.17749776 0.33659458 -0.20623602 -0.014480983
000210 54 05 c7 bd cc 6a d3 be 49 30 1c bd be 35 d8 be
       -0.09717813 -0.41292417 -0.038131986 -0.42228502
000220 6c e5 d9 3e d5 f6 a9 bd b1 0f 17 3f 42 d9 92 3e
       0.42557847 -0.082990326 0.5900832 0.2868138
000230 23 e0 80 be 58 75 0b be 6b 9e 12 bd e9 c9 be 3e
       -0.25171003 -0.13618982 -0.03579561 0.3726342
000240 b4 ff 59 3d 1c 7f d2 3d 48 ed 04 bc f6 0e 02 3e
       0.053222373 0.102781504 -0.008113213 0.1270102
000250 34 97 9d be 8e 5f cc 3e d0 22 40 3e 30 b0 37 bb
       -0.3077942 0.39916652 0.1876328 -0.00280286
000260 33 d2 d9 bd 7d 5c 9e be 0a e0 e2 be 33 ca a7 bd
       -0.106357954 -0.30929938 -0.44311553 -0.08192863
000270 a0 48 08 3f 54 9f 2f be bb db d1 3d ce b0 79 be
       0.53235817 -0.17150623 0.102469884 -0.24383852
000280 a4 37 e1 3d 25 ee 9c 3d 6f e2 8c bd 14 c2 eb be
       0.10996941 0.0766261 -0.06879126 -0.46046507
000290 ff 31 f0 be 88 ca 4e 3d 27 09 50 3e 4a 80 8b be
       -0.46913144 0.050486118 0.20315991 -0.27246314
0002a0 8d eb e9 bd 87 c0 89 3e 11 fa 4d 3c 49 9d 88 be
       -0.11421881 0.269047 0.0125718275 -0.266825
0002b0 f8 0c aa be 25 cb 7c 3d 5f 4d 11 bf ed d3 ac bd
       -0.3321302 0.06171717 -0.56758684 -0.08438859
0002c0 7c f9 fc be 8c 12 c6 3e 92 46 a5 bd c3 a0 89 3c
       -0.4940909 0.38686025 -0.08070101 0.01680029
0002d0 ea e5 a0 be 9e 1d 3e 3e ff 91 71 be 98 a6 02 be
       -0.3142541 0.18565986 -0.2359085 -0.12758863
0002e0 9f 9d ea 3e f9 35 b4 be d8 92 f0 be 8a b6 25 be
       0.4582338 -0.35197428 -0.46987033 -0.16182914
0002f0 b9 22 99 be 99 97 8e be 78 7c 08 be fd b4 cc be
       -0.29909304 -0.27850035 -0.13328731 -0.39981833
000300 a7 c2 3b 3e 9c ac a2 3e f8 7f d8 be 90 dc 81 be
       0.18335973 0.31772316 -0.42285132 -0.25363588
000310 73 63 ca be a5 b7 23 3e 52 ec b9 be 26 56 75 3e
       -0.39529 0.15988024 -0.3631311 0.23958644
000320 c9 d8 a2 3e 15 28 99 3d ef af 5b 3e eb 96 45 3e
       0.3180602 0.07478348 0.21453832 0.19295852
000330 86 55 d2 3b 1e bb aa be ea 36 69 be 33 ba a6 3d
       0.0064188866 -0.33345884 -0.22774854 0.081409834
000340 cc ec 9e be bc 47 24 3e d5 b1 54 3e 69 15 1e be
       -0.31040037 0.1604299 0.20770963 -0.15437855
000350 d6 99 db be 52 52 43 be 67 83 6f be 94 53 56 3e
       -0.42890805 -0.19074371 -0.2338997 0.2093032
000360 20 f2 70 3e 8e db e3 bc 3c d6 00 be 95 a0 78 bd
       0.23529863 -0.027814653 -0.12581724 -0.060700018
000370 ef 01 cb 3e 89 00 14 bd 60 35 e9 be 3d 7d 83 3e
       0.39649913 -0.036133323 -0.45548534 0.25681487
000380 39 73 80 3e e4 49 16 3e f0 ab a5 3e 01 d0 9f 3d
       0.25087908 0.14676625 0.3235774 0.078033455
000390 84 0b 1f 3e 7a 4d a1 3e 78 cf 57 be 0e 4a 1e bd
       0.15531737 0.31504422 -0.21075237 -0.038644843
0003a0 17 20 3e bd c0 01 01 bf 92 64 0a 3f d1 43 02 3e
       -0.046417322 -0.50393295 0.5405971 0.12721182
0003b0 bc 11 e0 be b3 ca 03 3e 5c a6 ec be bc 3e 85 bd
       -0.4376353 0.12870292 -0.46220672 -0.06506106
0003c0 8b 60 8f bc b8 38 10 bd ee d6 8c be 4f 8c a9 3e
       -0.01750209 -0.03521034 -0.27507728 0.3311486
0003d0 26 fb 85 3d 72 9f 9f bd b0 45 87 3e cf d8 34 3a
       0.065420434 -0.07794084 0.26420355 0.0006898762
0003e0 8d 0a af be 29 6a 49 3e 54 72 41 3e ed d0 a2 bd
       -0.34187737 0.19669403 0.18891269 -0.07950006
0003f0 16 60 e6 3d 6e 23 1f 3e c3 dd df 3c 3c 25 10 be
       0.11248796 0.15540859 0.027327424 -0.14076704

lstm.bias_ih_l0 f4 [512]
000000 aa 75 f4 be 8a 4b c1 be 80 ce 7f be d9 55 f8 be
       -0.4774602 -0.37752944 -0.24981117 -0.48502997
000010 2c 3b 0e be f0 f4 b4 bd c3 99 07 bf db 6c be be
       -0.1388976 -0.088357806 -0.52968997 -0.37192425
000020 52 7e f2 bd f7 45 54 bd 3f dd 7e be 05 27 aa bc
       -0.118405 -0.051824536 -0.24889086 -0.02077056
000030 56 71 9e be 90 b4 1a bf 27 5b b1 be 34 f7 86 bd
       -0.30945843 -0.60431767 -0.34639856 -0.06590119
000040 91 a1 be be 69 2d c6 be 4f a2 7c 3d ac b5 d1 bd
       -0.3723264 -0.3870652 0.061678227 -0.10239729
000050 a4 b9 01 be 38 9a 0d be e4 6b 06 bf 97 34 13 bf
       -0.12668473 -0.13828361 -0.5250838 -0.5750212
000060 9e 3c d9 be 12 f2 36 bd 2d a6 0f bc f9 9a 40 bf
       -0.4242906 -0.04466445 -0.008767647 -0.7523647
000070 1f c1 7c be 96 b5 d9 be 8a 09 8a be 92 3d 13 be
       -0.24683045 -0.42521352 -0.26960403 -0.14378956
000080 2f 4a 50 bf 96 02 b4 be fd 0d 20 bf e8 6e af be
       -0.81363195 -0.35158223 -0.62521344 -0.34264302
000090 1b 58 2d be fd 51 fb be 64 cc 6d be 0c 4c 61 be
       -0.16928141 -0.4908599 -0.232225 -0.22001666
0000a0 d8 0c d8 be a6 f1 1e be a3 24 0d bf 64 7f 02 bf
       -0.421973 -0.15521869 -0.5513403 -0.5097563
0000b0 16 48 86 be 15 41 42 bd 3a a8 e4 bd 2d 64 ad be
       -0.26226872 -0.04742535 -0.11164899 -0.3386549
0000c0 d2 7c 43 be b1 3a 29 be 98 30 e6 be df 39 07 bf
       -0.19090584 -0.16526295 -0.4495895 -0.5282268
0000d0 44 35 f5 be 1e 8b d3 be 5a d6 bd be 42 61 47 be
       -0.478922 -0.41317075 -0.370776 -0.19470695
0000e0 68 e9 a8 be 59 e0 52 be 57 97 97 be ba b6 56 bf
       -0.32990575 -0.20593394 -0.2960765 -0.8387257
0000f0 fe 86 92 be 97 96 3d be 31 2d 07 bd 5c c9 91 be
       -0.28618616 -0.18514477 -0.033002082 -0.28473938
000100 6e ea 75 be 81 1f b0 be 28 2f c6 be a9 55 0d bf
       -0.24015209 -0.34399036 -0.38707852 -0.5520883
000110 ec 52 02 be ee 05 1d bf fc dd 53 be c2 1b a7 be
       -0.12726945 -0.61337173 -0.20690149 -0.32638365
000120 ec 40 d7 be 9c 24 8a 3d 11 81 eb 39 05 b5 78 bd
       -0.4204172 0.06745264 0.00044918855 -0.06071951
000130 9c 4c 9e be f7 01 ce bd 46 ef 19 bf 2f ca 12 bf
       -0.30917823 -0.100589685 -0.6013073 -0.5733976
000140 d3 70 27 be 45 bd e2 be 91 f4 b8 be ef 4b f4 be
       -0.16351633 -0.44285026 -0.3612409 -0.47714183
000150 35 01 a4 be 83 41 14 bf 38 05 c3 be 1f 3d 18 be
       -0.3203217 -0.5791246 -0.3808992 -0.14867066
000160 4a 3b ab be c4 f1 2d bf 5a 81 91 bd 95 7c 8d be
       -0.3344367 -0.6794703 -0.0710475 -0.2763411
000170 be e1 d8 be df dd 46 be 03 f4 be bd c4 95 4d 3c
       -0.42359728 -0.19420575 -0.09323885 0.012547914
000180 bd 09 00 bf 95 2b b5 be ae 61 11 be a7 53 42 bf
       -0.5001486 -0.35384813 -0.14197418 -0.75908893
000190 7b d4 c8 bd 90 72 a2 be ab 0c ae be bb a4 a5 bd
       -0.098061524 -0.3172803 -0.3399404 -0.080880605
0001a0 14 3c 27 bf 9a 79 35 bd 41 5e 95 be 26 70 cb be
       -0.65326047 -0.04430542 -0.29173473 -0.39734
0001b0 2b ed a3 be f8 35 1e bd bb ec a5 bd c0 99 15 bf
       -0.32016882 -0.038625687 -0.081017934 -0.5843773
0001c0 eb ff 1a bf 2b 87 f4 be 1d 64 5e bd 96 d1 f5 bc
       -0.6054675 -0.47759375 -0.054294694 -0.030007165
0001d0 ed 55 78 be 93 27 38 bf 93 c6 e5 3d 4b 25 93 be
       -0.24251528 -0.71935385 0.11219516 -0.2873939
0001e0 cc ca 9c be 6f 9f 47 be a6 02 33 be 0e d9 5b 3d
       -0.30623472 -0.19494413 -0.17481479 0.053673796
0001f0 f6 9f f4 be 5e ec d0 be f2 10 9f be 2d 8f 40 be
       -0.4777829 -0.40805334 -0.31067616 -0.18804617
000200 aa 30 f4 be b2 f2 67 be 2d da f3 bd 59 29 0b bf
       -0.47693378 -0.22651175 -0.11906848 -0.54359967
000210 24 06 11 be 1f 3d c5 3c c9 2b 12 bf 3c f7 5e be
       -0.14162499 0.024076996 -0.5709806 -0.21774
000220 2d 66 38 3e 2c e6 22 3e 90 75 08 bf 5d 47 d0 3d
       0.18007727 0.15908116 -0.53304386 0.101698615
000230 4b 90 90 be 8a a8 e1 be 0a 6a fe 3d ca f8 e8 3c
       -0.28235087 -0.44073898 0.12422569 0.028438944
000240 23 f6 49 be c7 7a 7d be b3 fc 16 3e 42 62 fe be
       -0.197228 -0.24753867 0.14744835 -0.4968434
000250 6d 3b 9a 3c 20 39 8b bd 3c 66 cc be 2d 0d 1a bf
       0.018827165 -0.06798005 -0.3992175 -0.60176355
000260 a5 93 fb be 8a 5c 91 3d 8f fc 63 be 4d a9 20 bf
       -0.4913608 0.070977286 -0.22264312 -0.6275833
000270 e8 b4 47 bc bd d6 78 be 29 b9 c7 be 90 21 90 3d
       -0.0121891275 -0.24300666 -0.39008453 0.070376515
000280 90 55 15 bf 94 a8 0c be b3 f9 0f bf 42 c4 01 bd
       -0.58333683 -0.13736182 -0.56240386 -0.031681307
000290 8a 0f b1 bc a3 8c 09 bf 56 db 0e be 05 f7 82 3e
       -0.021613855 -0.5373022 -0.13950858 0.25579086
0002a0 4a 75 74 be 28 78 a5 bc e8 b4 02 bf f3 a6 0e be
       -0.23872867 -0.020198897 -0.5105729 -0.13930874
0002b0 a2 ac 97 be e6 80 a2 3e 04 8c b4 bc 0e 6b 27 be
       -0.29623896 0.31738967 -0.02203942 -0.16349432
0002c0 02 cb b2 3b 30 a1 98 be c0 12 11 be 77 63 8b be
       0.0054563293 -0.29810476 -0.14167309 -0.27224323
0002d0 eb 2e 15 be 1f 95 7d 3e bb ad a2 be ee 70 81 be
       -0.14568679 0.24763916 -0.3177317 -0.2528147
0002e0 c5 a3 e5 bd be e9 c7 3c f5 1e f0 bd ed 83 46 bf
       -0.11212877 0.02440345 -0.117246546 -0.7754505
0002f0 e2 b4 74 3c 41 e9 3e be ee 7c 03 3e df 8d bd bd
       0.014935704 -0.18643667 0.12840626 -0.092555754
000300 6f d7 b1 bd 5b be aa be 09 3f 6b bd 12 de ca be
       -0.08683669 -0.33348355 -0.057433162 -0.3962255
000310 12 9a 40 bd a1 77 1e bf 82 a8 0b 3e ca 25 80 be
       -0.047021933 -0.6190129 0.136385 -0.2502883
000320 b7 6e 94 bd 1f c7 2b 3e c6 7f 14 3d 61 e9 0c be
       -0.0724768 0.16775177 0.036254667 -0.13760902
000330 a4 c8 53 bc 79 16 18 3d 60 73 bf be cd ff 26 bf
       -0.012926254 0.037130807 -0.37392712 -0.6523407
000340 f4 02 86 be 97 a8 e1 be 9a 2f 3b be a4 19 85 be
       -0.26174128 -0.44073936 -0.18279877 -0.25996125
000350 20 d9 15 3e 67 d0 05 bf 54 59 e5 be ae f4 1c be
       0.14633608 -0.5227112 -0.44794714 -0.15327713
000360 f2 22 c6 bc a4 ef 2c bf ca 9a 74 3c 42 0f c5 bd
       -0.024186585 -0.6755316 0.014929483 -0.09622051
000370 89 fb 68 be a2 d5 47 be ca 7a b5 3c c7 de 12 bd
       -0.22752203 -0.19515088 0.022153277 -0.03585699
000380 e0 97 e9 be 68 af ed bc 58 22 16 3e a1 4a 2d bf
       -0.45623684 -0.029014304 0.14661539 -0.67692
000390 43 3a 42 3e 03 a4 e3 bd c8 72 34 3d 27 2c a7 bc
       0.18967538 -0.11115267 0.044054776 -0.020406796
0003a0 c5 4c 1d bf 9f b1 41 3e 47 83 64 be e9 f4 4e be
       -0.61445266 0.18915413 -0.22315703 -0.20210613
0003b0 21 1e 8e 3b 5b 2f 45 bd 58 5a 8d bd c0 37 45 be
       0.0043370877 -0.048140865 -0.06901997 -0.19259548
0003c0 6f 67 a9 be a3 36 48 be 61 67 f0 3d c4 1b ea 3c
       -0.33086726 -0.19552092 0.11738468 0.028577693
0003d0 03 12 0a bd 56 d4 80 bf a3 65 44 bc e9 81 9d bd
       -0.033708584 -1.00648 -0.011987123 -0.07690794
0003e0 58 f2 c1 be 65 5e 54 be 56 45 86 bd be 67 98 3e
       -0.37880206 -0.20739134 -0.065561935 0.2976665
0003f0 a9 c0 a1 be 89 9d 7e be 05 30 bf be d7 20 ed bd
       -0.315923 -0.24864782 -0.37341323 -0.11578529

lstm.bias_hh_l0 f4 [512]
000000 dc f1 00 bf 8c ee d9 be c8 13 9d be 06 f5 14 bf
       -0.5036905 -0.4256481 -0.30679154 -0.58186376
000010 e8 c1 88 be e0 7d f8 bd cb 80 23 bf d1 06 88 be
       -0.2671044 -0.12133384 -0.638684 -0.265677
000020 f8 a2 f4 bd cf 18 17 be 8f 00 b4 be 47 32 4b bd
       -0.11945146 -0.14755557 -0.35156676 -0.049608495
000030 5a 01 c5 be 18 81 0d bf c5 92 d5 be 15 e1 ac bd
       -0.38477594 -0.55275106 -0.4171354 -0.084413685
000040 b2 9a aa be 4e 53 97 be 35 0a 40 3d 88 d2 21 be
       -0.33321148 -0.29555744 0.046884734 -0.15802968
000050 70 70 82 be cd fb 0c be 44 fa 1a bf b8 cf 0d bf
       -0.25476408 -0.1376793 -0.60538125 -0.5539508
000060 c6 a9 e5 be 86 97 cd bd f9 99 5b bd ee 05 42 bf
       -0.4485609 -0.100386664 -0.053613637 -0.757903
000070 fb af 94 be a3 9f d7 be 4c 65 79 be 3e b4 31 be
       -0.29040512 -0.4211398 -0.24355048 -0.17353913
000080 b8 a3 30 bf a6 9c b6 be 30 7a 29 bf 43 03 b4 be
       -0.68999815 -0.35666388 -0.6620207 -0.35158738
000090 dc 8b 89 bd e6 6d ff be d6 2f b0 be 91 e5 ac be
       -0.06716129 -0.49888533 -0.34411496 -0.33768895
0000a0 e2 54 b5 be 4e 09 15 be 51 0a 05 bf b7 17 f3 be
       -0.35416323 -0.1455433 -0.51968867 -0.4747903
0000b0 07 40 a7 be c2 ab d8 bc 66 44 fb bd 81 1f 86 be
       -0.32666036 -0.026449088 -0.12268905 -0.2619591
0000c0 7c 02 0f be 78 11 3b be 57 f3 e3 be f5 f3 09 bf
       -0.13965791 -0.18268383 -0.4452159 -0.53887874
0000d0 f5 48 06 bf ed dc d6 be 92 23 ec be 10 99 95 be
       -0.52455074 -0.41965428 -0.46120888 -0.2921834
0000e0 d9 7f a0 be 94 15 3d be 7b b2 64 be 9c 7f 35 bf
       -0.3134754 -0.18465263 -0.2233371 -0.7089784
0000f0 7e e5 e4 be ca 16 94 be fc 30 01 be 44 29 8d be
       -0.4470634 -0.28923637 -0.12616342 -0.27570546
000100 bd dd 12 be 99 1c 96 be a0 09 9d be f1 36 ec be
       -0.14342399 -0.29318693 -0.30671406 -0.46135667
000110 1b 3f 40 be c4 04 2c bf 8d f0 17 be 05 5c bb be
       -0.18774073 -0.6719477 -0.14837857 -0.36593643
000120 f3 a2 a1 be 21 86 68 bc ef c4 28 3b 36 3f 8b bd
       -0.31569633 -0.014192135 0.0025752147 -0.06799166
000130 a6 f6 77 be 92 30 0f be 1f c0 ee be c3 17 12 bf
       -0.24215183 -0.13983372 -0.46630952 -0.5706751
000140 5e e2 21 be 60 14 0b bf 12 ed d8 be b6 d6 f6 be
       -0.15809008 -0.54327965 -0.4236837 -0.48210686
000150 d1 a6 ae be 20 57 1e bf 07 de c1 be ae 48 0e be
       -0.34111646 -0.6185169 -0.37864706 -0.13894913
000160 e7 b2 7c be 14 e3 42 bf 44 a1 08 be a9 19 9f be
       -0.24677621 -0.76127744 -0.13342768 -0.31074265
000170 ac ac d9 be c7 72 14 be d8 da d6 bc 5a 7a 12 bc
       -0.4251455 -0.14496909 -0.0262274 -0.008940304
000180 f5 19 1a bf 9b d2 93 be f9 df 5b be 51 87 46 bf
       -0.6019586 -0.28871617 -0.21472158 -0.77550226
000190 2d b8 58 be 19 86 42 be 1c 60 a3 be 77 ce 7c bc
       -0.21164007 -0.18996467 -0.31909263 -0.015430084
0001a0 82 4e 22 bf f7 90 a5 3c 20 00 ab be 20 5c a9 be
       -0.63401043 0.020210726 -0.33398533 -0.33078098
0001b0 75 ec 93 be 98 0d 08 be ef 21 90 bd d5 80 20 bf
       -0.2889134 -0.13286436 -0.07037722 -0.6269658
0001c0 c6 d3 08 bf 3a 81 f8 be 85 be 05 bd b8 42 a2 bc
       -0.5344814 -0.48536092 -0.032652397 -0.019807205
0001d0 32 60 49 be 3b 78 25 bf da 24 85 3d 9a a4 a6 be
       -0.19665602 -0.6463658 0.065011695 -0.32547456
0001e0 3b 9e ac be f8 4c 87 be 4b c0 20 be fc 68 5e bc
       -0.3371447 -0.2642591 -0.15698354 -0.013574835
0001f0 10 3a bd be 49 d0 e2 be af 7e ed be f2 dd 8c be
       -0.3695836 -0.44299534 -0.46385714 -0.2751308
000200 53 85 21 40 58 9b 2e 40 23 74 36 40 e1 73 20 40
       2.5237625 2.7282314 2.8508384 2.5070727
000210 96 a4 38 40 10 a7 40 40 07 a6 1e 40 03 e2 2e 40
       2.8850455 3.0101967 2.4788835 2.7325447
000220 fa 1e 48 40 48 4b 49 40 0d 7d 23 40 1e 50 46 40
       3.1268907 3.1452198 2.5545075 3.09864
000230 f3 ee 2b 40 61 a8 24 40 5b f9 49 40 de 0d 3e 40
       2.6864593 2.572777 3.1558444 2.9695964
000240 4b d6 30 40 f6 6d 35 40 d7 c3 44 40 ea e3 24 40
       2.7630794 2.8348365 3.074453 2.5764108
000250 0e d8 40 40 96 ec 3a 40 0a bd 21 40 7d d3 15 40
       3.013187 2.92069 2.527163 2.3410332
000260 46 d2 22 40 8f 71 40 40 9f 63 31 40 c1 31 16 40
       2.544084 3.006931 2.7717054 2.3467867
000270 c5 6e 41 40 01 b8 2c 40 a5 23 22 40 20 df 3e 40
       3.0223858 2.6987307 2.5334256 2.9823685
000280 0d 8a 1f 40 10 35 36 40 f3 c8 18 40 da 57 3d 40
       2.492801 2.8469887 2.387265 2.958487
000290 6a d0 39 40 29 92 18 40 2a f5 33 40 91 49 4b 40
       2.9033456 2.383921 2.8118386 3.1763651
0002a0 24 98 2e 40 6f 8d 3e 40 47 30 24 40 85 65 32 40
       2.728036 2.9773824 2.5654466 2.7874463
0002b0 6b c5 2b 40 26 b0 52 40 fc c1 3a 40 7e 0c 34 40
       2.6839244 3.2920012 2.9180899 2.8132625
0002c0 a8 e9 43 40 3b bf 2c 40 1f d4 3a 40 b8 30 2b 40
       3.0611362 2.6991718 2.9191968 2.6748486
0002d0 c7 bc 35 40 14 87 4d 40 43 2b 30 40 0f 0a 33 40
       2.839647 3.2113695 2.7526405 2.797489
0002e0 dd d0 33 40 32 31 3d 40 e3 64 38 40 60 e4 11 40
       2.809623 2.9561276 2.8811576 2.279564
0002f0 2f e3 43 40 0f 50 31 40 e4 01 46 40 67 2b 38 40
       3.0607412 2.7705114 3.0938654 2.877649
000300 b9 99 37 40 97 46 30 40 db 56 3c 40 b2 87 22 40
       2.8687575 2.7543085 2.9428012 2.5395322
000310 4f 2a 3b 40 f1 f4 16 40 e2 9e 47 40 de 32 34 40
       2.9244573 2.3587 3.1190724 2.8156047
000320 cd 18 3f 40 85 af 45 40 3c b2 40 40 54 63 37 40
       2.9858887 3.0888379 3.0108786 2.8654375
000330 45 98 3a 40 5e d4 40 40 34 b5 27 40 f0 fa 13 40
       2.9155438 3.0129619 2.6204348 2.312191
000340 0e ac 30 40 7f 2f 1f 40 b8 48 33 40 e9 04 2c 40
       2.7605014 2.487274 2.8013134 2.6877997
000350 bd 58 47 40 1f 48 1c 40 f6 2a 20 40 a5 67 36 40
       3.1147912 2.441902 2.5026221 2.850076
000360 54 19 3e 40 b0 16 13 40 1c 84 3e 40 80 65 36 40
       2.970296 2.2982597 2.9768133 2.849945
000370 f9 87 31 40 e9 61 2e 40 a6 de 41 40 e5 25 3a 40
       2.773924 2.724726 3.0292144 2.908563
000380 a3 e2 27 40 19 21 3c 40 f5 b2 46 40 d9 6f 11 40
       2.6232078 2.9395201 3.1046727 2.2724516
000390 4b 2f 4b 40 cb 6c 3a 40 cd f1 44 40 29 32 3c 40
       3.1747615 2.9128902 3.0772583 2.9405615
0003a0 14 f8 1c 40 ff b6 47 40 8c 25 2f 40 f6 0a 2f 40
       2.4526415 3.1205442 2.7366667 2.735044
0003b0 73 68 3d 40 7f ee 3a 40 a7 fd 3a 40 fb fb 34 40
       2.9595 2.9208066 2.9217317 2.8278797
0003c0 24 88 2f 40 b1 c4 31 40 e6 30 42 40 24 40 3e 40
       2.7426844 2.77763 3.0342345 2.9726648
0003d0 6d 11 3a 40 b9 e2 04 40 5f 5d 3d 40 b3 c0 38 40
       2.9073136 2.076338 2.958824 2.8867614
0003e0 3b 46 2c 40 03 5b 2f 40 9c c7 3c 40 a4 67 4d 40
       2.6917865 2.73993 2.9496832 3.2094507
0003f0 09 01 2a 40 db b5 2f 40 66 2e 28 40 ef 07 38 40
       2.6563132 2.7454746 2.627832 2.8754842

head.net.0.weight f4 [1, 128]
000000 7d fd 30 be d8 f6 d4 3c f1 cb 85 3c b7 ba 47 bd
       -0.17284198 0.02599661 0.016332598 -0.04876205
000010 ce e3 50 3a 20 4b 87 bb cf a7 36 be 4a b4 9e bd
       0.0007968516 -0.0041288286 -0.17837451 -0.07749231
000020 48 6a 6e bb 0a 25 6f 3c a7 8b 36 bc 1b 4b 0c 3c
       -0.0036379267 0.014596233 -0.011141694 0.008562828
000030 5b 1a a3 bc 6d 85 28 3d fd 98 7d b7 59 89 c3 3b
       -0.019910028 0.04114287 -1.51155955e-05 0.005967301
000040 7f 65 ea 3c 55 1d 35 3d 5b 9d 6d 3b 5c 34 98 3d
       0.02861285 0.044217426 0.0036257121 0.07431862
000050 e1 62 98 3b 0e f7 8d ba aa 75 46 3e f4 04 98 be
       0.004650459 -0.0010831074 0.19380823 -0.2969128
000060 fb 52 65 be c3 db 08 bc 16 d9 ac 36 1c 56 df be
       -0.22394936 -0.0083531765 5.1512716e-06 -0.43620384
000070 28 c7 9c 3a 1b 26 17 b9 b8 d3 5a 3d ae 04 96 bd
       0.0011961209 -0.00014414678 0.053424567 -0.07325111
000080 94 8a 0e 3f cf dc e8 3d 92 ee e5 be 2a bc 8e bc
       0.55680203 0.11370241 -0.44908577 -0.017423708
000090 c1 c8 ab 39 ae f6 21 3f 96 1c 35 3c 22 37 27 39
       0.00032765235 0.6326703 0.011054179 0.000159469
0000a0 17 6a 8d bb 42 ba a0 3c 8a 49 4b 3e de b2 9f 3c
       -0.0043156254 0.019620065 0.19852272 0.01949447
0000b0 2f 50 44 3c 8a 0a fd bb 97 78 00 3b 4d c7 ac bb
       0.011982008 -0.0077222036 0.0019603127 -0.005272782
0000c0 bf a6 ae 3b 09 89 56 3d 21 13 40 3d 72 a8 18 3c
       0.0053299363 0.05237678 0.046893243 0.009317504
0000d0 50 b2 d6 3a bd 6b 95 39 99 7f 34 be 70 be 39 bc
       0.0016380046 0.00028499766 -0.176268 -0.011336908
0000e0 ce f0 78 bb 3f d4 30 ba 3d 0b ad 3a 36 47 d4 bf
       -0.0037985328 -0.00067454943 0.0013202202 -1.6584232
0000f0 dc cf ce bb 29 13 e1 bc 2d 91 78 bb e4 00 32 bc
       -0.0063114 -0.027474957 -0.0037928328 -0.01086447
000100 ac 2b fc bb 6a a4 c4 3a eb 21 89 bb 21 c2 37 bd
       -0.007695636 0.0015002612 -0.0041849515 -0.04486287
000110 f2 8c 53 3b e7 8a 57 3f 97 25 22 3c 8d 0e 15 3c
       0.0032280055 0.84196323 0.009896657 0.009097707
000120 5e c0 60 bb 61 32 85 bb eb 5f be 3b f8 9d 22 bc
       -0.0034294347 -0.0040648435 0.005809774 -0.009925358
000130 7a be 0e bb 1f 2d 29 ba bc 77 83 bd 6e ed 8d 3e
       -0.0021781013 -0.0006453562 -0.06419322 0.27720207
000140 59 a3 ba bb 98 31 cc 3d 5d 14 e0 bb 0e 60 1a bc
       -0.005695742 0.09970397 -0.006838365 -0.009422315
000150 25 6a 87 ba 58 4c 0a be c0 2a 1a bd d8 9c 0f bb
       -0.0010331316 -0.13505685 -0.037638426 -0.0021913555
000160 b1 5f 77 bc ab bd 88 bf 82 65 c6 3b 13 16 57 bd
       -0.015098498 -1.0682882 0.006054581 -0.052511286
000170 10 0b 22 bc 19 05 8c 3c d8 4f 28 ba e8 3f 1f bc
       -0.009890333 0.017092275 -0.0006420589 -0.009719826
000180 50 e9 08 3e 03 51 29 3c 17 66 19 ba 98 7b c3 3f
       0.13370252 0.010334256 -0.00058516994 1.5272093
000190 05 52 c6 bb 30 ce 84 3d 61 35 b2 3b b2 91 f0 3c
       -0.006052258 0.0648464 0.005438492 0.029366348
0001a0 c1 db b5 bf 8e e1 c3 3a 5a e1 f1 3a 03 d4 80 ba
       -1.4207689 0.001494454 0.0018454001 -0.0009828809
0001b0 20 a7 a3 bb 96 88 8e 3a 86 05 65 b9 fa 3a c4 36
       -0.004994288 0.0010874446 -0.000218412 5.848121e-06
0001c0 74 b2 47 bc 51 25 50 3b 51 5d f1 3a 40 3e 3a 3a
       -0.012188543 0.0031760524 0.0018414651 0.0007104613
0001d0 f7 b8 bd 38 db 8b 27 bf 20 69 63 3b d7 6b cd ba
       9.046675e-05 -0.6544778 0.003470011 -0.0015672398
0001e0 0c c2 e9 bb 2d 2f f5 3d 16 42 0e bc d8 eb 05 bd
       -0.007133728 0.11971889 -0.008682748 -0.03269562
0001f0 54 58 a5 3d 05 48 a0 bc ec 99 6e 3e b1 5f 19 bb
       0.08073488 -0.019565592 0.23300904 -0.0023402984
