examples/catchment_models/training/runs/usa_basin_split_2404_020225/model_epoch002.pt (torch, 316229 bytes, 5 tensors)

lstm.weight_ih_l0 f4 [512, 23]
000000 ac 28 77 bb da 1e 8f 3d bc 67 a7 bc e4 8e 6a 3d
       -0.0037713451 0.06988306 -0.020435207 0.057265177
000010 7a 04 ab bd 44 0b 26 3e 7e ce 25 3b 0d 7b f1 bd
       -0.08350463 0.16215235 0.002530008 -0.11791048
000020 37 6f c0 3a a8 3c 04 3d 27 2e c4 bd 44 8f 03 3d
       0.0014681582 0.03228441 -0.09579115 0.03211905
000030 82 4e de bd 40 8f 06 be 5b a2 05 bd c3 f0 e4 3c
       -0.10854818 -0.13140583 -0.032625537 0.027946835
000040 1e b6 34 bc 75 86 e4 3d c7 ba 98 bd 1c 7a a2 3d
       -0.011029748 0.11158458 -0.074575 0.07933447
000050 68 a9 0f 3e fc b5 bc 3d 9a a4 72 3d 07 b2 a8 3d
       0.14029467 0.09214398 0.059239008 0.08237081
000060 21 51 4c 3c e5 34 85 bc 0d e0 9d bd 01 53 88 3d
       0.0124705145 -0.016260574 -0.0770875 0.06656457
000070 66 15 00 3e 3f e0 02 bc 41 49 2b 3d 54 e9 f3 3d
       0.12508163 -0.007988035 0.041817907 0.11909738
000080 21 a1 94 3d 2f 3f c0 bc 1a 9a d9 3d 30 38 70 3c
       0.072572954 -0.023467628 0.10625096 0.014661834
000090 55 7b f0 bd 0a e6 6b bd 88 00 bb b9 13 44 54 3d
       -0.11742274 -0.05759243 -0.00035667815 0.051822733
0000a0 50 9a de 3c 24 2d dc bd 87 fb 24 3d d1 dd 04 3e
       0.027173191 -0.107507974 0.040278938 0.12975241
0000b0 42 70 2e 3d 95 24 33 3b f6 7c b6 3d 88 78 ce 3c
       0.042587526 0.0027335037 0.08910553 0.025203958
0000c0 8b f1 96 3d 70 1f 28 3d 3d 91 c0 3d 13 8b db ba
       0.073702894 0.041045606 0.09402702 -0.0016749821
0000d0 d0 d5 1d 3c cf b0 44 3d fc d6 25 bc 46 bc b4 bd
       0.009633496 0.04802018 -0.010122057 -0.08824973
0000e0 73 a6 f2 ba a5 3d a0 3d 73 24 35 bd 2f 95 35 bd
       -0.001851274 0.07824258 -0.044224214 -0.044331726
0000f0 f9 0e 01 3d 54 20 a0 3d e5 22 99 bd 99 30 53 bd
       0.03150842 0.07818666 -0.07477359 -0.05156002
000100 77 13 be bd 4c 4a 17 3d 6b af 00 bd 1c 90 80 bc
       -0.092810564 0.03693609 -0.03141729 -0.015693717
000110 db a4 a3 bd 6e 6d 25 3e 89 67 03 3e 73 c6 a7 3d
       -0.07990428 0.16155025 0.12832464 0.08192148
000120 3d da 23 bd d1 ed 83 bd d5 71 dd 3d 14 7a 43 3d
       -0.04000305 -0.06441844 0.10812727 0.047723845
000130 4a d0 ac 3c 5f e8 49 bd e4 60 e3 bc 0d 3a b9 3b
       0.021095414 -0.049293872 -0.027756162 0.005652672
000140 fd 04 17 3c ff 1e 9d bc 53 aa c5 bb fb 05 4d 3c
       0.009217498 -0.01917982 -0.006032267 0.012513633
000150 8c 6a 94 bc cd 1e d6 bb ba 65 0a bd eb 29 c0 3b
       -0.018117212 -0.0065344335 -0.03378842 0.005864372
000160 54 af c2 3d 73 cf 96 3d f1 9a aa bc f1 b0 b4 3d
       0.095060974 0.073637865 -0.020825835 0.088228114
000170 37 91 e5 3c 15 cd 66 3d 1a e2 b7 3b 1d b7 5f 3d
       0.028023345 0.056347925 0.00561167 0.05461799
000180 96 7b b4 3d 91 78 ac 3d 38 61 b8 3d b5 a1 84 3c
       0.08812635 0.08421434 0.09002918 0.01619039
000190 0f 76 b0 3d 3a e3 ee bd 05 9c 88 3b bb 6f bb bd
       0.08616268 -0.11664434 0.0041689896 -0.0915217
0001a0 f0 4b 13 bd 09 8c 9b bb 79 24 42 3d 3b d4 c1 3d
       -0.03596109 -0.004746918 0.047398064 0.09464308
0001b0 67 57 24 3d 19 37 f5 bb 17 b2 05 3d 12 db 1f bd
       0.040122416 -0.007483375 0.032640543 -0.03902728
0001c0 58 d3 2c 3d f6 a6 86 3b ea 88 61 3b b5 3b c4 3e
       0.04219374 0.0041092588 0.0034413883 0.38326803
0001d0 8e 58 8e 3d 31 44 d0 3c d8 d6 23 3d 2f 96 19 3e
       0.06950484 0.025423141 0.039999813 0.14998697
0001e0 e0 bf 2b 3c 25 c7 0c 3c b5 ea 31 3e 49 19 3f bd
       0.010482758 0.008592402 0.1737469 -0.046654973
0001f0 26 6e 66 3d f2 17 83 bd df 66 ac 3c ba aa 28 3d
       0.05625739 -0.064010516 0.021045147 0.041178443
000200 6f b0 9c 3d bb c2 93 3d 7c 44 98 bd 0b af c3 bd
       0.076508395 0.07214876 -0.07434937 -0.09554871
000210 9e 88 db bd b0 39 03 be b6 9a 4c bd 0a 1d d0 bd
       -0.10719417 -0.12814975 -0.04995223 -0.10161789
000220 ca 22 3e bb b0 d9 24 3c 48 63 7e 3d f0 56 ca 3d
       -0.0029012435 0.010061666 0.0621064 0.09879863
000230 2e 78 84 3d e3 fb f3 3c 5d 33 1f 3d ba e8 0f 3e
       0.06468235 0.029783195 0.038867343 0.14053622
000240 f2 35 bd 3d d2 d5 c6 bb 79 be ee 3c 28 dc 6e bd
       0.09238805 -0.00606797 0.029143559 -0.058315426
000250 05 c2 28 3c 42 00 1d be ae bf 9a bd 13 0e dc bc
       0.010300164 -0.1533213 -0.07556091 -0.02686218
000260 23 c9 dc 3d 5b 2a 14 3e db 4f 38 3d e1 67 c1 3d
       0.10780551 0.14469282 0.04499803 0.094436415
000270 22 fe f9 bd 1e 02 ea 3c 29 51 64 bd ec a0 ec 3d
       -0.12206675 0.028565463 -0.055741463 0.11554131
000280 6a 19 e1 3d 45 88 37 3e d4 d7 36 bd e9 3d af 3d
       0.109911755 0.17923076 -0.044639423 0.0855673
000290 f9 c9 a8 3d 6f b2 c7 3d ba 15 44 3c 15 aa b2 3d
       0.08241648 0.097508304 0.011968071 0.08723847
0002a0 4d 03 b4 3d 05 87 98 3d 86 42 fb bc 09 7f 77 bd
       0.08789692 0.07447628 -0.03067137 -0.060423885
0002b0 34 a4 21 bc 5b ce bf 3c 32 40 27 bd a6 2d fb bc
       -0.009865809 0.023413828 -0.040832706 -0.030661415
0002c0 05 6f ab bd da 75 2e bd 77 9b 95 3d fc 22 7a 3b
       -0.08370785 -0.04259286 0.07305043 0.0038167825
0002d0 cd 41 5b bc 79 3a 82 bc 94 c3 66 3d a9 c1 84 bd
       -0.013382387 -0.015897023 0.05633886 -0.0648225
0002e0 79 e9 ca bd d7 d3 b7 bd a6 af 1c bd 61 8c 81 3d
       -0.099078126 -0.08975952 -0.03825345 0.06325603
0002f0 8a ea 08 3d 54 83 d2 bd 9a 4f 97 bd 57 b3 bf bd
       0.0334268 -0.10278955 -0.0738823 -0.09360378
000300 7a 0a 1a 3d 67 04 88 3d 62 39 3c bd 81 e2 18 bd
       0.037607647 0.06641465 -0.045953162 -0.037325386
000310 56 91 a4 3c ee a9 b7 bd 2c 62 97 3d 63 bf c1 3c
       0.020088833 -0.089679584 0.07391772 0.02365083
000320 33 46 c1 bc 91 55 aa 3c de 14 89 3d a1 b1 72 bd
       -0.023593044 0.020792754 0.06693433 -0.05925143
000330 20 e8 8c bd c9 3b 83 3a 6a b5 0b 3c c3 3a 74 3d
       -0.06880212 0.0010012324 0.008527139 0.059626352
000340 62 16 42 3c 46 05 96 3d 94 68 c4 3a e5 d7 4e bc
       0.011846157 0.073252246 0.001498478 -0.012624715
000350 8c c0 0f 3d 3e 5f 95 bd f4 6a d8 3c 56 40 0c bd
       0.035095736 -0.07293557 0.026418187 -0.034241043
000360 8f 21 1c 3d da 35 d1 bc af 1b 13 3c be 65 48 bc
       0.03811794 -0.025538374 0.008978768 -0.0122312885
000370 3c 00 84 bd 96 a3 6d bd c1 da ad 3c fe ec f2 bc
       -0.06445357 -0.058017336 0.021222474 -0.029654022
000380 51 41 35 3d 55 2e d0 bd 92 30 10 bd ba eb a3 bd
       0.044251744 -0.10165087 -0.03520257 -0.08003946
000390 6a fc d5 3c a3 b2 7a bb 27 0e 87 bc 87 63 b9 3c
       0.026121337 -0.0038253448 -0.01648624 0.022630466
0003a0 6f e0 21 bd 62 28 42 3d 22 e2 4d 3d d5 a6 86 bc
       -0.039520677 0.047401793 0.050264485 -0.016436974
0003b0 0b 6d 9e 3d 14 86 1d 3d 8b f3 2b bd 90 45 05 3b
       0.07735642 0.038457945 -0.041980308 0.0020335652
0003c0 ee 05 6d 3d 07 bb 96 bd dc 1f 92 bd 71 7e f1 3c
       0.057866983 -0.073598914 -0.07134983 0.029479237
0003d0 6d f6 05 3e be d8 ef 3d e4 a6 88 bd ac a5 16 bd
       0.13082285 0.11711262 -0.06672457 -0.03677909
0003e0 d6 72 c1 ba bc 8f 64 3d 29 7d 7b 3d f9 91 d8 bb
       -0.0014758955 0.05580114 0.06139866 -0.006609198
0003f0 8c 4c f5 3d 6b 70 0f bd 21 4b 6b 3b bb 08 49 3b
       0.11977491 -0.03501932 0.0035902935 0.003067537

lstm.weight_hh_l0 f4 [512, 128]
000000 d6 17 8b 3d fa 50 58 3c 02 a5 14 be 80 e3 9a bd
       0.06791656 0.0132029 -0.1451607 -0.075629234
000010 b1 3e f0 bc e9 77 04 be cb 6d 05 bd 82 a8 83 3b
       -0.029326769 -0.12936367 -0.03257541 0.0040178904
000020 b0 9e 21 3e dd 75 58 bd 8b d8 25 bd 04 0b 8d bd
       0.1578319 -0.05284678 -0.040489715 -0.06886867
000030 c2 48 9e bd 19 54 ae bd 8f 2c 96 bc 87 bb b2 3c
       -0.07728721 -0.08512134 -0.018331794 0.021817936
000040 59 66 3c bd c4 ca a9 3d 94 84 08 bc 57 2d 11 bd
       -0.045996044 0.082906276 -0.00833239 -0.03544363
000050 5b 62 e4 bd f1 2b ff 3d d5 67 05 be a1 85 d9 3b
       -0.11151572 0.12459553 -0.1302789 0.0066382443
000060 cd cd f5 3d d4 d8 d6 bd 7d 42 fb b8 5a a8 70 3d
       0.12002144 -0.104905754 -0.00011980997 0.058754303
000070 75 73 15 3e 21 c9 3b bd 8f 19 9b bd fb bc 57 bc
       0.14594825 -0.04584611 -0.07573234 -0.013167615
000080 19 d2 1f 3d 2f 4a 8e bb ac a1 a7 3b d7 16 80 bd
       0.039018724 -0.0043423395 0.0051157083 -0.06254356
000090 0c 04 5a bd 37 e6 df bb 74 90 05 bd 1b 33 b4 3d
       -0.053226516 -0.0068328637 -0.032608464 0.0879881
0000a0 d5 da a5 bd 1c 0b f5 b9 c5 57 a5 bc 30 7e dd bd
       -0.080983795 -0.0004673832 -0.020183453 -0.10815084
0000b0 59 f7 0a be 87 47 cd bc 47 e5 b9 bd 22 98 0d bc
       -0.13570918 -0.025058521 -0.09076934 -0.008642228
0000c0 44 c0 8a bd 91 92 f6 bc 94 36 a7 bd 29 d7 91 bc
       -0.06774953 -0.030099185 -0.08164707 -0.017802792
0000d0 af ce 4e bd 5e cf 52 3d 6e f3 06 bd 25 16 f3 bd
       -0.050490078 0.051467292 -0.032946996 -0.11869458
0000e0 32 8c 39 3c ee f4 51 3d d9 06 ea bd be ee ba 3c
       0.011324929 0.051258974 -0.11427087 0.02281892
0000f0 9c 33 9a bd b4 0b 86 bd a7 0b 60 bd ad 7f 1a be
       -0.07529375 -0.06545201 -0.054698613 -0.15087767
000100 16 aa d1 3d 1a b5 f4 3d 8a a1 07 be f8 29 ed bd
       0.102375194 0.11948605 -0.13245216 -0.115802705
000110 f7 c7 eb bc c5 42 1d 3a 2a f4 b6 bd c8 da 74 3c
       -0.028781874 0.0005999024 -0.08933289 0.01494474
000120 d2 95 b1 3d 2b de 05 3d fc de c5 3d 87 62 85 3d
       0.08671154 0.03268258 0.096616715 0.06512933
000130 55 e8 bf 3d d5 6d 9c 3b 56 bd 77 bc 23 1d fd 3c
       0.09370486 0.004773835 -0.015120825 0.030897683
000140 6a 96 0f bd bd 35 be bd 90 55 0a 3d 42 68 05 be
       -0.035055555 -0.092875935 0.033773005 -0.13028052
000150 60 fc 01 be 5c 5a 28 3d 6a 85 9c bd 7f f7 08 3e
       -0.1269393 0.0411018 -0.07642634 0.13375662
000160 51 7c 04 3d 96 c2 40 bc 42 4b 95 bc 4f d5 22 bd
       0.03234512 -0.011765143 -0.018224362 -0.03975421
000170 b8 97 82 3d 18 ee 59 bd 1d 82 43 3c 79 42 0f 3e
       0.06376594 -0.05320558 0.011932877 0.13990201
000180 2e 80 93 3d 9b 90 b4 bd d7 0a b3 3d ee a0 97 3d
       0.07202183 -0.08816644 0.08742302 0.07403742
000190 5d ac ab bb 13 ef 8c 3d 08 d0 0e be 5c 2e a8 bd
       -0.005239053 0.06881537 -0.13946545 -0.08211967
0001a0 7b a6 9a bb 1d 6d ea bd 95 89 84 3d ed d9 a6 bd
       -0.004719553 -0.11446593 0.06471554 -0.08147035
0001b0 6d 0a 2a 3c e2 54 b5 bd 49 9c 6b bd 36 f0 5b 3d
       0.010378462 -0.08854081 -0.057522092 0.05369588
0001c0 02 89 89 bd b9 5f 8e bd 74 7c 19 be 15 dc db 3d
       -0.06715585 -0.069518514 -0.14988881 0.10735337
0001d0 cd b8 b7 3d 90 89 89 bd 01 92 fa 3d 8f 7f 78 3c
       0.08970795 -0.06715691 0.12234879 0.015167131
0001e0 67 44 d1 bc af d9 a1 bc 12 20 3d 3c 54 5c ae bc
       -0.025545312 -0.01975712 0.011543291 -0.02128426
0001f0 6d 76 0c 3e 54 0f 3c bc 77 d4 37 3b 5e e6 f3 bd
       0.13717051 -0.011478264 0.0028050223 -0.119091734
000200 36 df a2 bd 48 f8 bd 3c 9e 55 6b 3c 67 b0 76 3d
       -0.0795273 0.023189679 0.014363674 0.060226824
000210 ce 62 d0 3c 72 af 95 bd 62 5a a3 bc 6f a8 ac bd
       0.025437739 -0.07308854 -0.019940559 -0.08430564
000220 4b 9a eb 3d 46 40 57 3c b7 78 01 3e a3 e3 bf bd
       0.115040384 0.013137883 0.12643705 -0.0936959
000230 7d 25 b7 bd 03 bb b6 3c ce 26 86 3d 77 7d ce 3b
       -0.08942697 0.022305971 0.0655037 0.0063015777
000240 8e bc 45 3d 61 b4 f7 3c 80 e4 87 3c 70 30 e8 bd
       0.048275523 0.030237379 0.01658845 -0.11337364
000250 37 ba 9a bd 9c 57 d3 3d 79 c3 48 bb 1d 8e 07 3d
       -0.07555049 0.103194445 -0.003063409 0.033094514
000260 88 6c 82 bd 28 6d 97 bd ee f9 f1 3b fb dd 38 bd
       -0.06368357 -0.07393867 0.0073845303 -0.045133572
000270 b5 2e a8 bc 74 92 33 bd ab 54 92 bc 0b da 89 bd
       -0.020530084 -0.04384084 -0.017862638 -0.067310415
000280 95 1c b3 3d ef c0 67 bd 9f 36 13 3d de 45 a3 3c
       0.08745686 -0.05658048 0.035940763 0.019930776
000290 c3 2d ef bc 61 fe 00 3d e0 51 8b 3d 86 04 55 3b
       -0.029196626 0.031492595 0.06802726 0.0032503917
0002a0 68 03 0e 3d af 1c 3a bc 50 55 3e bd 3e 78 05 be
       0.034671217 -0.011359378 -0.04646808 -0.1303415
0002b0 91 b7 94 3b 7a d6 8e bd 1f 85 ae bc a9 03 17 3c
       0.0045384844 -0.06974502 -0.021303711 0.009217181
0002c0 55 95 5e bd 5d f5 ed 3d fd d2 21 3d 38 eb 2e bd
       -0.054341633 0.11619065 0.039507855 -0.04270479
0002d0 7e 61 00 be de 1e 90 bc 8c 78 19 bd 4f 25 fe 3c
       -0.1253719 -0.017592844 -0.037468478 0.03102365
0002e0 fb d3 2d 3d 0a a6 db bd d1 59 a8 bd 27 a6 c3 bd
       0.04243849 -0.10725029 -0.08220256 -0.095531754
0002f0 e1 41 3a 3d 0f 34 dd bb ef 58 ce bc 4f ed 4c bd
       0.045472983 -0.0067505906 -0.025188891 -0.050031003
000300 d9 29 42 3c e8 97 fd 3d a2 e0 0a bc 5d 1b fc bc
       0.011850798 0.123824894 -0.008476408 -0.030774767
000310 8f 35 e5 bd 98 e4 71 3d cd 88 be bc 5a 5c d6 3d
       -0.11191856 0.059055895 -0.023258591 0.104668334
000320 b9 5f f4 3d 34 7a 16 3d a3 1c 44 bd 27 79 eb 3d
       0.1193232 0.036737636 -0.047878873 0.11497717
000330 65 4e 63 bd c8 0a d4 bd 89 8e d2 bd 94 0b 4b bd
       -0.055494685 -0.10353619 -0.10281093 -0.04957159
000340 e2 f5 cd 3c 3a eb 3c bd 7f 0a e6 3d c8 ae f3 3c
       0.02514166 -0.046122767 0.11232471 0.029746428
000350 e5 5c 92 bd 90 b1 a0 bd db 05 95 bd 85 f9 9f 3c
       -0.071466245 -0.07846367 -0.072765075 0.01952816
000360 4b c7 3d 3d d7 73 aa 3b 02 24 97 bd c1 d9 51 bc
       0.04633264 0.0052017975 -0.07379915 -0.012808264
000370 60 e5 80 3d d2 23 0c 3d da 8f 0d bb 23 ac 0c 3e
       0.0629375 0.03421385 -0.0021600635 0.1373754
000380 27 89 00 3e ae 85 b4 3d 67 05 de 3d 84 24 9d 3c
       0.1255232 0.0881456 0.10840874 0.019182451
000390 ab dc 6c 3d 2b 6d 4e 3c 66 b5 d3 3c 47 0e 1f bb
       0.057827633 0.01259927 0.025843333 -0.0024269985
0003a0 fe b8 dd ba eb b9 e7 bd fd 00 72 bc db 20 b3 bd
       -0.0016916094 -0.11314758 -0.014770743 -0.08746501
0003b0 83 a0 50 bd 27 c7 f1 bc e4 4a bc bd 1c 44 64 3d
       -0.050934326 -0.029513909 -0.09193972 0.055729017
0003c0 e2 3f 0d 3d 70 48 4f 3d 88 52 db 3c b3 12 d9 3d
       0.03448475 0.05060619 0.026772752 0.1059927
0003d0 2b 7b ba bc ae 8d 2a bc 44 8b 18 3c 4a 29 d2 bd
       -0.02276381 -0.010409756 0.009310547 -0.102617815
0003e0 4e 26 75 bc 88 ed 71 3d 55 73 96 3d 68 48 8c bd
       -0.014962746 0.059064418 0.073462166 -0.06849748
0003f0 8d bd 05 3c 12 97 c8 3d 13 a6 9c 3d 10 d8 b2 bd
       0.008162868 0.097944394 0.07648864 -0.08732617

lstm.bias_ih_l0 f4 [512]
000000 01 11 97 bd 8d cb 81 bb 8f 09 b6 bb aa 38 4e 3c
       -0.0737629 -0.0039610327 -0.0055553387 0.012586752
000010 25 8b f4 3c d6 8c a2 bd 82 ac 4d bb f3 dd fe bc
       0.029851506 -0.079370186 -0.003138334 -0.031111693
000020 53 9c 73 3d 4d c0 9a 3c bf c1 fa bc 96 02 ba 3d
       0.059475254 0.018890524 -0.030609963 0.090825245
000030 06 dc 12 3d a5 b9 e0 bd 84 f2 3d 3d 97 d7 c9 bd
       0.035854362 -0.10972909 0.04637386 -0.098555736
000040 24 c2 ab bc f8 48 74 bd 5f a1 2e 3c 1e ad 63 3d
       -0.020966597 -0.0596399 0.010658591 0.05558502
000050 34 46 a6 3d 93 45 a8 bd 36 e4 ac bc 89 f8 ba bd
       0.08118859 -0.08216395 -0.021104913 -0.091294356
000060 b5 93 9e bd 0d 48 31 3d 49 4b 2a 3c f5 f4 68 bd
       -0.07743017 0.043281604 0.010393926 -0.056874234
000070 f8 fa 30 bd d8 7a d4 bd 11 da 64 bc 10 cc 1b bc
       -0.043208092 -0.10374993 -0.013968007 -0.0095091015
000080 83 1b 19 be 36 bc 05 bc 6b ac 1b be 9f d5 bb 3c
       -0.14951901 -0.008162549 -0.15202491 0.02292901
000090 b0 ee 85 bd 39 0a b6 bc a2 7c a3 3c cc 98 96 3d
       -0.06539667 -0.022221671 0.01995689 0.073533624
0000a0 ce b9 1c 3b 72 73 6c 3c 39 97 d9 bd 0d 53 c8 bd
       0.002391446 0.014431821 -0.106245466 -0.09781466
0000b0 20 f9 98 bd d2 81 b4 3c 28 cf 08 3d dc 2d 16 bd
       -0.07469392 0.02203456 0.033400685 -0.03666483
0000c0 ab b0 95 bd ab 4b 21 bd 8b d6 20 be 1c ea f6 bd
       -0.07309087 -0.039378803 -0.15706842 -0.120563716
0000d0 59 1f 50 3d e0 0a 3e 3d e2 a8 ac bc 51 22 b9 3d
       0.050811145 0.04639709 -0.021076623 0.090397485
0000e0 cc 92 a9 bd e0 dc 4a bc f6 66 53 bd 4a ff 1e be
       -0.082799524 -0.012381762 -0.051611863 -0.15527073
0000f0 89 db 88 3d c1 b0 41 3d 2b 11 a4 3d 44 9d bf bc
       0.06682498 0.047287706 0.08011087 -0.02339042
000100 5a a5 81 bd b9 3e 87 bd 8e 82 ef bb 29 e7 b7 bd
       -0.063303664 -0.0660376 -0.0073092645 -0.08979637
000110 5d 15 5a bc 11 ae 18 bd c2 f0 01 3b 5c f7 a6 bc
       -0.013310757 -0.037275378 0.001982734 -0.020381622
000120 27 9a 28 bd 76 90 61 3d e6 c3 89 3d 62 47 a1 bd
       -0.041162636 0.05506941 0.06726818 -0.07874943
000130 26 a5 36 bd 59 78 a0 bb 43 5b c2 bd bf ec b8 bd
       -0.04459109 -0.004897159 -0.09490063 -0.09029531
000140 92 56 de bc ce 6e 10 bc 09 97 75 3d 47 c0 f7 3c
       -0.02714089 -0.00881548 0.05995849 0.030243052
000150 49 8a 51 3d 9f 47 cc bd 3a 41 13 be c7 ac 1c 3d
       0.05115727 -0.09974598 -0.1438035 0.03825071
000160 95 d1 63 bd 25 da 45 bd 5d 18 92 3d e2 5e 0b bb
       -0.055619795 -0.048303742 0.07133553 -0.0021266271
000170 2a 07 03 be a2 49 c2 3b 26 cf c7 bc fb c4 64 bc
       -0.12795702 0.005929188 -0.024390768 -0.013962979
000180 da b3 88 bc 12 dd ab bd ae 1a 78 3d 7f 7e d4 bd
       -0.016687322 -0.08391775 0.06057232 -0.1037569
000190 ad 1f b9 3d 93 59 93 bd a6 25 03 bd 0d 6d a9 bc
       0.09039245 -0.07194819 -0.032018326 -0.020681882
0001a0 2a 0b 01 be 33 96 47 bd 8a 6c 36 bd 6d a9 87 bd
       -0.12601915 -0.048727226 -0.044537105 -0.06624112
0001b0 cd 01 e5 bd 70 dc d4 3d ed 57 1d bd d7 e3 a4 bd
       -0.11181984 0.103936076 -0.03841393 -0.080512695
0001c0 2c 1b 45 bd 52 76 00 be 06 b1 20 3d ad 48 be 3c
       -0.048121616 -0.12545136 0.039231323 0.023228014
0001d0 e1 db ae bd 7b 9e 3f be 9f 1a 20 3d 26 dc 33 bd
       -0.08538032 -0.18712799 0.039087888 -0.04391112
0001e0 30 87 84 3c 51 97 0a 3d c3 e9 1b bd 19 a6 b9 3d
       0.016177744 0.033835713 -0.03806473 0.09064884
0001f0 30 cf 8b bd e2 b8 2e 3d 91 93 a6 3d 06 8c d8 3c
       -0.06826627 0.042656787 0.08133615 0.026433956
000200 b3 96 ad bd af a6 8f bc 9e 34 98 3c 0e 5a 07 be
       -0.08476009 -0.017535536 0.018579777 -0.13217947
000210 c0 77 84 bd 61 ef e7 3a 1c ec db bd 8b cb f6 3c
       -0.06468153 0.0017695242 -0.10738394 0.030126354
000220 02 9d 8d 3d 7b f4 3c 3c 4c fb 10 be 85 3d 6f 3b
       0.069147125 0.011532898 -0.14158362 0.0036505174
000230 44 82 8d 3c 58 87 dd bd 5f 81 7d bd ee 34 bd bc
       0.01727403 -0.108168304 -0.061890956 -0.023096528
000240 8a a5 c5 bc 56 8f e0 bd 45 c3 81 3d 71 58 b6 bd
       -0.024126787 -0.10964839 0.06336073 -0.089035876
000250 b8 35 cd 3b 4a 62 f1 bc c4 da 3e 3c d0 25 b2 bb
       0.0062625073 -0.029465813 0.0116488375 -0.0054366365
000260 f1 5d b6 bd 71 bf 33 3d c7 a2 0c bb 90 28 8b bc
       -0.08904637 0.043883745 -0.0021459328 -0.016987115
000270 3d ac b6 bd 6d 68 7a bc 35 ce 5f 3d 41 cb c2 3d
       -0.089195706 -0.015283686 0.054640014 0.09511424
000280 92 01 13 be a9 bf 2d bd 4c c2 78 bd 4b a4 45 bd
       -0.14356068 -0.04241911 -0.06073217 -0.048252385
000290 d5 e1 85 3d 31 a0 82 bc 0e 5b 86 bc c7 03 e3 3d
       0.06537215 -0.015945526 -0.01640084 0.11084705
0002a0 6e bb 78 3c cc fc 37 bc f4 8e e9 bd 6e 59 3e 3d
       0.0151814055 -0.011229705 -0.11404219 0.046472006
0002b0 b4 c1 cc bc 86 cb 36 3c f7 f6 77 3d 9b 41 2b bc
       -0.024994709 0.011156922 0.06053826 -0.010452653
0002c0 78 e6 35 bd b9 e1 9f bc 1f 92 05 be 7a f7 0f bd
       -0.044409245 -0.019516813 -0.13044022 -0.03514812
0002d0 44 c5 dd 3c 9a db 73 3d 7b 82 cc bd 5e 06 96 bd
       0.027071603 0.0595356 -0.09985825 -0.07325433
0002e0 84 04 2a bc e9 02 3b 3d ef 27 e1 3b 1c a9 08 be
       -0.010377053 0.045657072 0.0068712155 -0.1334576
0002f0 82 0b 8d bd 90 43 0e 3d 8e 0f fb 3c c7 53 82 3d
       -0.068869606 0.0347324 0.030647065 0.063636355
000300 17 9b b9 3c 62 1b 0b be 52 4e c0 bc b0 5d f0 3b
       0.02265696 -0.13584664 -0.023474846 0.007335387
000310 76 7b e5 3c ce 69 bc bd 2a 07 e7 3c 16 fd 9f bd
       0.028012972 -0.09199868 0.028201658 -0.07811944
000320 2f 2d 8a bd 7e 0a 34 3d 24 d6 2d bc b1 e3 5a 3c
       -0.06746899 0.04395532 -0.010610137 0.01335995
000330 9b bf 82 3d 1c c5 d0 bc 06 df d2 39 17 06 b6 bc
       0.06384202 -0.025484614 0.00040220487 -0.0222197
000340 40 1d ba bd 7f 59 99 3c ff 22 93 bc 27 12 00 3d
       -0.0908761 0.018719433 -0.017961023 0.03126731
000350 ec dc 7a 3c 6f de bc bd 72 ef d9 bc 75 52 9e bb
       0.015311461 -0.09222113 -0.026603434 -0.004831607
000360 7e dd cc 3b 1a 08 e8 bc cf d0 87 3c ec 81 c2 3c
       0.00625199 -0.028324176 0.01657906 0.023743592
000370 c8 4f 32 bd c1 09 87 3d 26 9e f2 ba 85 ce ad 3c
       -0.043533117 0.06593657 -0.0018510267 0.02121664
000380 0f be 05 be 7e 5e b6 bc 84 f7 3b 3d 35 12 8f bd
       -0.13060783 -0.022261854 0.045890346 -0.069858946
000390 72 68 67 3d 42 bd c9 bc 8a eb 50 3c 67 65 8b 3d
       0.05649609 -0.024626378 0.012751469 0.0680645
0003a0 3e e0 1a be 29 51 85 3d 2b 98 a2 bb 9a 64 d6 bc
       -0.15124604 0.06509621 -0.0049619875 -0.026171017
0003b0 cc 68 a9 bc 84 97 75 3d 28 6b 04 3b f8 d4 8e bd
       -0.020679854 0.05995895 0.0020205472 -0.06974214
0003c0 bc fb 63 bd 3b 25 62 bd de 53 c9 3d d5 fb 2b 3d
       -0.055659994 -0.055211287 0.098304495 0.041988213
0003d0 99 ba e9 3c 4e 8e 57 be 5a 1f a7 3c 94 eb 08 bd
       0.02853136 -0.21050379 0.020400692 -0.03342779
0003e0 0d 70 f8 bd 78 ca c7 3c 81 78 ba bc 4d f2 d6 3d
       -0.12130747 0.024388537 -0.022762539 0.10495434
0003f0 a8 96 de 3c db 17 82 3c 2c a7 ee bb 2c 82 56 3c
       0.027171448 0.015880516 -0.007283112 0.013092559

lstm.bias_hh_l0 f4 [512]
000000 cd c9 cc bd 07 51 55 bd 51 12 80 bd aa 88 ac bd
       -0.09999428 -0.052079227 -0.062534936 -0.08424504
000010 03 6f c9 bd c8 15 e6 bd 7b a6 e5 bd 26 e1 99 3d
       -0.09835627 -0.11234623 -0.11213394 0.07513647
000020 fc 52 6f 3d b9 5e 9d bd d9 7c 08 be 40 e6 7d 3d
       0.05842875 -0.076840825 -0.13328876 0.06198716
000030 57 a4 21 bd c8 3c 6e bd d4 93 c7 bc 89 c1 ef bd
       -0.039463367 -0.058163434 -0.024362482 -0.11706836
000040 01 ab 94 3c df 88 02 3d 37 7f 87 bb b8 90 42 b8
       0.018147947 0.03186881 -0.0041350382 -4.6387984e-05
000050 77 0f 40 bd a2 08 a7 bd 72 ae cf bd 7f d0 8f bd
       -0.04688975 -0.081559435 -0.10140695 -0.07022189
000060 56 48 d0 bd 7e d5 4b bc 3c 1d 0d bd 4d a4 7f bd
       -0.10170047 -0.012441037 -0.03445171 -0.06241255
000070 35 bb b1 bd 98 23 cc bd 01 fe 45 3c d4 cd 20 bd
       -0.08678285 -0.099677265 0.012084485 -0.039258793
000080 90 0a d4 bc 0b fe 58 bc 20 5d 41 be 85 1d 65 3c
       -0.025883943 -0.013244162 -0.1888318 0.013984089
000090 14 6b 16 3d 0c c9 f7 bc 92 47 bc bd 58 cb 34 bd
       0.03672321 -0.030247234 -0.091933385 -0.044139236
0000a0 47 c6 8f 3d ad 7b c5 3c cb c4 98 bd e2 b6 80 bd
       0.0702024 0.024106825 -0.0745941 -0.06284882
0000b0 2e 6c 0e be cf 2b 30 3d bf 2c b7 3c 53 f8 23 3d
       -0.13908455 0.04301053 0.022360204 0.040031742
0000c0 40 f1 b2 bc 26 a6 68 bd 20 5c 1c be 46 5d 06 be
       -0.021843553 -0.056799076 -0.15269518 -0.13121518
0000d0 f5 df a9 3b 00 7c 23 3d 4f 5f e4 bd 7d ea e7 bb
       0.0051841685 0.039913177 -0.11150991 -0.0070775137
0000e0 53 ec 87 bd db cd 11 3c 69 10 ad 3c 10 1c d1 bc
       -0.06636872 0.008899177 0.021125989 -0.025526077
0000f0 b1 9e c0 bd ab a8 68 bd 17 d4 55 bc 90 35 6b bc
       -0.09405268 -0.05680148 -0.013051054 -0.014356032
000100 6b e8 08 3d 0b 9a 79 bc f1 9c 95 3d a8 bf 74 3a
       0.033424776 -0.015234481 0.07305325 0.00093364203
000110 42 1b 97 bd df 4c c4 bd 3c d5 77 3d 28 7e 75 bd
       -0.07378246 -0.095849745 0.06050609 -0.059934765
000120 3b 2b 82 3d 46 b4 d9 bc 7d 1e 8e 3d fb 2b b0 bd
       0.06355902 -0.026575219 0.06939409 -0.086021386
000130 db c8 b7 3c 5d ce 34 bd ee 38 24 3d 2f 59 b3 bd
       0.022434643 -0.044142116 0.040093355 -0.08757245
000140 5d e3 b1 bc d3 bc df bd b6 f5 22 bb a3 13 cf 3c
       -0.02171486 -0.10924687 -0.0024865693 0.025277918
000150 fe bc f8 3c 33 79 0e be cd f2 10 be 1c 7e 44 3d
       0.030363556 -0.13913421 -0.14155121 0.04797183
000160 36 3b 03 3d c5 3b 05 be 85 ba 12 3c 28 9e 15 bd
       0.03203889 -0.13011082 0.0089556025 -0.036527783
000170 06 9d 04 be 00 f6 61 3d a3 92 2e 3d 5b 35 11 bd
       -0.12950525 0.055166245 0.042620312 -0.035451274
000180 92 ae f2 bd b1 e1 99 bc 95 76 47 bc 9e 1b f6 bd
       -0.11849703 -0.018784376 -0.012174268 -0.12016986
000190 4b f0 bd bc d0 cc 62 3d 6c 02 37 bc 14 5f 37 3d
       -0.02318587 0.055371106 -0.011170011 0.044768408
0001a0 ec a8 da bd f1 57 81 3c be bd b1 bd a4 e7 a6 39
       -0.106767505 0.015789004 -0.086787686 0.00031834573
0001b0 7a fe a4 bd cc e4 1e 3c f5 84 e3 bc 43 1d fc bd
       -0.0805635 0.009698104 -0.02777336 -0.12310269
0001c0 64 4a bb 3c 70 6a 08 be a5 56 79 3d 3e ec 08 3d
       0.02286262 -0.13321853 0.060873646 0.033428423
0001d0 7c df 21 bd e6 c0 e9 bd 90 a2 04 bc 62 eb a7 bd
       -0.039519772 -0.114137456 -0.008095399 -0.081991926
0001e0 ff 5f 71 bc 2a 52 11 bd 50 bf a5 bc cf b2 bf 3c
       -0.01473236 -0.03547875 -0.020232826 0.023400692
0001f0 f1 90 23 3d bb cd fc 3b da 24 93 bd 72 6a 78 bd
       0.03993315 0.0077149547 -0.07184763 -0.06064839
000200 c0 9e 3a 40 8a fb 3b 40 97 43 3f 40 c9 c8 3a 40
       2.9159393 2.9372277 2.9885004 2.918505
000210 58 91 3d 40 dd 39 3f 40 3f 51 3c 40 2a bf 3e 40
       2.961996 2.9879067 2.9424589 2.9804177
000220 3a 05 41 40 d1 d9 3f 40 53 8a 3c 40 c9 09 40 40
       3.015944 2.9976695 2.9459426 3.0005972
000230 bb 1b 3f 40 1c f1 39 40 1e 10 3e 40 76 c1 3a 40
       2.9860675 2.9053411 2.9697337 2.918058
000240 52 ea 3b 40 a9 41 3e 40 d4 61 3f 40 53 fd 3e 40
       2.9361768 2.9727576 2.990346 2.9842117
000250 40 0a 40 40 85 63 3d 40 70 08 3c 40 e5 fd 3b 40
       3.0006256 2.9591992 2.938015 2.9373715
000260 7a 91 3c 40 55 b5 3e 40 57 80 3f 40 68 46 3d 40
       2.9463792 2.9798176 2.9922082 2.9574223
000270 f2 80 3c 40 d7 4a 3b 40 12 9a 3e 40 26 74 40 40
       2.9453702 2.9264429 2.9781537 3.0070891
000280 62 af 3b 40 a0 48 3c 40 6e e4 38 40 ea 47 3c 40
       2.9325795 2.9419327 2.8889422 2.9418893
000290 00 62 3f 40 a3 ef 39 40 93 d6 3b 40 a3 02 42 40
       2.9903564 2.9052513 2.9349716 3.031411
0002a0 01 d8 3e 40 8a 20 3f 40 26 91 3d 40 6e 49 3e 40
       2.9819338 2.986361 2.9619842 2.9732318
0002b0 7d 21 3d 40 2b 17 3f 40 20 0b 40 40 e6 d7 3d 40
       2.955169 2.985789 3.000679 2.9663024
0002c0 f8 b8 40 40 57 93 3e 40 f8 8b 3b 40 9b 5d 3a 40
       3.0112896 2.977743 2.930418 2.9119632
0002d0 f7 cb 40 40 f1 7c 41 40 bb 1c 3e 40 d8 87 3e 40
       3.012449 3.0232508 2.9705036 2.9770412
0002e0 07 54 3a 40 2d 8d 3e 40 11 56 40 40 f4 fa 3a 40
       2.9113786 2.9773667 3.005253 2.921567
0002f0 73 86 3e 40 a6 77 3f 40 61 c0 3f 40 65 2a 42 40
       2.9769561 2.9916778 2.9961169 3.0338376
000300 9d 9b 3e 40 b3 ec 3c 40 71 83 3e 40 eb 5b 3c 40
       2.978248 2.951947 2.9767725 2.9431102
000310 95 f7 3f 40 c9 af 38 40 a4 b2 40 40 cf 37 3f 40
       2.9994862 2.885729 3.0109034 2.9877813
000320 aa 6a 3f 40 1f c3 3d 40 5d b2 3d 40 89 0c 41 40
       2.9908853 2.9650342 2.9640114 3.01639
000330 ec 81 3f 40 a2 d2 3c 40 27 aa 3f 40 48 4e 3c 40
       2.9923048 2.950356 2.9947603 2.942278
000340 ed 9a 3b 40 32 97 3c 40 48 d5 3d 40 ae a8 3e 40
       2.931331 2.9467282 2.9661427 2.9790454
000350 e6 f5 3e 40 1f d5 37 40 3e 22 3b 40 1e e8 3f 40
       2.9837584 2.8723829 2.923965 2.9985423
000360 bb 0b 40 40 40 82 3c 40 ea 9e 3e 40 ea 12 3e 40
       3.000716 2.9454498 2.9784493 2.9699044
000370 31 4e 3d 40 be 17 3f 40 59 55 40 40 d5 cc 3d 40
       2.9578974 2.985824 3.0052092 2.965627
000380 dd b9 3c 40 a7 8f 3c 40 01 41 40 40 26 4a 38 40
       2.9488442 2.9462678 3.0039675 2.8795257
000390 76 a9 42 40 10 f6 3f 40 20 f1 42 40 72 db 41 40
       3.041593 2.9993935 3.045967 3.0290189
0003a0 28 9d 3a 40 b0 c5 3f 40 ed 1c 3d 40 72 4d 3a 40
       2.915842 2.996441 2.9548905 2.910977
0003b0 a7 ce 3b 40 bc d9 41 40 83 89 3f 40 b7 d8 3c 40
       2.934488 3.0289145 2.992768 2.9507272
0003c0 f2 24 41 40 ba bf 3a 40 64 f8 40 40 12 1c 3f 40
       3.01788 2.917952 3.0151606 2.9860883
0003d0 d4 0c 3e 40 9d d3 37 40 88 6f 3f 40 1c 89 3b 40
       2.969533 2.8722908 2.9911823 2.9302435
0003e0 99 c0 3c 40 59 30 3e 40 2d 85 3f 40 96 12 41 40
       2.9492552 2.971701 2.9925034 3.0167594
0003f0 3b f6 3f 40 ea a3 40 40 d5 9c 3f 40 54 47 40 40
       2.9994037 3.0100045 2.9939473 3.0043535

head.net.0.weight f4 [1, 128]
000000 e3 d8 f0 3b 9f 76 8a 3b e4 a4 fa ba d8 dd 35 bc
       0.0073500737 0.0042255665 -0.0019122628 -0.011100255
000010 7f 54 82 bb 52 08 e2 bb fb fe 4f ba 48 f3 16 bc
       -0.003977358 -0.0068979645 -0.00079344184 -0.009213276
000020 cf 4c 1b 39 0f 25 ae b9 15 b3 4c 3b 3b 42 b1 ba
       0.00014810565 -0.00033215477 0.003123467 -0.0013523767
000030 57 c2 f6 ba cd a8 09 bc 1a ea bf b8 e1 8f 65 3a
       -0.0018826228 -0.008402062 -9.1511945e-05 0.00087570964
000040 fa 5c 4c bb 9b 4e d8 3b 5c ae b4 ba 31 51 03 bc
       -0.0031183348 0.0066011674 -0.0013784873 -0.008014963
000050 9d 0c b7 bb 7b 31 97 3b 63 44 97 bb a2 c0 4d bc
       -0.0055862204 0.004614053 -0.0046163066 -0.012558134
000060 37 29 3c 3c d2 ff d9 bb 74 dc ed bb 3d 3c 90 3a
       0.011484436 -0.0066528106 -0.007258946 0.001100428
000070 7e 26 d5 3b d8 42 5f 3b 67 f4 61 bb 7f 00 b9 3b
       0.0065048328 0.0034066942 -0.003447795 0.005645811
000080 21 99 c4 3a 09 33 f6 bb ae e2 df bc 06 d5 92 bb
       0.0014999249 -0.007513408 -0.027329769 -0.004480961
000090 0f c0 e5 bb 49 d7 f3 3c 25 1d dc 3b 1c 2d 17 3a
       -0.0070114206 0.029765742 0.0067173415 0.00057669147
0000a0 ee af 38 bb 4f d9 c2 3b 59 20 0d bc eb a6 5f ba
       -0.0028181034 0.0059463154 -0.008613669 -0.00085316476
0000b0 1f fc 90 bb a5 9d fb 3a 70 b3 26 bb 31 ae 42 bc
       -0.0044245864 0.0019196762 -0.0025436543 -0.011882351
0000c0 85 e4 fb b9 e0 fe c5 3b 76 72 3e bc c8 18 bb ba
       -0.0004804471 0.0060423464 -0.011623969 -0.0014274353
0000d0 ef 5e fb bb bf a1 5a 3b ad 43 97 bb 5c f1 a9 ba
       -0.007671229 0.0033360568 -0.004616222 -0.0012965607
0000e0 23 ec 8a 3b cf e7 cf bb 85 96 0e bb 79 9f c7 bc
       0.0042395755 -0.0063447724 -0.0021757197 -0.024368035
0000f0 0e e1 bb ba 88 6d 03 bc 9b a3 f6 bb eb c9 1a bc
       -0.0014334039 -0.00802172 -0.0075268275 -0.009447555
000100 57 b8 22 3b de c7 73 3b d6 68 17 bb 87 7f 21 bb
       0.0024829113 0.0037197988 -0.0023103259 -0.0024642663
000110 f0 18 eb bb 25 f8 1d 3c 8c 84 fa ba 66 38 36 ba
       -0.0071746036 0.009641682 -0.0019112988 -0.0006951153
000120 5a 1b 88 3b 39 b4 81 3b ac f9 33 3b ec ea a6 ba
       0.004153651 0.003958252 0.0027462048 -0.0012734807
000130 3b ab bc ba 8f da f8 bb 31 77 af bb fb 90 24 bc
       -0.0014394292 -0.0075944136 -0.005354785 -0.010044332
000140 2e 84 cd bb cb 84 88 bb 9c da 0f 3c 15 8c d2 ba
       -0.0062718606 -0.004166221 0.008780148 -0.0016063476
000150 1f df 37 bc e4 68 94 bc c0 05 78 bc a5 1f 19 3b
       -0.01122263 -0.018116422 -0.01513809 0.002336481
000160 bb 56 a5 3b fc 49 1c bc a0 9a ee bb d5 03 fd 3b
       0.0050457395 -0.009539124 -0.0072816163 0.007721404
000170 21 ba 04 3c f2 79 a5 bb c4 57 8d bb 02 88 8e 3b
       0.008101017 -0.0050499374 -0.004313441 0.0043497095
000180 36 b5 d6 ba 79 45 71 bb 82 ff 2f 3b 4f ca 42 3c
       -0.0016380909 -0.003681509 0.0026855175 0.011889054
000190 55 4b a7 ba 42 5c 33 bb 13 24 99 ba 25 3d 6b bb
       -0.001276354 -0.0027368222 -0.0011683725 -0.00358946
0001a0 8a 93 37 bc 0d 4d 4e bb 2d 83 4b 3b ce 39 a4 bb
       -0.01120461 -0.0031479031 0.0031053529 -0.0050117737
0001b0 f5 8b da bb a1 f1 b1 ba 21 b2 8a bb cb df 91 3b
       -0.006669516 -0.0013576039 -0.0042326604 0.004451727
0001c0 db 8d dc bb c2 fe 59 bb 03 f6 cc bb 31 eb fa 3a
       -0.0067307777 -0.003326342 -0.006254913 0.0019143579
0001d0 ea 41 80 3b 31 5b 2c bd 57 ac e1 3b 95 ab 83 bb
       0.0039141076 -0.042079154 0.0068869996 -0.004018257
0001e0 a8 cf 14 bc c8 8f 6d 3a 59 87 2d bc cb e4 e3 bb
       -0.009082712 0.00090622576 -0.010591351 -0.0069547645
0001f0 1a ae 74 3b 9c fb 3d 3b 3e 94 dd 3b 27 92 bd bb
       0.0037335218 0.0028989082 0.0067620566 -0.005785245
