examples/catchment_models/training/runs/usa_basin_split_2404_020225/model_epoch010.pt (torch, 316229 bytes, 5 tensors)

lstm.weight_ih_l0 f4 [512, 23]
000000 33 50 c9 b9 53 4e 43 3e a5 b6 63 bc 2c 1d 2e bd
       -0.0003839746 0.19072847 -0.013898526 -0.04250829
000010 0b c6 cf bd ea 48 0d 3f f4 90 e7 3e 81 c7 91 be
       -0.101451956 0.55189383 0.45227778 -0.28472522
000020 20 96 1a 3f dc 82 77 3c dc b4 e0 be 1b 4b 67 3e
       0.6038532 0.015106883 -0.43887985 0.22587244
000030 63 20 12 bd 79 70 ca be 2e df 02 be d7 d6 f9 3e
       -0.035675418 -0.39538935 -0.12780449 0.48796722
000040 84 64 69 3e d5 15 b3 3e 82 d0 8d be fe c5 94 3e
       0.2279225 0.34977594 -0.2769814 0.29057306
000050 42 72 c4 3e 7a f5 cc 3e 3a 3f 43 3e e6 d1 51 3d
       0.38368422 0.40031034 0.19067088 0.051225565
000060 cb 55 7d 3e c9 03 c3 bd 2d 8e ea bd 1c 11 a1 3d
       0.24739759 -0.09522206 -0.11452899 0.078645915
000070 a3 ca b2 3e bb 05 d0 3e 1b 88 d3 bb da cb 24 3f
       0.34920225 0.40629372 -0.006455434 0.6437355
000080 55 88 0f 3e b6 5c ff bd b2 5b a1 3e 24 43 6e 3d
       0.1401685 -0.12468855 0.3151527 0.0581695
000090 cf d4 a5 be 71 48 0d be ab 23 f8 3e 35 80 74 3e
       -0.32388923 -0.13797165 0.48464713 0.23877032
0000a0 08 d1 6a 3e d8 c4 59 be 55 a3 01 3e 0e e0 a5 3e
       0.22931302 -0.21266496 0.12659962 0.32397503
0000b0 dc 2f 93 3e 32 ac 15 3e 59 a1 2f 3e a0 6c a0 3d
       0.2874745 0.14616469 0.17151393 0.078332186
0000c0 17 94 72 3d 2d 22 8d 3d af af ce 3d 06 40 df 3d
       0.05922326 0.06891284 0.10092103 0.109008834
0000d0 e6 19 b3 bd 5c ee 75 bd ab 97 0d be c4 b3 f5 3d
       -0.08745174 -0.06004177 -0.13827388 0.11997178
0000e0 dc 46 e0 bd 97 8a 93 3e b7 03 83 be ef 21 47 be
       -0.10951015 0.28816673 -0.25588772 -0.19446538
0000f0 4f ac 59 be ae 3c 19 bd 02 e5 c2 3d 60 d5 fb 3d
       -0.21257137 -0.037411384 0.09516336 0.122965574
000100 0b f1 8f be b0 d3 71 3e 54 1c 1b 3e 7e 4a 0c 3e
       -0.2811359 0.23615909 0.15147525 0.13700292
000110 ed 33 8b be f9 29 af 3d 05 47 c9 3e 08 8e 0c be
       -0.27188054 0.085529275 0.39311996 -0.13726056
000120 c2 db a0 bd 9b 29 10 be 72 30 bb 3e f5 ed 14 3f
       -0.078544155 -0.14078371 0.36560398 0.58175594
000130 65 f4 ea bd 58 bf 10 3f 47 9f d2 3d 71 9b 9a be
       -0.11472396 0.5654197 0.10284286 -0.30196717
000140 de 06 43 3e a7 fc 06 be ff 0b a6 be 54 48 85 bd
       0.19045588 -0.13182317 -0.32431027 -0.06507936
000150 01 14 c0 3e 52 a9 94 3e 4e 53 92 3e a4 54 88 be
       0.37515262 0.2903543 0.2857918 -0.26627076
000160 f7 52 9f 3e a7 ce b7 3e 34 51 bb 3e b7 87 97 3e
       0.31117985 0.3589985 0.3658539 0.2959573
000170 69 61 41 3e dc 78 3e 3c d4 10 3e 3e 96 be a5 3b
       0.18884815 0.011625495 0.18561107 0.00505812
000180 a2 6c 8c 3e 98 68 56 3e c1 44 6b 3e b8 f2 56 3c
       0.2742663 0.20938337 0.22975446 0.013119392
000190 13 c7 94 3e fe e3 14 bf 90 cc 9f 3c 96 9b 16 bf
       0.29058132 -0.5816039 0.019506723 -0.58831155
0001a0 28 9a 3c be c8 c7 49 3e ff d7 a0 3e 0a a2 99 3e
       -0.18418181 0.19705117 0.31414792 0.30006438
0001b0 64 69 9d 3d 26 7b e3 3d c3 36 75 be fe aa 48 3e
       0.07686117 0.11107473 -0.23946671 0.19596478
0001c0 e9 49 f1 bd 43 3a 33 be 65 c3 32 3e c8 17 36 3f
       -0.11781675 -0.17502694 0.1745735 0.7113004
0001d0 1b f3 25 3b 43 82 38 3e 7b d8 3c 3e 9d 25 aa 3e
       0.0025321904 0.18018441 0.18441956 0.33231822
0001e0 ba f4 26 3d 5d 68 77 be 1f bf 1f 3e 3b 5f 61 be
       0.040760733 -0.24160905 0.1560025 -0.22008984
0001f0 0e 27 97 3d e7 99 bf 3c 14 cf 79 3d 59 11 c1 be
       0.07380496 0.023388816 0.0609885 -0.37708548
000200 ca 81 8c 3e 98 a8 02 3d c2 a0 b7 be d6 de a8 bd
       0.2744277 0.031899065 -0.35864836 -0.082456276
000210 a4 a2 4b be ac 99 39 be 21 e5 ec 3b ef 69 00 be
       -0.19886261 -0.18125027 0.0072294627 -0.1254041
000220 81 04 29 be 77 24 f4 bd 24 16 67 bb 61 a6 34 3e
       -0.16505624 -0.119210176 -0.0035261 0.17641594
000230 70 23 a5 3d bb 44 27 3c b1 e8 7b bd 01 42 02 3f
       0.080634 0.010209258 -0.06150121 0.50881964
000240 36 db 18 3f cf 2c 05 be 45 6d 10 3f 05 42 94 bd
       0.5970949 -0.13005374 0.5641673 -0.07239155
000250 25 d3 9c be a9 85 d0 bc d1 2a 12 bd b7 92 87 be
       -0.3062984 -0.02545436 -0.035685364 -0.26479122
000260 58 00 5d 3d 7c 5f f1 3e a0 8c 8f 3e fb 08 a2 3e
       0.053955406 0.4714316 0.28036976 0.31647477
000270 19 af ce be 04 56 84 3e f4 75 19 3e 52 71 d9 3e
       -0.40367964 0.25846875 0.14986402 0.4246927
000280 7c 56 63 3e 6f 89 d0 3e 46 32 22 bd 25 7f 6a bd
       0.2220096 0.40729854 -0.039598726 -0.05725016
000290 c3 1b f1 bd 9c 97 91 3e 14 d3 5c 3e d0 3e 84 bb
       -0.11772873 0.2843598 0.21564895 -0.004035808
0002a0 62 68 ae bd 15 f2 1e 3d f6 1f 2a 3e 50 7b 71 be
       -0.08516003 0.038805086 0.16613755 -0.23582196
0002b0 47 d3 32 3e 45 aa d3 3e 9e 2f 76 be b1 8f 8b be
       0.17463408 0.41340843 -0.24041602 -0.27258065
0002c0 26 fc 9d be 68 e0 0a 3e 26 0f 8c 3e 19 4c 3c be
       -0.30856436 0.13562167 0.27355307 -0.18388404
0002d0 f6 81 47 3e c4 0c 4d 3e b0 5d 93 3e 49 f7 18 be
       0.1948317 0.20024401 0.28782415 -0.14938082
0002e0 37 53 55 be 6d 23 67 be 89 8b cd 3e 3c d4 e1 3e
       -0.20832525 -0.22572108 0.4014552 0.44107234
0002f0 60 69 47 be f9 74 9b 3d 2f f1 bb bc 0a fb eb bd
       -0.19473791 0.0759067 -0.022942154 -0.11522491
000300 35 88 e9 bd f0 8c 76 3e 7c 51 92 3c 5d 66 37 3e
       -0.114029326 0.24077201 0.01786112 0.17910142
000310 08 0a 1b be e2 60 91 be 3b 18 08 be 54 e9 e7 bd
       -0.15140545 -0.28394228 -0.13290493 -0.11323801
000320 77 bd 98 3d 91 bf f0 3d d9 76 ec bd f0 fc 0c 3d
       0.074580126 0.117552884 -0.11546106 0.034420907
000330 72 17 bb 3d 3d 47 29 3e 94 5e 5a be 23 54 03 bd
       0.09135331 0.16531081 -0.21325141 -0.03206266
000340 83 ce 02 be 1e a7 42 3c ea 9f ec bd 82 02 63 3e
       -0.1277409 0.011880664 -0.11553939 0.22168925
000350 69 24 64 3e 08 29 69 bc 57 77 20 3c 79 c1 8a be
       0.22279514 -0.014230974 0.009794078 -0.27100733
000360 00 5a a1 3d de 83 0e be 70 df 89 bd 2e 62 8e bd
       0.07878494 -0.13917491 -0.067320704 -0.0695232
000370 5e 7f c3 bd e7 7c a5 bd 8b e1 74 bd b3 c2 c2 3b
       -0.09545778 -0.08080464 -0.059785407 0.00594362
000380 ca 5b f2 3c 42 05 f4 bd fa 8b 3a bd e8 a9 f1 bb
       0.029584784 -0.11915065 -0.04554365 -0.0073749907
000390 92 9e e0 3d 54 73 33 be 6f 59 14 3e 53 65 a4 3d
       0.10967745 -0.17524463 0.14487241 0.080271386
0003a0 6b ae 5f 3d 0d 0a 45 3e fc 09 b5 3e 65 2b 56 3e
       0.054609697 0.19242115 0.3535918 0.20914991
0003b0 df f3 78 3e 41 af 4b 3e 4b cc d5 3d fe cc fd bd
       0.2431178 0.19891073 0.104393564 -0.12392615
0003c0 29 e5 99 3d cf 9a 61 be 4a fc 73 be 8e ef 01 3e
       0.07514412 -0.22031711 -0.2382671 0.12689039
0003d0 93 b4 7c 3e 9d 50 a8 3e 38 08 b9 bd 44 dd 1d 3a
       0.24678259 0.32874003 -0.09034771 0.0006022046
0003e0 90 e6 20 be 87 db e2 3d f5 6b 83 3e 5b c7 2c 3d
       -0.15712953 0.11077028 0.25668302 0.042182308
0003f0 6e 7b 8c 3e b5 38 11 3e 0e 75 0a 3f 88 99 c9 be
       0.2743792 0.14181788 0.5408486 -0.39374948

lstm.weight_hh_l0 f4 [512, 128]
000000 97 d2 5a 3e e4 50 8b bc 87 c1 99 be a6 e4 81 3d
       0.21369396 -0.017006345 -0.30030462 0.06342439
000010 a0 7b 09 3e 0b c4 c0 be fc 17 33 bd 60 f4 ec bd
       0.13426065 -0.3764957 -0.043724045 -0.11570048
000020 4d a1 dd 3e 1a 8f 6d be d6 85 ea 3d 73 bc 8f be
       0.43287125 -0.2319912 0.114513084 -0.28073463
000030 36 c5 88 be 4d 58 ca 3b 0b b1 28 bd d5 6e e3 3e
       -0.2671296 0.006175077 -0.041184466 0.44420496
000040 39 3d 29 bd bf 15 d3 3b de d9 4a 3e 63 f2 37 be
       -0.041318152 0.0064418013 0.19809672 -0.17963557
000050 61 93 16 be 0e 6f 74 3e c1 59 6d be 2b 58 bf bd
       -0.14704658 0.23870489 -0.2317877 -0.093429886
000060 f8 c4 16 3d f2 7f 22 be 09 ba 8f be b7 68 30 3d
       0.036808938 -0.1586912 -0.2807162 0.043068614
000070 35 f4 a6 3e bc ed 13 be 75 73 eb bd 92 b7 55 3e
       0.3260819 -0.14446157 -0.11496631 0.20870808
000080 6f 37 79 3d a4 c0 9c 3c 8b b9 1f 3c 8e 43 c0 bd
       0.06084388 0.019134827 0.009748827 -0.09387885
000090 2a fb 89 be 63 f4 bd bc 46 b2 90 bd 0a b2 9b bc
       -0.26949435 -0.023187822 -0.07065253 -0.019005794
0000a0 48 e9 10 be 10 cc e5 3d 2b da 1c be d4 ba 93 be
       -0.1415149 0.112205625 -0.153176 -0.28853476
0000b0 48 41 9f be 6a d5 14 3d 5a 45 af be 41 70 82 bd
       -0.31104493 0.03633634 -0.342326 -0.06369067
0000c0 db f6 a7 be f9 7e 20 3d 7c e2 0e be db c3 91 bd
       -0.32805523 0.03918359 -0.13953584 -0.071174346
0000d0 4e 78 7d be 93 3f 0a 3e 8a db ec bc 6e 1d 43 be
       -0.24752924 0.13500814 -0.028913278 -0.19054195
0000e0 ff 70 78 3e d3 20 13 3e ef 9a ca be 93 1f 17 bd
       0.24261855 0.1436799 -0.3957133 -0.036895346
0000f0 dd 21 8f 3c 61 97 be be 8c 5f 9b be b2 cf a4 be
       0.017472202 -0.37224868 -0.30346334 -0.3218971
000100 e8 ee 3b 3e 4c 16 e1 3d 93 2c ca be b2 26 8f be
       0.18352854 0.10990581 -0.39487132 -0.2795921
000110 ba e6 3b be 2e 0e a3 bc 8b 06 f2 bd ed 7c a4 3d
       -0.18349734 -0.019904222 -0.11817654 0.0803164
000120 27 75 a8 3e b4 d3 26 bc e3 e1 5d 3e 23 07 56 3e
       0.3290188 -0.01018231 0.216682 0.2090116
000130 46 a0 87 3e 1b 03 b7 be 64 4d 30 bb 12 23 29 3d
       0.26489466 -0.35744557 -0.0026901597 0.04129321
000140 f2 33 62 be 0c 11 74 be 04 0a 55 3e 51 16 2f be
       -0.22090128 -0.23834628 0.20804602 -0.17098357
000150 c7 4c 81 be c8 8e dc 3d 67 3e 3a bd fa ea 68 3e
       -0.2525389 0.10769421 -0.045469668 0.22745886
000160 6e 0d 63 3e c5 21 e5 bd 25 4b 65 be bb 3d 18 3d
       0.22173092 -0.11188082 -0.22391947 0.037168246
000170 ef 94 81 3e 6c 65 ce bd 62 f6 a5 be ae cc 79 3e
       0.2530894 -0.100779384 -0.32414538 0.24394485
000180 26 70 50 3d eb 42 94 bd c2 e6 a2 3e e9 fa 2a 3e
       0.050888203 -0.07239326 0.3181668 0.16697277
000190 ae 82 08 3e ae 7d 31 3e 3f c8 8f be 9b 3c bc bd
       0.133311 0.17333099 -0.28082463 -0.09191247
0001a0 91 34 36 3c 4c 68 b6 be 17 85 07 3f 6b 36 bd bd
       0.011120931 -0.35626447 0.52937454 -0.09238895
0001b0 0e df 0b be 0f 06 c4 bd f0 76 a4 be ec 9b f6 3d
       -0.13659307 -0.09571468 -0.32121992 0.120414585
0001c0 6e 19 25 bd 65 bc de 3d d2 a8 04 bf 8b a9 9f 3e
       -0.040307455 0.10875777 -0.518201 0.3118404
0001d0 d7 99 62 3e 0b 12 a6 bd fb dd 81 3e 08 d9 82 3e
       0.22128998 -0.0810891 0.2536467 0.25556207
0001e0 84 69 c5 3c eb b7 bd 3c a1 5a 20 be b3 4e e2 bd
       0.024098165 0.023158988 -0.15659572 -0.11050167
0001f0 06 3c 6a 3e 3e 86 0f 3e 40 fc e5 3c ee 2d 96 be
       0.2287446 0.14016053 0.028074384 -0.29331917
000200 e6 1b 0d be 9c 93 9c 3e 59 dd 52 be ca dd 43 3c
       -0.13780174 0.30581367 -0.2059225 0.011954734
000210 f9 07 12 be 5a f0 a6 be 11 4f fc 3c 4b ca a2 be
       -0.14260854 -0.3260525 0.03079942 -0.31794962
000220 54 bd ae 3e 96 28 d7 bc fe 41 ed 3e b5 76 b5 3d
       0.3412882 -0.02626447 0.4633941 0.08860532
000230 a6 cc 37 be 97 a6 ae 3c 83 cf d6 bb 00 d9 45 3e
       -0.17949161 0.02131967 -0.006555499 0.1932106
000240 ee c8 b3 bc 18 33 00 3e b4 df f3 bb e4 94 14 3d
       -0.021946397 0.1251949 -0.007442439 0.036274806
000250 ac fa a1 be 8b 14 9e 3e f9 e5 83 3d 9e 75 f3 bc
       -0.3163656 0.30875048 0.06440348 -0.02971917
000260 c3 e7 d6 bd 83 eb 91 be 19 94 92 be 90 23 a9 bd
       -0.10493424 -0.28499994 -0.28628615 -0.08258736
000270 03 46 df 3e 89 72 25 be 63 b7 b6 3d f8 9c 2f be
       0.43608102 -0.16156973 0.08921697 -0.17149723
000280 45 2c f1 3d d4 12 26 3d 5f 4a 47 bd 9f b0 38 be
       0.11776022 0.0405453 -0.04865491 -0.18036126
000290 a5 ab 98 be 8f 1e e1 3d b1 a3 f3 3d e1 f6 d1 bd
       -0.29818454 0.10992157 0.11896456 -0.102521665
0002a0 e1 93 c2 bd dd 2a 6d 3e 30 a8 f1 3c 87 95 88 be
       -0.09500862 0.23160882 0.029499143 -0.2667658
0002b0 f1 1b 8e be 1d 5d 82 3d 4f 6c c1 be 26 23 e3 bc
       -0.27755693 0.06365416 -0.37777945 -0.027726721
0002c0 5c 49 c4 be aa 5c 9f 3e fe 18 a7 bd 6d cd 7c 3d
       -0.3833722 0.31125385 -0.08159064 0.061719347
0002d0 76 07 89 be e1 0b f6 3d 2a 42 65 be 82 38 bb bd
       -0.26763505 0.120139845 -0.22388521 -0.091416374
0002e0 4e 7e 9f 3e 3e 2b c5 be 57 34 c3 be 3c 6a 17 be
       0.3115105 -0.38509554 -0.3812587 -0.14786619
0002f0 94 c4 63 be 21 f2 44 be eb 85 bf bd f0 73 98 be
       -0.22242957 -0.1923299 -0.09351715 -0.29775953
000300 6d b3 36 3e b0 d7 91 3e 30 a1 aa be 83 ec 6c be
       0.17841883 0.2848487 -0.333261 -0.23137097
000310 4d 48 a0 be 0c 9c 24 3e d4 b9 a3 be e6 f3 52 3e
       -0.3130516 0.16075152 -0.31977713 0.20600852
000320 02 b3 a2 3e 9b 80 a9 3d b2 19 37 3e 34 59 0e 3e
       0.31777197 0.08276483 0.17880896 0.13901216
000330 aa 78 e4 3d a9 b3 a6 be d3 b7 87 be 01 08 24 3d
       0.11155827 -0.32558945 -0.26507434 0.040046696
000340 5d 6a 28 be 02 05 e0 3d 1e 96 87 3e 2f 28 e6 bd
       -0.16446824 0.10938455 0.26481718 -0.11238133
000350 d2 b7 90 be 4e 5a 4c be 38 c4 6e be a9 78 46 3e
       -0.28265244 -0.19956324 -0.23317039 0.19381966
000360 a1 2c 6f 3e 74 53 ec bc 0a 65 19 be 94 c5 fc 3c
       0.23356868 -0.028848387 -0.1497995 0.030855931
000370 b9 8a a4 3e 97 3b a1 bd 32 4b be be a0 aa 86 3e
       0.32137087 -0.07872694 -0.37166744 0.26302052
000380 b1 06 7a 3e b8 53 1f 3e c4 1b b0 3e d5 c5 a5 3d
       0.24416615 0.1555928 0.34396183 0.08094374
000390 18 d5 6d 3e 68 5a 13 3e a6 59 51 be 0c fa c7 bd
       0.2322582 0.14389956 -0.20444354 -0.097644895
0003a0 0c 92 34 bd b7 1e d0 be 34 21 a2 3e 79 10 3f 3c
       -0.044084594 -0.40648434 0.31665957 0.011661642
0003b0 0e 37 47 be 31 96 1a bb c0 80 ac be 75 c7 d0 3d
       -0.19454595 -0.0023588056 -0.33691978 0.101942934
0003c0 e9 93 b0 bc 2d 7c 93 3d 18 9a 06 be d3 a9 a3 3e
       -0.021554904 0.07201419 -0.1314472 0.31965503
0003d0 c2 7b cc 3d 69 0e b8 bd 3e b3 46 3e a8 42 16 be
       0.099845424 -0.089871235 0.19404313 -0.14673865
0003e0 0b b9 53 be a6 ee 5b 3e a2 5f 8d bb 9e 20 30 bd
       -0.20676057 0.21477756 -0.004314379 -0.042999856
0003f0 c5 71 27 bc 81 81 40 3e 03 86 32 3d 87 66 0c be
       -0.010219996 0.18799402 0.043584835 -0.13710986

lstm.bias_ih_l0 f4 [512]
000000 ca c0 de be be 9e 7f be bf 3c 12 be 02 7e b6 be
       -0.4350646 -0.24962899 -0.14280985 -0.3564301
000010 ff 49 fb bd cc 09 af bd 35 67 e2 be 5c 80 7a be
       -0.12269973 -0.085467905 -0.44219366 -0.24463028
000020 1b a2 dd bd da b3 51 bd 56 49 5f be 57 5f 2f 3d
       -0.10821935 -0.05119691 -0.21805319 0.042815533
000030 7c c7 a4 be f8 b3 f6 be e4 97 9b be de 76 85 bd
       -0.32183444 -0.4818418 -0.3038932 -0.06516813
000040 ff 75 9c be e2 45 a3 be d7 6c 17 3d e5 a2 62 bd
       -0.30558774 -0.31889254 0.036969032 -0.05533113
000050 14 d6 37 bd ac 81 74 bd 74 78 cd be c7 19 ee be
       -0.044881895 -0.059693977 -0.4013096 -0.46504042
000060 70 1a c3 be cb b6 cd bc 98 d0 0a 3d 03 6d 1e bf
       -0.38106108 -0.025111577 0.033890337 -0.6188509
000070 f3 a2 2b be 3d 01 b3 be 17 97 7c be b8 d6 20 be
       -0.16761379 -0.34961882 -0.24667011 -0.15706909
000080 a8 d5 36 bf 97 43 9d be b1 52 06 bf 25 16 64 be
       -0.71419764 -0.3071563 -0.5246993 -0.22274072
000090 e9 1d 48 be 09 87 b6 be 1d df 5e be f6 66 2d be
       -0.1954266 -0.356499 -0.21764798 -0.16933808
0000a0 e6 b3 9c be d4 8f d8 bd c5 c8 df be 0e 77 de be
       -0.30606002 -0.10574308 -0.43707862 -0.43450207
0000b0 a6 0e 41 be c4 e5 d5 bd 95 a6 61 bd 98 7f 91 be
       -0.18853244 -0.10444215 -0.055090506 -0.2841766
0000c0 0f 64 5c be 8b 23 d6 bd 2e cb c9 be 3a 1d fe be
       -0.21522544 -0.10455998 -0.39412826 -0.49631673
0000d0 a7 ad a2 be ca 48 a3 be 28 1e aa be f5 bf 12 be
       -0.3177311 -0.3189147 -0.33226132 -0.14331038
0000e0 8c 73 8f be af 72 6e be 39 f3 0d be 09 66 31 bf
       -0.28017843 -0.23285936 -0.13862313 -0.6929632
0000f0 ff 4c 64 be a9 77 02 be c3 d7 8d 3b 88 5b 58 be
       -0.22294997 -0.12740959 0.0043286993 -0.21128666
000100 d6 4d 63 be 51 f0 8f be 3f a1 9c be ee 6f 05 bf
       -0.22197661 -0.28113034 -0.3059177 -0.52123916
000110 f8 cb 1e bd fc 8b fd be 43 b3 ea bd 7d ca 2c be
       -0.03876874 -0.49520862 -0.11459973 -0.16874118
000120 49 3e ac be 4f 22 69 3d 1a 32 c3 bc b1 f6 53 bd
       -0.3364127 0.056917485 -0.023827601 -0.051748935
000130 8f 75 9a be 69 fd a3 bd f3 e5 10 bf 6b 06 fb be
       -0.30167815 -0.080073185 -0.56600875 -0.49028334
000140 ec 5d 11 be 3e 3e be be 86 16 82 be df 29 99 be
       -0.14195985 -0.37156862 -0.2540781 -0.29914758
000150 c8 d6 64 be cb 7d fe be 39 a7 ab be 79 8e ce bd
       -0.22347558 -0.49705347 -0.33526018 -0.10085768
000160 92 24 8b be c5 1d 10 bf 35 34 4c bd 71 df 45 be
       -0.27176338 -0.56295425 -0.049854476 -0.19323517
000170 20 37 af be e8 f5 12 be 74 8b 86 bd d8 33 15 3c
       -0.34221745 -0.14351618 -0.06569567 0.009106599
000180 fc d9 d8 be 84 11 b0 be 6c ad cc bd 73 57 16 bf
       -0.4235381 -0.34388363 -0.09994015 -0.58727187
000190 74 05 f9 bc 61 b8 7e be f5 a3 87 be 73 04 74 bd
       -0.030398108 -0.24875022 -0.26492277 -0.059574556
0001a0 ee 0f 01 bf 0d aa 3b bd e3 5c 60 be f7 be b6 be
       -0.5041493 -0.04581647 -0.21910433 -0.3569257
0001b0 47 b8 80 be c5 2f 89 bd 74 db bf bd 37 52 f0 be
       -0.25140592 -0.066985644 -0.09368029 -0.46937725
0001c0 4c 19 e7 be 5e e8 c3 be cc e3 0d bd 28 40 72 bd
       -0.45136487 -0.3826322 -0.034641072 -0.059143215
0001d0 42 7e 5a be 66 71 1c bf 62 58 ba 3d c4 26 8e be
       -0.21337226 -0.6111053 0.09098889 -0.2776395
0001e0 cb b7 81 be b8 0d 16 be c8 54 05 be b8 a2 88 3d
       -0.25335535 -0.14653671 -0.13020623 0.06671661
0001f0 e7 a9 e5 be 98 52 a8 be ca 0f 78 be b6 e8 3c be
       -0.44856188 -0.32875514 -0.24224773 -0.18448147
000200 b5 29 db be be e4 4b be 63 26 e4 bd c7 d9 e9 be
       -0.42805257 -0.19911477 -0.11140134 -0.45673963
000210 f3 eb f0 bd eb 01 7a 3d bc d7 01 bf 03 3a 1f be
       -0.11763754 0.061036985 -0.5071981 -0.15549473
000220 45 49 7f 3e e7 38 13 3e 5f a9 e2 be 10 fe c6 3d
       0.24930294 0.14377175 -0.44269845 0.09716427
000230 08 eb 9d be c1 34 bb be 61 d1 a8 3b 7c 77 13 3d
       -0.30843377 -0.36563686 0.005151913 0.03600262
000240 e6 31 57 be 86 fd 76 be a3 dc 11 3e 1f 32 9f be
       -0.21015128 -0.24120149 0.14244322 -0.31092927
000250 db 11 d6 3b 1d ed 60 bc c0 f6 ab be 79 9c 02 bf
       0.0065328903 -0.013728407 -0.33586693 -0.5102001
000260 27 4f d9 be e4 4d 14 3d 22 ec 72 be 7a 6a f7 be
       -0.424432 0.036207095 -0.2372289 -0.48323423
000270 35 8d bb 3c e8 26 4b be 7f 20 ad be 2a 20 ac 3b
       0.022894481 -0.1983906 -0.33813855 0.0052528577
000280 77 7c ef be e2 dd 41 be 7b 69 fa be 22 23 68 bc
       -0.46774647 -0.18932298 -0.489086 -0.014168533
000290 1d 5d 58 bd c5 60 ee be 80 a7 85 bd 32 e4 84 3e
       -0.052823175 -0.46558204 -0.06526089 0.2595535
0002a0 f6 c3 7c be 9d 96 20 bd b4 b3 c6 be 50 80 12 be
       -0.24684128 -0.039206136 -0.38808978 -0.1430676
0002b0 ac a6 09 be 25 2e 3e 3e df 13 e8 3b 22 9d 21 be
       -0.13442487 0.1857229 0.007082447 -0.15782598
0002c0 ab d3 f0 bc 93 f3 3d be ba 2e cf bd a4 a3 66 be
       -0.029397806 -0.18549947 -0.10116334 -0.22523361
0002d0 70 8e 0b be d0 c8 41 3e 46 63 9a be b2 61 8d be
       -0.13628554 0.1892426 -0.30153865 -0.27613598
0002e0 4c 8e d9 bd 5d 73 89 bc bc 55 0a bd 61 af 2c bf
       -0.10622844 -0.016778642 -0.03377317 -0.67455107
0002f0 ea da 1d 3d 5a c4 47 be 4d cf f7 3d 37 09 cd bd
       0.03853885 -0.19508496 0.12100086 -0.10011523
000300 8c c1 21 bc f3 ac 8c be 56 70 3d bd 9d 20 b9 be
       -0.009872805 -0.274757 -0.04624971 -0.36157694
000310 52 bd f5 3c 47 61 10 bf 7c cd e7 3d d8 54 63 be
       0.029997502 -0.56398433 0.1131849 -0.22200334
000320 4d f9 bc bd 85 70 07 3e 14 b2 3a bd 59 44 b3 bd
       -0.09227238 0.13226517 -0.045579985 -0.08753271
000330 1e ca b2 bd 45 4f 8e 3c f4 e0 b2 be 0d f7 ed be
       -0.08729957 0.017371783 -0.3493725 -0.46477547
000340 c3 fd 91 be 2a 7c a6 be fa ee 60 be 2d 81 30 be
       -0.28513917 -0.32516605 -0.21966162 -0.17236777
000350 2d 7e 00 3e 52 4a b9 be 3a 9b ad be e7 68 12 be
       0.12548132 -0.36189514 -0.3390749 -0.1429783
000360 55 c1 27 3d 81 21 0a bf 10 b9 50 bd 0e 2d 8c bd
       0.04095586 -0.5395737 -0.05095774 -0.06844531
000370 90 d0 6b be 6b dd 15 be 83 7f 28 3d 42 5c 4a bd
       -0.23028779 -0.14635246 0.04113723 -0.04940439
000380 91 be d8 be c5 e1 c2 bd 30 37 ed 3d 1f 0c 19 bf
       -0.4233289 -0.09515718 0.11582792 -0.5978412
000390 9b 8c 3e 3e 31 e3 8c bd 26 fd e2 3c 4a 7f 7b bc
       0.18608324 -0.06879271 0.027708601 -0.015350172
0003a0 f1 91 0c bf 31 00 09 3e 81 af 63 be 79 fd 45 be
       -0.5491019 0.1337898 -0.22234918 -0.19334973
0003b0 26 68 86 3c 20 57 a9 bd b0 38 c7 bd 9c 8b 7d be
       0.016407084 -0.08268571 -0.09727609 -0.24760288
0003c0 1a 49 9d be d5 3f 81 be ef 01 d3 3d 35 85 9f 3d
       -0.30719835 -0.25244012 0.10303103 0.07789079
0003d0 12 92 3a bd 0c 72 46 bf 5d 63 ef 3c f0 02 b6 bd
       -0.04554946 -0.7751777 0.029222185 -0.08887279
0003e0 14 57 98 be bf 84 f9 bd c0 26 c1 bd 9f 43 91 3e
       -0.29753935 -0.121835224 -0.09431219 0.28371903
0003f0 56 0b 92 be 8a f1 5a be 8e b5 7b be 51 66 e5 bd
       -0.28524274 -0.21381202 -0.24580976 -0.11201156

lstm.bias_hh_l0 f4 [512]
000000 fa 2e ec be 63 72 98 be 8e 95 4c be 15 12 e8 be
       -0.4612959 -0.2977477 -0.19978926 -0.45326295
000010 d4 76 80 be cc 92 f2 bd cd 1a 0d bf 38 b4 0d be
       -0.2509066 -0.118444055 -0.5511902 -0.13838279
000020 c0 c6 df bd 4e 74 16 be b1 36 a4 be ca 02 65 3c
       -0.109265804 -0.14692804 -0.32072976 0.013977716
000030 84 57 cb be 26 4d dc be 82 cf bf be d4 60 ab bd
       -0.39715207 -0.4302761 -0.37463003 -0.08368078
000040 20 6f 88 be 86 d7 68 be 24 a9 b5 3c 8f 40 e3 bd
       -0.26647282 -0.22738466 0.02217538 -0.11096298
000050 af 1c 31 be db 07 72 bd b2 95 f6 be e2 4f e3 be
       -0.17296098 -0.059089523 -0.48161083 -0.44396883
000060 80 87 cf be 1e 8c a5 bd eb 80 33 bc f8 d7 1f bf
       -0.40533066 -0.08083366 -0.010956029 -0.6243892
000070 ef 41 58 be 4a eb b0 be 59 e9 61 be 71 4d 3f be
       -0.21118902 -0.3455451 -0.22061671 -0.18681885
000080 31 2f 17 bf a7 dd 9f be e4 be 0f bf ea 3e 6d be
       -0.59056383 -0.31223795 -0.5615065 -0.23168531
000090 87 17 bf bd ef a2 ba be 48 b9 a8 be ef f2 92 be
       -0.09330659 -0.36452433 -0.32953858 -0.2870097
0000a0 a9 f7 73 be 5a bf c4 bd 2d 94 cf be f9 8f cc be
       -0.23824944 -0.0960681 -0.40542737 -0.39953592
0000b0 23 7f 81 be 16 f0 aa bd 9f 6f 87 bd 86 75 54 be
       -0.2529231 -0.08346574 -0.06613087 -0.20747957
0000c0 c7 e9 27 be 16 d1 f9 bd ed 8d c7 be be c8 01 bf
       -0.16397773 -0.12198083 -0.38975468 -0.50696933
0000d0 35 0a ba be 99 9a a6 be 60 6b d8 be 95 90 76 be
       -0.36335912 -0.32539824 -0.4226942 -0.24078591
0000e0 fe 09 87 be 17 a8 58 be 85 ee 86 bd eb 2e 10 bf
       -0.2637481 -0.21157871 -0.06588463 -0.5632159
0000f0 ed 84 c4 be 51 0e 6d be 16 ee b5 bd 51 1b 4f be
       -0.38382664 -0.23149993 -0.08883302 -0.20225264
000100 10 41 00 be b1 da 6b be 90 f7 66 be c6 6b dc be
       -0.1252482 -0.23032643 -0.22555375 -0.43050975
000110 d4 3e cb bd df c4 0d bf c2 b0 65 bd 00 4b 55 be
       -0.09924093 -0.55378526 -0.056076773 -0.20829391
000120 af 40 6d be a2 90 ca bc 7a c7 b1 bc 2e c0 71 bd
       -0.23169206 -0.02472717 -0.021701563 -0.059021167
000130 a3 48 70 be 0e 5d f4 bd 06 ae dc be 85 a1 f9 be
       -0.23465209 -0.11931811 -0.4310152 -0.48756042
000140 7f cf 0b be 07 aa f1 be 06 0f a2 be a6 b4 9b be
       -0.13653372 -0.47200033 -0.31652087 -0.3041126
000150 d4 21 7a be 77 54 09 bf 08 80 aa be b6 a5 ba bd
       -0.24426967 -0.5364451 -0.33300805 -0.09113638
000160 b8 85 3c be 15 0f 25 bf 1e db e5 bd 7f 19 69 be
       -0.18410385 -0.6447614 -0.11223434 -0.22763632
000170 0e 02 b0 be 24 15 c1 bd 3c 78 ac 3a 57 dc 4a bc
       -0.34376568 -0.094278604 0.0013158391 -0.012381635
000180 6a 7d 06 bf 88 b8 8e be 0e d5 30 be 1d 8b 1a bf
       -0.52535117 -0.2787516 -0.17268774 -0.6036852
000190 cc 6e 13 be d9 b1 f8 bd da ee 79 be db 89 c0 3b
       -0.14397734 -0.12143297 -0.24407521 0.0058758087
0001a0 a7 44 f8 be fd 2f 99 3c 4f d0 85 be f1 aa 94 be
       -0.48489878 0.01869964 -0.2613549 -0.29036668
0001b0 09 6f 61 be f4 17 25 be b0 10 aa bd 42 10 03 bf
       -0.22015013 -0.16122419 -0.08303964 -0.5119668
0001c0 22 c1 c2 be 70 e2 c7 be cd f8 54 bc 8f 78 48 bd
       -0.38037974 -0.39039946 -0.012998772 -0.0489431
0001d0 80 88 2b be 0e c2 09 bf 5a 6d 33 3d 13 a6 a1 be
       -0.1675129 -0.5381173 0.043805458 -0.31572017
0001e0 45 8b 91 be b4 07 5d be a0 24 e6 bd 74 71 0b ba
       -0.28426567 -0.2158497 -0.112374544 -0.0005319335
0001f0 0d 44 ae be 83 36 ba be a9 75 ca be 83 0a 8b be
       -0.34036294 -0.36369714 -0.39542893 -0.27156457
000200 35 a6 24 40 54 5c 30 40 b9 f1 36 40 e9 02 26 40
       2.5726445 2.7556353 2.8585036 2.5939276
000210 97 2d 3a 40 c4 04 43 40 c0 ba 22 40 f9 dd 32 40
       2.9090326 3.0471659 2.5426483 2.7947981
000220 28 8d 4c 40 55 50 48 40 48 45 29 40 bd 05 46 40
       3.1961155 3.129903 2.6448536 3.0941002
000230 85 43 2a 40 2f 77 29 40 86 5a 42 40 7d 89 3e 40
       2.660371 2.6478994 3.036775 2.9771416
000240 a8 02 30 40 f5 d5 35 40 ac 71 44 40 e0 c9 30 40
       2.7501621 2.841184 3.069438 2.7623215
000250 b0 0e 40 40 5f 65 3e 40 b5 ca 25 40 d0 af 1b 40
       3.0008965 2.9749372 2.5904973 2.4326057
000260 d5 1a 27 40 ab 37 3e 40 cd 74 30 40 03 6f 1f 40
       2.6110127 2.9721477 2.757129 2.4911506
000270 8c ad 43 40 d4 92 2f 40 b6 76 25 40 0b b4 3a 40
       3.0574675 2.7433367 2.5853705 2.917239
000280 0c f0 26 40 dc e1 32 40 40 7a 1d 40 76 76 3e 40
       2.6084013 2.7950354 2.4605865 2.9759803
000290 38 d1 37 40 3b 29 1d 40 da b5 38 40 24 87 4b 40
       2.8721447 2.4556415 2.8860993 3.1801233
0002a0 2c 13 2e 40 3c 56 3d 40 03 07 2c 40 0e 28 32 40
       2.7199202 2.9583883 2.687928 2.7836947
0002b0 9d 20 36 40 1f 43 4a 40 51 9f 3c 40 3c 69 34 40
       2.8457406 3.1603467 2.947224 2.818923
0002c0 ac ae 41 40 f1 f3 33 40 b4 6b 3d 40 15 33 2e 40
       3.0262861 2.811764 2.9596987 2.7218678
0002d0 50 57 36 40 f6 c9 49 40 ac 34 31 40 f7 8b 31 40
       2.8490791 3.1529517 2.7688398 2.7741678
0002e0 49 31 34 40 7b 8e 3a 40 58 bc 3d 40 c2 59 18 40
       2.8155081 2.9149463 2.9646206 2.3804784
0002f0 c6 65 45 40 7c c2 30 40 c2 88 45 40 9c af 37 40
       3.0843368 2.7618704 3.086472 2.8700933
000300 a4 86 3c 40 d1 08 34 40 3b 0e 3d 40 59 bf 24 40
       2.9457178 2.813038 2.9539936 2.574179
000310 35 18 40 40 ae 7a 1a 40 b3 22 46 40 7b 02 36 40
       3.0014775 2.4137378 3.0958679 2.8439014
000320 74 d4 3d 40 0e 6a 43 40 75 75 3b 40 9a 97 3a 40
       2.966092 3.053348 2.929044 2.915503
000330 da d5 35 40 b6 90 3f 40 9f 47 29 40 e7 fb 1f 40
       2.8411775 2.9932075 2.6449964 2.49975
000340 66 2c 2f 40 32 95 26 40 af ec 30 40 0f a0 31 40
       2.7370849 2.6028562 2.764446 2.7753942
000350 00 03 46 40 1c 93 26 40 d0 22 27 40 6a 10 37 40
       3.093933 2.6027288 2.6114998 2.8603768
000360 91 44 42 40 1a ca 1b 40 90 4c 3a 40 70 2c 38 40
       3.035435 2.4342103 2.910923 2.8777122
000370 86 5a 31 40 9e 81 31 40 9e 15 43 40 3c 48 39 40
       2.77115 2.7735362 3.0481944 2.8950338
000380 ba fd 29 40 56 e5 37 40 be ba 44 40 a2 7f 16 40
       2.6561112 2.8733726 3.0738978 2.35154
000390 67 f4 4a 40 93 22 3d 40 08 e6 43 40 ff 84 3c 40
       3.1711671 2.9552352 3.060915 2.9456174
0003a0 ba 26 21 40 ad 2b 44 40 18 33 2f 40 82 9a 2f 40
       2.5179887 3.0651658 2.7374935 2.7438054
0003b0 3e 2e 3e 40 76 b8 38 40 ab 2e 39 40 cb 76 31 40
       2.9715724 2.8862586 2.8934734 2.7728755
0003c0 af 0b 31 40 1e 20 2e 40 ca 45 41 40 3c 68 41 40
       2.766338 2.7207103 3.0198846 3.021987
0003d0 4a 4f 39 40 2d b0 13 40 52 00 40 40 7e fc 37 40
       2.8954644 2.307628 3.0000196 2.874786
0003e0 5f 79 31 40 b7 d4 34 40 9d f0 3a 40 68 83 4c 40
       2.773033 2.825483 2.9209359 3.1955204
0003f0 93 f7 2b 40 94 f0 31 40 eb 58 30 40 b4 45 38 40
       2.6869857 2.7803087 2.7554271 2.8792543

head.net.0.weight f4 [1, 128]
000000 d3 c6 0b be 25 b2 f0 3c 05 85 a0 3c b7 d6 24 bd
       -0.13650064 0.029381821 0.019594679 -0.04024383
000010 c4 6d b1 ba 54 5b 51 bb 14 66 b8 bd 24 24 23 bd
       -0.0013536741 -0.0031945305 -0.09003845 -0.03982939
000020 17 f7 52 3b 0e f8 37 3c a5 bf 2c bc e3 6b 89 3b
       0.0032190734 0.011228574 -0.0105437385 0.0041937693
000030 b8 91 14 3b 69 e9 60 3d 52 ec 3a 3b 29 ef f1 3a
       0.0022669863 0.054910097 0.0028522206 0.0018458116
000040 68 1d c9 3c 1f d4 ae 3c 6b 95 52 3c 82 60 92 3d
       0.024550155 0.021341382 0.012853007 0.07147314
000050 80 9f 72 38 23 2d f5 3b f7 9a f1 3d a5 e0 6e be
       5.7845842e-05 0.0074821874 0.11797135 -0.23327883
000060 65 12 21 be c0 03 c9 bb a2 8e 1d bb 01 73 80 be
       -0.15729673 -0.0061344802 -0.0024041315 -0.2508774
000070 fa 59 ae 3a 6e 8e 35 3b 0d b9 b1 3d 56 90 7d bd
       0.0013301962 0.0027703303 0.08677874 -0.061905228
000080 eb 5d 82 3e 09 18 9c 3d 66 a0 bf be ef 0c de bc
       0.2546228 0.07621772 -0.37427062 -0.027105777
000090 ef fb f4 3a 6c ce 00 3f fd 26 31 3c 87 7e 14 ba
       0.0018690805 0.50314975 0.010812518 -0.0005664606
0000a0 b6 d3 87 ba f7 f8 33 3b de 7c e5 3d f2 da aa 3c
       -0.0010362777 0.0027461627 0.11205457 0.020856354
0000b0 3d a4 c3 3a 41 5a 65 bc be 8c b1 ba 31 ab d1 ba
       0.0014926266 -0.013998569 -0.0013545973 -0.0015996454
0000c0 23 8a 2e 3a 36 30 c0 3c 21 2c 1a 3c a1 8f fb 3a
       0.0006658157 0.023460489 0.009409935 0.0019192585
0000d0 19 20 db 3a e0 7f d9 3a dd dc 10 be 7d aa bf bb
       0.001671794 0.0016593896 -0.14146753 -0.005849181
0000e0 85 95 bd 3a 12 c0 18 ba 13 64 dd 3a 10 64 8a bf
       0.0014464116 -0.00058269606 0.0016890786 -1.0811787
0000f0 d6 c3 55 3b c1 ba 76 bc 02 23 bd 3a 85 56 ec ba
       0.0032617948 -0.015059174 0.0014429989 -0.0018031156
000100 28 dd 4c bc 40 6c 05 3c 92 b2 24 3b e8 4e 2b bd
       -0.0125039 0.008143485 0.002513085 -0.041823298
000110 ec 7c dd 39 dd 99 1c 3f dd 13 19 3c c8 eb 95 ba
       0.0004224548 0.61172277 0.009343115 -0.0011438066
000120 c3 20 80 bb 12 20 cc bb 03 cf 15 3b 16 11 b2 ba
       -0.0039101555 -0.006229409 0.0022858984 -0.0013585414
000130 57 f0 31 3b 44 08 5f ba ff a7 53 bd cf 61 3e 3e
       0.002715131 -0.00085080066 -0.051673885 0.18591999
000140 f3 c8 6f bc 3b ae 9e 3d b4 c6 0f bb 6b 4b 9a bc
       -0.014635312 0.077480756 -0.0021938505 -0.01883479
000150 8a 81 58 3b cd f8 e8 bd 42 72 15 bd ff 1c 99 bb
       0.0033036196 -0.1137558 -0.036485918 -0.004672646
000160 ee 8e e3 bb 87 8c 24 bf fd eb b8 3b 68 46 3e bd
       -0.006944529 -0.6427693 0.0056433664 -0.046453863
000170 d8 59 16 bc 49 27 27 3b 63 2f a8 3a a3 6f 95 ba
       -0.009176694 0.0025505594 0.0012831505 -0.0011401068
000180 99 5f 96 3d 03 ea 33 3c 06 3e 1c 3b a9 ac 9f 3f
       0.073424526 0.010981086 0.002384068 1.2474567
000190 5a 8e 2c bb 8b c3 01 3d d2 34 9b 3b d8 63 b0 3c
       -0.0026329965 0.031680625 0.0047365213 0.021531984
0001a0 d8 8d 95 bf e5 48 b3 ba e5 64 15 3c 1e 24 d4 bb
       -1.1683912 -0.001367834 0.009118293 -0.006474032
0001b0 b9 f8 27 bb 8f 09 d5 ba bc f8 1e 3b 27 58 7d bc
       -0.0025630428 -0.0016253459 0.0024257144 -0.015462912
0001c0 7f 22 12 bb 71 09 26 3c 30 72 27 bb 1d 12 b3 b9
       -0.0022298393 0.010134087 -0.0025550239 -0.00034155036
0001d0 8c 60 1c bc c9 97 0e bf 25 f9 3d bb f3 ec b7 3a
       -0.009544503 -0.55700356 -0.0028987613 0.0014032408
0001e0 d6 2e f2 bb 9a fb 94 3d 78 92 9a bb 60 e9 86 bc
       -0.007390837 0.07274552 -0.0047171675 -0.016468704
0001f0 e4 be bb 3c 9e a9 18 bc 55 b3 01 3e af 0c 23 bb
       0.022918172 -0.009317784 0.12666066 -0.0024879386
