examples/catchment_models/training/runs/usa_basin_split_2404_020225/model_epoch007.pt (torch, 316229 bytes, 5 tensors)

lstm.weight_ih_l0 f4 [512, 23]
00000000: a724 2d3d ec1b 703e d471 d0bc 44ab 173d
00000010: 2343 72bd 4f7a da3e bae4 b33e e25b 75be
00000020: e52c 063f 9d58 f43c 6613 8dbe e946 1c3e
00000030: 5836 92bd d23f 93be d085 99bd 3fcf d03e
00000040: ea6e 023e 890f 853e 4d34 81be 6d53 723e
00000050: 4cfd 973e 1f45 973e 938c 4b3e ca9f 983d
00000060: 7282 4a3e cfb5 10bd 2c45 95bd ec24 f83d
00000070: 0cdd 833e 5d0e ab3e 8ba1 a23c 4bc3 163f
00000080: 21ab a53d 1550 88bd 8d98 613e b970 30bd
00000090: b8d6 77be 0511 69bd ddc6 c03e 1747 1c3e
000000a0: 88e9 0d3e 8775 36be 4b74 bf3d 75bc 813e
000000b0: aca5 593e d041 653e 7f1e 493e bfdf c43d
000000c0: 130c e13d 5e55 8a3d 01f8 1d3e eb9c 633c
000000d0: 9eb2 38bd 8b45 acbc e864 abbd bcf6 3ebd
000000e0: 3578 d6bb 48dc 063e f5c8 1ebe 18c5 95bd
000000f0: 1d52 1ebd 448b 003d e7c5 32bd 150d 08bd
00000100: 6b84 debd f836 bb3d c6ee cbbb cfac 1cbc
00000110: da2f 1fbe 2630 ca3d 47b5 ab3e cfd4 ccbd
00000120: 4c7e 94bd 7396 d3bd 446e a03e 9c5e fc3e
00000130: c148 9fbd d1d3 e63e 6526 a53d 8864 7abe
00000140: 9d6c 1b3e d882 dbbd b167 88be 426a 06bd
00000150: eefe 983e 6452 783e dc25 713e 7bd6 50be
00000160: d58e 833e fa38 a23e 4c93 9a3e 8096 963e
00000170: 04f9 a03d 9990 06bd adf8 183e e7c5 b83b
00000180: c45c a73e efb4 3d3e aacf 3f3e 08d0 1ebd
00000190: 3489 803e 21cd dbbe 3e5f 213d a752 dbbe
000001a0: 95d0 52be 6b96 6e3e 4636 8a3e 5a2d 943e
000001b0: de7c 8f3d 4d6b 2d3d d455 42be 9ab5 403e
000001c0: 49fb 0fbe dda0 f1bd df85 183e 78ff 1b3f
000001d0: 39ea 073c f567 d33d ad6c 073e 3f0f a43e
000001e0: 28dc e03b 51d9 cfbd 13d9 373e ffc0 f2bd
000001f0: 6d7e 2d3d 8c81 3c3d 9307 9d3d 1554 34be
00000200: eb54 503e 3cb6 bf3d 81a3 48be 6e83 27be
00000210: 0e47 3dbe 0bbd 66be fcc6 b23c 798a 21be
00000220: ff0f 73bd 6f24 24bd 0f25 403c f939 683e
00000230: 58c7 103c 4c54 8cbc 2e76 2cbd 4f0f cc3e
00000240: 033b f53e caa8 02be 512c f33e 71d6 3fbc
00000250: 5f64 38be 0f20 adbd 3873 d5bc b426 55be
00000260: dc9c 9d3d f66b d33e 18d8 783e 5ccc 943e
00000270: a9ac 9dbe f2c1 3b3e e342 023e af3e aa3e
00000280: 6f03 833e a18f f43e 5691 95bd 6003 03bd
00000290: 9c84 24bd 8bbb 883e 9ab1 203e d935 63bb
000002a0: 7f50 36bd e25a 063d ed30 0a3e 308b 39be
000002b0: 0abd 1b3e a2c3 903e 6cce 40be daf0 6dbe
000002c0: 7eec 8bbe 1175 023e d32a 873e 7514 13be
000002d0: 8351 173e a17d 1b3e 984b 7d3e 30b5 0bbe
000002e0: d06c 13be 1a7d 4dbe 8fd8 2c3e 7c8d aa3e
000002f0: 4a1e 2bbe 7b13 1f3d 5bf2 b2bd b910 9dbd
00000300: a4f4 26bd a0b4 263e 0caa 12bd 8715 a63d
00000310: 967c 01be eade 2cbe e83a 47bd 061a 12bc
00000320: caa2 543c 9fa1 263d bff8 e9bb 2c9d 58bd
00000330: ec40 a7bc 608e 283d 4e05 18be edf8 abbd
00000340: d4db a5bd cf49 583d b1e2 d7bb 6da6 083e
00000350: cb6c a13d ec8b 73bd a80e 943c bd38 79be
00000360: 4fd1 823d 87a0 fabc 5d58 2dbd 961a 94bd
00000370: 7006 e7bd 6611 debd 71e8 83bd ce1e 69bd
00000380: 9a95 7d3c 942b 47bd 0652 a5bd 77b8 53bd
00000390: bae0 f53c 4e13 d7bd 13b4 993d 2115 3e3e
000003a0: aec0 9b3d f4bd 603e d1b7 493e 2994 033e
000003b0: fc42 473e b5b2 233e 41d4 943d 0451 b8bd
000003c0: 4e03 e43d 294b 38be 31fc 8bbe 9852 c63d
000003d0: b8c9 713e 23eb 9e3e 1472 e0bd 36e3 83bb
000003e0: 6f89 4ebd 4a69 143d 12cf 493e 1daf 9b3c
000003f0: a3e4 8d3e b6a1 7f3c 632b fe3e 068c 19be
0.042271283 0.23448151 -0.025444902 0.037028566 -0.059146058 0.4267144 0.35135442 -0.23960832
0.52412254 0.02982741 -0.27553862 0.15261425 -0.071392715 -0.2875963 -0.07496226 0.40783116
0.12737623 0.25988415 -0.25235215 0.23664637 0.29685438 0.29544923 0.19877844 0.07452352
0.19776323 -0.035329636 -0.07288584 0.12116417 0.25754583 0.33409396 0.01985242 0.58891743
0.08089281 -0.066558994 0.2203085 -0.04307625 -0.24203002 -0.056900997 0.3765172 0.15261494
0.13858616 -0.1781827 0.09348353 0.25339094 0.21254605 0.22388387 0.1964054 0.09612989
0.10988631 0.06754564 0.15426637 0.013892393 -0.045092218 -0.021029254 -0.08368856 -0.046622023
-0.0065450915 0.13169968 -0.15506347 -0.07312983 -0.038652528 0.031382814 -0.043645766 -0.0332156
-0.108651005 0.09141344 -0.0062235324 -0.009562685 -0.15545598 0.09872465 0.3353674 -0.100015275
-0.07250652 -0.1033143 0.31334126 0.4929093 -0.077775486 0.45083478 0.08063964 -0.24452412
0.15178151 -0.10718316 -0.2664161 -0.03281618 0.29881996 0.2425018 0.23549598 -0.20394318
0.2569491 0.31684095 0.30190504 0.29411697 0.07859996 -0.032852743 0.14938612 0.005638826
0.32687962 0.18526052 0.18731561 -0.038772613 0.25104678 -0.42929938 0.03939747 -0.42836496
-0.2058738 0.23299567 0.26994532 0.2894085 0.070062384 0.042338658 -0.18978053 0.18819275
-0.14060701 -0.1179826 0.14894818 0.6093669 0.008295589 0.103225626 0.1322505 0.32042882
0.006862182 -0.10148872 0.17953901 -0.11853217 0.042356897 0.046021983 0.0766746 -0.176102
0.20344894 0.0936093 -0.19593622 -0.1635873 -0.18484136 -0.22533052 0.021823399 -0.1577548
-0.059341427 -0.04007381 0.011727585 0.22678365 0.00883659 -0.01713004 -0.042104892 0.3985543
0.47896585 -0.127597 0.47494748 -0.011708842 -0.18007039 -0.0845338 -0.026055917 -0.20815545
0.07695934 0.41293305 0.24301183 0.29062164 -0.30795792 0.18335703 0.12720828 0.3325095
0.25588557 0.4776583 -0.07303111 -0.03198564 -0.04016553 0.26705584 0.1569275 -0.0034669547
-0.04451036 0.032801516 0.13495226 -0.18119502 0.15208831 0.28274256 -0.18828744 -0.23236409
-0.27328867 0.1273997 0.2639986 -0.14363272 0.14777188 0.15184642 0.24735868 -0.13643336
-0.14396977 -0.20067254 0.16879486 0.3331107 -0.16710773 0.038836937 -0.08737632 -0.07669205
-0.04076065 0.1627984 -0.0358067 0.08109575 -0.12645182 -0.1688191 -0.04864016 -0.008917337
0.012978265 0.040681478 -0.0071402485 -0.052884266 -0.0204167 0.041151404 -0.14845774 -0.08397088
-0.080985695 0.052804764 -0.006588303 0.13344736 0.07882079 -0.05945961 0.018073395 -0.2433805
0.06387579 -0.030594124 -0.042320598 -0.07231633 -0.11280525 -0.10843162 -0.06440819 -0.056914143
0.015477562 -0.048625544 -0.08072285 -0.05168959 0.030014385 -0.10501729 0.075050496 0.18562748
0.0760511 0.21947461 0.19699027 0.12849487 0.19459146 0.1598614 0.07267047 -0.089998275
0.11133443 -0.17997421 -0.27340844 0.09683722 0.23612106 0.3103877 -0.10959259 -0.0040248884
-0.050424036 0.036233224 0.19707897 0.019004399 0.27713498 0.01560252 0.49642476 -0.14994821

lstm.weight_hh_l0 f4 [512, 128]
00000000: e2b9 013e b6c2 ac3c 3345 51be 959b 493d
00000010: d5fe dd3a 191d 82be 11d6 82bd 0fec dcbd
00000020: d705 b93e b270 2ebe 2841 cd3d 2881 4dbe
00000030: 4bd2 71be 44bf 1a3c 91d8 05bd 2a0d 8e3e
00000040: e749 97bd ac8d ae3d df6e 4b3e 423f 09be
00000050: 4e1b 3cbe 3692 5a3e 7a88 4bbe 71a4 d5bd
00000060: 40f9 1b3d ea40 46be 0ad2 17be dd98 5f3d
00000070: 0223 aa3e 7cf0 97bd 19d2 dcbd 5644 863d
00000080: 8a39 883d ba33 2b3d 500d 4a3c 7db8 98bd
00000090: 843f 64be c150 29bc 182b d7bd c9c4 083e
000000a0: 4d97 02be 6310 523d 567f c6bd d210 80be
000000b0: 15b2 99be c4bf 763b b968 68be 077b 4abd
000000c0: d095 72be f7a3 803c 79d0 2cbe 9fa3 3cbd
000000d0: 9cff 52be 56b3 ce3d e0f0 0abd 626b 33be
000000e0: dd65 463e b19f aa3d b83d 91be 8275 10bd
000000f0: d5c2 09bd c528 89be 63c4 86be 8e59 61be
00000100: f396 313e b100 083e cc2b 94be cb34 86be
00000110: 03d1 11be 52b1 48bc 91aa 20be 3162 4c3e
00000120: c97f 8b3e 6ddc c7bc 5d64 2f3e da9b 903e
00000130: 27f8 7f3e 571c 6abe 8280 e1bc b866 a13d
00000140: f2d3 f1bd 301a 48be 2eeb 253e bf9d 38be
00000150: 85f7 72be f853 983d 149c 98bd 819e 4b3e
00000160: 3cdf 073e 265a e9bd 7920 60be 8b43 983b
00000170: 39d7 543e 8cd4 eebd 589f 77be 3b41 603e
00000180: 31a3 053d 1a2b 0dbe 324e 043e 0db6 183e
00000190: e289 863d a919 133e c6ba 38be d370 aebd
000001a0: 160b 0e3c 9dc4 98be 1ed0 e93e b7d8 65bd
000001b0: 4382 b9bd 20ce 96bd ec53 52be 8abe e23d
000001c0: a740 afbc 2730 c23d 2c0a ccbe d989 5d3e
000001d0: 59f4 703e 6673 84bd df9b 6b3e 02d8 e03d
000001e0: 777a c53c a78f 99bc 00c4 42be 68ff ffbd
000001f0: 4933 543e d95e 093e 4d11 3d3d 3e0e 9abe
00000200: 4180 a2bd 6b7a 343e 01b5 d8bd 52e1 8d3c
00000210: 1351 4dbd 0732 5dbe a09c 053d d8fe 7cbe
00000220: 5836 623e 3736 65bc 106b 8b3e 7c39 8cbd
00000230: 9cff c4bd 05d9 b93c 6996 923d e369 9a3d
00000240: 20ce cdbc 9483 703d fd92 163d 354e adbd
00000250: 7fe5 48be 8c16 613e 664c ecbb c960 2f3c
00000260: b85d 98bd 9731 52be db14 40be 4f9a 00bd
00000270: 3b5c 813e 57ee f4bd 5e48 1a3d 8f6a 48bd
00000280: eaf8 d23d c353 18bd 7603 1fbc ef70 c9bd
00000290: f3fc 30be 0d7e b73d f86f c83d ffb3 79bd
000002a0: e4c6 5abd 3ce1 273e 0c3b 2ebd dc20 19be
000002b0: 1b7b 32be cbbe cc3b ed04 65be 335c 863c
000002c0: b95e 8cbe 9123 6e3e 79e1 30bc edde 2a3d
000002d0: 65bf c2bd 7fa4 093d 083f 02be e654 2fbd
000002e0: 0221 553e d015 5cbe 8639 81be 9d55 0cbe
000002f0: e653 83bd 0293 91bd 9b3c a2bd 5ba4 67be
00000300: ea0d f73d e738 373e 27b4 febd cb9d 2dbe
00000310: 2a25 71be b193 f43d 1102 65be d356 0a3e
00000320: a0b4 5c3e 11d1 a43d 053f 043e edd0 d43d
00000330: 0fea 9a3d 36e0 31be 1892 3abe 7092 02bd
00000340: d720 b6bd 969c 033c c695 3e3e b14a 70bd
00000350: 543a 30be 4163 09be 0141 23be c4f0 023e
00000360: cd31 2a3e 752c 09bc d7ef ebbd 9790 0c3d
00000370: e0e2 4e3e 91c9 22bd f08c a5be 8b1a 503e
00000380: 2b78 4c3e a5cb b43d 6dd2 8a3e 5c20 7a3d
00000390: be6c 4e3e 62a9 eb3c 0786 f3bd 657a 49bd
000003a0: 0f65 0dbd 4332 9abe 6d36 103e 0cc3 8bbd
000003b0: 5b5f 83bd 25e3 14bd 4089 97be 61a5 c43d
000003c0: de69 8bbb 66a9 c33d fe8a 9ebc a5a6 793e
000003d0: bf1d 233d afdc 58bd 45f1 013e 4c5a 6ebd
000003e0: b0d3 f3bd 6990 0d3e a0e4 b23c a173 bdbd
000003f0: 17bb 033c 7c7d 263e cf78 ae3c 74e1 edbd
0.12668565 0.02108894 -0.20436554 0.04922064 0.0016936908 -0.25412825 -0.06388486 -0.10787212
0.36137268 -0.17035177 0.10022193 -0.200688 -0.23615377 0.009445015 -0.032677237 0.27744418
-0.07387143 0.085231155 0.19866513 -0.13403037 -0.18369791 0.21344838 -0.1987628 -0.10431755
0.0380795 -0.193607 -0.14826217 0.05458914 0.33229834 -0.07418916 -0.107822604 0.06556003
0.066516 0.041797377 0.0123322755 -0.07457063 -0.22289854 -0.010334195 -0.10506266 0.13356318
-0.12753029 0.05128516 -0.09692256 -0.25012833 -0.30018678 0.0037650922 -0.22696199 -0.049433734
-0.23689961 0.015703185 -0.16876401 -0.04605448 -0.2060532 0.10092799 -0.033921123 -0.17521432
0.19374795 0.0833124 -0.283674 -0.035268314 -0.033633072 -0.26788917 -0.26321706 -0.22006819
0.17342739 0.13281514 -0.28939664 -0.26212153 -0.14239888 -0.012249308 -0.15690066 0.19959332
0.2724593 -0.0243971 0.1712813 0.28243905 0.24997006 -0.22862373 -0.027527098 0.0788092
-0.118080035 -0.1954124 0.16202995 -0.18028925 -0.23727234 0.07437891 -0.074516445 0.19884683
0.13268751 -0.113941476 -0.21887387 0.0046467236 0.20785226 -0.11661634 -0.24181879 0.21899883
0.032626335 -0.13785973 0.12920454 0.14913197 0.06569268 0.14365257 -0.18039998 -0.08517613
0.008669635 -0.29837504 0.45666593 -0.05611488 -0.090580486 -0.07363534 -0.20539826 0.11071499
-0.021393133 0.094818406 -0.3985151 0.21634616 0.23530711 -0.06467323 0.23008679 0.109787
0.024106247 -0.018745257 -0.1902008 -0.12499887 0.20722689 0.13415088 0.046159077 -0.3008899
-0.07934619 0.17624824 -0.10581399 0.017319355 -0.050126147 -0.21601115 0.032620072 -0.2470659
0.22091043 -0.013989977 0.2723012 -0.06846902 -0.09619066 0.02268649 0.07157595 0.075397275
-0.025122702 0.058719233 0.036761273 -0.084621824 -0.19618796 0.21981257 -0.007211256 0.010704228
-0.074397504 -0.2052673 -0.18757956 -0.03139716 0.2526568 -0.11959522 0.03766667 -0.048929747
0.10301383 -0.037189256 -0.009705415 -0.098359935 -0.17283992 0.08959589 0.09786981 -0.060962673
-0.053412333 0.16394514 -0.04253678 -0.14953941 -0.17429774 0.00624833 -0.2236516 0.016401386
-0.27416018 0.23255755 -0.010795944 0.041716505 -0.09509162 0.03360414 -0.12719357 -0.042805575
0.20813373 -0.21492696 -0.252392 -0.13704534 -0.06412487 -0.07108118 -0.07921716 -0.2262129
0.12063201 0.178928 -0.12436705 -0.16954724 -0.23549333 0.119422324 -0.2236407 0.13509683
0.21553278 0.08047689 0.12914665 0.10391412 0.075641744 -0.17370686 -0.18219793 -0.031877935
-0.088929825 0.008032938 0.18611822 -0.05866498 -0.1720975 -0.13416769 -0.15942766 0.12787157
0.1662056 -0.008372416 -0.11520355 0.03431758 0.20203733 -0.03974301 -0.3233409 0.20322625
0.19967715 0.088279046 0.27113667 0.061066017 0.2015867 0.028767291 -0.11890798 -0.04918899
-0.034520205 -0.30116472 0.14083262 -0.068243116 -0.06414672 -0.036349434 -0.295969 0.09601856
-0.0042545637 0.095537946 -0.019353386 0.24379976 0.03982329 -0.052944835 0.12689693 -0.058191583
-0.119056106 0.1382462 0.021837533 -0.0925057 0.008040211 0.16258806 0.02129784 -0.116152674

lstm.bias_ih_l0 f4 [512]
00000000: f6bc 9cbe 2a9c 33be dc71 ae3c 37a2 95be
00000010: 1dc5 1bbd 252f 89bd e113 93be 509c 4ebe
00000020: efc6 05bd 983f 243d 01fb 07be ee69 053e
00000030: 7bd8 bfbd 9b9c b3be e7fb d6bd 85f0 89bd
00000040: effc 54be 9638 7dbe cf1c 30bb b521 e9bd
00000050: 54e8 89bc 6718 06bd 2825 8cbe 495b bbbe
00000060: c7fc 96be 07bc a6bd 10ea ddbc 6e0b dabe
00000070: 0183 acbd 1aae 83be dc8c 7dbe d30e 15be
00000080: 06b0 1abf e556 51be 9748 dcbe 5bb1 40be
00000090: 6af0 32be 4dd6 90be 7abd 3ebe 25a6 70bd
000000a0: 5d6b 08be 24fa 01bd 0f5f bdbe cfa2 95be
000000b0: 8154 2dbe 8df9 35bd 373b f73b 7940 4dbe
000000c0: 46eb 3dbe cdf0 dbbd 1c82 bcbe cc53 c1be
000000d0: 19c7 7dbe d7f8 8dbd 6f1c 86be d949 a4bd
000000e0: c702 66be b407 10be 23c6 dfbd f71e fabe
000000f0: 9ff2 1bbe daf9 58bd 70d9 8a3d 003f 39be
00000100: 018a 2dbe 1eb4 87be 778d 5ebe 48af efbe
00000110: d2f5 6abd b915 a5be abdd f6bd 0c37 15be
00000120: 49b2 74be 000a 683d 75bb 513d ec7f b0bd
00000130: 3eea 5abe 8dee 00bd ca78 ebbe 4674 b2be
00000140: 0777 8ebd 015d 93be 536b 13be 8ced 41be
00000150: abfa 0cbe dbd4 d1be d696 9fbe 9a1d bbbd
00000160: 5d0a 32be f5b9 c9be 5501 31bd 5da9 15be
00000170: 5dd9 75be d4f1 83bd a4a1 64bc fc28 3e3d
00000180: d6ae 99be e4de 90be ed54 cdbb cc5b e9be
00000190: 76b3 013b df8b 9dbe 8aa3 51be d2f0 d7bc
000001a0: 080a f7be 8bdd 0ebd f6b7 10be 1099 7cbe
000001b0: 98fe 56be c2dd fdbb 6722 c1bc dd8d a8be
000001c0: c8d1 aabe a52c a8be 8327 edbc f606 993c
000001d0: f627 11be 2e08 e5be a757 b73d 5757 66be
000001e0: da8f 19be 1dc3 c7bd 8b7b cdbd 5452 a63d
000001f0: 3ca7 a9be 37bb 8ebe 9999 15be dc5b f7bd
00000200: c5fc a7be 3c0b 49be c43a 0d3d 518f bfbe
00000210: 6485 64bd 6962 af3c a814 b3be 18e9 28be
00000220: 7305 1d3e 88cf 053e cb34 aabe 1fbe a63d
00000230: 9661 42be bfdd 92be eb94 b8bd fd3d 5b3c
00000240: 6356 0ebe e7be 64be d908 d13d a129 80be
00000250: f824 cbbb 5383 46bd 28fc 59be a46c c7be
00000260: b30c adbe 93aa 30bd 6270 3fbe d4e3 babe
00000270: 3f24 25bd 46e8 f0bd 708a 84be c48d e43b
00000280: 23c2 cabe e2bc 3abe 4723 a3be dfe6 33bd
00000290: 62a3 e7bc 5757 a3be 32f2 0bbd 2df8 483e
000002a0: 361f d9bd fda5 f2bb eca6 a0be bb69 b0bd
000002b0: a7f1 a1bd 8b6e 173e 2c0e c23d f3a2 9abd
000002c0: 0bbb d5bc c791 0dbe 850b 13be fef9 44be
000002d0: ab55 0abe 74d8 283e 533a 8ebe 445e 96be
000002e0: 0556 d3bd cbcc 06bd ceeb 4bbd 7a42 f1be
000002f0: 92d4 cc3b 300a e9bd 6e2a 993d 337f a7bd
00000300: 5168 0e3b 9471 73be 34a9 29bd 65af 9abe
00000310: 0fe4 68bc f3b3 babe 9b9b 383d c339 63be
00000320: 773f e8bd 774e 033e 5088 8ebc 0597 81bd
00000330: cbf4 83bd 17af 57bc 21f0 88be e9e6 92be
00000340: 7c02 3abe 08d4 41be 6a6b 31be 1b90 e7bd
00000350: 4726 c03c 9e88 89be 9835 89be ba34 d0bd
00000360: 4b1f a43d 4045 c0be d057 c4bd 8f19 abbd
00000370: aa9d 1cbe d2f5 c0bd eca7 e43c 130a 543c
00000380: 38d1 aebe 51d2 c8bd 75c9 9b3d 663d f6be
00000390: 504e 2f3e 8ee9 f7bd 0624 8e3c 8261 bebb
000003a0: 2a15 e6be df78 9c3d 4ef3 45be ef7e 18be
000003b0: 67a1 20bd 8eb1 16bc 72be 093d 2163 23be
000003c0: 2a06 a7be 25f3 68be a86a c63d ae18 903d
000003d0: 3a06 4fbd 67cd 0abf ad1c a33d 1a9e 8fbd
000003e0: 4725 6fbe daf7 d7bd 66d5 cfbd f7a1 813e
000003f0: 2e2c 0dbe df02 4bbe 9673 0ebe 9263 ffbd
-0.30612916 -0.1754004 0.021294527 -0.29225323 -0.03802978 -0.06698445 -0.28726104 -0.20176816
-0.03266042 0.04009971 -0.13279344 0.1302869 -0.09367462 -0.35080418 -0.10497265 -0.067353286
-0.20799612 -0.24728617 -0.002687264 -0.11383382 -0.016834415 -0.032738116 -0.27372098 -0.36593083
-0.2948973 -0.08141332 -0.027089149 -0.42586845 -0.084234245 -0.25718766 -0.24760765 -0.14556436
-0.6042484 -0.20443304 -0.43024132 -0.18817656 -0.17474523 -0.282885 -0.18626967 -0.058752198
-0.13322206 -0.031732693 -0.36986586 -0.29225776 -0.16926767 -0.044427443 0.0075449008 -0.20044126
-0.18546781 -0.107392885 -0.36818016 -0.37759244 -0.24782981 -0.06932228 -0.26193568 -0.08021898
-0.22461997 -0.14065439 -0.109264635 -0.4885175 -0.15229271 -0.052972652 0.06779754 -0.18090439
-0.16947176 -0.26504606 -0.21733652 -0.46813416 -0.05736334 -0.32243136 -0.120539986 -0.1457178
-0.23896135 0.05665016 0.051204164 -0.08618149 -0.21378419 -0.0314775 -0.45990592 -0.34854335
-0.069562964 -0.28781894 -0.1439641 -0.18938273 -0.13767497 -0.40982708 -0.31169766 -0.091365054
-0.17386766 -0.39399686 -0.04321416 -0.14615388 -0.24008699 -0.064426094 -0.013954554 0.046425804
-0.30016202 -0.28295052 -0.0062662275 -0.45577848 0.0019790805 -0.30770776 -0.20472541 -0.02635995
-0.4824984 -0.03487925 -0.14132676 -0.24667764 -0.20995557 -0.007747383 -0.023575975 -0.32920733
-0.33363175 -0.3284656 -0.028949505 0.018680077 -0.141754 -0.44732803 0.08952265 -0.22494255
-0.14996281 -0.09754012 -0.100333296 0.081211716 -0.33135402 -0.2787721 -0.14609374 -0.12078068
-0.32810035 -0.19633192 0.03447987 -0.3741403 -0.055791274 0.02140923 -0.34976697 -0.16495168
0.1533411 0.13067448 -0.33243403 0.081417315 -0.18982539 -0.28684804 -0.09012779 0.013381478
-0.13900141 -0.22338448 0.10206766 -0.2503176 -0.0061994754 -0.048465084 -0.21287596 -0.38950074
-0.3379875 -0.043131422 -0.18695214 -0.36501944 -0.04031777 -0.11763053 -0.2588687 0.0069749076
-0.3960124 -0.18236116 -0.31862852 -0.043921348 -0.02827615 -0.31902573 -0.034166522 0.19625922
-0.10601656 -0.0074050413 -0.3137735 -0.086139165 -0.0790742 0.14788263 0.09475359 -0.07550611
-0.026090166 -0.13825141 -0.14359863 -0.1923599 -0.13509242 0.1648882 -0.27778873 -0.29368794
-0.10319141 -0.03291015 -0.049785428 -0.4712103 0.0062509263 -0.11378896 0.07478796 -0.08178558
0.0021729658 -0.23773795 -0.04142113 -0.3021194 -0.01421453 -0.36465415 0.045070272 -0.22190003
-0.1134023 0.128229 -0.017398983 -0.06327633 -0.06443175 -0.013164303 -0.26745704 -0.28691795
-0.1816501 -0.1892854 -0.17326131 -0.11306783 0.023455752 -0.26862043 -0.267987 -0.10166307
0.08013781 -0.37552834 -0.095870614 -0.08354484 -0.15294519 -0.094218865 0.027912103 0.012941855
-0.34143996 -0.0980574 0.07606784 -0.48093718 0.17119718 -0.12105094 0.017351162 -0.0058099637
-0.44938022 0.07640242 -0.19331095 -0.14892171 -0.039216425 -0.009197606 0.03362889 -0.15955783
-0.3262189 -0.22749002 0.09688312 0.07035957 -0.050543047 -0.5421967 0.07964454 -0.07012577
-0.23354064 -0.10545321 -0.101481244 0.25318882 -0.13786384 -0.19825314 -0.1391128 -0.124701634

lstm.bias_hh_l0 f4 [512]
00000000: 262b aabe 1ee2 64be 672a 12bd 4a36 c7be
00000010: 263a 2abe 0fb8 ccbd 43e2 cabe bc9f c3bd
00000020: 4a10 0abd f9dd 63bd 7f1f 71be 60c4 cf3d
00000030: 870c 2dbe c935 99be f4ec 33be 70da afbd
00000040: 2fef 2cbe 3d84 1fbe 4c34 8fbc 6788 2dbe
00000050: 1a64 14be 929e 03bd 8842 b5be 6491 b0be
00000060: d769 a3be 466d 0cbe 9a52 93bd 57e1 dcbe
00000070: 65e0 02be 2898 81be 2cdf 62be 8c85 33be
00000080: 0e13 f6be 088b 56be 0721 efbe 11da 49be
00000090: c9bc 94bd 33f2 94be 4ea8 98be cda8 34be
000000a0: 4af6 85bd 71b2 b4bc 772a adbe babb 83be
000000b0: 3544 6fbe 9b1c c0bc 5b15 65bb 0b6e fdbd
000000c0: 1c71 09be 229e ffbd db44 babe f7c7 c6be
000000d0: 1c40 96be 4540 9bbd a769 b4be 62f5 35be
000000e0: 9a2f 55be 487a f4bd bc9c 15bd 06b1 b7be
000000f0: db57 a0be 09d5 20be 4ec8 cfbc c2fe 2fbe
00000100: 34fa 94bd 8c62 5bbe 0e43 0cbe 1d3b c1be
00000110: 9753 f1bd 5713 c3be 6d05 7ebd 8db7 3dbe
00000120: 0376 09be 43c1 ccbc a970 5a3d 9a64 bfbd
00000130: e047 16be f8d6 90bd e65a a6be 660f b1be
00000140: 365a 83bd cac8 c6be ce5c 53be 2303 47be
00000150: bf45 22be 8bff e5be a56f 9ebe e834 a7bd
00000160: aa8d b0bd 939c f3be 9b41 d8bd 6be3 38be
00000170: 3a6f 77be 30db 78bc 8f51 593d c849 cc3c
00000180: 5ecf cdbe c10b 5fbe 81d1 a1bd 14c3 f1be
00000190: 958e e4bd 17b8 38be 784a 3cbe 261d 203d
000001a0: b52e edbe 5ac9 f23c b0fb 3bbe c870 38be
000001b0: b9fc 36be eddd d0bd c8ee 53bc 375c bebe
000001c0: 9e79 86be b726 acbe 5771 efbb 2f96 ec3c
000001d0: 4d64 c4bd 41a9 bfbe fc6b 2d3d 1aab 86be
000001e0: 9736 39be b4db 2abe 78f6 a8bd 16c6 643c
000001f0: b682 64be 229f a0be d73a 99be 5ada 54be
00000200: c40b 2b40 078a 3040 d847 4040 444c 2b40
00000210: ec22 3e40 867b 4040 14ce 2c40 0143 3240
00000220: c668 4640 d479 4740 ca53 3040 9f03 4540
00000230: d6da 3140 ff81 2e40 5941 3c40 d816 3d40
00000240: 1d90 3440 d8f9 3640 36dc 4140 dbaa 3440
00000250: 213e 3f40 692c 3c40 d8a9 2d40 6d69 2340
00000260: 02a3 2c40 b823 3940 76ac 3340 2800 2740
00000270: f2a1 3f40 02be 3440 7b89 2a40 22d0 3a40
00000280: 5987 2b40 f753 3340 4163 2840 138f 3c40
00000290: 6d63 3940 458a 2640 51b3 3a40 1e7a 4740
000002a0: 7416 3740 0b5f 3f40 bbc8 3040 b7cc 3540
000002b0: 54ab 3940 1fd7 4740 b33b 4240 e0ad 3940
000002c0: 03e5 4140 41fa 3640 74b4 3a40 b74d 3040
000002d0: 166b 3640 f83a 4840 a5b9 3240 886c 3040
000002e0: 4963 3440 0d86 3940 f9b5 3c40 2e5d 2540
000002f0: d854 4340 acf6 3540 cf93 4240 00dc 3840
00000300: fd4b 3d40 5267 3640 4c5d 3d40 b68d 2840
00000310: 1144 3d40 b43c 2740 cec6 4140 0b04 3640
00000320: 4f7a 3c40 e927 4340 1543 3d40 1825 3c40
00000330: 614c 3740 7d9c 3d40 8985 2e40 ce5d 2b40
00000340: e1cb 3540 5647 2f40 eee4 3340 ac6b 3540
00000350: 8b7b 3f40 4d8b 2c40 5eaf 2b40 63b5 3940
00000360: 7bc6 4440 a149 2640 b06c 3740 fe34 3740
00000370: 814d 3640 b7d7 3440 2a3d 4240 b545 3d40
00000380: 803b 2f40 dfb5 3740 682f 4240 05fb 1d40
00000390: 5f00 4a40 4eca 3940 4f3c 4340 2e21 3d40
000003a0: 9f88 2740 4b7f 4040 eb0e 3140 6b72 3240
000003b0: be9e 3a40 7b6c 3d40 788f 4140 5219 3740
000003c0: 08d4 2f40 1eb9 2f40 3ae1 4040 ccec 4040
000003d0: 7bfd 3840 6699 2240 713a 4340 972f 3940
000003e0: ea91 3540 00e1 3540 377b 3a40 6e8f 4a40
000003f0: 5d66 3540 77ef 3240 d82c 3740 c975 3740
-0.33236045 -0.22351882 -0.03568497 -0.38908607 -0.16623744 -0.09996044 -0.3962575 -0.09551951
-0.03370694 -0.05563161 -0.23547171 0.101448774 -0.1689931 -0.29923847 -0.17570859 -0.085865855
-0.16888116 -0.15577789 -0.017480992 -0.16946565 -0.1449131 -0.032133646 -0.35402322 -0.34485924
-0.31916687 -0.1371356 -0.071934894 -0.4314067 -0.12780912 -0.25311399 -0.22155446 -0.17531413
-0.48061413 -0.20951474 -0.46704885 -0.19712092 -0.072625704 -0.29091033 -0.29815906 -0.17642517
-0.065411165 -0.022057744 -0.3382146 -0.25729162 -0.23365863 -0.02345114 -0.0034955356 -0.12374505
-0.13422054 -0.12481333 -0.36380658 -0.38824436 -0.29345787 -0.07580618 -0.35236856 -0.17769387
-0.2081894 -0.11937386 -0.036526427 -0.35877246 -0.31317028 -0.15706266 -0.025364067 -0.17187026
-0.07274285 -0.21424311 -0.13697454 -0.37740412 -0.117835216 -0.38100693 -0.062016893 -0.1852705
-0.13423924 -0.024994498 0.053330097 -0.0934536 -0.14675856 -0.07072252 -0.32491225 -0.3458206
-0.06413691 -0.38825065 -0.20640871 -0.1943479 -0.15846919 -0.44921526 -0.30944553 -0.08164388
-0.0862077 -0.47580394 -0.10559388 -0.18055503 -0.24163523 -0.015188977 0.053056296 0.024937525
-0.4019727 -0.21781828 -0.07901288 -0.47219145 -0.11160008 -0.18038975 -0.18387783 0.039090298
-0.46324697 0.029637028 -0.1835773 -0.18011773 -0.17869844 -0.10198579 -0.012935348 -0.3717973
-0.26264662 -0.33623287 -0.0073072123 0.028880207 -0.09589443 -0.37433818 0.04233931 -0.26302415
-0.1808723 -0.16685373 -0.08250135 0.013963243 -0.22315487 -0.3137141 -0.29927704 -0.2078642
2.672593 2.7584245 3.004385 2.67653 2.9708815 3.0075393 2.700078 2.7853396
3.1001449 3.1168108 2.755114 3.078346 2.7789817 2.7266843 2.9414885 2.9545193
2.821296 2.8589993 3.0290656 2.8229282 2.988167 2.9402106 2.7134914 2.5533097
2.6974492 2.892805 2.8074012 2.6093845 2.9942594 2.8240972 2.6646411 2.9189534
2.680136 2.8019998 2.631058 2.9462326 2.8966935 2.6021893 2.9171946 3.1168284
2.8607454 2.990176 2.7622516 2.8406198 2.901082 3.122505 3.0348938 2.9012375
3.0296028 2.8590243 2.917264 2.7547433 2.850286 3.1285992 2.7925808 2.7566242
2.81856 2.8988068 2.9486067 2.5838122 3.0520535 2.8431807 3.0402715 2.8884277
2.957763 2.8500562 2.9588194 2.6336493 2.9572794 2.61308 3.027759 2.8439968
2.9449651 3.049311 2.9572194 2.939764 2.8640368 2.9626763 2.7269003 2.6776004
2.8405688 2.738729 2.8108478 2.8346968 2.9919155 2.6960022 2.6825786 2.901696
3.0746143 2.598244 2.8660088 2.8626094 2.8484805 2.8256662 3.0349832 2.9573796
2.7380066 2.8704755 3.0341434 2.468446 3.1562726 2.9029727 3.050556 2.9551501
2.6177137 3.0077693 2.7665355 2.7882335 2.9159389 2.9597461 3.0243816 2.8609204
2.7473164 2.7456737 3.0137467 3.014453 2.8904712 2.5406127 3.050442 2.8935297
2.837031 2.841858 2.9137704 3.1650043 2.8343728 2.7958658 2.862112 2.866564

head.net.0.weight f4 [1, 128]
00000000: d1b0 8abd d5c5 203d 7bac 8f3b 64ab 0dbd
00000010: 2360 9939 3cbb a03a b022 553b 319c d6bc
00000020: 5aa4 17ba 9e04 c93a 0426 2abc 52fd b439
00000030: 7355 c0bb cfe0 083d d64a 50bb da1a 20ba
00000040: cfc2 093c 7f52 c93b b78d 003c 3cf6 023d
00000050: 39bb d7b9 31d9 b63a 132e c03c 3216 22be
00000060: f4b9 20be 1767 bcba d172 8139 55e6 d6bd
00000070: 968e 6b3b 7c67 37bb bf6d b33d ba77 20bd
00000080: 8783 333e 101a 863d 66fd 37be f20a 0a3c
00000090: 40fd 273a 7a5d be3e 0961 f93b 6e71 6aba
000000a0: b0c2 c7ba 017c 5e3b de17 403d 7d62 373c
000000b0: a959 133c 1daa 30bc de54 a038 7303 4cbb
000000c0: ac41 683b fb7b 9eba 52da 233c 2fcc 483b
000000d0: 18d4 55ba 4bea c1ba d0b0 12be ccbd bd3b
000000e0: 9a87 5439 7344 8cbb 26d6 213b 2a15 01bf
000000f0: 2268 ad3b dbd7 15bb 62d6 943a 078b 2d3b
00000100: 5b3a f1bb 575a 4a3c 3eac 29bc 1335 5dbd
00000110: b3e6 33b9 3998 913e 07ad 343b 0e71 debb
00000120: fb24 9b3b c88d 36bc 98e5 8a3b 57d8 16ba
00000130: 5c47 233a 7b37 f239 6a91 09bd 5f52 a43d
00000140: 716e edbb 6f06 2f3d 2c24 0cbc 8546 4bbc
00000150: cc05 4abb 7f5e bcbd 9b06 fdbc 6ed9 18bb
00000160: f0d7 afb9 a90e 95be 68f9 3e3a e4fe 9abc
00000170: e47d df3a 5afc 4e3a d9c3 66ba 6248 413b
00000180: f61c 443d dc17 143c 66d6 f6ba f558 4d3f
00000190: 9f06 cdbb ac69 6b3c b7db b83a 0ffa c73b
000001a0: b2c2 57bf 336c 4e3a d561 5339 d252 25bb
000001b0: 5167 f6bb 841a 1c3b 8e45 c7ba b76c 08b9
000001c0: 59aa 4a3c da46 d03b 6134 6eba 03a0 2f3a
000001d0: 18cd 01b9 b3c7 a2be 2994 c4bb a010 29ba
000001e0: eff3 24bc 84e2 903c 6208 a5bb 0674 003c
000001f0: e215 4fbb 4c00 3bbc f343 c53c f71b 003a
-0.06772006 0.039251167 0.004384575 -0.03458728 0.00029254062 0.0012262831 0.0032521896 -0.026197525
-0.0005784683 0.0015336459 -0.01038504 0.00034521014 -0.0058695613 0.03341752 -0.0031782887 -0.0006107517
0.008408262 0.0061438675 0.007846287 0.03197311 -0.00041147487 0.0013950226 0.02345947 -0.1582878
-0.15695935 -0.0014373985 0.00024690342 -0.10493151 0.0035943142 -0.0027985265 0.08761167 -0.03917668
0.17530642 0.0654794 -0.17967758 0.008425461 0.00064082816 0.37180692 0.0076104444 -0.0008943294
-0.0015240517 0.0033948424 0.04689776 0.011192915 0.008993545 -0.010782746 7.645202e-05 -0.0031129986
0.0035439534 -0.0012091392 0.010000782 0.003063928 -0.00081569096 -0.0014794556 -0.14325261 0.005790448
0.00020268411 -0.0042806207 0.0024694293 -0.5042292 0.0052919546 -0.0022864256 0.0011355395 0.0026480572
-0.007361693 0.01235064 -0.010356007 -0.054005694 -0.00017156712 0.2843645 0.0027568953 -0.0067883795
0.004734633 -0.011142202 0.0042387955 -0.0005754283 0.000622859 0.00046199173 -0.033585943 0.080235235
-0.0072458317 0.042730745 -0.008553546 -0.01240695 -0.003082621 -0.09197711 -0.030886939 -0.0023322958
-0.00033539487 -0.29112747 0.0007285089 -0.01892037 0.0017051068 0.00078958797 -0.0008802987 0.0029492606
0.04787918 0.009038892 -0.0018832206 0.8021386 -0.006256893 0.014368456 0.0014103566 0.0061028074
-0.84281456 0.00078743993 0.00020158973 -0.0025226367 -0.0075196405 0.0023819515 -0.0015203224 -0.0001301047
0.012369716 0.0063561024 -0.00090867846 0.0006699564 -0.00012378802 -0.31792983 -0.0059991074 -0.00064493157
-0.010067924 0.017686136 -0.0050363997 0.007840162 -0.0031598737 -0.011413645 0.024080252 0.00048869796
