examples/catchment_models/training/runs/usa_basin_split_2404_020225/model_epoch019.pt (torch, 316229 bytes, 5 tensors)

lstm.weight_ih_l0 f4 [512, 23]
00000000: b7af 9a3c a95c 433e 1217 c2ba 3e9b 05be
00000010: ed22 c2bd cabd 433f 1930 093f 44bf 7cbe
00000020: 3dc6 283f d7cd 8dbc 9e6e 0abf e016 943e
00000030: 980e 93bd 73a4 f9be b940 58be cbf4 1d3f
00000040: d6dd 963e bf77 c83e 3dd1 5fbe c082 783e
00000050: c942 ea3e c62d f73e ec61 553d 77c8 253d
00000060: f904 c03e 8cc3 56be 0382 27be 50d3 313e
00000070: e854 a73e 6cdb e93e af79 af3d 71f4 2b3f
00000080: b09a 1abd 10a4 c7be f55a ed3e 762c eb3d
00000090: 3561 dfbe 565f 47be a84c 2e3f 90ad a53e
000000a0: f57a f33e d4d1 7cbe a603 153e 0304 e03e
000000b0: 91c2 b43e 32ea 0c3e bbae 7d3e a7ab 8b3d
000000c0: 51aa d83d 02ba e53d 5fd1 633d d5f8 4d3e
000000d0: 6993 a3bc fc70 21be df56 17bd 025f 673e
000000e0: 7c2a 6fbe ced1 9b3e 9113 1ebe cf43 87be
000000f0: bb17 9bbe 94f6 0cbc 0b1d 583e c1dc 543e
00000100: b678 d2be e932 bb3e b9cb 8f3e d841 913e
00000110: 79fb a6be 881a 553d f4f6 cc3e 40ef 75be
00000120: 279c 2dbe d529 3cbe 455f 973e 0a69 353f
00000130: c6b1 3e3d 24cb 283f a11f b13c 4063 b6be
00000140: 4ba4 7e3e c672 213d 713c babe 83f9 c7bd
00000150: 3681 f63e fd12 9e3e 31ab b43e 66f6 b8be
00000160: 02f0 a43e 36c5 983e 9e31 073f 1332 533e
00000170: 8543 953e b67c d53d 9b39 323e 39e5 2fbd
00000180: feed 403e 5107 1d3e f64e 833e 83b8 4d3e
00000190: 58c3 a33e f610 5fbf 0bcf 033e 0fb2 58bf
000001a0: eb50 ddbd 9b0e 5b3e a710 c23e 1ef5 943e
000001b0: c46b d53d 13ef 373e a4a8 38be 2f74 8a3d
000001c0: d6b7 97bd e31b 51be 5f70 503e 855a 8d3f
000001d0: bd45 2e3e fe6d af3e 006d b63e e3e1 123f
000001e0: 69d9 143e ffe8 a4be b787 f53d acc3 a1be
000001f0: e106 723d 08e1 b6bd a061 2fbd 4d82 e2be
00000200: b8e4 a83e 1e13 0c3c 4515 03bf d1fe adbd
00000210: 5bae ccbe 2a27 0bbe fff0 903c 9259 e9bd
00000220: 147f 9cbe ab5b 9ebd b05c d23d 3963 7a3e
00000230: b50c 253e d28b c23a ed12 1f3d 4f4f 233f
00000240: 4cfb 3e3f ce96 23be b54d 323f d6bf 59be
00000250: eb66 bdbe 5ac8 173d ba6a eabd d016 88be
00000260: 87c7 923d f7dd 243f 52c1 893e 3ac6 aa3e
00000270: d4de debe fd0e 943e 23ee 003e 5d78 fc3e
00000280: b7ed 423e ea95 383f ff1d 6abd 545a 20be
00000290: 5cc7 b1be f828 ea3e 1ecc f93e 1875 793e
000002a0: c6c0 a4bd 1d02 8c3e 7e0e 393e 70c3 d2be
000002b0: 27f6 e33d 08af 673f ed71 b3be 0f9f 4fbe
000002c0: e6f5 5bbe 2e28 403e df6b a73e f6e4 c2be
000002d0: 6a36 903e a499 9d3e 725f dd3e 3940 abbc
000002e0: 4252 1fbe 8677 b8be c210 0c3f 4887 163f
000002f0: a0ea c93d 4c99 363d 0088 983d dcb1 08be
00000300: 9c4f fdbd 1c19 1f3e 8379 233e c1db 1c3e
00000310: 0ea1 e8bb c995 34be 94c1 14bd ef33 cabd
00000320: 1d71 2dbd 6a45 903d 2793 71be 2766 bd3d
00000330: d845 52bd ac9f 3b3e c0c1 6fbe e65a 0ebd
00000340: 63c6 52bd 3dcc e6bd 468f 97be 5a43 833e
00000350: ff3b 9b3e 6447 40bd 11c6 cebd fba2 8abe
00000360: 8847 9f3d 4657 f5be e3db e3bd a554 36be
00000370: ccf1 e3bd 8b86 e7bd 9bca 11be 6411 5abd
00000380: 51f8 02bd 5247 ccbd 2f96 86bc 8612 c03d
00000390: a3a9 2e3e 7c33 84be d9ac 163e b9da a3bd
000003a0: 5e38 173e 974a b33e d875 253f d6da 2a3e
000003b0: 39a8 873e 0aca 993e 2ae5 b03d 7b70 6cbd
000003c0: 79d8 ad3d 173b 83be dbe0 88be 9f21 f13c
000003d0: cf9b 783e 9042 a13e 7d07 5fbd 24d2 053d
000003e0: ae71 64be e932 113e 3b84 c93e 6471 aebc
000003f0: e404 713e f6da 223e 38c9 cd3e 5fa7 1fbf
0.018882615 0.19078316 -0.0014807901 -0.13047501 -0.09479318 0.7646147 0.53589016 -0.24682337
0.6592749 -0.017310066 -0.5407504 0.28923702 -0.07180518 -0.48758277 -0.2111844 0.6170165
0.29466122 0.3915386 -0.21857162 0.24268627 0.45754078 0.4827711 0.05209534 0.04047438
0.37503794 -0.20973033 -0.1635819 0.17365766 0.32681966 0.45675218 0.08568131 0.67169863
-0.037745178 -0.38992357 0.46358457 0.114830896 -0.4362885 -0.19469962 0.6808572 0.3235898
0.47554746 -0.24689418 0.14552173 0.4375306 0.35304692 0.13761213 0.24773686 0.068198495
0.1057936 0.11217119 0.055619594 0.20114453 -0.019967752 -0.15765756 -0.03694808 0.22594836
-0.2335605 0.30433506 -0.15437151 -0.2641892 -0.30291542 -0.008603711 0.21104829 0.20787336
-0.4110772 0.3656228 0.28085116 0.28370547 -0.32613733 0.052027255 0.4003216 -0.24017048
-0.16954099 -0.18375333 0.29564872 0.708634 0.046556257 0.6593497 0.021621527 -0.35622597
0.2486736 0.039416097 -0.36374238 -0.097643875 0.48145455 0.30873862 0.3528686 -0.36125487
0.3221436 0.2983796 0.52810085 0.2062457 0.29153076 0.10424177 0.17404787 -0.042943213
0.18840787 0.15334822 0.2564618 0.20089917 0.31984973 -0.87135255 0.1287195 -0.84646696
-0.108064495 0.2139229 0.3790333 0.2909326 0.10420945 0.17962293 -0.18033081 0.067604415
-0.07408111 -0.20420794 0.20355366 1.1043249 0.1701879 0.34263605 0.35630035 0.57375926
0.1453606 -0.32209012 0.11988776 -0.31594598 0.05908859 -0.0892964 -0.04281771 -0.44240037
0.32987 0.00854948 -0.5120433 -0.08495868 -0.39976773 -0.13589159 0.01769304 -0.11394037
-0.30565703 -0.07732328 0.10271585 0.24451913 0.16118129 0.0014842695 0.03883641 0.6379289
0.746022 -0.15975496 0.6964982 -0.21264586 -0.36992583 0.037056305 -0.11446138 -0.26579905
0.07166963 0.6440119 0.26905304 0.3335436 -0.4352938 0.28917685 0.12590842 0.4931058
0.19035994 0.7210375 -0.057157513 -0.15659457 -0.34722412 0.45734382 0.48788542 0.24361074
-0.08044581 0.27345362 0.18071935 -0.41164732 0.11130934 0.9050145 -0.35047856 -0.2027552
-0.21480522 0.18765327 0.32699487 -0.38065308 0.28166515 0.3078128 0.43236881 -0.020904647
-0.15558723 -0.3602869 0.5471307 0.5880017 0.09859204 0.04457979 0.07447815 -0.13349098
-0.123687 0.15536922 0.15964322 0.15318204 -0.0070992773 -0.17635264 -0.036317423 -0.09873187
-0.0423442 0.0704449 -0.2359129 0.09248 -0.05133614 0.18322629 -0.23413754 -0.034754656
-0.051458728 -0.11269424 -0.29601496 0.25637323 0.3031921 -0.046943083 -0.10096372 -0.2707747
0.077773154 -0.47918147 -0.111259244 -0.17805727 -0.111301035 -0.11304959 -0.14237444 -0.05323924
-0.031975094 -0.09974541 -0.016429035 0.09378533 0.17056899 -0.2582053 0.14714374 -0.080007024
0.14767596 0.35017845 0.6463294 0.16685042 0.2649553 0.30036956 0.086374596 -0.057724457
0.084885545 -0.2563102 -0.2673405 0.029434977 0.24278186 0.31496096 -0.0544505 0.03267111
-0.2230899 0.14179577 0.39358696 -0.021294303 0.23537022 0.1590384 0.4019258 -0.62364763

lstm.weight_hh_l0 f4 [512, 128]
00000000: 9f58 de3e 7a34 2bbd 016c babe 56f0 393e
00000010: 4b24 873e b873 0fbf e2ef 493d 3edb fabd
00000020: 43c0 f93e d63c 4dbe 2a38 c23e 2bc1 3abe
00000030: dceb c6be be11 6d3d d179 11be b783 123f
00000040: c426 efbc c729 763d 646c b23e 33de 22be
00000050: 5193 7cbe 043b d13e f7d4 8fbe e869 35bd
00000060: 9df2 c43d 9455 7cbe 4230 e2be 4eb6 983d
00000070: 8e73 fd3e 7ee8 d1be 3b20 56be bd5f b43e
00000080: f5ba 9c3d 06a7 8ebc d6a5 523d 38e2 a3be
00000090: 7e78 bcbe 6950 6ebd 75af dd3d 05df 813d
000000a0: 92cc 2bbe 80f7 ff3d cae2 3cbe 3d0c 3ebe
000000b0: 79e9 96be 1baf 81bd 8756 89be 7764 51be
000000c0: 8b65 b1be 259f 413e f941 edbd 22dd 02be
000000d0: 7a25 63be 811c 453e 1b5f 90bd ca1e aabe
000000e0: 5c56 cd3e 84b6 0c3e 9aa6 e6be 9c1c 81bc
000000f0: 55fe cebd a489 0bbf 7def 9dbe b5a1 e1be
00000100: 9826 763e 5b0e 293d a07a febe c03e 94be
00000110: 7006 3abe c8d7 6fbd 50f5 24bd de1a 743d
00000120: 8b6e cf3e 42f1 f73d 87b3 943e 45d3 4f3e
00000130: ea14 b23e 8518 dfbe f658 633d 4c9e 8abc
00000140: bb1c cbbe 8167 b5be 0a06 333e a221 2fbe
00000150: 61a8 dbbe a8b5 303e 3f4f 80bc 89ee 863e
00000160: 3cb1 243e 5f56 eabd 53f3 2cbe 731e 2a3d
00000170: a661 8d3e 476a 2abe 8b30 adbe e4e9 9a3e
00000180: 29c9 2a3d d402 9d3d 20f3 fd3e 5f56 4c3e
00000190: cb1a 353e a245 623e 9803 aebe 8a81 10be
000001a0: fffe f73c 3a45 c6be 331f 463f f77c b3bd
000001b0: f489 34be 234b 0c3e f09a ccbe 2c98 093e
000001c0: c97e a3bd e1b4 1f3d 3f3d 30bf c947 f93e
000001d0: e609 613e e990 25bd 8817 c83e 0ac7 c43e
000001e0: 4838 b33d 44ab 10bc 8057 86be 17a3 6abd
000001f0: 23a2 833e 02e5 513e 4b84 6fbd 69ab c6be
00000200: 5327 65be 9e72 bd3e 936f 45be 05e1 c33d
00000210: b543 99bc e61a d3be d667 a2bd 1ea5 f4be
00000220: 4eef fe3e 2205 9abd fedb 143f 9df1 8c3e
00000230: ead8 cebe 61a0 49be b54b 98bd f3bd db3e
00000240: 9d20 063e 3f7d 963d 4fba 96bd 75a5 813e
00000250: e783 81be 3319 d53e 678d 8b3e 5cf6 5ebd
00000260: 917b 26be 630b aebe 13bb 1dbf 8b20 8bbd
00000270: 185b f93e 24d4 52be 62ec cd3d 6541 63be
00000280: 9a08 0b3e 509b 1d3e e59c ebbd 2976 05bf
00000290: 48c6 0cbf 6116 3e3d e62c 973e 5dac 98be
000002a0: 3120 0bbe 13f0 b43e 95cc b83c 1462 83be
000002b0: 002d 9abe 1ef5 d23d 126d 2fbf 01a3 febd
000002c0: e05e 06bf 1751 b93e ee0e d6bc e62c 88bc
000002d0: 9c9f 8ebe b27c 353e 20c6 a3be 050b dcbd
000002e0: e340 0c3f 1123 b6be 6093 d8be 9111 2abe
000002f0: 7aa2 52be b83e 9bbe 8324 4bbe 2f08 d5be
00000300: 4145 303e 9e5a d23e 220f edbe 59bb 8ebe
00000310: 751e b0be 523d 5f3e 3c80 c3be a233 373e
00000320: 0174 4c3e d468 e53c 2619 363e 1cc9 4c3e
00000330: af40 00be 1871 afbe e9fe 6bbe 8c6d 123e
00000340: 7245 b7be a12a 663e d6e8 323e 7ea6 3cbe
00000350: 4d99 b8be 5446 8dbe 7c38 5bbe aa7a 243e
00000360: 2e1c 833e e7f7 34bd f2ea 51be 7865 01be
00000370: ca6f f33e dbf8 af3c fc6b 05bf 907d 853e
00000380: 5600 9f3e 7818 4c3e fce1 c63e ca32 713d
00000390: a90b 193e 3ee3 943e 0223 61be 0fd1 97bc
000003a0: 18e2 3ebd 7a35 15bf 6887 373f 98fa 523e
000003b0: bf4d 0abf eef0 1f3e 27c8 fbbe 1c69 d1bd
000003c0: ed7d b4bb 7513 9fbd cd46 a3be b18d 953e
000003d0: 0e27 633d e8f1 adbd 2aed 973e 026b b03d
000003e0: 27b5 c4be b07a 313e 18eb b83e c336 adbd
000003f0: a1d6 653e 3a7a 6a3e 5849 43bd e077 9fbd
0.43426988 -0.041798092 -0.36410525 0.18158087 0.26394877 -0.5603595 0.049301036 -0.122488484
0.48779497 -0.20042738 0.37933475 -0.1823775 -0.3885182 0.05787825 -0.14206626 0.5723223
-0.02919329 0.060098436 0.3484832 -0.15905075 -0.24665572 0.40865338 -0.28092167 -0.044290453
0.09616587 -0.2464202 -0.44177443 0.07456647 0.49502224 -0.4099769 -0.20910732 0.35229293
0.07652847 -0.017413627 0.051427685 -0.3200853 -0.36810678 -0.058182154 0.108244814 0.06341366
-0.16777256 0.12498379 -0.18445888 -0.18559356 -0.29475 -0.06332227 -0.26823828 -0.2044848
-0.34647784 0.18908365 -0.11584849 -0.12779668 -0.22182265 0.19249155 -0.0704939 -0.33226615
0.4010495 0.13741499 -0.45048982 -0.015760712 -0.10107104 -0.545069 -0.30846778 -0.44068685
0.2403816 0.041273456 -0.4970293 -0.28954124 -0.18166518 -0.058555394 -0.04027301 0.059595935
0.40514025 0.12106563 0.29043218 0.20295437 0.3478158 -0.43573394 0.05550476 -0.016921185
-0.39670357 -0.3543053 0.17482772 -0.17102674 -0.429019 0.17256796 -0.015662787 0.26353863
0.16083235 -0.11442255 -0.16889696 0.041532945 0.27613562 -0.16642104 -0.33826098 0.3025657
0.041695748 0.07666555 0.49599552 0.19954823 0.17686002 0.22096875 -0.33987117 -0.14111915
0.030272959 -0.3872469 0.77391356 -0.087640695 -0.1763075 0.13700537 -0.39961958 0.13436955
-0.07983167 0.03899086 -0.68843454 0.4868758 0.21976432 -0.0404214 0.39080453 0.38433105
0.08750969 -0.008829895 -0.26238632 -0.05728444 0.25709638 0.20497516 -0.058475774 -0.3880265
-0.22378282 0.37001508 -0.19280843 0.095644034 -0.018709043 -0.4123146 -0.079299614 -0.47782224
0.4979195 -0.0752051 0.5814818 0.27528086 -0.40399867 -0.19690086 -0.07436315 0.42918357
0.13098378 0.073481075 -0.07359754 0.25321546 -0.25295946 0.41620788 0.2725632 -0.054434165
-0.16258074 -0.33993062 -0.6161358 -0.067933165 0.48702312 -0.20588738 0.10054852 -0.22192915
0.135775 0.15391278 -0.11504535 -0.52133423 -0.54990053 0.04640806 0.29526442 -0.29819003
-0.13586499 0.35339412 0.02255849 -0.25660765 -0.30112457 0.10300659 -0.68525803 -0.12433434
-0.5248852 0.3619468 -0.026130166 -0.016622972 -0.27856147 0.17723349 -0.31987095 -0.10744289
0.5478651 -0.3557363 -0.42299938 -0.16608264 -0.20569792 -0.30321288 -0.19838147 -0.41607806
0.17213918 0.4108476 -0.46300608 -0.2787731 -0.34398237 0.21800736 -0.38183773 0.1789079
0.19966127 0.028004088 0.17783031 0.19998592 -0.12524675 -0.3426597 -0.2304646 0.14299601
-0.3579517 0.22477199 0.17471632 -0.18422887 -0.3605446 -0.2759272 -0.21408266 0.16062418
0.25607437 -0.04418173 -0.20499781 -0.12636364 0.47546226 0.021480968 -0.52117896 0.2607236
0.31054944 0.19931209 0.38844287 0.058886327 0.14945854 0.29079622 -0.2198601 -0.018532304
-0.04660234 -0.58284724 0.7169099 0.20603406 -0.5402488 0.15619251 -0.49176142 -0.10225126
-0.0055081756 -0.07767383 -0.31889954 0.29209664 0.055457167 -0.084934056 0.2967313 0.0861416
-0.38419458 0.17331958 0.36116862 -0.084577106 0.22445156 0.22898188 -0.047677368 -0.07786536

lstm.bias_ih_l0 f4 [512]
00000000: 261b 0ebf 6712 d4be e8a2 73be 5006 e5be
00000010: 02de 1ebe 1599 fcbd c5f5 0ebf 9a78 f5be
00000020: ca04 a2bd da13 91bd 396a 65be 687c e4bc
00000030: 02ac dfbe 9489 29bf 70fe b7be 0add 8dbd
00000040: 9037 d4be 348d b9be 742c ae3d f777 cbbd
00000050: b4c6 4ebe ff3c 17be 3968 0cbf 686b 10bf
00000060: d1f1 e1be 4a11 9abd 5aa0 8dbd f8d6 51bf
00000070: bd14 77be 802d 08bf b6ca 8cbe b674 d9bd
00000080: 7199 5cbf bf8c ccbe 335d 31bf 72f2 c6be
00000090: 93af 66be 8e1b 0abf eba5 76be 61b1 5cbe
000000a0: edcb 03bf bbaf 67be bf71 19bf cc27 1bbf
000000b0: 66a4 9dbe b3ba 9cbd 6f2c 1bbe b5e0 d7be
000000c0: 610f 8bbe e9ba 17be 6036 ffbe 5096 1cbf
000000d0: 9094 f8be 2652 e5be 2ab7 cdbe 7932 4dbe
000000e0: cc69 aabe bbe2 64be 2394 b8be 1cf2 6dbf
000000f0: 3447 d0be 7cfc 83be 06df f1bd 6851 a5be
00000100: c3b3 60be 5852 bbbe 7544 c8be 35c2 14bf
00000110: 47c2 f9bc eda2 18bf d432 44be d13f e0be
00000120: 6248 ebbe f556 dd3d b6a3 c8bd cdc4 10bd
00000130: 19ae b4be 2eed 09be 6cb5 1cbf 234d 23bf
00000140: ede8 3fbe 9d50 fcbe d438 d4be 2cf7 f5be
00000150: 611c a1be 0a5c 25bf b0c4 d4be d212 37be
00000160: b20a abbe f8fc 40bf 0b3a 3bbd b264 81be
00000170: b0db eebe 353b 63be d091 a9bd d998 40bd
00000180: c716 03bf 2762 aebe 2013 7cbe cdac 4ebf
00000190: f590 bdbd ae43 9fbe 23cc c2be 69fb 2dbe
000001a0: e207 39bf 8e03 a3bd cdac a9be 1bd4 ebbe
000001b0: f361 87be 4bf7 69bd 3677 31be d5c5 1fbf
000001c0: 7490 1cbf 8ade f4be 3337 86bd 7482 71bd
000001d0: 7d99 81be dbf8 45bf c0c9 d43d c02f afbe
000001e0: f491 85be 69c6 7abe 4d08 66be cb80 1c3d
000001f0: c733 f7be a4ef c8be 1b23 babe 660b 51be
00000200: f35b 12bf e2c5 59be ee74 bdbd c792 fabe
00000210: 7adf 1bbe abbb 3a3d 550b 15bf 6b3f 6bbe
00000220: 1e90 473e b9f1 2b3e ead2 0fbf 772c 0c3e
00000230: 0246 aabe 84a3 e4be 9070 433e c640 a93c
00000240: c003 69be e042 8cbe 49a5 143e add8 f7be
00000250: ed92 c9bc 29d2 ebbb 9dab d7be 8b85 1abf
00000260: 9224 00bf 51f9 e73d 75be 36be 6479 2bbf
00000270: ddaa 663c 12ed b6be 07b3 c4be cf39 b63d
00000280: 723b 23bf 37e8 24be f2fe 09bf 5c0d d2bd
00000290: be2c 88bd f450 0ebf 7a55 66be 29ad 8e3e
000002a0: b8db a9be 867c 8a3c 87ce 0bbf a316 00be
000002b0: d405 aabe 740e b53e 40b9 cebc d12b 45be
000002c0: 502e 9dbd 2cc8 99be 2756 1bbe 9555 a1be
000002d0: b594 e4bd db24 933e 417c adbe d423 5dbe
000002e0: b5ce 01be 68ae 103d b2e5 21be 97a9 4bbf
000002f0: 20b4 ac3b cd72 83be 777d ab3d 4b75 89bd
00000300: f661 16be b564 96be 4b4b 36bd aba8 bcbe
00000310: 72b3 7c3b b9fb 22bf 2ad4 343e 9a61 5bbe
00000320: 0938 afbc f190 683e 808f 8dbd 3dd0 c1bd
00000330: 51ef 91bc a3bd 1b3d 7bf1 aebe 8d7c 38bf
00000340: e4aa 8ebe a47a ecbe c029 7bbe bd1c 88be
00000350: bacd 373e db4e 0abf 52e5 c3be da69 14be
00000360: c064 64bd a13a 34bf 63ee 5b3c 69c9 09be
00000370: dd93 3fbe fed2 3ebe 82bb af3d 98c5 44bc
00000380: ff79 d5be bc74 37bc 656e 0d3e 2e56 35bf
00000390: 8607 643e 8864 21be a0e3 023d d0cb 36bd
000003a0: 3b28 24bf 5da7 573e edca 80be 9210 7cbe
000003b0: 2430 b23c b6d7 3dbd a101 f0bd 2fc5 5fbe
000003c0: 05b6 92be 7ed1 2bbe 2005 0a3e d927 ac3c
000003d0: 6d13 cfbc 9056 8abf e6be c0bd 1374 6fbd
000003e0: 621c e9be fa14 4abe d3f5 09be be48 993e
000003f0: 945a a1be 25b5 38be 6c7d e2be 1d35 a0bd
-0.55510175 -0.4142029 -0.23792613 -0.4473138 -0.15514377 -0.123338856 -0.55843765 -0.47943574
-0.0791107 -0.070838645 -0.22403802 -0.027891353 -0.4368592 -0.6622555 -0.35936308 -0.069269255
-0.4144864 -0.36240542 0.085045725 -0.09934991 -0.20192987 -0.14769362 -0.5484653 -0.5641389
-0.44129804 -0.07522829 -0.0691535 -0.8196864 -0.24129005 -0.5319443 -0.27498406 -0.10617964
-0.86171633 -0.3995113 -0.69282836 -0.38856846 -0.22527914 -0.53948295 -0.2408673 -0.2155204
-0.5148304 -0.2262563 -0.5993919 -0.606076 -0.3078949 -0.076527975 -0.15153669 -0.42163625
-0.2716017 -0.14817394 -0.49846172 -0.6116686 -0.48550844 -0.44789237 -0.40178806 -0.20038785
-0.33283842 -0.22352116 -0.3605052 -0.92947555 -0.40679324 -0.25778568 -0.118101165 -0.3228867
-0.21943574 -0.3658626 -0.3911473 -0.58108836 -0.030488146 -0.59623605 -0.19160014 -0.43798688
-0.4595366 0.10807601 -0.097968504 -0.035343934 -0.35289076 -0.13469383 -0.6121433 -0.63789576
-0.18741198 -0.49280253 -0.41449606 -0.4804014 -0.31466964 -0.64593565 -0.4155631 -0.17878273
-0.33406597 -0.75386 -0.04570965 -0.25272137 -0.46651983 -0.22190554 -0.08279765 -0.047020767
-0.5120663 -0.3405926 -0.2461667 -0.80732423 -0.09256164 -0.31106323 -0.3804637 -0.16990437
-0.72277653 -0.079596624 -0.3313965 -0.4606026 -0.26441917 -0.057120603 -0.17330632 -0.6241124
-0.6115792 -0.47826034 -0.06553497 -0.0589623 -0.25312415 -0.7733285 0.10390043 -0.34216118
-0.26087916 -0.2448975 -0.22464104 0.038208764 -0.4828169 -0.3924533 -0.36354908 -0.20414504
-0.57171553 -0.21266893 -0.09250818 -0.48940107 -0.15221968 0.04558913 -0.58220416 -0.22973411
0.1948857 0.16791429 -0.56181204 0.13688837 -0.33256537 -0.44656003 0.19085908 0.02066077
-0.22755337 -0.27394772 0.14516176 -0.48407498 -0.024606192 -0.007196684 -0.42123118 -0.6036002
-0.500558 0.1132685 -0.17846091 -0.669821 0.014078823 -0.35727745 -0.38417837 0.08897745
-0.6376258 -0.16104208 -0.5390464 -0.10256454 -0.06649159 -0.55592275 -0.22493544 0.27866486
-0.33175445 0.01690508 -0.5461201 -0.12508635 -0.33207572 0.3536259 -0.025234818 -0.19254996
-0.07674849 -0.30035532 -0.15169583 -0.31510606 -0.11161176 0.28739056 -0.3388386 -0.21595699
-0.12676509 0.035322577 -0.15810278 -0.7955565 0.005270496 -0.25673524 0.0837354 -0.06711825
-0.14685807 -0.29373708 -0.0445054 -0.36847433 0.0038559106 -0.6366535 0.17659059 -0.21423951
-0.021389024 0.22711541 -0.06912136 -0.094635464 -0.01781431 0.03802265 -0.3416861 -0.7206505
-0.27864754 -0.46187317 -0.24527645 -0.26584426 0.17949572 -0.54026574 -0.38260895 -0.14493504
-0.055760145 -0.7040196 0.013423535 -0.13455738 -0.18708749 -0.18635175 0.08580686 -0.012010001
-0.41694638 -0.011197265 0.13811643 -0.70834625 0.22268495 -0.15761006 0.03195536 -0.044627964
-0.64123887 0.21059938 -0.2515482 -0.24615696 0.02175147 -0.046348296 -0.11719061 -0.21852563
-0.28654495 -0.16779134 0.13478518 0.021015095 -0.025277818 -1.0807667 -0.09411411 -0.058460306
-0.45529467 -0.19734564 -0.13472681 0.2993831 -0.31514418 -0.18037851 -0.44236314 -0.078226306

lstm.bias_hh_l0 f4 [512]
00000000: 41d2 14bf 69b5 ecbe eefd 96be 804d 0bbf
00000010: 7513 91be fb10 20be cddc 2abf 9012 bfbe
00000020: 6829 a4bd 6791 2abe f646 a7be dd5c 68bd
00000030: 0a1e 03bf 1e56 1cbf 0e36 dcbe ecc6 b3bd
00000040: b130 c0be 0ab3 8abe 1ae0 8f3d 76b3 1ebe
00000050: 32f7 a8be 999e 16be b6f6 20bf 8a06 0bbf
00000060: f95e eebe d017 06be b378 e9bd ed41 53bf
00000070: 06da 91be 9b22 07bf 2fe7 7ebe 0e31 0bbe
00000080: faf2 3cbf cf26 cfbe 66c9 3abf cd86 cbbe
00000090: 5a3a fcbd 7829 0cbf 8d9c b4be 4298 aabe
000000a0: cfdf e4be 63c7 5dbe 6d57 11bf 4e34 12bf
000000b0: 539c bebe 328a 63bd a27a 26be 099c b0be
000000c0: 62a4 61be ba91 29be 1bf9 fcbe 6650 1fbf
000000d0: 72f8 07bf f5a3 e8be 7f04 fcbe 9481 98be
000000e0: 3d00 a2be f617 4fbe 0856 93be feba 4cbf
000000f0: a852 11bf bf47 b9be 4555 58be 50b1 a0be
00000100: 5d4e fbbd 704f a1be ed1e 9fbe 5510 fbbe
00000110: 2049 babd c3a1 27bf 7a45 08be 1480 f4be
00000120: 69aa b5be 3586 d83c 0a49 c4bd 268e 2ebd
00000130: 9a5c 92be c01c 32be b94c f4be b79a 22bf
00000140: 795a 3abe 1cde 17bf 4f31 f4be 1f82 f8be
00000150: fdc1 abbe a771 2fbf 7f9d d3be 701e 2dbe
00000160: bc51 7cbe 48ee 55bf e15d ddbd d501 93be
00000170: 9ea6 efbe 1ad0 30be 6b52 81bc 6c4e 8cbd
00000180: 0527 1dbf 2d09 8dbe af48 a3be 77e0 52bf
00000190: 8b16 53be f728 3cbe 941f b8be deeb d5bd
000001a0: 501a 34bf 8a13 77bc ac4e bfbe 15c0 c9be
000001b0: 3bc2 6ebe defd 1abe d491 26be eaac 2abf
000001c0: 4f64 0abf 8ed8 f8be c7c8 33bd d0ba 47bd
000001d0: 5a3d 54be 8349 33bf f74f 683d 0faf c2be
000001e0: 6365 95be 9ce0 a0be f2c5 53be 31e5 edbc
000001f0: dfcd bfbe 8fd3 dabe 3348 04bf 211c 95be
00000200: 4f74 1b40 0a7e 2f40 4027 3840 ebeb 2340
00000210: f2f6 3740 8607 4240 0dee 1d40 8b1d 2e40
00000220: b211 4940 36dc 4940 d7a5 2140 8e90 4840
00000230: 27b8 2840 e148 2440 1d3d 4e40 918e 3d40
00000240: 85e5 2e40 62bd 3340 4b9e 4440 3ab5 2540
00000250: 8b10 3e40 a6d0 3e40 6654 2040 64b5 1540
00000260: a03b 2240 5d26 4340 9937 3440 a87d 1340
00000270: 6c1d 4340 2468 2540 7a84 2240 ea0f 4040
00000280: 7610 1c40 e6b0 3440 9f47 1a40 91ce 3840
00000290: 04f1 3640 f160 1740 a77d 2e40 3ec0 4c40
000002a0: 15a4 2840 4aed 4040 c4e9 2140 b24e 3340
000002b0: 2a7a 2940 b501 5540 9b8d 3a40 4b30 3240
000002c0: 8ba6 3e40 3d9a 2c40 f42f 3a40 7e72 2840
000002d0: 12eb 3740 7a12 5040 56d1 2e40 2666 3540
000002e0: 1de1 3240 1be4 3d40 90c7 3540 079b 1040
000002f0: cb44 4340 71d0 2c40 f325 4340 3acc 3940
00000300: 28c2 3340 d5d1 3240 8e2a 3d40 4b4e 2440
00000310: 9e6b 3e40 2ed4 1540 4d31 4a40 a681 3640
00000320: c25d 4240 e07b 4940 79f3 3940 3623 3a40
00000330: 4648 3a40 dee2 4040 8ec5 2940 129c 0f40
00000340: 3d97 2f40 51d5 1d40 fe48 2f40 8ba4 2b40
00000350: 0678 4940 8b28 1b40 7e59 2440 33f0 3640
00000360: ff13 3c40 e843 1140 926b 3e40 52f1 3340
00000370: 631e 3440 30f2 2e40 b2f1 4540 b6ac 3b40
00000380: 7a66 2a40 2545 3d40 c227 4640 a16c 0f40
00000390: 5f4c 4d40 e673 3740 b32b 4440 36a5 3a40
000003a0: 2d41 1b40 5e16 4940 6154 2d40 3b39 2c40
000003b0: e185 3e40 be0b 3b40 64e8 3740 eb52 3340
000003c0: 395e 3240 fa8a 3340 3d4e 4340 63c4 3d40
000003d0: a79b 3a40 d321 0040 c11b 3840 c8ee 3940
000003e0: e660 2740 92ff 2f40 7a5a 3840 c783 4d40
000003f0: b40d 2a40 3d14 3440 ecc4 2340 2a6f 3a40
-0.5813332 -0.46232155 -0.29490608 -0.5441513 -0.28335157 -0.15631478 -0.66743165 -0.3731885
-0.0801571 -0.16657029 -0.32671326 -0.056729186 -0.5121771 -0.61068904 -0.4300999 -0.08778176
-0.3753715 -0.2708972 0.07025166 -0.15498146 -0.33001095 -0.14708938 -0.6287645 -0.5430685
-0.46556833 -0.13095021 -0.11399975 -0.8252247 -0.2848665 -0.5278718 -0.24892877 -0.13592932
-0.7380825 -0.40459296 -0.7296356 -0.39751282 -0.12315817 -0.54750776 -0.3527569 -0.33319288
-0.44702002 -0.21658091 -0.56774026 -0.5711106 -0.3722864 -0.055551715 -0.16257718 -0.34494045
-0.22035363 -0.16559497 -0.49408802 -0.62232053 -0.5311347 -0.4543759 -0.4922218 -0.2978636
-0.31640807 -0.20223984 -0.28776574 -0.7997283 -0.5676675 -0.3618755 -0.21126278 -0.3138528
-0.12270806 -0.31505919 -0.31078282 -0.49035898 -0.09095979 -0.65481204 -0.13307753 -0.47753966
-0.35481575 0.026431182 -0.095842436 -0.042616032 -0.28586274 -0.1739378 -0.47714785 -0.63517326
-0.18198575 -0.59323287 -0.4769387 -0.48536775 -0.3354644 -0.68532795 -0.41331097 -0.16906142
-0.24640554 -0.83566713 -0.108089216 -0.28712335 -0.46806806 -0.17266884 -0.01578637 -0.06850895
-0.61387664 -0.27546063 -0.3189139 -0.82373756 -0.20614068 -0.18375002 -0.35961592 -0.10445379
-0.7035265 -0.015080342 -0.3736471 -0.3940436 -0.2331628 -0.15135905 -0.16266567 -0.66670096
-0.5405931 -0.48602718 -0.043892648 -0.048762143 -0.20726529 -0.70034045 0.056716885 -0.38024184
-0.29178914 -0.31421363 -0.20680979 -0.029039951 -0.37461755 -0.4273953 -0.5167267 -0.29123023
2.428974 2.7420678 2.8773956 2.5612743 2.8744473 3.0317092 2.4676545 2.7205532
3.141705 3.1540656 2.525747 3.133823 2.6362398 2.5669482 3.22248 2.9618266
2.7327588 2.808434 3.0721614 2.5891862 2.9697597 2.981485 2.5051513 2.3391962
2.5348892 3.0492165 2.8158934 2.3045444 3.0486708 2.5844812 2.5393357 3.0009713
2.4385047 2.823297 2.4106214 2.8876078 2.8584604 2.3652918 2.7264192 3.1992335
2.6350148 3.014483 2.529893 2.8016782 2.6480813 3.3282292 2.914893 2.7841976
2.978915 2.696914 2.9091768 2.631988 2.8737226 3.2511277 2.7315269 2.8343596
2.7949898 2.9670475 2.8403053 2.259462 3.0510738 2.7002223 3.0491912 2.90309
2.8087254 2.7940571 2.9557223 2.5672786 2.9753184 2.3410754 3.159259 2.851663
3.0369725 3.1481857 2.9054854 2.908399 2.9106612 3.0138469 2.6526828 2.2439008
2.7436059 2.4661448 2.73883 2.681918 3.1479506 2.4243495 2.5679622 2.8584106
2.9387205 2.2697697 2.9753156 2.811604 2.8143547 2.733532 3.092877 2.9324164
2.6625047 2.9573452 3.0961766 2.2410052 3.2077863 2.8664489 3.0651672 2.9163337
2.425853 3.1419902 2.708275 2.690993 2.9769213 2.9225917 2.873559 2.801936
2.787001 2.8053575 3.0516503 2.9651115 2.9157503 2.0020645 2.876694 2.905199
2.6152892 2.7499738 2.8805223 3.211168 2.6570864 2.8137352 2.5588942 2.913035

head.net.0.weight f4 [1, 128]
00000000: e74c 47be 4cc1 133d 004d 5e3d 556a 91bc
00000010: c01d 0fbb 7a29 41bc a034 89be 3b18 b3bd
00000020: 2094 8a3c 1117 563c d512 0a3c 9283 0c3d
00000030: 668d 10bc b025 803d 9105 47bc b08d 823c
00000040: a67a 213d 2a7b f93c bbc7 c43b 47b1 d23d
00000050: ff11 62bb d0f0 23bc b0b6 4e3e f9e6 8cbe
00000060: 879d 4bbe 6672 11bb 30c6 b53a ecea e7be
00000070: 8458 253b 8748 98bc fb0a 0d3d 9e25 8cbd
00000080: 14a1 243f 1d09 023e 2a8a fabe 839d 08bd
00000090: 872f d83b 1ea7 2f3f 5cfb 193c 6d6f ef38
000000a0: 608a 1bbb c57a 9a3c 5216 393e 339b 4c3c
000000b0: b417 cf3c b7ab b0bb 2581 613b 67b0 20bc
000000c0: 88c3 753c 247a 3e3d ce2d 923a cfc8 48bc
000000d0: 80c0 043b f53b 583b f43d 49be 6bd8 0cbd
000000e0: 5752 c6bc 11c7 78bb 690c f03c d8cb fabf
000000f0: 5007 c4b9 4f32 f0bc 6759 17bc 05d2 303c
00000100: 315d 063b 82aa 8c3c dc9b 29bb ec25 e2bc
00000110: 9316 853b 44ee 5d3f 5f59 b93c fe47 013d
00000120: cd6d bc3c 876a 1d3c c16c cd3c ceb5 1dbd
00000130: 936b c83c 86c9 13bc d03c 94bd bff1 ac3e
00000140: f089 02bd 3a6e 1a3e e5a8 043b b8bd b6bb
00000150: f1f2 24ba 237d 1ebe 4082 8ebd a9c7 3e3c
00000160: b07d 59bc 4774 a8bf c4ca ff3b 84c5 6fbd
00000170: 4d51 f5bb 9657 50bc 86cc 1d3b 1918 91ba
00000180: 8d3f d83d d6ae 3d3c 134f ea3c e9e3 d83f
00000190: 672c 39bc a4e9 8e3d 0a82 8f3b a20c 0b3d
000001a0: 1d27 d1bf c35b c43b f15a cd3b 019c 803c
000001b0: 283f 463c ffa9 563a b28a a7ba c636 b23c
000001c0: 94b8 cdbb e012 f63b 9258 18bc ef00 f6bb
000001d0: d97b 22bc 231f 29bf 692d 45bb 6cc6 35ba
000001e0: 5894 2cbd ef42 fe3d aede c4bc 7895 27bd
000001f0: fea2 063e 60a8 fdbc 6d5e 813e d87d 2b3a
-0.1946293 0.036073014 0.05427265 -0.017750898 -0.00218378 -0.011789674 -0.26797962 -0.08744856
0.016916335 0.013067023 0.0084273415 0.034305163 -0.0088227745 0.06257188 -0.012147323 0.015936702
0.039423607 0.030454237 0.006005255 0.10287719 -0.003449559 -0.010006145 0.20186877 -0.27519968
-0.1988431 -0.002219343 0.0013868269 -0.4529642 0.0025229761 -0.018589271 0.0344343 -0.068431124
0.64308286 0.12698789 -0.48933536 -0.03335334 0.0065974626 0.68614376 0.009398308 0.00011417163
-0.00237336 0.01885737 0.18074921 0.012488174 0.025279857 -0.0053915638 0.0034409252 -0.009807683
0.015000232 0.0465032 0.0011152567 -0.012254908 0.002025634 0.0032994722 -0.1965254 -0.03438608
-0.024209185 -0.003796045 0.029302793 -1.9593458 -0.0003738948 -0.029320864 -0.009237624 0.01079226
0.0020502324 0.017171148 -0.0025880253 -0.027605973 0.004061529 0.8669169 0.022625623 0.031562798
0.023001576 0.009607918 0.025076272 -0.03850346 0.024465358 -0.009020215 -0.072381616 0.33778188
-0.03186983 0.1508111 0.002024227 -0.0055768155 -0.00062923046 -0.15477423 -0.06958437 0.011644282
-0.013274595 -1.3160485 0.007806154 -0.058537975 -0.0074864984 -0.012716195 0.0024078204 -0.0011069804
0.10558996 0.011577329 0.028602159 1.6944553 -0.01130209 0.06978157 0.0043795155 0.033947594
-1.6340061 0.005992384 0.0062669446 0.015699388 0.012100019 0.00081887835 -0.0012782423 0.021754634
-0.006278107 0.0075095743 -0.009298461 -0.0075074355 -0.009917223 -0.66063136 -0.003008688 -0.0006934169
-0.04213366 0.1241511 -0.024031963 -0.04091403 0.13148114 -0.030964077 0.25267354 0.00065418845
