examples/catchment_models/training/runs/usa_basin_split_2404_020225/model_epoch028.pt (torch, 316229 bytes, 5 tensors)

lstm.weight_ih_l0 f4 [512, 23]
00000000: 3891 133d c764 323e 804d 2fbc 6f7c 2abe
00000010: 5a40 cabd 706e 433f d73f 0b3f f82a 71be
00000020: 8759 2b3f eecd efbc 3628 08bf 688e 993e
00000030: 660e 2dbd 228b ecbe aa86 4dbe 4f0f 1f3f
00000040: 333c 983e e381 c53e faa5 67be 57f7 7c3e
00000050: eaa7 d33e 6253 ef3e b826 7c3d 7c54 21bc
00000060: 29d1 ab3e 3bcb 57be 3baf 14be 6c72 f73d
00000070: 9085 b93e 71fd e83e 450a 843d 6fbe 273f
00000080: 9d9e 3dbd 0f1f edbe b2b2 f93e f255 143e
00000090: 448f f1be 5962 6bbe f9e1 313f ea4d b33e
000000a0: ca72 013f 5365 77be ceed 1e3e 77b9 ed3e
000000b0: 1f84 bc3e 0443 e53d d4be 553e f82b cc3c
000000c0: ca99 5a3d 5c8b 823d 3a6f d83c 0910 843e
000000d0: 296a 1d3b f762 55be 9268 aabc 8798 8e3e
000000e0: 3dea 9abe 08d6 c33e 121b debd 510d a0be
000000f0: aad7 b7be a89d d23b ba86 8e3e 4178 913e
00000100: 28f1 f8be fca4 dc3e ad99 a13e a7a0 b13e
00000110: 5f71 c8be f04e cf3c 4bf4 b93e b093 5bbe
00000120: fc4d 23be 271f 54be da9e a73e 00d2 373f
00000130: 60a0 523c 0926 283f 367b 78b9 f19f d6be
00000140: 5275 803e 9961 553c 0647 e3be 96b6 15be
00000150: 53b3 f83e f24a a93e 2d3d c63e 9c3f c1be
00000160: d43b b73e e7cd bb3e 16b2 113f b7f5 3f3e
00000170: 0da7 ad3e 3818 f23d dc22 373e 83bf 04bd
00000180: 7ef7 5d3e 4ed1 0b3e 78fc 803e 645b 373e
00000190: ec27 a63e 465d 5abf a15d 1e3e 1c3e 62bf
000001a0: 0d66 e1bd 662e 743e 4a1b c53e 224c 933e
000001b0: 7a57 dd3d 502d 2c3e 0ead 32be f725 a63d
000001c0: 0933 b2bd 1770 53be 365c 5a3e 979f 953f
000001d0: bd52 573e 1679 a73e 56d6 b53e 3d6a 1a3f
000001e0: cb9d 193e 0049 b0be 5124 de3d a54f aebe
000001f0: 44f8 b33d f3d5 e4bd 1d30 30bd 8ada e7be
00000200: 946b 953e 3382 aabc 0dc1 febe badb 96bd
00000210: 1de3 bebe b0be e8bd 044f 163c de4d 91bd
00000220: 84bd 9bbe aeb3 9bbd 0585 8b3d f55f 5c3e
00000230: 1e24 133e 27ed cd3b 34b7 c5bb 7797 2e3f
00000240: 4c5a 4a3f d894 3abe 2e13 403f 9aca 38be
00000250: 1495 d8be 6f8a 813d 5135 bcbd 949d 9abe
00000260: 0b31 183d cb09 313f f2d0 993e a158 bc3e
00000270: b7cf eabe ec02 a13e 9c4a 283e d806 073f
00000280: 19a0 353e e8b0 4f3f b931 cabc 9012 22be
00000290: 7eb5 b3be 1cbf d83e 1f19 033f 7f89 783e
000002a0: b857 c2bd ec6a 9e3e dd35 0d3e c6a7 b6be
000002b0: 6827 d03d 42df 5a3f b2c1 a7be a72b 37be
000002c0: 9abb 44be 1a31 523e 4de3 b03e 7109 cebe
000002d0: d2a0 943e eb39 993e e44f de3e 93e9 253c
000002e0: 4a02 04be bbff c8be 1a4d 0e3f be49 1a3f
000002f0: 78b1 7b3e 8107 433d e5e5 a13d 6b32 17be
00000300: 2cd9 04be 85ed 193e 12d0 423e 15e5 203e
00000310: 5408 48bc 4033 eebd c6f2 113c 10ea b9bd
00000320: 1dc7 47bd 17c0 8c3d d212 97be dfa1 143e
00000330: 63b2 d1bd 98d0 363e fb2b 7fbe 800c 46bd
00000340: 1ab9 8dbc e46b 01be ffab a4be f632 9e3e
00000350: 8189 813e 3861 a8bd 463b 0bbe 58a1 82be
00000360: f1bc f13c 26c8 e9be 37d3 0cbe ffc3 23be
00000370: a1ea d1bd 699b c7bd 76c0 22be eea0 a4bd
00000380: e648 37bd fa36 d5bd 956c f0ba dd89 8a3d
00000390: f4ed 233e 3282 65be 3eda 0e3e 1015 98bd
000003a0: 0403 2d3e 560a d43e 58e9 2e3f 1451 273e
000003b0: afb1 703e 4c1e 863e fc21 d73c 91c3 263c
000003c0: be69 e83d 726c 4fbe 187e 9fbe b6df 8a3c
000003d0: a25a 4f3e 8880 933e 3851 a6bc ca71 933d
000003e0: f2a0 70be bd4f 2f3e 4f7d cf3e cc57 44bd
000003f0: 365c 263e 9a5a 233e 9713 e33e dc83 1ebf
0.036027163 0.17421256 -0.01069963 -0.1664903 -0.09875555 0.7634039 0.54394287 -0.23551548
0.6693348 -0.029273 -0.5318636 0.2999146 -0.04225006 -0.461999 -0.20070902 0.62132734
0.29733428 0.38575658 -0.22621909 0.24703728 0.41339046 0.46743304 0.061560363 -0.009846803
0.33558014 -0.2107362 -0.1451997 0.12082371 0.36234713 0.4550586 0.06447271 0.65524954
-0.046293844 -0.46312758 0.48769146 0.1448591 -0.47179615 -0.22986735 0.6948543 0.3502038
0.5056578 -0.24159746 0.15520403 0.4643056 0.3681955 0.11194423 0.20873576 0.02492331
0.05336932 0.06374237 0.026420224 0.25793484 0.0024019575 -0.20838533 -0.020801816 0.27850744
-0.30256835 0.3824923 -0.10845007 -0.3126016 -0.35906726 0.0064274855 0.27837163 0.2841206
-0.48621488 0.43094623 0.31562558 0.3469288 -0.39148995 0.025306195 0.36319193 -0.21443057
-0.15947717 -0.20715009 0.32738382 0.7180481 0.012855619 0.6568304 -0.00023697023 -0.419189
0.25089508 0.013023757 -0.44390124 -0.14620432 0.48574314 0.3306499 0.38718548 -0.37743843
0.35787833 0.3668053 0.5691236 0.18746077 0.33916512 0.118210256 0.17884392 -0.032409202
0.21676442 0.13654062 0.25192618 0.17905957 0.32452333 -0.85298574 0.15465404 -0.8837602
-0.11005793 0.23845825 0.38497382 0.28769022 0.108077005 0.1681416 -0.17448828 0.0811271
-0.087011404 -0.20648228 0.21324238 1.1689328 0.21027656 0.3270957 0.35515088 0.60318357
0.150016 -0.34430695 0.108467706 -0.3404514 0.08787587 -0.1117362 -0.043014634 -0.4528392
0.29183638 -0.020814037 -0.4975666 -0.07366128 -0.3728265 -0.11364496 0.009174112 -0.0709493
-0.30418026 -0.076026306 0.06812481 0.2152098 0.14369246 0.0062843743 -0.0060338024 0.68199867
0.7904403 -0.18220842 0.75029266 -0.18046036 -0.42301238 0.06325232 -0.09189857 -0.30198348
0.037156146 0.6915557 0.30042225 0.36786368 -0.458616 0.31447542 0.16434711 0.5274482
0.17736854 0.8112931 -0.024681913 -0.15827394 -0.35099405 0.42333305 0.51210207 0.242712
-0.09489387 0.3094095 0.13790078 -0.35674876 0.10163766 0.85496914 -0.32764965 -0.17887746
-0.1921219 0.20526543 0.34548417 -0.40241578 0.29028946 0.29927 0.43420327 0.010126489
-0.12891498 -0.39257607 0.555864 0.6026877 0.24579418 0.04761458 0.07905177 -0.14765327
-0.1297347 0.15032013 0.19024685 0.15712388 -0.012209017 -0.11630869 0.008907979 -0.09077847
-0.048773874 0.06872576 -0.29506546 0.14514874 -0.10239103 0.1785301 -0.24919121 -0.048351765
-0.017300177 -0.12638813 -0.32162473 0.30898255 0.2530022 -0.08221668 -0.1359683 -0.2551372
0.02950904 -0.45660514 -0.13752447 -0.15992735 -0.1024983 -0.09746439 -0.1589373 -0.080385074
-0.044747256 -0.104108766 -0.0018342907 0.067645766 0.1600874 -0.22412947 0.1395044 -0.07425892
0.16895682 0.41414136 0.68324804 0.16339523 0.23505281 0.2619499 0.026261322 0.010178463
0.11348294 -0.20256212 -0.3115089 0.016952377 0.20249417 0.28809 -0.0203024 0.07199438
-0.23498896 0.17120261 0.4052529 -0.047935292 0.16246113 0.1595253 0.44350883 -0.6191995

lstm.weight_hh_l0 f4 [512, 128]
00000000: fb82 e73e 8d8b 95bd 6c6f c3be c4da 4b3e
00000010: 4a5f 8b3e 77e9 16bf 54e6 803d 4e31 fdbd
00000020: 6681 ff3e abdd 5cbe 5cd0 bc3e 05bd 71be
00000030: 73ca c8be ddd0 8a3d 9874 2cbe 1549 123f
00000040: a787 63bd b5b9 f73c 71b1 9b3e 528d 25be
00000050: 50d1 80be 3f09 de3e f9b5 97be 83b3 fdbc
00000060: 36e4 d93d f423 86be 0869 e8be dcd8 9d3d
00000070: ac4e f83e 06f2 debe 4c18 65be 96b0 c03e
00000080: 12a1 9d3d 6f73 4cbd 6087 663d 258e abbe
00000090: a867 c6be dcfa 6abd 8ff1 f03d dceb 3b3d
000000a0: c087 50be ba81 df3d 5f3b 4abe 67b6 2bbe
000000b0: b4e5 89be 85fc 90bd 0a25 70be 1fb1 35be
000000c0: 63c7 babe 98b7 463e 2894 09be 6524 e1bd
000000d0: 9749 7dbe 2454 5a3e b613 67bd db94 b7be
000000e0: 0346 d73e 3609 1d3e bc9a e9be fb40 66bc
000000f0: 4f92 d8bd 71c4 0fbf dc54 a3be 5c83 ecbe
00000100: 8661 853e 81f2 1d3d 3cb3 fdbe cc02 90be
00000110: 5885 2fbe a98c 6ebd c834 84bb 2406 143d
00000120: c83e d43e 9bec 083e 2829 983e ad39 533e
00000130: ffe5 b03e ce7d d9be 5649 653d 5d53 91bc
00000140: 36bb d2be c594 c2be 5ec1 343e 37d0 13be
00000150: b926 d9be 6a1b 553e dec3 7bbb 566d 8f3e
00000160: b7db 1f3e e25f e9bd 5557 38be 99f6 3f3d
00000170: 32d7 893e 0d7c 33be d0c8 bdbe 99cb 9f3e
00000180: e7d2 423d 843d c73d f8e7 0d3f 12b3 533e
00000190: 3c04 723e 7521 5e3e 8c4a b7be d40d 1dbe
000001a0: 32cf fc3c 3546 c0be f898 4a3f eca8 f9bd
000001b0: 6b13 01be 1fe9 113e e492 debe 4d81 033e
000001c0: fbc1 99bd 07b8 913d 9b1a 36bf d801 f43e
000001d0: c57a 5f3e fcd2 2ebd d4b8 d23e 9e86 cd3e
000001e0: 2ec1 c33d 65bb d7bb a4bb 65be 6e73 7bbd
000001f0: a431 7a3e 7e52 693e 6508 8bbd a130 bcbe
00000200: 3b6d 5abe 0896 c33e 692d 49be eab4 ee3d
00000210: c021 55bd bcb5 d6be 3e80 91bd 5835 ffbe
00000220: 9981 023f 929b 6bbd 9431 1e3f 6ee3 ad3e
00000230: 4de5 cbbe 0888 62be 0bf4 0fbd 4df8 dd3e
00000240: 4a9a 1b3e a789 683d 49ae 04bd 4c80 893e
00000250: 27e7 63be 5cac e63e c561 8e3e defd 89bd
00000260: b555 1fbe c2a4 a6be 3fc0 15bf acc2 59bd
00000270: 95d3 f03e 029f 3cbe c596 c83d e31b 47be
00000280: 1b97 083e bd6e 2d3e aa8f cdbd c72c 13bf
00000290: 2456 19bf 7592 373d f3db a63e 0a40 77be
000002a0: 0c99 03be ae54 b23e fea0 d33b 07f4 8dbe
000002b0: 1dae b7be 74e1 e23d 408a 2ebf 2445 70be
000002c0: e8a6 05bf d3a6 bb3e 07c3 08bd 81c0 0bbc
000002d0: b182 7fbe e45a 153e 2b3e b0be 6a86 e3bd
000002e0: 621a 133f 6f03 bdbe a8f5 c3be 1326 2abe
000002f0: d579 47be 55fc 9dbe 3333 45be a53e dcbe
00000300: 2c02 373e 5f6d d93e eba2 01bf c860 95be
00000310: 0639 b4be 4566 583e a673 c9be 48e0 333e
00000320: d732 523e e96c 893c 9330 363e 9caa 433e
00000330: 3d21 e1bd d0b9 b5be 81c0 5cbe c681 153e
00000340: 79f3 c2be 0c95 563e 7707 083e 1903 5abe
00000350: ab74 9cbe 5d7b 8bbe 96c9 44be ebdd 033e
00000360: 0488 813e dd6a 41bd 3878 61be 5246 23be
00000370: 010b f53e 6ce6 813c a2e6 e8be ca4e 833e
00000380: f919 8b3e 47c5 543e 2e20 c23e 9dfa 4e3d
00000390: a7bf 0d3e fc20 993e 0b9c 51be 9ca7 9fbb
000003a0: fcfc 4cbd 5175 1abf b9a3 503f 36ba 363e
000003b0: 71d3 1fbf 9be0 163e 1d53 06bf 3431 1bbe
000003c0: 0df8 19bb 94d9 fbbd b837 adbe 24d4 933e
000003d0: b38c 803d 988d b2bd 1182 9b3e 0fb8 ec3d
000003e0: 28b1 d2be 989f 383e 45f4 c43e 7029 b4bd
000003f0: 3ce1 613e bb8f 7a3e 5cf8 53bd e7bd 00be
0.45217118 -0.07302008 -0.38170946 0.19907671 0.27221137 -0.5894999 0.062939316 -0.1236292
0.4990341 -0.21568935 0.36877716 -0.23607261 -0.39216956 0.06778119 -0.16841352 0.57142764
-0.05554929 0.03023992 0.30408815 -0.1616719 -0.25159693 0.4336643 -0.29631022 -0.030969387
0.10639231 -0.26199305 -0.45392632 0.07707378 0.48497522 -0.43544024 -0.2237255 0.37634724
0.07696737 -0.049914774 0.056281447 -0.33506885 -0.38750958 -0.057368144 0.11764824 0.04587923
-0.20364285 0.10913415 -0.19749211 -0.167688 -0.26933062 -0.07079414 -0.2345163 -0.17743348
-0.36480245 0.19405973 -0.13435423 -0.1099327 -0.24735104 0.2132116 -0.056415282 -0.35855755
0.42045602 0.15335545 -0.45625865 -0.0140535785 -0.10574781 -0.5615912 -0.3190068 -0.4619397
0.26050967 0.038561348 -0.49550807 -0.28127134 -0.1714071 -0.058239613 -0.0040346123 0.03613867
0.41454148 0.13371508 0.297189 0.2062747 0.34550473 -0.42478794 0.05597814 -0.017739946
-0.41158456 -0.38004127 0.17651889 -0.14434896 -0.42412356 0.20811239 -0.0038416306 0.28013104
0.15611158 -0.11395241 -0.18002065 0.046866033 0.26921993 -0.1752779 -0.3706727 0.3121002
0.047564413 0.0972853 0.5543208 0.20673779 0.23634428 0.2169245 -0.35799062 -0.15337306
0.030860517 -0.37553564 0.7913966 -0.121904224 -0.12605064 0.14249085 -0.43471444 0.12842293
-0.07507702 0.071151786 -0.71134347 0.47657657 0.21824177 -0.04268168 0.41156638 0.40141767
0.095583305 -0.0065836185 -0.2243486 -0.06138938 0.24432999 0.22785375 -0.067887105 -0.3675585
-0.2133073 0.38200402 -0.19646229 0.116556 -0.05203414 -0.41935527 -0.071045384 -0.49845386
0.50979 -0.05752141 0.617944 0.33962578 -0.3982338 -0.22122204 -0.035144847 0.433535
0.15195575 0.0567719 -0.032392774 0.26855695 -0.22256146 0.45053375 0.27808967 -0.067378744
-0.15560038 -0.32547575 -0.5849647 -0.05316417 0.47036424 -0.18420032 0.09794382 -0.19444232
0.13338892 0.16936775 -0.10037167 -0.574902 -0.59897065 0.044817407 0.32589683 -0.24145523
-0.12851351 0.3483023 0.0064584007 -0.2772524 -0.35875025 0.11078158 -0.681797 -0.23463875
-0.52207804 0.36650714 -0.033389118 -0.008529783 -0.24952199 0.14585453 -0.3442243 -0.11109622
0.5746213 -0.36916682 -0.38273358 -0.16616087 -0.19480069 -0.30856577 -0.19257812 -0.43016544
0.17871922 0.42466256 -0.5063922 -0.291754 -0.35199755 0.21132763 -0.39346045 0.17566025
0.20527206 0.016775565 0.17791967 0.19108051 -0.10992668 -0.35493326 -0.2155781 0.14600286
-0.3807638 0.20955294 0.13284098 -0.21290244 -0.3055776 -0.27242556 -0.19217524 0.12877624
0.25299084 -0.047221053 -0.22018516 -0.15944794 0.47859958 0.015856944 -0.4548846 0.2564605
0.27168253 0.2077838 0.37915176 0.050531972 0.13842641 0.29907978 -0.20469682 -0.0048722755
-0.050045952 -0.6033526 0.8149982 0.17844471 -0.6243201 0.14734118 -0.5247057 -0.15155488
-0.0023493797 -0.12297359 -0.33831573 0.28872788 0.06276836 -0.08718413 0.3037267 0.11558544
-0.41150784 0.1802963 0.38467613 -0.08796966 0.22058576 0.24468891 -0.051750526 -0.12572442

lstm.bias_ih_l0 f4 [512]
00000000: 0ed1 0fbf 7a51 e1be 1faa 9abe bc43 f8be
00000010: 3a05 10be 2042 02be 9d68 1abf cebc f5be
00000020: 3af0 afbd 5483 2cbd 45bd 50be 845a d7bc
00000030: ca77 dbbe e6aa 23bf 2d86 a3be 029b 7cbd
00000040: 3ed0 c5be be86 c0be 3a41 b63d 6e9d 04be
00000050: 51ff 57be 52fb ecbd 6cdd 0cbf a3b6 15bf
00000060: 54d1 f9be 23ea 88bd ad1a 05bd 7a2a 55bf
00000070: 414b 7cbe ed0d 08bf 6ede 8bbe dbc9 f6bd
00000080: f988 61bf 5e07 cdbe 2f9a 3cbf 9b83 ccbe
00000090: 5d8a 5bbe 467b 0cbf 15f6 52be abcb 6bbe
000000a0: 11f2 05bf e8de 76be f4a9 1bbf 8a32 19bf
000000b0: 4dfc 9abe 7b39 c2bd 412a 40be d688 c1be
000000c0: 6015 96be ad22 19be 844a edbe b449 1abf
000000d0: 0835 05bf 9221 f0be 8d80 e3be e42f 95be
000000e0: 1ec8 9ebe 7452 5abe e83e abbe 31ca 76bf
000000f0: 1cf5 d2be 3ed2 81be c67f dabd d101 a3be
00000100: 4051 82be 57db bfbe 36b9 dcbe 986a 14bf
00000110: 8c73 7abd ef53 29bf 4c3b 33be 41be efbe
00000120: 06c5 e7be 28a8 0c3e ceb9 3ebd 83c8 23bd
00000130: 22b3 acbe 2780 f1bd 41c6 21bf 8a02 2ebf
00000140: 6a74 11be 362b fdbe f0f7 ccbe db4c 00bf
00000150: 8b01 acbe 92b6 2ebf a16d d8be f23a 4bbe
00000160: e573 bcbe 96ce 43bf 3551 04bd 08f9 7fbe
00000170: ad1d edbe 899a 69be 6ecf aebd 64cd d83c
00000180: 554e 10bf e7b0 b0be f314 78be 392c 5bbf
00000190: 9cf1 cdbd bc75 96be cbe8 cabe 6ea1 1cbe
000001a0: f214 3abf 231e a3bd b090 a7be 8429 e5be
000001b0: e694 90be 11cc 5ebd 1dc5 1bbe 0cc5 1bbf
000001c0: fd71 21bf 9ec8 f2be 5cba 49bd 60b0 83bd
000001d0: 25ab 8dbe bfe8 46bf cfb5 ca3d 5d6f abbe
000001e0: dfed 90be a927 6bbe 05b5 49be fb85 133d
000001f0: 77bd 00bf 1e38 d1be 9379 c3be c3d8 1ebe
00000200: fc9a 12bf e1f6 42be 3599 77bd 54b5 f5be
00000210: 3e2d 14be e042 3d3d 7468 1cbf 4ac4 6cbe
00000220: cc0f 373e f161 3d3e 715f 12bf 7a8a 193e
00000230: c6c2 9abe fcf2 e1be 3af8 303e b472 d83c
00000240: 7ae7 5cbe a5dc 8dbe c93d 093e 5172 13bf
00000250: 5c13 3c3a e5f2 fb3c 92de d9be 0d10 23bf
00000260: 0e88 fdbe 64a2 d23d bbb9 21be bf89 24bf
00000270: dd32 c2bb 24f5 b6be 5ac6 c2be 1b6a 993d
00000280: 6e7f 2abf ed1e 0ebe 8b9d 0abf 1373 e0bd
00000290: e7e1 e1bc 6af4 13bf c13b 3dbe 1795 8b3e
000002a0: c2fc a3be 5827 7039 013d 0fbf 12dd f8bd
000002b0: 6219 aabe 82cd c53e e0e1 4439 f212 28be
000002c0: 30c3 cbbd c421 8dbe 2168 25be 1d44 9dbe
000002d0: edc1 07be 2e67 7e3e fff0 adbe d138 82be
000002e0: 1b25 e8bd d166 ac3c 34e9 d9bd e86a 55bf
000002f0: 1fe0 133d 9991 76be 83cf b13d 7e1a 83bd
00000300: c087 21be 35b3 97be 4b2c a2bd 045f cfbe
00000310: 7f42 20bd 9fe4 2cbf 2a89 393e 1ff7 50be
00000320: 971c 8abc c344 713e 8726 38bc 2bb3 cfbd
00000330: 5ee9 a63c 751b 0d3d f908 c5be 053b 3cbf
00000340: dc9f 70be 12bb e4be 3e9c 87be ba5a 90be
00000350: b633 2d3e f152 0ebf 1cc8 b1be c890 07be
00000360: 3d5c 72bd 3416 36bf 3a1b a13c 49ef ffbd
00000370: 46cf 04be c59d 51be 3107 c13d 3abb 753d
00000380: d47b d7be 8265 05bd 7b23 1f3e 2462 37bf
00000390: c506 563e 4281 47be f1df 9a3c d265 07bd
000003a0: 8f8d 1ebf 3af2 443e f717 7ebe 25f1 6ebe
000003b0: cca3 ca3c 57b0 6ebd c0d2 8cbd 9de7 4cbe
000003c0: cd57 9cbe 6b03 2ebe 604d 273e a156 093d
000003d0: c6fb 1ebd 660b 8fbf 8f14 00be dedd 0abd
000003e0: 9661 ecbe e48c 5bbe 22d5 01be 5ed6 903e
000003f0: 8a17 9bbe 6fc3 53be c486 e2be cf84 c7bd
-0.5617837 -0.44007474 -0.30207917 -0.48489177 -0.14064494 -0.12720537 -0.6031588 -0.4799561
-0.085907415 -0.04211743 -0.203847 -0.026288278 -0.4286483 -0.63932645 -0.31938305 -0.061671264
-0.3863544 -0.376028 0.0889916 -0.1295068 -0.21093489 -0.11571373 -0.5502536 -0.58481807
-0.48792517 -0.06685283 -0.032496143 -0.8326794 -0.24638082 -0.5314625 -0.27318138 -0.120502196
-0.8809963 -0.40044683 -0.73672765 -0.39944157 -0.214395 -0.548756 -0.20601685 -0.23026912
-0.5232249 -0.2410847 -0.608062 -0.5984274 -0.30270615 -0.0948362 -0.18766119 -0.3779971
-0.29313183 -0.14954634 -0.46345913 -0.6026871 -0.52034044 -0.46900612 -0.44434014 -0.291381
-0.31012052 -0.21320516 -0.3344643 -0.9640227 -0.4120263 -0.25355715 -0.10668902 -0.31837323
-0.25452614 -0.3747203 -0.43110055 -0.5797515 -0.06114535 -0.661437 -0.17503089 -0.4682484
-0.45267504 0.13736022 -0.046563916 -0.039986145 -0.33730417 -0.11792021 -0.63193136 -0.67972624
-0.14204565 -0.4944703 -0.4003291 -0.5011727 -0.33594927 -0.6824733 -0.4227114 -0.19846705
-0.3680717 -0.764871 -0.032304008 -0.24997342 -0.46311703 -0.22812857 -0.08535658 0.026465125
-0.56369525 -0.34509966 -0.24226741 -0.85614353 -0.10055849 -0.293867 -0.39630732 -0.15295956
-0.7268821 -0.079647325 -0.32727575 -0.44758236 -0.282386 -0.05439383 -0.15211911 -0.60847545
-0.6306456 -0.47418684 -0.04924999 -0.06430125 -0.27669635 -0.7769889 0.098979585 -0.334834
-0.2830648 -0.22964348 -0.1969796 0.036016446 -0.502891 -0.40863127 -0.3817869 -0.15512376
-0.5726774 -0.1903949 -0.060448844 -0.47989905 -0.14470384 0.046206355 -0.6109688 -0.23121753
0.1787712 0.18494393 -0.5717688 0.14994231 -0.30226725 -0.44130695 0.17282191 0.026421882
-0.21572676 -0.277074 0.13402475 -0.5759631 0.00071745156 0.03075547 -0.4255262 -0.63696367
-0.49517864 0.1028488 -0.15793507 -0.64272684 -0.0059264735 -0.35733902 -0.38041955 0.07490941
-0.6660069 -0.13878985 -0.5414664 -0.10959449 -0.027573539 -0.5779482 -0.18479826 0.27262184
-0.32028776 0.0002290284 -0.5595246 -0.12151541 -0.3322249 0.38633353 0.00018776162 -0.16413477
-0.099493384 -0.27564824 -0.16153003 -0.3071603 -0.1325757 0.24844047 -0.33972928 -0.25433972
-0.11335202 0.02104512 -0.10640183 -0.8336625 0.03610241 -0.24078979 0.08682158 -0.06401537
-0.15774441 -0.29628912 -0.079186045 -0.4050218 -0.039125916 -0.6753635 0.1811873 -0.20406769
-0.016859336 0.23561387 -0.011239654 -0.101415955 0.02037495 0.034450013 -0.38483408 -0.73527557
-0.23498482 -0.44673973 -0.2648639 -0.2819422 0.16914257 -0.5559531 -0.34722984 -0.13238823
-0.059169997 -0.7112763 0.019666303 -0.12496812 -0.12969694 -0.2047034 0.094252 0.059993006
-0.4208666 -0.03256751 0.15540878 -0.71634126 0.2090102 -0.19482902 0.018905612 -0.033056088
-0.6193475 0.19233027 -0.2481383 -0.23334177 0.024736308 -0.05827364 -0.06876135 -0.20010228
-0.30535737 -0.16993491 0.1633811 0.03352988 -0.03881433 -1.1175354 -0.12507842 -0.033902995
-0.46168202 -0.21440464 -0.1267896 0.2828855 -0.30291396 -0.20680021 -0.44243443 -0.09742128

lstm.bias_hh_l0 f4 [512]
00000000: 2988 16bf 84f4 f9be a7d6 b7be 3bec 14bf
00000010: 26a7 89be 9106 24be a54f 36bf c456 bfbe
00000020: d814 b2bd 5c28 0dbe 9df0 9cbe f7cb 61bd
00000030: be03 01bf 7077 16bf cbbd c7be 7737 a4bd
00000040: 5fc9 b1be 94ac 91be ccf4 973d e694 3dbe
00000050: 6993 adbe 8fbe ebbd e96b 21bf c551 10bf
00000060: 351f 03bf 8008 fbbd 7e65 9ebd 6f95 56bf
00000070: 3d75 94be 0803 07bf a20e 7dbe 7adb 19be
00000080: 82e2 41bf 6ea1 cfbe 6206 46bf f617 d1be
00000090: 3cf1 e5bd 3089 0ebf 6fc4 a2be 7725 b2be
000000a0: a12c e9be 92f6 6cbe a28f 13bf 0c3f 10bf
000000b0: 3af4 bbbe db43 97bd 7478 4bbe 2a44 9abe
000000c0: b7b0 77be 7ef9 2abe 430d ebbe ca03 1dbf
000000d0: 22e3 10bf 5073 f3be aae6 08bf 4518 c7be
000000e0: 8f5e 96be af87 44be cd00 86be 1393 55bf
000000f0: a2a9 12bf a31d b7be 91a5 4cbe b961 9ebe
00000100: 2196 21be 6fd8 a5be ae93 b3be 8761 fabe
00000110: 6d12 f9bd c552 38bf 849b eebd 6eff 01bf
00000120: 0d27 b2be f835 643d 9c04 36bd da91 41bd
00000130: a361 8abe 4cef 20be 3e6e febe 1e50 2dbf
00000140: f6e5 0bbe 8d4b 18bf 6bf0 ecbe 5792 01bf
00000150: 27a7 b6be 2fcc 38bf 7046 d7be 9046 41be
00000160: 1792 8fbe e6bf 58bf d4e8 c1bd c199 91be
00000170: 9be8 edbe 6e2f 37be 5d48 96bc cc13 a33b
00000180: 935e 2abf ed57 8fbe ac49 a1be e35f 5fbf
00000190: db46 5bbe 4c8d 2abe 3c3c c0be 7a38 b3bd
000001a0: 6027 35bf f6e8 77bc 8f32 bdbe 7e15 c3be
000001b0: 3294 80be a332 18be bbdf 10be 21ac 26bf
000001c0: d845 0fbf c1c2 f6be 0a2a e2bc 7199 5dbd
000001d0: 2261 6cbe 6739 34bf c328 543d acee bebe
000001e0: 4ec1 a0be f410 99be aa72 37be bbda ffbc
000001f0: 7d14 cabe 091c e3be b9f3 08bf 6905 78be
00000200: 9c64 1b40 b6ea 3040 f334 3a40 bc87 2440
00000210: 6172 3840 4c11 4240 8a16 1c40 8a05 2e40
00000220: 7d09 4840 1ff3 4a40 b102 2140 ff65 4940
00000230: e8a8 2a40 d89e 2440 cf15 4d40 9fec 3d40
00000240: 1ba7 2f40 398a 3340 d9e7 4340 d0d3 1f40
00000250: 4faf 3f40 2b3e 4140 dd0d 2040 0693 1340
00000260: 8b93 2240 9a7b 4240 9b87 3540 5139 1540
00000270: e5d5 4140 2867 2540 0bc2 2240 a229 3f40
00000280: c93f 1a40 901d 3640 0420 1a40 6b5b 3840
00000290: 916e 3940 70f8 1540 380f 3140 925d 4c40
000002a0: fb5f 2940 e9db 3f40 f60d 2140 f188 3340
000002b0: ba77 2940 c919 5740 fe2d 3c40 c601 3440
000002c0: d431 3d40 162f 2e40 ab8e 3940 13f5 2840
000002d0: 9f93 3640 1694 4d40 d1c2 2e40 3cf1 3240
000002e0: c7bc 3340 14fa 3c40 b416 3940 d92a 0e40
000002f0: e93d 4540 cdd5 2d40 7258 4340 c2fe 3940
00000300: 2310 3340 29a8 3240 41f2 3a40 a2f7 2140
00000310: d0ab 3b40 de59 1340 dc7c 4a40 7b28 3740
00000320: a6a7 4240 ff06 4a40 25a8 3d40 2db4 3940
00000330: dfb9 3c40 6ca8 4040 7902 2740 40ac 0e40
00000340: d662 3240 9ccd 1e40 f507 2e40 389d 2a40
00000350: 5cce 4840 7a27 1a40 149d 2640 d3bd 3740
00000360: 3edc 3b40 f8cc 1040 dfd1 3e40 678e 3440
00000370: 8cca 3740 78c5 2d40 0c7c 4640 5a48 4040
00000380: be26 2a40 ffe6 3b40 0543 4740 70e9 0e40
00000390: 3f6c 4c40 2f12 3540 e355 4340 e262 3b40
000003a0: 0ea8 1c40 00eb 4740 4b8c 2d40 190b 2d40
000003b0: b3b6 3e40 0748 3a40 0702 3b40 aa80 3440
000003c0: 2e2a 3140 fc67 3340 a722 4540 4491 3e40
000003d0: cebd 3940 e08e fb3f 4a20 3640 2f81 3b40
000003e0: 26f8 2640 81e8 2e40 74dc 3840 4875 4c40
000003f0: 0dd6 2a40 5f63 3240 c2c3 2340 7634 3940
-0.58801514 -0.48819363 -0.35905954 -0.5817296 -0.26885337 -0.1601813 -0.7121528 -0.37370884
-0.08695382 -0.13784927 -0.30652323 -0.055126157 -0.50396335 -0.58776 -0.39011988 -0.080183916
-0.34723946 -0.2845198 0.07419738 -0.18513831 -0.33901528 -0.115109555 -0.6305528 -0.5637477
-0.51219493 -0.122574806 -0.07734202 -0.8382177 -0.28995696 -0.52739 -0.24712613 -0.1502513
-0.7573625 -0.4055285 -0.7735349 -0.40838593 -0.112276524 -0.5567808 -0.31790492 -0.34794208
-0.45541862 -0.23140934 -0.5764104 -0.563462 -0.36709768 -0.07385989 -0.19870168 -0.3013013
-0.24188505 -0.16696736 -0.45908555 -0.61333907 -0.5659658 -0.47548914 -0.53476965 -0.38885704
-0.29369017 -0.19192384 -0.26172486 -0.8342754 -0.5729009 -0.357648 -0.19985034 -0.3093393
-0.15779926 -0.32391688 -0.35073608 -0.48902532 -0.121617176 -0.72001296 -0.11650756 -0.5078038
-0.34795418 0.05571553 -0.04443799 -0.047258236 -0.27027616 -0.15716285 -0.49693483 -0.67700374
-0.13661942 -0.5949028 -0.46277174 -0.5061392 -0.35674402 -0.7218656 -0.42045927 -0.18874574
-0.28041145 -0.84667814 -0.094682366 -0.28437617 -0.46466526 -0.17889187 -0.018345052 0.004976725
-0.6655056 -0.2799677 -0.3150152 -0.87255687 -0.21413748 -0.16655463 -0.37545955 -0.087510064
-0.70763206 -0.015131226 -0.36952636 -0.38102335 -0.25113064 -0.14863066 -0.14147846 -0.651064
-0.5596595 -0.4819546 -0.027607936 -0.05410141 -0.23083928 -0.7040009 0.051796686 -0.37291467
-0.3139748 -0.29895747 -0.17914835 -0.031232229 -0.39468756 -0.44357327 -0.5349689 -0.24220814
2.4280157 2.7643256 2.9094818 2.5707846 2.8819811 3.0323057 2.4388757 2.719088
3.125579 3.171089 2.5157893 3.1468503 2.6665592 2.572195 3.204456 2.9675672
2.7445743 2.8053114 3.0610259 2.497303 2.995075 3.0194194 2.5008461 2.3058486
2.5402553 3.038794 2.8364017 2.3316233 3.02868 2.5844212 2.5430934 2.986916
2.4101431 2.8455544 2.408204 2.8805797 2.8973734 2.3432884 2.7665539 3.193211
2.6464832 2.9977973 2.516477 2.8052332 2.6479325 3.3609488 2.9403071 2.8126082
2.9561663 2.721624 2.8993328 2.6399581 2.85276 3.2121634 2.7306406 2.7959738
2.808397 2.9527636 2.8920107 2.2213652 3.0819037 2.7161744 3.0522733 2.9061742
2.79786 2.7915137 2.921036 2.5307393 2.9323616 2.30236 3.1638708 2.8618457
3.0414824 3.156677 2.9633877 2.901622 2.9488447 3.0102797 2.609526 2.2292633
2.7872825 2.4812994 2.7192357 2.6658459 3.1375952 2.4086595 2.6033373 2.870961
2.9353175 2.2625103 2.9815595 2.8211915 2.8717375 2.7151775 3.1013212 3.004416
2.6586146 2.935974 3.1134655 2.232998 3.1941068 2.8292348 3.052117 2.9279103
2.4477572 3.1237183 2.7116878 2.7038023 2.979901 2.9106462 2.9219987 2.820353
2.7681994 2.8032217 3.08024 2.9776163 2.9022098 1.9652977 2.8457208 2.9297597
2.6088958 2.732941 2.8884554 3.1946583 2.6693146 2.7873151 2.558823 2.893827

head.net.0.weight f4 [1, 128]
00000000: 3fbe 7abe ca29 033d 717e bd3c bb80 2ebd
00000010: 49c0 be38 9163 bfbb 73a9 81be 731e 8dbd
00000020: 43a6 22bb d4aa 563c 0cc1 07bb ff33 103c
00000030: fcdf f8bc fab2 623d 5148 86bb 9918 3c3a
00000040: 262c 0c3d 68cd 123d bf80 813b c53f c33d
00000050: a44f f23a 5d21 cd39 1e3a 6b3e 8a43 92be
00000060: 51e7 63be 3a3b 01bb 4cda f9b9 c27b 04bf
00000070: 7915 f4b9 a300 1939 46ec 2e3d 7e88 67bd
00000080: c5de 3c3f adce 123e 5846 0abf f74a a7bc
00000090: 519a 153b fc76 383f 3fd1 0e3c c8f8 0a3a
000000a0: dce0 3cbb 919b 5e3c 94e2 673e c71e a43c
000000b0: e66d 213c 881e c7bb 522b 0f39 7bd4 56bb
000000c0: 1d27 323b 033c 1f3d f720 a93c d13b 843b
000000d0: c321 403b 8567 2fbb 182a 6dbe dd16 38bc
000000e0: 6fd2 2c39 bfb6 26bb 75ba 163b 70c8 06c0
000000f0: 0143 45bb 4d56 3bbd 54da 843b 79ea 67bc
00000100: 19dc a4bc 0abe 8fb9 7f67 6ebb f06f 2bbd
00000110: 5dbf 4139 63c7 703f 6916 1a3c e6d3 103c
00000120: 00ed e9b9 e2ae 11bb f248 ec3c eb41 7dbc
00000130: 76d7 b7b9 2315 d3ba 5696 a6bd 52c7 b53e
00000140: 7c2f 18bc 1327 2f3e 854f c2bb d09d b4bb
00000150: 8e04 be37 697c 59be ba34 44bd c81b 893a
00000160: eddc 4fbc 23ae b8bf 87d4 a33a 7a2f 75bd
00000170: a068 2dbb 59b0 043c e2a3 d43a 98cb b6bc
00000180: 645f d13d 45f4 ef3b 3a7b 063b cc22 e33f
00000190: 8c17 15bc 060f 9e3d 666b 873b cc1a 673d
000001a0: 38f5 dcbf 5414 1c3b 879c 093b d850 01bb
000001b0: 1415 8eba dbc4 60b9 212c 9aba aa0e 2fbb
000001c0: 58e9 12bc 9bb8 153b 1fa8 b0ba 0554 18bb
000001d0: 675b dbbb bd92 38bf d440 853a b765 30ba
000001e0: 7a1c 46bc fb25 203e 1d44 5ebc b9d2 93bd
000001f0: e16a d43d deb4 75bc c0ee a03e cf8f c539
-0.24486636 0.032022275 0.023131581 -0.042603236 9.095722e-05 -0.0058407267 -0.25324592 -0.06890573
-0.0024818338 0.013102252 -0.002071443 0.008801459 -0.030380242 0.055346467 -0.0040979763 0.0007175296
0.03422179 0.035840422 0.0039521153 0.095336474 0.001848687 0.00039125505 0.22971389 -0.28567153
-0.22256209 -0.001971914 -0.00047655625 -0.5175134 -0.00046555305 0.00014591454 0.042705797 -0.056526653
0.7377742 0.14336653 -0.54013586 -0.020421488 0.0022827575 0.72056556 0.00871688 0.00053013535
-0.002882055 0.013586895 0.22645026 0.020034207 0.009852862 -0.0060766377 0.00013653681 -0.0032780457
0.0027183958 0.03887559 0.020645602 0.004035451 0.0029316999 -0.0026764583 -0.23160589 -0.01123592
0.00016481591 -0.0025438515 0.002299932 -2.1059837 -0.0030099752 -0.0457366 0.004054347 -0.014155024
-0.020124482 -0.00027416676 -0.0036377606 -0.0418548 0.00018477203 0.9405424 0.009404757 0.008839583
-0.00044617802 -0.0022229482 0.028843377 -0.015457611 -0.0003506501 -0.0016104322 -0.08134143 0.35503632
-0.009288665 0.1710475 -0.0059298896 -0.005511977 2.2651886e-05 -0.21238865 -0.047901846 0.001046055
-0.01268695 -1.4428142 0.0012499251 -0.05985973 -0.0026460066 0.008098685 0.0016223157 -0.022313878
0.102232724 0.0073228204 0.0020520226 1.7744994 -0.009099852 0.07717709 0.004132676 0.05642204
-1.7262335 0.0023815827 0.0020997839 -0.0019732025 -0.0010840022 -0.00021435639 -0.0011762419 -0.0026711621
-0.008966766 0.002284563 -0.0013477838 -0.002324344 -0.0066942456 -0.72098905 0.0010166415 -0.0006729024
-0.01209175 0.15639488 -0.013566044 -0.072179265 0.10371948 -0.014996735 0.31432152 0.00037681914
