examples/catchment_models/training/runs/usa_basin_split_2404_020225/model_epoch021.pt (torch, 316229 bytes, 5 tensors)

lstm.weight_ih_l0 f4 [512, 23]
000000 1d ec 08 3b c9 29 2a 3e 66 41 a6 bc 0e 5c 2f be
       0.0020892688 0.16617502 -0.020294856 -0.1712496
000010 4b 10 c2 bd 06 5f 44 3f bb 04 0a 3f 47 d3 6e be
       -0.09475764 0.76707494 0.5391347 -0.23322783
000020 5b 54 2a 3f fd a7 be bc cd a7 02 bf 89 bc a2 3e
       0.66534966 -0.023273462 -0.51037294 0.31784466
000030 1b f2 11 bd b0 44 f2 be 3e 00 52 be b4 e2 1d 3f
       -0.03563128 -0.4731803 -0.20507905 0.61674047
000040 3b 08 96 3e 88 9a c9 3e f7 63 64 be ce 2b 7b 3e
       0.29303154 0.3937571 -0.22303759 0.24528429
000050 b3 83 d7 3e 2d 15 f6 3e b0 d9 6f 3d 86 44 ba 3b
       0.42092666 0.4806303 0.058557212 0.005684438
000060 d8 fb ae 3e 00 fa 5c be e9 63 18 be db 59 04 3e
       0.34176517 -0.21579742 -0.14881863 0.12924902
000070 c7 df bd 3e a6 00 ed 3e ce 09 86 3d 8c ca 29 3f
       0.3708479 0.46289557 0.06544839 0.66324687
000080 1b e2 7b bc a1 2c dd be 68 be fd 3e e6 47 05 3e
       -0.015373732 -0.43198112 0.4955933 0.13015708
000090 a9 e1 f7 be ef 29 6a be e0 5a 31 3f fe 6d b6 3e
       -0.48414353 -0.22867559 0.6927929 0.35630792
0000a0 c2 2e 04 3f 5d 45 7e be 21 93 22 3e 46 8a f7 3e
       0.51633847 -0.24831147 0.15876438 0.48347682
0000b0 e6 89 c5 3e 36 67 f6 3d e9 78 47 3e a6 5d 8f 3c
       0.3858177 0.12031405 0.19479717 0.01750071
0000c0 cd f4 4f 3d 7e 4c 8b 3d 94 6f c0 3b 78 5b 86 3e
       0.05077057 0.06801699 0.005872676 0.2624166
0000d0 89 16 b4 bb b8 c1 5c be be a5 b2 bc 8d 83 94 3e
       -0.0054958505 -0.21558273 -0.021807548 0.29006615
0000e0 48 d1 9a be 19 2c bc 3e 21 33 c1 bd a3 69 a7 be
       -0.30237794 0.36752394 -0.0943358 -0.32697782
0000f0 9a db c1 be 89 ad b1 bb a6 48 8b 3e 3f 38 89 3e
       -0.37862855 -0.0054222983 0.27203864 0.26800725
000100 5c 3a fa be b1 1f e1 3e 42 ed af 3e 29 51 b0 3e
       -0.4887265 0.4396949 0.343607 0.3443692
000110 20 2d c6 be 58 1e 29 3c f1 4c b5 3e 7f 86 6b be
       -0.38706303 0.010322176 0.35410264 -0.23000525
000120 ae 6c 2a be 9c fd 5a be c1 a6 b0 3e d6 d5 42 3f
       -0.1664302 -0.21385807 0.34502223 0.7610754
000130 78 a3 18 bc ea ef 33 3f 6b 1e 1c 3c b4 31 c7 be
       -0.009316318 0.70287955 0.009528737 -0.38905108
000140 91 32 74 3e 4f d2 dc 3c 9a 6c dd be 4f d4 da bd
       0.23847415 0.026955752 -0.4324692 -0.10685026
000150 ab ee 05 3f 60 e2 af 3e 36 63 c7 3e 13 0a c9 be
       0.52317303 0.34352398 0.3894288 -0.392655
000160 54 5c bf 3e f8 d0 bf 3e a8 8b 17 3f 20 1c 71 3e
       0.37375128 0.37464118 0.59197474 0.23545885
000170 cb c7 a2 3e 92 93 11 3e b5 5a 46 3e 78 6a c7 bc
       0.31793055 0.1421645 0.1937054 -0.02434276
000180 93 a0 55 3e 48 af 21 3e 02 d4 84 3e dc dc 52 3e
       0.20862035 0.1578952 0.25943 0.20592064
000190 3a 47 a8 3e 75 99 5e bf 2e cb 0d 3e 69 61 5f bf
       0.32866842 -0.86952907 0.13847038 -0.8725801
0001a0 26 af d8 bd c1 8c 80 3e df ec c8 3e 4f 2f 96 3e
       -0.10580282 0.25107387 0.39243218 0.2933297
0001b0 a9 71 01 3e 88 c5 40 3e 19 27 42 be 44 69 91 3d
       0.12641014 0.18825352 -0.18960227 0.07100156
0001c0 cc fc cb bd 5b 60 56 be 66 a4 57 3e a6 58 92 3f
       -0.099603266 -0.20935194 0.21058807 1.1433303
0001d0 15 b1 49 3e ba 24 af 3e 9c 64 b9 3e 73 fd 14 3f
       0.19696458 0.34207708 0.3620957 0.5819923
0001e0 6e ea 20 3e 32 e7 a6 be db f8 ce 3d 43 c3 a8 be
       0.15714428 -0.32598263 0.10106059 -0.32961473
0001f0 08 4d b2 3d 49 85 f0 bd 1c b1 0f bd 02 88 ed be
       0.08706099 -0.11744172 -0.035081014 -0.46392828
000200 4c bc 95 3e be e8 91 bc 1e e0 fe be 3a ee 4b bd
       0.29245222 -0.017811175 -0.49780363 -0.049787737
000210 43 ff bb be ea f7 ec bd 5c b8 76 3c 84 c5 8c bd
       -0.36718187 -0.11570723 0.015058603 -0.068736106
000220 38 55 95 be d8 2f ab bd fa a9 c7 3d c0 0b 75 3e
       -0.2916658 -0.08358735 0.09749217 0.23930264
000230 fc 16 28 3e f4 3d b7 3c e7 d5 3a 3b e4 83 2a 3f
       0.16415018 0.022368409 0.0028508843 0.666075
000240 a6 1a 4a 3f 9b 9d 39 be 35 89 41 3f c2 af 47 be
       0.7894691 -0.18126528 0.75599986 -0.1950064
000250 de c2 c6 be 40 d8 60 3d 60 ce dd bd ce 74 96 be
       -0.38820547 0.054893732 -0.108303785 -0.2938599
000260 0e fc 6c 3d 20 d0 31 3f 3e 16 93 3e 80 bc b5 3e
       0.057857566 0.694582 0.28727907 0.35495377
000270 6e 15 e4 be 5c cf 9b 3e b3 54 1d 3e 49 d1 04 3f
       -0.445476 0.3043164 0.15364341 0.51881844
000280 5c be 49 3e 30 22 48 3f c9 53 f5 bc b1 8f 26 be
       0.19701523 0.78177166 -0.029947178 -0.16265751
000290 ea 6e b4 be a6 4f ec 3e 8c b9 f9 3e 2e 98 80 3e
       -0.3524087 0.46154517 0.48774374 0.25116104
0002a0 37 c4 d8 bd 42 0c 9f 3e d7 d2 1c 3e b3 9a be be
       -0.105843 0.3106404 0.15314804 -0.372274
0002b0 9b 96 e6 3d d6 e3 5f 3f bd 5d ac be 98 c9 37 be
       0.112591945 0.87457025 -0.33665267 -0.17947996
0002c0 e5 cc 44 be 1a 3e 59 3e 59 46 b0 3e 4b 17 c4 be
       -0.19218786 0.21215096 0.3442867 -0.3829902
0002d0 4d 18 92 3e bc 68 9a 3e e5 7b dd 3e f0 c0 0d 3c
       0.28534165 0.3015803 0.43258587 0.008651957
0002e0 e3 a1 03 be 7c e9 c5 be 9c b9 08 3f a0 6f 15 3f
       -0.12854724 -0.38654697 0.5340822 0.5837345
0002f0 a2 eb 42 3e 47 bf 49 3d e9 8f b2 3d 87 17 23 be
       0.190352 0.049254682 0.08718855 -0.15926944
000300 4f 98 00 be 98 e4 1e 3e bc 24 36 3e fa 95 24 3e
       -0.12558101 0.15516889 0.1778745 0.16072837
000310 26 a5 c8 bb 4f 35 1a be d5 e0 63 bc ab ea c2 bd
       -0.006123203 -0.15059398 -0.013908585 -0.095174156
000320 3b 35 2e bd d5 30 9b 3d 8a 52 93 be ff 7e 11 3e
       -0.042531233 0.07577673 -0.2877391 0.14208601
000330 2b eb 8d bd 66 ff 49 3e a7 3e 78 be 6b ca 70 bd
       -0.0692962 0.19726333 -0.2424265 -0.05878679
000340 6e f0 86 bb e4 24 01 be 99 7d a5 be 0b ab 9c 3e
       -0.004118017 -0.12611729 -0.32322386 0.30599245
000350 d5 7d 90 3e 0a f8 92 bd 4a 06 00 be 55 fb 82 be
       0.28221002 -0.07176216 -0.12502399 -0.25582376
000360 f4 5b 3f 3d 2a b1 e8 be 85 77 ed bd bc 91 30 be
       0.046718553 -0.45447665 -0.11595062 -0.17243093
000370 ad 6c d2 bd 4c 4b c5 bd 8f 0f 12 be f8 4a 71 bd
       -0.102746345 -0.09633502 -0.14263748 -0.058909386
000380 50 e5 b7 bc ee 74 f7 bd 5e ab 05 3c 69 2d a4 3d
       -0.022448212 -0.120828494 0.008158533 0.08016474
000390 78 06 3b 3e a1 d0 73 be c0 98 00 3e c3 1c 98 bd
       0.18264186 -0.23810054 0.1255827 -0.07427361
0003a0 46 3d 22 3e 35 77 c5 3e 82 8e 2c 3f 63 9e 25 3e
       0.15843686 0.3856751 0.6740495 0.16173701
0003b0 9a bf 80 3e 9f d0 97 3e 05 72 47 3d 3f 8b c0 bc
       0.2514618 0.29651353 0.048692722 -0.023503898
0003c0 62 6d b7 3d 57 7a 6e be d0 b0 99 be ad 2c bc 3c
       0.0895641 -0.23288856 -0.3001771 0.022970522
0003d0 ac a2 61 3e b6 a6 99 3e e6 3b 01 bd 54 3a 70 3d
       0.2203471 0.30010003 -0.031551264 0.058649376
0003e0 13 ad 5a be 12 11 0e 3e 6c 04 cb 3e 73 a0 23 bd
       -0.21355085 0.138737 0.3965181 -0.03994794
0003f0 41 3a 40 3e cb 26 26 3e 42 b0 dc 3e 64 ba 20 bf
       0.18772222 0.16225736 0.43103224 -0.6278441

lstm.weight_hh_l0 f4 [512, 128]
000000 88 70 e4 3e 9d 61 7b bd 33 cb c0 be e6 39 48 3e
       0.44617105 -0.06137239 -0.3765503 0.19553337
000010 81 29 93 3e 1c 73 17 bf 89 81 6e 3d de e3 fb bd
       0.28742602 -0.5916002 0.058229003 -0.122993216
000020 3d e1 f9 3e c7 6f 5d be 48 de bd 3e 7f 91 74 be
       0.48804656 -0.21624671 0.3708365 -0.23883627
000030 9c d9 cb be 52 1e 55 3d b1 aa 2a be 79 37 12 3f
       -0.3981446 0.05203087 -0.16666676 0.57115895
000040 29 67 36 bd 60 b3 11 3d 5d 4f a1 3e 9b f9 25 be
       -0.044531975 0.035571456 0.31505862 -0.16208498
000050 e2 49 80 be 67 b9 d8 3e 28 6a 94 be 7e da fd bc
       -0.25056368 0.4232895 -0.2898724 -0.030987974
000060 2a 14 d5 3d d6 3b 7f be d0 6e ea be ab 46 9b 3d
       0.104042366 -0.2492517 -0.45787668 0.07581838
000070 5e c1 fb 3e 2f 77 dc be 65 b2 60 be 91 6e bc 3e
       0.49170965 -0.4305968 -0.21943052 0.36803105
000080 5e 8e 9c 3d 7f 8f 13 bd 6c c7 62 3d 59 d5 a7 be
       0.07644342 -0.03602552 0.055365965 -0.3277996
000090 60 05 c6 be fc 46 6b bd e8 0c f2 3d 1f 98 82 3d
       -0.38675976 -0.057440743 0.11818868 0.06376671
0000a0 e4 2c 3d be e7 b0 f5 3d 37 a5 49 be 36 00 2d be
       -0.18474156 0.11996632 -0.1969193 -0.16894612
0000b0 76 50 86 be 3c af a3 bd 00 6c 79 be 41 17 2a be
       -0.26233262 -0.07992408 -0.24357605 -0.16610433
0000c0 76 a2 ba be d9 40 43 3e a0 5a 08 be 54 02 e2 bd
       -0.36452073 0.19067706 -0.1331582 -0.110356
0000d0 67 7c 80 be 45 8e 53 3e 27 2c 63 bd 1e 5f b6 be
       -0.2509491 0.2065974 -0.05546203 -0.35619444
0000e0 2d 37 d3 3e 36 2c 0d 3e a5 d9 e1 be 89 c5 73 bc
       0.41253033 0.13786396 -0.44111362 -0.014878639
0000f0 da a6 d4 bd 4f c9 0f bf 07 98 9c be 95 3f ef be
       -0.10383387 -0.5616655 -0.30584738 -0.46728197
000100 e5 04 86 3e ef d1 02 3d e2 a7 fd be ea 81 90 be
       0.2617561 0.03193849 -0.49542147 -0.28224117
000110 df c5 2d be 23 e9 70 bd 79 4b be bb 02 14 1e 3d
       -0.16970013 -0.058816087 -0.005807337 0.0385933
000120 4c 43 d2 3e 26 5f ef 3d 57 2b 98 3e bc a2 50 3e
       0.41066968 0.1168807 0.29720566 0.20374578
000130 a2 b3 b5 3e 03 20 d7 be c1 3e 6c 3d 92 f8 67 bc
       0.3548861 -0.4201661 0.057677034 -0.014158385
000140 aa cf d2 be 1b 68 ba be 84 00 3a 3e 77 1f 12 be
       -0.4117406 -0.3640755 0.18164259 -0.14269815
000150 f1 fe d7 be f9 af 4c 3e 8e 4a 53 bc ea 15 8c 3e
       -0.42186692 0.19989003 -0.012896193 0.2736047
000160 0a aa 18 3e 7d 56 e9 bd e4 ec 34 be 0b 92 43 3d
       0.14908615 -0.113934495 -0.17668492 0.0477467
000170 5e 93 8f 3e f8 69 2d be 73 92 b7 be 3a f6 9a 3e
       0.2804212 -0.16934955 -0.3585392 0.3026598
000180 66 41 38 3d cc 24 d2 3d bd cd 0b 3f d2 86 51 3e
       0.044984244 0.10260925 0.54610807 0.20461586
000190 66 9f 72 3e c6 40 5b 3e 40 1d ae be d9 5f 14 be
       0.23693618 0.21411428 -0.3400669 -0.14489688
0001a0 7e 88 fd 3c 46 81 bc be b6 eb 4a 3f 63 21 f8 bd
       0.030948874 -0.36817378 0.79265916 -0.12115743
0001b0 8f 8a 01 be d3 a6 12 3e 5f e5 dc be af d0 1e 3e
       -0.12650512 0.14321451 -0.43143746 0.15509294
0001c0 de 8f a3 bd b6 cd 81 3d a1 78 35 bf 9e 56 fe 3e
       -0.07986425 0.063380644 -0.7088719 0.4967546
0001d0 8d f3 5a 3e 46 92 26 bd 99 4c d2 3e 64 15 cb 3e
       0.2138197 -0.04066684 0.41074064 0.39664757
0001e0 12 53 9d 3d 91 00 6e bc 88 9e 73 be db db 86 bd
       0.0768186 -0.014526502 -0.23790944 -0.06584903
0001f0 41 da 80 3e 34 54 70 3e 3e e3 8c bd 8a 7f bd be
       0.25166515 0.23469621 -0.068792805 -0.37011367
000200 b7 ee 64 be ec 0c c7 3e 31 1b 40 be 0a 88 af 3d
       -0.22356687 0.38877046 -0.18760373 0.08570869
000210 36 d6 13 bd 47 74 d2 be 94 a1 a9 bd 54 6f fe be
       -0.03609296 -0.41104338 -0.08282772 -0.49694312
000220 9c 51 01 3f 35 c4 a5 bd df c5 1a 3f e6 03 a3 3e
       0.5051515 -0.08094064 0.6045818 0.31838912
000230 23 55 d0 be fb 2c 43 be bd 98 75 bd 1d 03 dc 3e
       -0.40689954 -0.19060127 -0.059960116 0.42971125
000240 9a 46 1c 3e 87 00 84 3d 84 28 20 bd 36 b6 89 3e
       0.15261307 0.06445413 -0.03910114 0.26896828
000250 d5 a8 77 be 67 d8 e4 3e 62 bb 90 3e 67 7e a0 bd
       -0.24185498 0.44696352 0.28267962 -0.07836609
000260 9c fc 2a be 20 28 af be 90 b4 1c bf 74 c0 8a bd
       -0.16697925 -0.342103 -0.61213017 -0.06774989
000270 c2 58 f1 3e 15 ca 47 be 5e eb dd 3d 7c 27 60 be
       0.4713803 -0.19510682 0.10835908 -0.21890062
000280 db c6 0e 3e 77 db 2f 3e 36 3c ed bd ba 6c 0e bf
       0.13943045 0.17173563 -0.1158375 -0.55634654
000290 6e b3 14 bf de b8 5f 3d f6 5e a9 3e 8c a3 87 be
       -0.5808629 0.054619662 0.33080262 -0.26491964
0002a0 3b f5 05 be 9c 89 b8 3e e2 8d a0 3c d7 cc 87 be
       -0.13081829 0.36042488 0.019598905 -0.26523468
0002b0 c0 dc ac be 77 8a e8 3d c1 07 2c bf 07 3e 46 be
       -0.3376217 0.11354535 -0.6719933 -0.19359599
0002c0 d6 49 05 bf 90 b9 be 3e fd 97 88 bc fb 45 8b bb
       -0.5206579 0.37250948 -0.016674036 -0.0042502857
0002d0 b2 0f 86 be 58 ca 20 3e d9 3d b7 be 99 ea dd bd
       -0.2618385 0.15702188 -0.35789374 -0.108357616
0002e0 ba 5b 11 3f 1a ce bb be c6 88 d0 be 94 e4 2a be
       0.5678059 -0.3668068 -0.4072935 -0.16688758
0002f0 34 80 39 be ce 82 9c be 16 a5 3b be df 20 d9 be
       -0.18115312 -0.30568546 -0.18324694 -0.4240789
000300 00 69 30 3e 17 9c d7 3e 1c ce fc be 64 12 98 be
       0.17227554 0.42111275 -0.49376 -0.2970153
000310 62 0a b5 be 95 ff 60 3e e0 9b c6 be 4e 34 36 3e
       -0.35359484 0.21972497 -0.38790798 0.1779339
000320 4f 71 55 3e 24 ca ac 3c eb 3d 35 3e 10 1a 4b 3e
       0.20844005 0.021092482 0.17699401 0.19834161
000330 0e 96 b3 bd 75 45 b2 be 99 b8 6b be 2c d6 1a 3e
       -0.08768855 -0.34818617 -0.23019637 0.15120763
000340 3d 73 b8 be f1 e1 64 3e 18 99 16 3e e6 79 53 be
       -0.3602542 0.22351815 0.14706838 -0.2065197
000350 08 19 ad be 2c fa 92 be ee fe 4f be 34 c0 20 3e
       -0.3380816 -0.2870649 -0.20312092 0.1569832
000360 74 9e 82 3e ff ba 42 bd fc 14 51 be 92 1a 25 be
       0.25511515 -0.047541615 -0.20418161 -0.16123417
000370 4e 86 ef 3e 9b d3 e9 3c 89 98 f3 be 03 04 83 3e
       0.46782154 0.028543284 -0.47577313 0.25588998
000380 3d 4f 96 3e c4 f2 49 3e 8f 7d c3 3e eb d8 68 3d
       0.2935733 0.19721514 0.3818173 0.056847494
000390 5e 8b 18 3e a3 3e 98 3e a3 2c 4e be e8 16 c9 bb
       0.14896914 0.29735288 -0.20134215 -0.006136764
0003a0 24 ee 49 bd fa f5 1c bf 51 b8 44 3f 4a 46 54 3e
       -0.049299374 -0.6131283 0.76843745 0.20729938
0003b0 95 d2 14 bf 1e d0 15 3e 27 7c 02 bf 60 aa 0d be
       -0.5813382 0.14630172 -0.5097069 -0.13834524
0003c0 bd d4 7e bb 05 1d c5 bd e8 9b a2 be 2e 96 97 3e
       -0.0038884126 -0.09624676 -0.31759572 0.29606766
0003d0 12 73 83 3d 24 22 bf bd 79 15 9f 3e 76 df c5 3d
       0.06418432 -0.09332684 0.3107107 0.096617624
0003e0 f5 94 c4 be 52 f8 43 3e e2 ce b8 3e c7 c1 b2 bd
       -0.38394895 0.19137695 0.3609534 -0.08728366
0003f0 60 0f 62 3e ea 36 7e 3e 21 08 0b bd 96 92 db bd
       0.22076178 0.24825636 -0.0339433 -0.107213184

lstm.bias_ih_l0 f4 [512]
000000 83 8a 0d bf 23 38 e6 be 4f 03 9e be a8 83 01 bf
       -0.5528948 -0.44964704 -0.308619 -0.50591516
000010 a5 ba 28 be 3d 0b 09 be 26 75 15 bf 8d 8d ee be
       -0.16477449 -0.13383193 -0.5838188 -0.4659237
000020 8f 57 bb bd 7c 3f 88 bd 43 5a 59 be 9f f8 25 bd
       -0.0914756 -0.06652734 -0.21225838 -0.040520307
000030 f0 8d dd be 7a 15 22 bf 32 65 b4 be 21 5c 69 bd
       -0.43272352 -0.6331402 -0.35233456 -0.056972627
000040 60 15 c7 be 7c 40 c7 be f9 d2 99 3d ab ad 0f be
       -0.38883495 -0.38916385 0.07510943 -0.14031093
000050 37 28 49 be 5d 02 0e be 65 cc 0a bf 01 be 15 bf
       -0.19644247 -0.13868089 -0.5421813 -0.5849305
000060 1a a0 f5 be 22 90 9f bd 31 7b 20 bd d6 4a 53 bf
       -0.4797371 -0.07791163 -0.039179984 -0.82536066
000070 ca 2c 7e be 02 e7 03 bf 1c fd 8a be 32 2e e2 bd
       -0.24821773 -0.51524365 -0.27146232 -0.11043967
000080 5d 84 5f bf 53 34 c6 be d6 94 39 bf b5 49 d0 be
       -0.87311345 -0.38711795 -0.7249273 -0.40681234
000090 6c 5e 59 be f5 ba 07 bf 99 0e 57 be e5 b0 6d be
       -0.21227425 -0.5301965 -0.21001662 -0.23212011
0000a0 6b 57 04 bf 26 1c 6e be 3c 04 1c bf 4c 18 1c bf
       -0.5169589 -0.23252925 -0.6094396 -0.60974574
0000b0 27 34 95 be 9b 6b db bd 63 fd 3c be 18 95 c3 be
       -0.29141352 -0.107138835 -0.18456034 -0.38199687
0000c0 e5 3f 97 be e3 85 32 be b3 e8 ec be 01 e1 17 bf
       -0.29540935 -0.17433886 -0.46271285 -0.59327704
0000d0 d0 03 05 bf 05 1c f7 be 96 9e da be a9 36 87 be
       -0.5195894 -0.48263565 -0.42699116 -0.2640889
0000e0 cd aa af be ec 62 6a be 99 ff ac be 40 cd 71 bf
       -0.34309998 -0.22889298 -0.33788756 -0.9445381
0000f0 ba 94 d2 be d7 6b 82 be f5 37 ef bd 8e d4 a4 be
       -0.41129094 -0.254729 -0.11680595 -0.32193416
000100 5e ce 87 be 4c 83 c0 be 8e b8 de be 2f a8 12 bf
       -0.26524633 -0.37600172 -0.4350018 -0.5728788
000110 9f 4e 9f bd b5 70 26 bf ac da 36 be cd 4d f0 be
       -0.07778668 -0.6501573 -0.17856854 -0.46934357
000120 3a b4 ed be 12 d9 fc 3d b0 98 8a bd 6f 81 64 bd
       -0.46426564 0.123460904 -0.06767404 -0.0557875
000130 80 16 b4 be 64 ed fb bd 07 45 20 bf 65 ca 2a bf
       -0.35173416 -0.12301138 -0.6260533 -0.6671508
000140 69 74 32 be b7 f1 fb be fa de d5 be 26 fe 01 bf
       -0.1742722 -0.4920785 -0.4177168 -0.50778425
000150 94 62 ae be 69 a8 2b bf 78 60 d2 be c3 43 48 be
       -0.34059584 -0.6705385 -0.41089225 -0.19557099
000160 fd 22 ba be 9a 7c 42 bf 26 d7 1d bd 9b 9a 8a be
       -0.3635482 -0.75971377 -0.03853526 -0.2707108
000170 b3 5d e2 be f8 1e 63 be e8 d2 c4 bd bd 43 02 3d
       -0.44212112 -0.22179782 -0.0961054 0.03180288
000180 6e 5f 0b bf 5e ab b3 be e0 fb 73 be 7b 0a 58 bf
       -0.5444249 -0.3509168 -0.23826551 -0.8439099
000190 2d e0 bc bd e7 7b 98 be c2 b5 ca be e1 d1 1a be
       -0.09222446 -0.2978203 -0.39591795 -0.15119125
0001a0 d1 e5 38 bf ac 4f 9a bd bd 76 a1 be 0a 27 ea be
       -0.7222567 -0.075347275 -0.31535903 -0.4573291
0001b0 8c 73 9e be 45 4c 45 bd 06 fe 25 be fd a6 1c bf
       -0.3094753 -0.04816844 -0.16210184 -0.61192304
0001c0 b5 8c 24 bf f9 cf f5 be 27 9b 8c bd 69 48 97 bd
       -0.642772 -0.48010233 -0.068655305 -0.07386858
0001d0 bc 5d 94 be 69 5e 47 bf 28 93 cd 3d a9 3f a4 be
       -0.28977764 -0.77878433 0.100378335 -0.3207982
0001e0 6b 06 8e be 5a e8 63 be f0 68 4f be e8 f2 02 3d
       -0.27739272 -0.22256604 -0.20254874 0.031969935
0001f0 83 06 01 bf 13 5f cf be ff 4d bf be 36 15 30 be
       -0.5040056 -0.40502223 -0.37364194 -0.17195591
000200 25 31 12 bf b5 79 47 be 10 fd 76 bd 9c eb f6 be
       -0.5710624 -0.19480021 -0.060299933 -0.4822663
000210 e4 d5 0e be 87 11 1d 3d 05 aa 1b bf 10 5f 60 be
       -0.1394878 0.038346794 -0.60806304 -0.21911263
000220 5b 8f 3d 3e 85 b8 33 3e 80 60 10 bf 8c 4c 06 3e
       0.18511717 0.17550857 -0.5639725 0.13115138
000230 0f c0 9e be 23 fd d8 be be 98 37 3e e7 ce ef 3c
       -0.31005904 -0.42380628 0.1792936 0.029273463
000240 8f 4c 57 be 99 24 8d be c2 05 05 3e ec 85 11 bf
       -0.21025299 -0.27566984 0.12990478 -0.56844974
000250 0b 27 e1 3a d8 20 ac 3c ee 89 d1 be df 22 23 bf
       0.0017177773 0.021011755 -0.40925545 -0.63725084
000260 9b 61 f7 be a9 9d c8 3d 2c 25 2c be eb c5 24 bf
       -0.48316655 0.09795696 -0.16811055 -0.643645
000270 98 05 08 bc 03 72 b2 be 97 d0 c8 be 65 4b 93 3d
       -0.008302115 -0.3485261 -0.3922164 0.07192115
000280 ea 73 26 bf 82 5e ff bd b3 80 0c bf d0 40 c7 bd
       -0.6502062 -0.12469198 -0.5488388 -0.09729159
000290 e7 6c 4c bd a2 9f 10 bf d6 fc 48 be e7 53 8c 3e
       -0.049908545 -0.5649358 -0.196277 0.27407762
0002a0 d4 ad a3 be 6a f2 79 3b e7 93 0f bf 79 90 f9 bd
       -0.31968558 0.0038138875 -0.56085056 -0.12185759
0002b0 63 c6 a7 be 43 e4 bc 3e 1c cf 38 bc e1 56 2e be
       -0.32768545 0.368929 -0.0112798475 -0.17025329
0002c0 a5 26 d8 bd f7 51 9a be 98 b1 19 be 1f 75 96 be
       -0.10554246 -0.3014066 -0.15009153 -0.2938623
0002d0 b6 88 09 be d1 55 81 3e 0d 68 b1 be ee 20 6a be
       -0.13431057 0.25260785 -0.34649697 -0.22864124
0002e0 56 c7 03 be 8a e0 03 3d d8 35 ee bd 83 40 4e bf
       -0.1286901 0.03219656 -0.11631364 -0.8056719
0002f0 3e 06 17 3d 45 22 84 be 11 d8 a6 3d 50 70 85 bd
       0.036871187 -0.25807396 0.0814668 -0.065155625
000300 7c 7b 2a be cc e9 98 be 16 21 a1 bd 01 78 c7 be
       -0.16648668 -0.29865873 -0.07867639 -0.38958743
000310 6d c0 3a bd c1 dc 29 bf b4 1f 45 3e fe 63 58 be
       -0.045593668 -0.6635247 0.19250375 -0.21131894
000320 a1 ca af bc 5a fd 65 3e 84 20 c6 bc 92 e6 c1 bd
       -0.021458926 0.22459927 -0.024185427 -0.09467806
000330 5c 37 29 3c e5 9d 00 3d 15 64 bf be 52 51 38 bf
       0.01032814 0.03140058 -0.37381044 -0.71999085
000340 47 cf 86 be 72 7d e0 be 4e 64 84 be 70 82 96 be
       -0.26330015 -0.43845707 -0.25857776 -0.2939639
000350 61 5b 27 3e 43 0a 0e bf 52 8a c0 be 61 1a 10 be
       0.16343452 -0.5548441 -0.3760553 -0.14072563
000360 fc 92 84 bd c8 11 30 bf 69 27 e8 3c 01 ea 0c be
       -0.064733475 -0.6877713 0.028339105 -0.1376114
000370 62 9d 02 be 0f 1d 51 be 98 0f ba 3d 63 35 93 3d
       -0.1275535 -0.20421241 0.090850055 0.07187917
000380 fe 0e da be 17 34 c9 bc 06 a3 20 3e 4f 69 33 bf
       -0.42589563 -0.024560971 0.15687189 -0.70082563
000390 fb 05 5a 3e be 5c 36 be a6 5a c0 3c e8 98 01 bd
       0.21291344 -0.17808816 0.023480725 -0.031639963
0003a0 c3 ac 1f bf 13 05 5a 3e 46 6c 7f be 2a 17 6d be
       -0.6237299 0.21290998 -0.24943647 -0.23153368
0003b0 21 ca 11 3c 69 91 81 bd 3b f1 c2 bd 20 fb 4f be
       0.008898289 -0.06326563 -0.09518667 -0.2031064
0003c0 49 7b 9a be ee 61 35 be 3c 4e 0b 3e f5 ee e0 3c
       -0.30172184 -0.17713138 0.13604063 0.027457694
0003d0 7d e2 0f bd 9b 57 8c bf e8 e6 e6 bd 39 8d 33 bd
       -0.035128105 -1.0964235 -0.112745106 -0.043835852
0003e0 89 b9 f3 be ff 84 56 be 0f ee 01 be 5a 03 97 3e
       -0.4760249 -0.20949171 -0.12688468 0.29494745
0003f0 6d 4c 9b be 8c fe 52 be 9e b9 e0 be d5 72 ba bd
       -0.30331746 -0.20604914 -0.43891615 -0.09103934

lstm.bias_hh_l0 f4 [512]
000000 9e 41 14 bf 2d db fe be d7 2f bb be f8 4d 1a bf
       -0.57912624 -0.49776593 -0.36559936 -0.6027522
000010 c6 01 96 be a6 cf 2a be 2e 5c 31 bf 83 27 b8 be
       -0.29298228 -0.16680774 -0.6928128 -0.35967645
000020 2d 7c bd bd 38 27 26 be 19 3f a1 be e1 0b 8e bd
       -0.092522 -0.16225898 -0.31493452 -0.069358595
000030 0b 0f 02 bf 04 e2 14 bf d0 9c d8 be 03 98 9a bd
       -0.50804204 -0.5815737 -0.42307138 -0.07548525
000040 81 0e b3 be 52 66 98 be 31 0d 77 3d 23 a5 48 be
       -0.34972003 -0.29765564 0.060315315 -0.19594245
000050 e9 27 a6 be f7 63 0d be e2 5a 1f bf 23 59 10 bf
       -0.32452324 -0.13807665 -0.6224805 -0.5638601
000060 a7 06 01 bf 79 d7 08 be f3 15 ac bd cb b5 54 bf
       -0.50400776 -0.13363446 -0.08402624 -0.83089894
000070 2f 66 95 be 1d dc 02 bf e4 4b 7b be cf 8d 0f be
       -0.29179522 -0.51117116 -0.24540669 -0.1401894
000080 e6 dd 3f bf 63 ce c8 be 09 01 43 bf 10 de d4 be
       -0.74947965 -0.3921996 -0.76173455 -0.4157567
000090 2d 98 e1 bd df c8 09 bf cd d0 a4 be fa 17 b3 be
       -0.11015353 -0.5382213 -0.32190552 -0.3497923
0000a0 d9 f6 e5 be d0 33 64 be ea e9 13 bf ce 24 13 bf
       -0.44914892 -0.2228539 -0.577788 -0.57478034
0000b0 14 2c b6 be fb 75 b0 bd 96 4b 48 be 6c 50 9c be
       -0.35580504 -0.08616253 -0.19560084 -0.30530107
0000c0 a0 05 7a be b4 5c 44 be 72 ab ea be 17 9b 1a bf
       -0.24416208 -0.19175988 -0.45833927 -0.603929
0000d0 ea b1 10 bf c3 6d fa be d4 75 04 bf 0a 1f b9 be
       -0.56521475 -0.48911867 -0.5174229 -0.36156493
0000e0 3e 41 a7 be 27 98 54 be 7e c1 87 be 22 96 50 bf
       -0.32666963 -0.20761167 -0.2651481 -0.81479084
0000f0 83 79 12 bf 25 b7 b7 be d3 01 57 be 76 34 a0 be
       -0.5721666 -0.35881916 -0.2099679 -0.31290025
000100 3f 90 2c be 64 80 a6 be 06 93 b5 be 8c dc f6 be
       -0.168519 -0.3251983 -0.35463732 -0.4821514
000110 a3 93 0d be 8b 6f 35 bf c9 da f5 bd 14 47 02 bf
       -0.1382585 -0.70873326 -0.120046206 -0.50889707
000120 41 16 b8 be 44 47 2b 3d 08 3e 86 bd 6e 25 81 bd
       -0.35954478 0.04181601 -0.065548 -0.06305967
000130 01 c5 91 be 24 26 26 be dc 6b fb be f9 17 2a bf
       -0.28470615 -0.16225487 -0.49105728 -0.6644283
000140 f5 e5 2c be e5 ae 17 bf 75 d7 f5 be a2 43 03 bf
       -0.16884597 -0.5925124 -0.48015943 -0.51275074
000150 30 08 b9 be 06 be 35 bf 47 39 d1 be 61 4f 3e be
       -0.3613906 -0.7099308 -0.40864012 -0.18584968
000160 2f 41 8d be ea 6d 57 bf 67 ac ce bd c6 37 9c be
       -0.27588794 -0.8415209 -0.10091477 -0.30511302
000170 a1 28 e3 be dd b3 30 be 72 56 ee bc 6c fe 28 3c
       -0.44366935 -0.17256112 -0.029093955 0.010314565
000180 ac 6f 25 bf 64 52 92 be 0d 3d 9f be 25 3e 5c bf
       -0.6462352 -0.28578484 -0.31101266 -0.86032325
000190 2b be 52 be 32 99 2e be 33 09 c0 be da 98 af bd
       -0.20580356 -0.17050627 -0.37507018 -0.08574076
0001a0 3f f8 33 bf b3 75 31 bc 9c 18 b7 be 04 13 c8 be
       -0.7030067 -0.010831284 -0.35760963 -0.39077008
0001b0 cd 72 8e be 02 d3 11 be a4 18 1b be 12 8e 27 bf
       -0.2782196 -0.1424065 -0.15146118 -0.6545116
0001c0 90 60 12 bf 1c ca f9 be 1e 91 40 bd 9e 64 82 bd
       -0.5717859 -0.4878701 -0.047013395 -0.063668475
0001d0 f4 c5 79 be 11 af 34 bf f9 e2 59 3d f8 be b7 be
       -0.2439192 -0.7057963 0.053194974 -0.35887885
0001e0 da d9 9d be 7c 71 95 be 95 26 3d be 72 80 10 bd
       -0.3083027 -0.29188144 -0.18471749 -0.035278745
0001f0 28 a7 ca be fe 42 e1 be 90 dd 06 bf f7 a0 84 be
       -0.39580655 -0.43996423 -0.5268183 -0.25904056
000200 d6 7e 1b 40 9f a2 30 40 0f 37 3a 40 df 60 24 40
       2.4296165 2.7599256 2.9096105 2.5684125
000210 ac c7 38 40 ad 90 41 40 5f 46 1c 40 81 cb 2e 40
       2.887187 3.0244553 2.441795 2.731171
000220 bb 71 48 40 a2 58 4a 40 91 82 21 40 85 32 48 40
       3.1319416 3.1616597 2.5235941 3.1280835
000230 20 29 2a 40 a7 bd 25 40 a8 7f 4d 40 85 1b 3e 40
       2.65876 2.5897005 3.2109165 2.9704297
000240 e3 00 30 40 4f a1 33 40 67 a4 43 40 d7 4e 20 40
       2.7500541 2.8067205 3.0569093 2.504812
000250 d8 bf 3f 40 86 9e 40 40 a5 18 21 40 f2 8d 13 40
       2.9960842 3.0096755 2.5171292 2.3055387
000260 82 58 23 40 6f 2b 42 40 3d e1 34 40 9b 2a 15 40
       2.552277 3.033901 2.8262475 2.3307254
000270 d4 ae 41 40 69 f7 25 40 ce 00 22 40 ac f8 3e 40
       3.0262957 2.5932257 2.531299 2.9839277
000280 81 42 1b 40 93 04 37 40 3e a7 19 40 e9 24 39 40
       2.425934 2.8596542 2.4008327 2.8928778
000290 a4 00 38 40 6c cd 16 40 f3 52 30 40 3e 75 4c 40
       2.875039 2.356288 2.7550628 3.194656
0002a0 c7 69 29 40 c0 16 40 40 52 f8 20 40 9b 83 33 40
       2.6470811 3.0013885 2.5151563 2.8049076
0002b0 23 c2 29 40 74 fc 55 40 33 72 3b 40 78 9d 33 40
       2.6524742 3.3435335 2.9288452 2.8064861
0002c0 da ce 3c 40 15 89 2c 40 2c 4a 3a 40 93 ce 29 40
       2.9501252 2.6958668 2.910777 2.6532333
0002d0 11 77 36 40 63 d8 4d 40 c6 53 2e 40 57 96 34 40
       2.8510172 3.2163322 2.7238631 2.821676
0002e0 70 c1 32 40 ed b0 3d 40 1e 74 38 40 68 f5 0f 40
       2.7930565 2.9639237 2.8820872 2.2493534
0002f0 7c 4a 45 40 57 ba 2c 40 bf 00 43 40 4b ec 39 40
       3.0826712 2.6988733 3.0469205 2.9050472
000300 83 80 32 40 3b 81 32 40 bb fa 3a 40 5a f4 22 40
       2.7890937 2.7891376 2.9215534 2.546164
000310 90 41 3b 40 f7 1b 14 40 26 36 4b 40 8e b1 36 40
       2.9258766 2.3142068 3.17518 2.854587
000320 79 5c 42 40 9d 52 49 40 9e d3 3c 40 82 22 3a 40
       3.036894 3.1456673 2.950416 2.9083562
000330 3e 15 3c 40 72 76 40 40 05 b7 27 40 c7 a6 0f 40
       2.9387965 3.0072293 2.6205456 2.2445543
000340 da 92 30 40 2a 55 1f 40 f0 6e 2e 40 d5 d7 29 40
       2.758963 2.489573 2.725521 2.6537983
000350 cf 70 48 40 be 39 1a 40 cf c4 24 40 2d 35 37 40
       3.1318853 2.4097743 2.5745122 2.8626206
000360 09 81 3b 40 29 4e 12 40 00 60 3f 40 25 bf 33 40
       2.9297507 2.2860205 2.9902344 2.8085415
000370 ea ed 37 40 68 cd 2d 40 5a 44 46 40 3a 0b 41 40
       2.8738961 2.715662 3.0979218 3.0163102
000380 ee d3 29 40 26 6a 3c 40 08 5b 47 40 e1 e7 0f 40
       2.6535602 2.9439788 3.114931 2.2485278
000390 65 ac 4c 40 92 24 36 40 e3 a0 43 40 2c 7a 3b 40
       3.1980221 2.845982 3.0566947 2.9293318
0003a0 21 60 1c 40 33 3c 49 40 1b 77 2d 40 c3 28 2d 40
       2.4433672 3.1442993 2.7103946 2.705613
0003b0 52 b3 3d 40 8f f6 39 40 cb 50 39 40 86 4f 34 40
       2.9640698 2.9056737 2.8955562 2.8173537
0003c0 95 65 31 40 ff f1 32 40 cb 62 43 40 f4 2d 3e 40
       2.771825 2.7960203 3.0529048 2.9715548
0003d0 37 fa 39 40 ab 42 fe 3f 96 ea 36 40 65 de 3a 40
       2.905897 1.9864095 2.858068 2.919824
0003e0 30 0d 26 40 b2 38 2f 40 fb da 38 40 16 3b 4d 40
       2.594555 2.7378354 2.8883655 3.2067313
0003f0 92 cf 2a 40 ce 6f 32 40 59 fd 23 40 2b 9d 39 40
       2.668919 2.788074 2.562338 2.9002178

head.net.0.weight f4 [1, 128]
000000 86 51 6b be 42 3e f8 3c 2f 15 45 3c b4 ab 1c bd
       -0.22980317 0.030303124 0.012028976 -0.038249686
000010 8e 2f 00 3c c8 c5 16 3c b9 9f 84 be c0 fc a0 bd
       0.007823838 0.009202428 -0.2590311 -0.07860708
000020 ae b8 95 bb 9b af 35 3c df 62 a1 bb 6d 58 af 3a
       -0.0045691347 0.011089231 -0.0049251164 0.0013377793
000030 0b c3 ff bc 4d 28 88 3d d4 b7 a7 3b 3c 0e 3d 3a
       -0.031220933 0.06648312 0.0051183496 0.0007211899
000040 75 46 0f 3d 6c 5a 1b 3d 54 de 12 3b 01 cc b3 3d
       0.034979302 0.03792803 0.002241035 0.08779145
000050 62 a7 37 3b 8d b6 68 3c 8c 62 53 3e 6c 39 86 be
       0.0028023352 0.01420368 0.20643061 -0.26215684
000060 ef 4f 4b be 09 e4 69 bb 02 a4 65 ba e6 0b fd be
       -0.19854711 -0.0035688898 -0.0008760096 -0.4942314
000070 a5 9f 25 b8 74 a3 08 bc fa da 57 3d 0d c8 6d bd
       -3.9487746e-05 -0.0083397515 0.052699067 -0.05805211
000080 a9 ee 31 3f 04 8f 04 3e 09 ef 01 bf 7c 07 fd bc
       0.6950479 0.12945181 -0.50755364 -0.030887358
000090 d6 67 41 3b d2 be 33 3f 0c c2 01 3c 70 b2 96 b8
       0.0029511354 0.70213044 0.0079198 -7.185794e-05
0000a0 1b 3e 70 ba 97 43 60 3c e5 ed 60 3e ee 6d 99 3c
       -0.0009164528 0.01368799 0.2196575 0.018729176
0000b0 7b af 05 3c 07 06 28 bc dd 1c ef 3a 47 7a 7b bb
       0.008159514 -0.010255343 0.0018242855 -0.0038372444
0000c0 ab 2c f4 39 4b 64 39 3d 54 d3 9e 3a f2 34 a4 ba
       0.00046572587 0.045261662 0.0012117424 -0.0012527986
0000d0 90 70 86 b9 49 4a da 37 9b 8c 63 be dc b6 26 bc
       -0.00025642337 2.6022217e-05 -0.22221605 -0.010175433
0000e0 af 13 4b ba 7e c7 44 ba 64 15 eb bb 6d bc 02 c0
       -0.00077467685 -0.00075065333 -0.007174181 -2.0427506
0000f0 b9 5c 6e bb 2f 0f 01 bd e1 b4 2d 3a 8a a1 76 bc
       -0.0036371185 -0.03150862 0.00066263793 -0.015053162
000100 64 3a 9d bc bc 54 84 bb 58 52 ac 3c 74 18 40 bd
       -0.019192882 -0.0040384214 0.021035358 -0.04689832
000110 3b e3 04 bb cc b9 65 3f 8b 37 b7 3c 86 d7 ea 3c
       -0.0020277041 0.8973663 0.022365352 0.028667223
000120 4d 78 c6 ba ed 33 90 ba 5d 03 b4 ba d0 38 f4 bc
       -0.0015142054 -0.0011001803 -0.0013733912 -0.029812247
000130 9a 18 2e bb da a1 ea ba bd ba b7 bd 43 53 b0 3e
       -0.0026564957 -0.0017901019 -0.089711644 0.34438524
000140 43 cc 48 bc 09 3b 26 3e 42 e0 6b bb c3 e5 fb bb
       -0.012255731 0.16233458 -0.0035991822 -0.007687302
000150 10 77 bf bb d5 ec 48 be 58 69 28 bd dd 86 10 bb
       -0.005843051 -0.19621594 -0.04111609 -0.002205304
000160 b3 3c 4c bc a0 4a b1 bf 80 a4 77 bb b1 20 77 bd
       -0.012465644 -1.3850899 -0.0037787259 -0.06033391
000170 0e 4b f4 bb 23 12 80 3b 97 3c 0d 3b 78 02 07 bc
       -0.0074552363 0.003908412 0.0021551007 -0.008240335
000180 33 83 db 3d 3e 2d cd 3b fc c6 1e 3a 9a 52 dd 3f
       0.10718384 0.006261497 0.00060568727 1.7290833
000190 f0 1d 7c bc 34 e5 ab 3d 77 2e 7b 3b 14 56 26 3d
       -0.015387997 0.083933264 0.0038327256 0.040609434
0001a0 77 e6 d7 bf 7e 02 8c 3a 2f c1 ab 3a 80 ee 05 bb
       -1.6867207 0.0010681895 0.0013103838 -0.0020436347
0001b0 3b 87 0b 3c dd 23 df ba 91 42 ee 3a 87 fb 9a bb
       0.008516128 -0.0017024238 0.0018177797 -0.0047296914
0001c0 a7 0f fe bb e6 3e 90 3b b2 7d cc bb e9 01 81 bb
       -0.0077533307 0.0044020293 -0.00624057 -0.0039369953
0001d0 c8 43 83 bc 33 d2 2f bf f7 02 e3 bb f3 1b 82 ba
       -0.016023532 -0.68680114 -0.0069278437 -0.0009926542
0001e0 5c eb ea bc d3 cd 1a 3e 8f 14 2e bc f4 6b 78 bd
       -0.028676681 0.15117578 -0.010625019 -0.060649827
0001f0 72 38 bb 3d 99 52 3d bc 30 d0 a4 3e a6 d2 a5 ba
       0.091416255 -0.011555337 0.32190084 -0.0012651279
