examples/catchment_models/training/runs/usa_basin_split_2404_020225/model_epoch024.pt (torch, 316229 bytes, 5 tensors)

lstm.weight_ih_l0 f4 [512, 23]
000000 b9 28 8d 3c 16 91 2d 3e ac 92 33 bc c5 ab 29 be
       0.017231332 0.16949877 -0.010960262 -0.16569431
000010 33 dd d7 bd 1a a3 44 3f e0 41 0c 3f 77 c2 7a be
       -0.10540237 0.76811373 0.5478802 -0.24488245
000020 98 7b 2c 3f 03 8c 0a bd 5c 54 04 bf 9a 2a 9a 3e
       0.6737609 -0.03382493 -0.5169122 0.30110627
000030 ef eb 76 bd 99 c0 f3 be 32 be 49 be b7 43 20 3f
       -0.060283598 -0.47607878 -0.1970146 0.62603325
000040 7c de 96 3e 9d bb c6 3e ac af 6d be 6d 5d 83 3e
       0.29466617 0.38815013 -0.23211545 0.25657216
000050 e6 5d da 3e dd 0f f5 3e de 48 87 3d 50 95 6e bb
       0.42649764 0.47863665 0.06605695 -0.0036404915
000060 2e 8e ad 3e 97 38 59 be 58 4a 15 be ea e5 fd 3d
       0.33897537 -0.21212994 -0.14579141 0.12397368
000070 46 3a bd 3e aa 2a eb 3e 71 c7 7c 3d 44 d3 28 3f
       0.36958522 0.45930988 0.06171364 0.65947366
000080 7f af e7 bc 93 61 e5 be 3f 13 fb 3e 1c 58 09 3e
       -0.028281925 -0.44801006 0.4903812 0.13412517
000090 8a 31 f7 be 69 df 6b be 56 a8 31 3f e3 04 b6 3e
       -0.48279983 -0.23034443 0.69397485 0.35550603
0000a0 31 57 03 3f e0 c2 7b be 23 84 22 3e bc 62 f5 3e
       0.5130492 -0.24586058 0.15870719 0.4792689
0000b0 2c b3 c1 3e 93 0e ee 3d 27 e5 50 3e 5c 50 b3 3c
       0.3783201 0.116238736 0.20399915 0.021888904
0000c0 a7 2f 43 3d f5 1d 7b 3d 7b ee 83 3c c9 cd 85 3e
       0.047652867 0.061307866 0.016104927 0.26133564
0000d0 d1 e2 5a 3b 09 07 5f be 27 9d 8a bc 98 85 91 3e
       0.0033399353 -0.21780027 -0.01692064 0.28422236
0000e0 ec 46 9b be 4a d0 c0 3e 03 51 cb bd 21 aa a6 be
       -0.30327547 0.37658912 -0.09927561 -0.32551673
0000f0 2b 09 bd be 67 a4 78 3b 2c 15 8d 3e dc d2 8d 3e
       -0.36921057 0.0037939788 0.27555215 0.27699935
000100 14 42 fa be ef 04 e2 3e 72 81 ac 3e df ad b4 3e
       -0.4887854 0.4414439 0.3369251 0.35288903
000110 50 1f c6 be c8 ed 54 3c fe b5 b6 3e 23 58 66 be
       -0.38695765 0.012996145 0.35685724 -0.22494559
000120 87 bb 29 be 5c a2 54 be 86 ad ae 3e a0 90 3e 3f
       -0.16575442 -0.2076506 0.34116763 0.7443943
000130 b4 96 15 3c 34 2e 2f 3f be bd d5 3b b1 be d0 be
       0.009130169 0.68429875 0.006522863 -0.40770486
000140 c1 28 7c 3e a9 7a a5 3c 62 62 e2 be 87 9e 02 be
       0.24624921 0.02020009 -0.44215685 -0.12755786
000150 d5 08 02 3f 7a 8a ae 3e 16 6e c9 3e a5 2f c1 be
       0.50794727 0.34090024 0.393418 -0.37731662
000160 5e 65 b6 3e 6e a0 be 3e ed 4f 15 3f 7c 72 5b 3e
       0.35624212 0.37231773 0.5832508 0.21430391
000170 f2 56 a3 3e e3 aa 07 3e 1a 94 3e 3e 3f 4c e8 bc
       0.31902272 0.13248782 0.18611184 -0.02835667
000180 79 d0 57 3e 35 49 1b 3e 48 c7 83 3e a1 a4 47 3e
       0.2107562 0.15164645 0.25737977 0.19496395
000190 e4 25 a8 3e 42 b5 5d bf 13 90 1c 3e 14 51 5e bf
       0.32841408 -0.866047 0.15289335 -0.86842465
0001a0 07 7b e1 bd ad 78 80 3e f0 52 c8 3e da 7e 96 3e
       -0.11009794 0.25092068 0.39125776 0.29393655
0001b0 99 97 04 3e 9a a0 42 3e 75 2b 46 be 15 5e a6 3d
       0.12948455 0.19006577 -0.19352515 0.081234135
0001c0 03 da c8 bd 77 de 51 be 16 8d 5a 3e 05 08 94 3f
       -0.098072074 -0.2049502 0.21342883 1.1564947
0001d0 68 61 51 3e 9c 35 ab 3e 74 30 b7 3e 0c f0 17 3f
       0.20447314 0.33439338 0.35779154 0.5935066
0001e0 e1 39 1e 3e f1 d4 ac be 32 8a db 3d 58 d5 ac be
       0.15451767 -0.3375621 0.10719718 -0.33756518
0001f0 09 50 b4 3d 5d aa ee bd 9d ea 22 bd 8f e0 e9 be
       0.08804328 -0.11653588 -0.039774526 -0.45679137
000200 67 1d 96 3e 2a 2e a5 bc 49 f7 fe be 19 62 7c bd
       0.29319307 -0.020163614 -0.4979804 -0.06161699
000210 d9 10 bd be ae 20 f1 bd 97 ea 5a 3c 2c 21 92 bd
       -0.36926916 -0.11773811 0.013361595 -0.07135233
000220 88 60 98 be ea f5 a7 bd f9 85 bb 3d d0 82 6c 3e
       -0.29761147 -0.08201201 0.09156413 0.23096776
000230 34 b0 20 3e 87 c0 83 3c 06 61 70 bb 3d e1 2b 3f
       0.15692216 0.016083015 -0.0036678924 0.6714056
000240 ce 80 4a 3f 95 46 3f be 54 0d 41 3f a4 12 43 be
       0.7910279 -0.18679269 0.7541096 -0.1905008
000250 cb 8a cd be 45 4b 6a 3d 9b 06 da bd 92 41 9b be
       -0.40144953 0.05720069 -0.10645791 -0.30323464
000260 57 b2 43 3d 3d 5b 31 3f e2 c9 95 3e f0 bf b8 3e
       0.0477775 0.69279844 0.29255587 0.36083937
000270 30 b9 e5 be ae fc 9d 3e e3 91 26 3e 39 dc 06 3f
       -0.4486785 0.30856842 0.16266589 0.52679783
000280 de 91 40 3e 04 02 4b 3f 7b c8 fd bc 5d 00 22 be
       0.18805644 0.7929995 -0.030979386 -0.15820451
000290 61 a7 b2 be dc 92 e1 3e 6d 0b 00 3f ee 71 7d 3e
       -0.34893325 0.44057357 0.50017434 0.24750492
0002a0 3d 02 d4 bd 16 3d 9e 3e 94 5d 16 3e f3 bf ba be
       -0.103519894 0.3090598 0.14684135 -0.3647457
0002b0 a5 b8 e6 3d 70 01 5d 3f 32 e5 aa be d6 a4 38 be
       0.11265687 0.8633032 -0.33377987 -0.1803163
0002c0 4a a5 44 be 94 c9 56 3e d6 1a b2 3e c1 11 c7 be
       -0.19203678 0.20975333 0.347861 -0.38880733
0002d0 e6 92 92 3e 7b df 99 3e 5a cb de 3e ae 05 17 3c
       0.286277 0.30053315 0.4351452 0.009217663
0002e0 60 5a 02 be 1f ec c5 be 86 d4 09 3f 5f 3d 16 3f
       -0.12729788 -0.3865671 0.5383991 0.58687395
0002f0 18 bb 62 3e be c3 42 3d 08 e3 b5 3d 26 ec 22 be
       0.22141683 0.047549956 0.088811934 -0.15910396
000300 92 fe f6 bd 74 d4 1a 3e 40 dd 42 3e ca f6 21 3e
       -0.12060274 0.15120107 0.19029713 0.15816799
000310 75 af 59 bc 9b 2a 0a be 81 36 a1 38 5d ec ae bd
       -0.013286461 -0.13492815 7.6872304e-05 -0.085411765
000320 91 dc 38 bd 3e e6 94 3d 54 dd 95 be 2e db 15 3e
       -0.045132224 0.07270478 -0.29270422 0.14634392
000330 35 7a ad bd b8 c9 41 3e 3a 99 77 be 40 5d 3e bd
       -0.08470575 0.18924606 -0.24179545 -0.04647565
000340 30 59 06 bc 06 30 ff bd e0 1d a5 be c6 18 9f 3e
       -0.008199975 -0.124603316 -0.32249355 0.31073588
000350 0b 30 88 3e 22 66 a0 bd b5 de 05 be a7 c3 82 be
       0.26599154 -0.0783198 -0.13073237 -0.25539896
000360 d7 4a 17 3d bc df e7 be 59 69 01 be 24 5c 28 be
       0.036936607 -0.45287883 -0.12637843 -0.16441399
000370 5f 4f ce bd 1b 87 c5 bd b9 da 1a be 0d ab 8e bd
       -0.100737326 -0.0964491 -0.15122499 -0.06966219
000380 2d 1a 0b bd fb 74 e9 bd 6f 48 9c 3b b3 63 91 3d
       -0.03396051 -0.113992654 0.004769377 0.07099094
000390 74 f7 2e 3e 2b c8 6c be 62 fe 04 3e d2 3a 9e bd
       0.17086583 -0.23123233 0.12987664 -0.07726063
0003a0 ec 18 28 3e a9 0a cc 3e c9 76 2d 3f f4 29 28 3e
       0.16415757 0.39851883 0.67759377 0.16422254
0003b0 e2 af 7b 3e 31 58 90 3e 8a 64 29 3d ce f1 43 bc
       0.24578813 0.28192285 0.041355647 -0.011959506
0003c0 c8 52 d9 3d f5 92 67 be cf e9 9a be 48 4d d0 3c
       0.106114924 -0.22614653 -0.30256507 0.025427476
0003d0 0b 7b 5d 3e 4a dc 97 3e ed 71 f7 bc b5 05 82 3d
       0.21628968 0.29660255 -0.030205691 0.06348745
0003e0 44 a8 69 be f1 f2 20 3e 90 65 cb 3e 3f e7 31 bd
       -0.22818094 0.15717675 0.39725924 -0.043433424
0003f0 fd bb 37 3e 17 8c 28 3e 6f 82 e0 3e a5 5b 1f bf
       0.17942806 0.1645969 0.43849513 -0.62249213

lstm.weight_hh_l0 f4 [512, 128]
000000 45 b2 e6 3e cf d7 94 bd fa cc c1 be 3d a0 4c 3e
       0.45057884 -0.07267725 -0.37851697 0.19983001
000010 1d 44 94 3e e5 d4 16 bf 11 b7 7c 3d 35 60 f9 bd
       0.28958216 -0.589186 0.061698023 -0.12176553
000020 e8 3d ff 3e 09 e3 68 be 89 b8 ba 3e 3c 82 75 be
       0.49851918 -0.22742857 0.36468914 -0.23975462
000030 ec 7d c6 be 16 28 64 3d 84 f2 25 be 1d 40 0f 3f
       -0.38767946 0.05570229 -0.16205794 0.55957204
000040 88 81 58 bd 11 b4 f9 3c 67 82 a0 3e 67 20 29 be
       -0.052857906 0.03048137 0.3134949 -0.16516267
000050 16 b3 81 be 20 f8 dd 3e 69 39 96 be 4d b4 d9 bc
       -0.25331944 0.43353367 -0.29340675 -0.026575232
000060 e6 b8 dc 3d 69 2e 83 be 01 8f e8 be 2f 53 9e 3d
       0.10777454 -0.25621346 -0.45421603 0.0773071
000070 7c f7 f6 3e d7 d1 d8 be 66 db 66 be 0d 65 be 3e
       0.4823569 -0.42347595 -0.22544631 0.3718647
000080 e4 c1 9b 3d f2 a2 31 bd 67 4f 6c 3d 79 ee a5 be
       0.07605341 -0.043368287 0.05769291 -0.32408503
000090 c7 90 c7 be 00 0d 70 bd 92 c4 f4 3d 18 91 4f 3d
       -0.38977644 -0.058606148 0.11951555 0.05067548
0000a0 4c 70 47 be ba 39 e4 3d 3d 4a 4b be 79 59 30 be
       -0.19476432 0.11143823 -0.19852538 -0.17221631
0000b0 c0 bf 8b be 8b 0c 87 bd 96 3c 79 be 8d 9b 26 be
       -0.2729473 -0.06594189 -0.24339518 -0.16270275
0000c0 86 04 b9 be b9 c0 42 3e a9 d4 06 be a8 cb e7 bd
       -0.36136264 0.1901883 -0.13167061 -0.11318141
0000d0 57 0d 81 be a5 62 55 3e 94 36 5b bd 6d dc b6 be
       -0.2520549 0.20838411 -0.053518847 -0.35715047
0000e0 e6 5d d0 3e a0 30 15 3e c0 55 e2 be c2 5e 6d bc
       0.4069664 0.1456933 -0.44206047 -0.014487924
0000f0 9f f9 d0 bd 75 f8 0c bf 9e f6 a0 be c6 80 ee be
       -0.102038614 -0.55066615 -0.31438154 -0.4658262
000100 40 d7 85 3e 48 9c dd 3c 6c d3 f9 be bc 82 8c be
       0.26140785 0.02705206 -0.48794115 -0.27443492
000110 d7 4c 2f be 0d fc 73 bd 37 20 6d bb cd e9 ec 3c
       -0.17119156 -0.059566546 -0.0036182532 0.028920079
000120 65 95 d1 3e ca fe fd 3d 71 42 98 3e c0 b2 52 3e
       0.4093429 0.12402113 0.2973819 0.20576
000130 3d 7a b1 3e 35 f5 d3 be 19 00 82 3d db 73 8d bc
       0.34663573 -0.41398016 0.06347675 -0.017267158
000140 0c bd d0 be 21 75 be be 77 0f 3a 3e 91 3d 17 be
       -0.4076923 -0.37198737 0.18169962 -0.1476958
000150 3a bb d6 be 7f ed 51 3e 75 17 0d bc 41 76 8b 3e
       -0.41939718 0.20500754 -0.00861155 0.27238658
000160 aa 07 1c 3e ce 0f e9 bd bf 2d 35 be fe b8 50 3d
       0.15237299 -0.11379968 -0.17693232 0.050957672
000170 1f ae 8c 3e 88 ff 30 be 7d ce bc be df 23 9d 3e
       0.27476594 -0.17284977 -0.36876288 0.3069143
000180 0e e1 3c 3d 4e 73 d2 3d 96 80 0c 3f d1 9f 50 3e
       0.046113066 0.10275899 0.54883707 0.20373465
000190 0d 9b 78 3e ed 22 5a 3e 8b 97 b2 be 50 db 1e be
       0.24277897 0.21302386 -0.34881243 -0.15513349
0001a0 7e 3c ff 3c 1d 64 be be 42 f1 49 3f 99 bb 06 be
       0.031156775 -0.37185755 0.78883755 -0.131575
0001b0 f3 7a fe bd b4 5f 17 3e b7 f1 dd be d6 6c 07 3e
       -0.124257945 0.14782602 -0.43348476 0.13225111
0001c0 5d 3a 9b bd 62 65 82 3d ea d4 35 bf 04 f9 fc 3e
       -0.07579491 0.063669935 -0.71028006 0.49408734
0001d0 2f c2 5b 3e d8 0a 27 bd b8 76 d4 3e 6a a3 cc 3e
       0.21460794 -0.040781826 0.41496825 0.39968425
0001e0 97 76 b2 3d bb 71 5a bc d2 53 70 be 8a ff 7f bd
       0.087140255 -0.0133327795 -0.23469475 -0.06249956
0001f0 3a 34 7e 3e 27 80 6b 3e f5 ab 8d bd f0 89 bd be
       0.2482461 0.22998105 -0.06917564 -0.370193
000200 6d fb 5f be 73 92 c4 3e bc d5 43 be a7 42 d2 3d
       -0.21873255 0.38392982 -0.19124502 0.10266619
000210 0a 89 2e bd 68 b0 d4 be 60 a1 9c bd df 8f fd be
       -0.04261116 -0.41540837 -0.07647967 -0.49523827
000220 21 25 01 3f 33 3c 8d bd b5 0e 1c 3f 83 1f ab 3e
       0.5044728 -0.06896248 0.6095994 0.3342248
000230 e3 04 ce be d1 8d 51 be de 81 40 bd 6a 26 dc 3e
       -0.40238103 -0.20464255 -0.04699885 0.42998058
000240 0b e7 1d 3e 2e 53 73 3d 8f df 1b bd a9 e8 89 3e
       0.15420167 0.0594055 -0.038055 0.26935318
000250 40 01 6f be 0b 4c e4 3e a4 9a 8f 3e 03 08 92 bd
       -0.2334032 0.44589266 0.2804767 -0.07130434
000260 d6 b2 23 be 0e c8 a9 be 03 26 19 bf ee 08 74 bd
       -0.15986189 -0.33160442 -0.59823626 -0.05957883
000270 f7 56 ef 3e 8a be 41 be 75 ba d5 3d 34 19 52 be
       0.46746036 -0.18920341 0.104359545 -0.20517427
000280 24 c5 0b 3e 71 d4 2d 3e 62 77 db bd 94 58 0f bf
       0.13649422 0.16975571 -0.1071613 -0.55994534
000290 a7 5b 16 bf 5d f3 46 3d c9 50 a8 3e 8c 61 7f be
       -0.587336 0.048571933 0.32874134 -0.24939555
0002a0 37 7b 05 be f9 7d b4 3e 61 3f 4e 3c 5e bf 8b be
       -0.13035284 0.3525236 0.012588353 -0.2729444
0002b0 bb fe b2 be 38 87 e0 3d b3 dd 2c bf dc 18 5e be
       -0.3495997 0.10963291 -0.67525786 -0.2168917
0002c0 6c 0d 06 bf e7 00 be 3e 29 5b c7 bc a2 34 95 bb
       -0.5236423 0.37110063 -0.02433546 -0.0045533935
0002d0 b0 ff 80 be d5 30 1a 3e ad f9 b2 be da 2f e1 bd
       -0.25195074 0.1505769 -0.34956113 -0.10995455
0002e0 7d 32 11 3f 6b 33 b8 be 05 a3 c9 be bd aa 2a be
       0.56717664 -0.3597673 -0.39382187 -0.16666694
0002f0 e3 a8 41 be 35 92 9c be f0 43 3d be b9 05 da be
       -0.18912081 -0.30580297 -0.18482947 -0.4258249
000300 de e4 33 3e 3d 48 d7 3e 24 3c 01 bf 8f 86 96 be
       0.17567775 0.420473 -0.5048239 -0.29399535
000310 56 e7 b4 be e3 36 5c 3e 71 13 c9 be 54 2d 32 3e
       -0.35332745 0.21505313 -0.39272645 0.17400104
000320 31 af 53 3e 17 97 a8 3c 07 5a 35 3e 2a c0 45 3e
       0.20672299 0.020579858 0.17710124 0.19311586
000330 84 19 d4 bd 82 c9 b4 be ff 45 62 be 52 fc 16 3e
       -0.10356429 -0.35309988 -0.22097014 0.1474469
000340 aa 33 bc be 87 42 5d 3e 13 99 0d 3e 5d 85 58 be
       -0.36758167 0.2160741 0.13827924 -0.21144624
000350 43 f4 a4 be f9 cf 8e be 8d 02 4b be 26 a1 12 3e
       -0.32217607 -0.27893046 -0.19825192 0.14319286
000360 a2 0a 82 3e 14 16 41 bd ef dd 56 be f5 19 24 be
       0.25398737 -0.047140196 -0.20983098 -0.16025527
000370 35 db f1 3e 73 f0 c4 3c 7e 0a ee be 77 fe 82 3e
       0.47237554 0.024040436 -0.4649238 0.25584766
000380 6a b6 90 3e ce 2f 50 3e 05 88 c4 3e cf db 56 3d
       0.2826417 0.20330736 0.38385025 0.05245572
000390 4d e4 0f 3e f0 58 98 3e f2 7c 4b be 6e 31 9d bb
       0.14051934 0.29755354 -0.19871882 -0.0047971522
0003a0 05 ad 4a bd 29 97 1c bf 33 94 4b 3f 32 a2 40 3e
       -0.04948141 -0.6116815 0.7952301 0.18811873
0003b0 ab 3b 1a bf d5 60 16 3e 31 e8 03 bf 9a a4 1a be
       -0.60247296 0.14685376 -0.5152617 -0.15101853
0003c0 5f 1c c9 ba d7 0d d9 bd 4f d5 a7 be c5 9d 95 3e
       -0.0015343538 -0.10598343 -0.3277993 0.2922193
0003d0 85 0f 82 3d 9e 8e b7 bd 24 84 9d 3e 15 54 d0 3d
       0.06350616 -0.08962749 0.30764878 0.101722874
0003e0 0a c1 ca be ba a5 3e 3e 9d c6 be 3e ed 75 b4 bd
       -0.39600402 0.18617907 0.37260905 -0.08811555
0003f0 d9 6a 61 3e b2 45 7c 3e c3 53 37 bd 07 6f f4 bd
       0.22013415 0.24635962 -0.044757616 -0.11935239

lstm.bias_ih_l0 f4 [512]
000000 19 2c 10 bf 39 87 e4 be dc 71 9d be 19 8e fe be
       -0.5631729 -0.44634417 -0.3075093 -0.49717787
000010 95 d0 22 be 0b 18 08 be 1d 64 17 bf 04 56 f1 be
       -0.1589988 -0.13290422 -0.59137136 -0.47135937
000020 3e 0d b4 bd 2c 93 5e bd 6d e9 57 be 5c 84 0e bd
       -0.08791588 -0.054339573 -0.21085139 -0.034794196
000030 0c ae dd be bb a8 22 bf 6c 46 aa be 3d e1 74 bd
       -0.4329685 -0.6353871 -0.33256853 -0.059785116
000040 80 89 c5 be bc 23 c4 be 0b a4 a4 3d c6 99 10 be
       -0.38581467 -0.38308513 0.08039101 -0.1412116
000050 4f 2d 4f be 80 13 04 be f1 02 0c bf fb f3 13 bf
       -0.20232128 -0.12898064 -0.5469199 -0.5779416
000060 e2 a1 f8 be ee 95 90 bd a9 32 20 bd 6d 53 54 bf
       -0.48561007 -0.07059847 -0.039110813 -0.829398
000070 91 aa 7d be d7 4b 05 bf 3b 54 8a be 51 c0 e8 bd
       -0.24772097 -0.5206885 -0.27017388 -0.113648064
000080 82 cf 60 bf 1b 16 c6 be 6e ba 3c bf e9 ed d0 be
       -0.8781663 -0.3868874 -0.7372197 -0.4080651
000090 aa 89 5d be e7 ac 0a bf 85 7c 5a be 60 39 6c be
       -0.21634546 -0.5417008 -0.21336563 -0.23068762
0000a0 3b ba 04 bf 36 eb 74 be a2 eb 1b bf 34 8b 1a bf
       -0.51846665 -0.23917851 -0.6090642 -0.6036866
0000b0 1b 45 9a be cd 9f cd bd d0 49 3c be ba 83 c3 be
       -0.30130848 -0.10040245 -0.18387532 -0.38186437
0000c0 53 4f 95 be b5 6f 27 be 48 15 ee be ba 7e 19 bf
       -0.29162082 -0.16351207 -0.4650061 -0.59958994
0000d0 10 40 05 bf 1a ca f5 be 92 9e de be ca f4 8d be
       -0.52050877 -0.48005754 -0.43480355 -0.27725822
0000e0 e7 65 a9 be 32 0d 62 be 9e cc ab be f8 7a 74 bf
       -0.33085558 -0.22075346 -0.33554548 -0.95500135
0000f0 fd d3 d1 be 13 29 82 be 7a d6 ec bd 53 6e a3 be
       -0.40982047 -0.25421962 -0.11564346 -0.31920108
000100 c4 81 84 be 7b 9c bf be 75 9d de be cc 10 14 bf
       -0.25880253 -0.37424073 -0.43479505 -0.5783813
000110 8f 64 91 bd 3a 89 28 bf 6c f9 32 be 5b b8 f1 be
       -0.07099258 -0.6583439 -0.1747796 -0.47210965
000120 18 c4 ea be 2f f3 03 3e 58 be 84 bd 8e 11 45 bd
       -0.45852733 0.12885736 -0.06481618 -0.048112445
000130 d7 ba ae be ac 28 f4 bd a7 6c 21 bf 74 4b 2b bf
       -0.34126922 -0.1192182 -0.63056415 -0.6691201
000140 27 c7 1d be 04 4b fe be c8 1b d1 be 0e a6 01 bf
       -0.15408002 -0.49666607 -0.40841508 -0.50644004
000150 23 42 ad be aa 86 2e bf 80 49 d6 be 1d 1b 4d be
       -0.3383952 -0.6817423 -0.4185295 -0.20029874
000160 43 6a be be 4e 76 41 bf 61 7e ef bc 9e 33 86 be
       -0.37190446 -0.75571144 -0.029235067 -0.26211256
000170 01 24 e7 be ac 43 65 be 3c dd b3 bd dc 32 fe 3c
       -0.45144656 -0.22389096 -0.087824315 0.031030111
000180 88 d1 0e bf c0 fb b2 be 44 98 75 be 78 c9 57 bf
       -0.5578847 -0.34957695 -0.23983866 -0.8429179
000190 af da c4 bd 02 fe 99 be 2d 07 cb be 93 68 1d be
       -0.09612023 -0.30076605 -0.39653912 -0.15371923
0001a0 8c c9 39 bf d3 02 9a bd 74 2c a5 be a2 33 e7 be
       -0.7257316 -0.0752007 -0.32260478 -0.4515658
0001b0 af db 96 be 95 ea 46 bd 3d f1 23 be b2 68 1b bf
       -0.2946448 -0.04856356 -0.16009994 -0.6070663
0001c0 ad ff 22 bf b0 b3 f2 be ff c2 82 bd f2 bb 90 bd
       -0.6367138 -0.47402716 -0.06384849 -0.07067098
0001d0 c6 9b 90 be d8 1c 45 bf cd 7d d2 3d 6b 6f a7 be
       -0.28243846 -0.7699714 0.10277901 -0.32702193
0001e0 2d fa 90 be d5 60 64 be b6 df 51 be 66 7c 04 3d
       -0.2831587 -0.22302563 -0.20495495 0.032345198
0001f0 7f 22 01 bf e0 e5 d1 be 7f 2b c0 be ba 9e 25 be
       -0.5044326 -0.40995693 -0.37533185 -0.1617383
000200 8c a0 13 bf ee f4 46 be 5a 73 6d bd c5 80 f6 be
       -0.5766685 -0.19429371 -0.057971336 -0.48145118
000210 30 a8 19 be be 33 21 3d d1 cd 1c bf e4 64 65 be
       -0.15005565 0.039355986 -0.6125155 -0.22401768
000220 54 a4 3d 3e a4 91 3a 3e b4 dc 11 bf 91 02 11 3e
       0.18519717 0.1821962 -0.5697739 0.14161135
000230 88 a6 9f be 6d ba dd be dc cc 33 3e d2 c0 e0 3c
       -0.3118174 -0.43306294 0.17558616 0.027435694
000240 84 7c 57 be 11 b7 8d be a1 0b 07 3e f5 a2 13 bf
       -0.21043593 -0.2767873 0.1318803 -0.5767053
000250 00 70 05 3b 41 ad b4 3c 9e 56 d7 be 08 03 24 bf
       0.0020360947 0.02205527 -0.4205827 -0.64067125
000260 77 bf f9 be 77 8e ce 3d 9d fb 27 be 9b 36 25 bf
       -0.4877889 0.10085767 -0.16404577 -0.64536446
000270 a9 2d 0b bc 9b ed b6 be 9f 7e c5 be 1c 47 96 3d
       -0.008494773 -0.35728154 -0.38573167 0.07337782
000280 96 f2 28 bf 99 d9 01 be d1 95 0c bf c6 de d7 bd
       -0.65995157 -0.12680663 -0.549161 -0.105405375
000290 3d c1 26 bd e5 23 13 bf 5a 4f 49 be 3a 57 8e 3e
       -0.04071163 -0.57476646 -0.19659176 0.27800924
0002a0 b8 15 a4 be b8 2e 46 3b 80 51 0f bf 9b 52 f7 bd
       -0.3204782 0.003024025 -0.55983734 -0.120763026
0002b0 2a 51 aa be 9b 20 c2 3e 71 9d ea bb 5b c4 2e be
       -0.33265048 0.379155 -0.0071598818 -0.17067091
0002c0 cb fc c9 bd 18 44 93 be 95 19 1f be 41 9c 9a be
       -0.098626696 -0.2876289 -0.15537103 -0.30197337
0002d0 95 17 0a be 46 e3 80 3e 93 15 b3 be 55 f4 7a be
       -0.13485558 0.25173396 -0.34977397 -0.24507268
0002e0 73 2a fb bd c0 bd e9 3c 74 fe e1 bd 8c 43 52 bf
       -0.12263956 0.028532863 -0.11034861 -0.8213432
0002f0 94 c0 18 3d 4f 5b 81 be 2c 6b aa 3d 8d 03 7b bd
       0.03729303 -0.25264975 0.08321223 -0.061282683
000300 f6 53 27 be 8d 50 98 be 62 6e 9c bd 3f d1 cd be
       -0.16340622 -0.29748955 -0.07638241 -0.40198705
000310 6d cb 33 bd 90 f0 2b bf 9d ea 3d 3e 91 87 5a be
       -0.043895174 -0.67163944 0.18546529 -0.21340777
000320 59 b3 ac bc 57 dc 68 3e be 15 b5 bc 8b 36 c7 bd
       -0.021081613 0.22740303 -0.022105094 -0.097272
000330 c9 f6 96 3c 12 aa 10 3d 24 ff c4 be 27 ca 39 bf
       0.018428223 0.03531844 -0.38475907 -0.72574085
000340 4b 3b 7d be e9 2d e4 be 2c a3 86 be c7 4c 96 be
       -0.2472965 -0.44566277 -0.26296365 -0.2935545
000350 7f 83 2c 3e 58 48 0f bf 1d 03 b6 be b8 7c 0b be
       0.16847037 -0.5596976 -0.3554925 -0.13621795
000360 20 58 81 bd 11 d9 31 bf ad 9c f6 3c 28 9e 08 be
       -0.06315637 -0.6947184 0.030104006 -0.13341582
000370 09 0a 04 be d8 4a 4c be e5 00 bb 3d 71 89 7d 3d
       -0.12894453 -0.19950426 0.0913103 0.061898652
000380 bf 94 dc be 73 49 d0 bc a7 14 1f 3e 52 66 34 bf
       -0.43082234 -0.025425648 0.15535222 -0.7046863
000390 f0 58 57 3e 44 49 43 be 6f 4a c9 3c c0 7f 0f bd
       0.2103002 -0.19070917 0.024571626 -0.03503394
0003a0 b8 ac 1d bf 69 3e 4e 3e 79 e2 7d be 4f 70 6f be
       -0.6159167 0.20140995 -0.24793424 -0.23382686
0003b0 20 76 b1 3c fd 66 7b bd ad 77 b4 bd 17 30 4b be
       0.021662772 -0.061377514 -0.08811889 -0.19842564
0003c0 7d 49 9b be 5b 6b 2f be b4 75 1c 3e f6 fd fa 3c
       -0.30329505 -0.17130797 0.15279275 0.030638676
0003d0 b3 35 15 bd fc f9 8c bf 7a d5 f8 bd ce 4a 25 bd
       -0.036428165 -1.1013789 -0.121500924 -0.040354542
0003e0 3d 53 ee be 97 f9 56 be f8 57 01 be e2 f3 92 3e
       -0.4654788 -0.20993648 -0.12631214 0.28701693
0003f0 f2 23 9c be ab 40 54 be 3c 9f e0 be 56 e6 bd bd
       -0.30496174 -0.20727794 -0.43871486 -0.09272449

lstm.bias_hh_l0 f4 [512]
000000 34 e3 16 bf 43 2a fd be 64 9e ba be 60 11 18 bf
       -0.58940434 -0.49446306 -0.36448967 -0.5940151
000010 98 0c 93 be 74 dc 29 be 25 4b 33 bf fa ef ba be
       -0.28720546 -0.16588002 -0.70036536 -0.36511213
000020 dc 31 b6 bd 6b ac 19 be 98 86 a0 be 95 51 82 bd
       -0.08896229 -0.15007178 -0.31352687 -0.06363217
000030 3a 1f 02 bf 45 75 15 bf 0a 7e ce be 66 5a a0 bd
       -0.508289 -0.58382064 -0.40330535 -0.07829742
000040 a1 82 b1 be 92 49 95 be 9d 57 86 3d 3e 91 49 be
       -0.34669974 -0.29157692 0.0655968 -0.19684312
000050 44 2a a9 be 1a 75 03 be 6e 91 20 bf 1d 8f 0e bf
       -0.3304006 -0.1283764 -0.6272191 -0.55687124
000060 9d 87 02 bf 29 5a 01 be a7 f1 ab bd 62 be 55 bf
       -0.5098818 -0.1263205 -0.08395701 -0.83493626
000070 32 25 95 be f2 40 04 bf 09 fa 79 be b1 d6 12 be
       -0.2912994 -0.516616 -0.24411787 -0.14339711
000080 0b 29 41 bf 2b b0 c8 be a1 26 46 bf 44 82 d5 be
       -0.7545325 -0.39196905 -0.77402693 -0.41700947
000090 f3 ee e9 bd d1 ba 0c bf a4 87 a6 be 1f 5c b2 be
       -0.11422529 -0.5497256 -0.3252536 -0.34835908
0000a0 7a bc e6 be e0 02 6b be 50 d1 13 bf b6 97 11 bf
       -0.4506567 -0.22950315 -0.5774126 -0.5687212
0000b0 08 3d bb be 2d aa a2 bd 03 98 47 be 0e 3f 9c be
       -0.3657 -0.07942615 -0.19491582 -0.30516857
0000c0 d7 24 76 be 86 46 39 be 07 d8 eb be d0 38 1c bf
       -0.24037491 -0.18093309 -0.46063253 -0.6102419
0000d0 2a ee 10 bf d8 1b f9 be ce 75 06 bf 2b dd bf be
       -0.5661341 -0.48654056 -0.52523506 -0.37473425
0000e0 58 fc a0 be 6d 42 4c be 83 8e 86 be da 43 53 bf
       -0.31442523 -0.19947214 -0.26280603 -0.8252541
0000f0 f3 18 12 bf 74 74 b7 be 27 d1 55 be 3b ce 9e be
       -0.5706932 -0.35831034 -0.20880567 -0.31016716
000100 32 f7 25 be 93 99 a5 be ed 77 b5 be e6 ad f9 be
       -0.16207579 -0.3234373 -0.3544306 -0.48765486
000110 a7 9e 06 be 10 88 37 bf d1 17 ee bd 7c fc 02 bf
       -0.13146459 -0.7169199 -0.11625636 -0.5116651
000120 1f 26 b5 be 90 61 41 3d af 63 80 bd e5 da 62 bd
       -0.35380647 0.047212183 -0.06269013 -0.055384535
000130 58 69 8c be bc 43 22 be fa ba fd be 08 99 2a bf
       -0.2742412 -0.15846151 -0.49556714 -0.6663976
000140 b3 38 18 be 8c db 18 bf 43 14 f1 be 8a eb 02 bf
       -0.14865379 -0.5971 -0.4708577 -0.51140654
000150 bf e7 b7 be 47 9c 38 bf 4f 22 d5 be bb 26 43 be
       -0.35918996 -0.7211346 -0.41627738 -0.19057743
000160 75 88 91 be 9e 67 56 bf 1f a0 bb bd c9 d0 97 be
       -0.2842442 -0.8375186 -0.091614 -0.29651478
000170 ef ee e7 be 91 d8 32 be 9a 7f aa bc 04 55 1c 3c
       -0.4529948 -0.17465426 -0.020812798 0.009541754
000180 c6 e1 28 bf c6 a2 91 be 3a 0b a0 be 22 fd 5b bf
       -0.659695 -0.284445 -0.31258565 -0.85933125
000190 63 bb 56 be ba 9d 31 be 9e 5a c0 be 96 c6 b4 bd
       -0.2096992 -0.17345324 -0.37569135 -0.0882694
0001a0 fa db 34 bf 01 0f 2f bc 53 ce ba be 9c 1f c5 be
       -0.7064816 -0.01068473 -0.36485538 -0.3850068
0001b0 f0 da 86 be 8a 3a 12 be db 0b 19 be c7 4f 26 bf
       -0.2633891 -0.14280143 -0.14945929 -0.6496548
0001c0 88 d3 10 bf d3 ad f6 be 83 e0 2c bd 44 b0 77 bd
       -0.5657277 -0.48179492 -0.0422063 -0.060470834
0001d0 4b 42 72 be 80 6d 32 bf cd b8 63 3d ba ee ba be
       -0.23658101 -0.69698334 0.05559616 -0.3651026
0001e0 9c cd a0 be c3 ad 95 be 5b 9d 3f be f4 f6 0e bd
       -0.31406868 -0.29234132 -0.1871237 -0.03490348
0001f0 d1 de ca be cb c9 e3 be 86 4c 07 bf 6c cb 7e be
       -0.3962312 -0.44489893 -0.5285114 -0.24882287
000200 33 23 1b 40 d5 aa 30 40 53 5d 3a 40 56 6e 24 40
       2.4240234 2.7604268 2.911946 2.5692344
000210 ab 1a 38 40 30 a1 41 40 7a fd 1b 40 4c 7b 2e 40
       2.8766277 3.025463 2.437346 2.7262754
000220 16 73 48 40 2f c6 4a 40 85 23 21 40 a5 dd 48 40
       3.1320243 3.1683462 2.517793 3.138528
000230 5d 0c 2a 40 07 26 25 40 e8 42 4d 40 5a fd 3d 40
       2.6570046 2.580446 3.2072086 2.9685884
000240 c8 fd 2f 40 12 8f 33 40 b8 c4 43 40 8a c7 1f 40
       2.7498646 2.8056073 3.0588818 2.496554
000250 ff c4 3f 40 8f af 40 40 fb 5e 20 40 28 56 13 40
       2.9963987 3.0107152 2.5057971 2.3021336
000260 92 0c 23 40 e6 5a 42 40 c1 23 35 40 72 0e 15 40
       2.5476422 3.036798 2.8303072 2.3290067
000270 9a ab 41 40 e5 67 25 40 05 6b 22 40 94 10 3f 40
       3.0260987 2.5844662 2.537782 2.9853868
000280 d1 a2 1a 40 f5 e1 36 40 d8 a1 19 40 f4 9f 38 40
       2.4161875 2.8575413 2.4005032 2.8847628
000290 45 97 38 40 82 2c 16 40 0a 4e 30 40 be b5 4c 40
       2.8842328 2.3464665 2.7547631 3.1985927
0002a0 ce 5c 29 40 ef 09 40 40 e2 08 21 40 8f 95 33 40
       2.6462893 3.0006063 2.5161672 2.8060033
0002b0 a9 70 29 40 1b a4 56 40 cc b5 3b 40 b2 96 33 40
       2.6475012 3.3537662 2.932971 2.8060727
0002c0 f8 3f 3d 40 b0 6a 2d 40 9c f3 39 40 ba 49 29 40
       2.9570293 2.7096367 2.9054937 2.645125
0002d0 34 6e 36 40 01 ca 4d 40 38 1e 2e 40 35 89 33 40
       2.8504763 3.2154543 2.7205944 2.8052495
0002e0 af 24 33 40 ae 74 3d 40 fe d5 38 40 9d f4 0e 40
       2.799114 2.9602466 2.888061 2.23368
0002f0 50 51 45 40 4e 13 2d 40 52 1d 43 40 be 2b 3a 40
       3.083088 2.7043033 3.0486646 2.9089198
000300 0b b3 32 40 68 94 32 40 29 20 3b 40 5d 29 22 40
       2.792178 2.790308 2.923838 2.5337746
000310 9f 5d 3b 40 f2 96 13 40 d9 c2 4a 40 71 8f 36 40
       2.9275892 2.306088 3.1681426 2.852505
000320 8a 62 42 40 99 80 49 40 f0 f5 3c 40 37 f8 39 40
       3.0372643 3.148474 2.9525108 2.9057748
000330 fd 99 3c 40 b1 b6 40 40 8f 03 27 40 96 48 0f 40
       2.9468987 3.0111506 2.6095922 2.2388053
000340 fa 98 31 40 59 df 1e 40 00 27 2e 40 af de 29 40
       2.774962 2.482382 2.7211304 2.6542165
000350 57 c3 48 40 22 ea 19 40 86 15 26 40 2a 7f 37 40
       3.1369226 2.4049153 2.5950637 2.8671365
000360 e8 9a 3b 40 6a dc 11 40 ef 7c 3f 40 e6 03 34 40
       2.9313297 2.279078 2.9920003 2.812738
000370 fa d6 37 40 8b 1a 2e 40 eb 4b 46 40 93 67 40 40
       2.8724961 2.72037 3.0983837 3.0063217
000380 72 83 29 40 12 5c 3c 40 1d 42 47 40 74 a8 0f 40
       2.6486478 2.9431195 3.1134102 2.2446566
000390 79 81 4c 40 bd 55 35 40 d5 b2 43 40 77 42 3b 40
       3.1954024 2.833358 3.05779 2.9259317
0003a0 30 e0 1c 40 df 7f 48 40 a9 8f 2d 40 1f 03 2d 40
       2.4511833 3.1328046 2.7118933 2.7033155
0003b0 5b 84 3e 40 89 15 3a 40 b8 c4 39 40 56 9c 34 40
       2.9768283 2.9075644 2.9026318 2.822042
0003c0 cd 4b 31 40 73 51 33 40 46 75 44 40 f7 61 3e 40
       2.7702515 2.8018463 3.0696578 2.9747293
0003d0 eb e4 39 40 4a a0 fd 3f 16 5b 36 40 4c 17 3b 40
       2.904597 1.9814541 2.8493094 2.923297
0003e0 cb b9 26 40 83 31 2f 40 5a e4 38 40 02 b9 4c 40
       2.60509 2.737397 2.8889375 3.198792
0003f0 8a b4 2a 40 a6 5b 32 40 9e 00 24 40 7e 81 39 40
       2.6672692 2.7868438 2.5625377 2.8985286

head.net.0.weight f4 [1, 128]
000000 9e 70 70 be 21 b6 f4 3c 8f d1 af 3c 09 7e 2f bd
       -0.2348046 0.029872002 0.02146223 -0.042844806
000010 84 d5 e1 3a e3 7a cd ba 0d c2 82 be 82 32 99 bd
       0.001722977 -0.0015676882 -0.25538674 -0.07480337
000020 45 71 74 ba 70 e1 74 3c be f4 96 ba d0 2c 23 3c
       -0.000932474 0.014946327 -0.0011517031 0.009959415
000030 ac 96 ed bc 37 e4 4e 3d 9b 7e 89 3a 7d a4 99 3a
       -0.02900251 0.05051061 0.0010490002 0.0011721995
000040 06 ec 0f 3d 16 b8 14 3d 3f 6f b4 3a 86 d4 c6 3d
       0.0351372 0.03630837 0.0013766064 0.097085044
000050 df 79 18 3b 5c de 53 3b 21 e3 5e 3e e9 31 90 be
       0.0023266 0.0032328581 0.2176633 -0.28163078
000060 55 8f 53 be 8a 11 de ba 44 c0 0b ba a6 86 00 bf
       -0.20660146 -0.0016942483 -0.0005331079 -0.5020546
000070 df a8 06 3b c6 1f 5f bb 49 b8 28 3d 9e e6 60 bd
       0.0020547432 -0.0034046038 0.041191373 -0.054907434
000080 f3 06 35 3f 12 60 0a 3e 28 5b 04 bf ff 65 af bc
       0.7071373 0.1351321 -0.51701593 -0.02141094
000090 06 53 6b 3b c9 30 36 3f d5 89 ef 3b de e3 4a 3a
       0.003590764 0.7116819 0.007310132 0.00077396433
0000a0 7d 21 7e bb 3b 76 33 3c 77 ce 62 3e 36 60 b3 3c
       -0.0038777285 0.010953481 0.22149073 0.021896463
0000b0 bf 0b 29 3c f7 a6 0f bc cd 6d 3f 3b e7 04 07 bb
       0.010317742 -0.008767835 0.0029209733 -0.0020602287
0000c0 0f 4c a8 3b 94 4e 1a 3d 14 3e 4e 3c 6a be 9d 3b
       0.00513602 0.037672594 0.012588043 0.004813959
0000d0 fb 85 16 b9 d3 ff 86 bb bc 34 6c be 0e bf 07 bc
       -0.00014355026 -0.004119852 -0.23066992 -0.008285297
0000e0 e9 40 55 bb 01 53 25 bb b4 99 20 3a 19 6b 04 c0
       -0.003253991 -0.0025226476 0.0006126419 -2.0690367
0000f0 2c 49 8f bb 7f 68 3f bd 2b 93 0a 3b e0 b5 53 bc
       -0.0043727364 -0.046730515 0.0021144848 -0.01292178
000100 d9 77 9a bc 38 7a 06 3b 5e 40 07 bb 18 4d 33 bd
       -0.018855976 0.0020519625 -0.002063773 -0.043774694
000110 0a 88 22 3b e2 d1 6a 3f 5c b3 4b 3c 97 1c 87 3c
       0.0024800324 0.91726506 0.012432899 0.016493125
000120 df f7 c7 3a 66 ac 45 bb c4 dc a9 3c d5 c5 97 bc
       0.0015256366 -0.0030162572 0.020735152 -0.01852695
000130 7c 2d 7c 3a 56 0a 2d bb 1f e8 b2 bd 12 44 b2 3e
       0.0009619815 -0.0026403866 -0.0873568 0.3481756
000140 30 45 12 bc c8 78 29 3e 55 e2 a7 bb f6 24 99 bb
       -0.008927628 0.1654998 -0.0051234164 -0.0046735955
000150 56 48 da ba 76 5e 4e be a8 d9 63 bd 8c de 04 38
       -0.0016653638 -0.20153221 -0.055627495 3.1678515e-05
000160 c2 24 18 bc c7 63 b5 bf db 17 1e 3b 76 65 76 bd
       -0.0092861075 -1.4171075 0.0024123106 -0.060155354
000170 d3 40 72 bb 11 89 ae 3b 03 a7 60 3a e4 78 c5 bc
       -0.0036964908 0.005326398 0.00085698086 -0.024105497
000180 6a d4 d9 3d 99 60 ef 3b 7c 7e 8b 3b 16 4a e0 3f
       0.10636218 0.0073052165 0.0042570215 1.7522609
000190 bf b6 3d bc 51 5f aa 3d e3 cc 94 3b aa 4f 4c 3d
       -0.011579215 0.083189614 0.004541026 0.04988066
0001a0 dd b7 d9 bf d1 6c 2c 3b d2 14 c6 3a 9a db ae ba
       -1.7009236 0.0026309977 0.0015112406 -0.0013340593
0001b0 5f 94 39 3a 3f 52 01 3a 88 4f b6 ba 6c dd a6 bb
       0.0007079299 0.0004933215 -0.00139092 -0.0050923135
0001c0 fb f0 0b bc f9 4b 21 3b 62 9f a5 bb 41 92 16 3b
       -0.008541341 0.0024611934 -0.0050544003 0.0022975358
0001d0 b3 ba fc bb 44 3e 35 bf 8c 28 dd ba 62 1a 53 b9
       -0.007712686 -0.70798135 -0.0016873046 -0.00020132356
0001e0 28 76 82 bc 1c ad 1f 3e 4d be 5b bc 10 73 7f bd
       -0.015925482 0.1559338 -0.01341207 -0.06236559
0001f0 01 07 cb 3d e8 5e 5a bc 63 8f a2 3e 12 f1 72 ba
       0.09913445 -0.0133282915 0.3175002 -0.00092674897
