examples/catchment_models/training/runs/usa_basin_split_2404_020225/model_epoch018.pt (torch, 316229 bytes, 5 tensors)

lstm.weight_ih_l0 f4 [512, 23]
000000 ad 68 8d 3c cf a9 3a 3e c2 5a 91 bc 90 dd 0d be
       0.017261827 0.1822884 -0.017743472 -0.1385405
000010 98 e9 23 bd d3 82 32 3f c3 4f fe 3e d5 83 70 be
       -0.040017694 0.6973087 0.49670228 -0.2348779
000020 1e 0d 21 3f a0 a9 0a bd 77 07 07 bf 02 f1 91 3e
       0.6291064 -0.033853173 -0.52745765 0.28504187
000030 56 e6 70 bc ef 74 de be 1c 3b 4b be 5b 0e 13 3f
       -0.014703354 -0.43448588 -0.19846767 0.5744378
000040 b1 97 83 3e fb 1b b2 3e 85 2f 72 be 82 3f 7f 3e
       0.2570167 0.34786972 -0.2365094 0.2492657
000050 37 14 d6 3e 68 87 e3 3e ad 08 2d 3d 40 c1 eb 3c
       0.41812298 0.44439244 0.042244602 0.028778672
000060 f0 ef bb 3e a2 8b 5a be f2 55 37 be 90 60 1c 3e
       0.36706495 -0.21342328 -0.1790388 0.1527121
000070 21 b9 b2 3e e2 4c e6 3e fd 4e a1 3d 99 c0 23 3f
       0.34906867 0.44980532 0.07876394 0.63965756
000080 e3 dc 00 bc 38 b3 c9 be 33 95 f7 3e f9 1e a7 3d
       -0.0078651635 -0.39394546 0.48356017 0.081602044
000090 8f 5d e9 be df c9 67 be af d9 2a 3f 80 8f ae 3e
       -0.45579192 -0.22635601 0.6673841 0.34093857
0000a0 1a 5c f7 3e 49 9c 6c be 14 e9 01 3e ea 8e e6 3e
       0.48312455 -0.23106493 0.12686568 0.4503091
0000b0 d5 6f b3 3e de c3 be 3d de 2d 4c 3e ac 10 60 3d
       0.3504626 0.093147025 0.19939372 0.0547034
0000c0 fa f3 4f 3d 8f 94 64 3d ef bc 29 3d a1 2f 5b 3e
       0.050769784 0.05580574 0.041439947 0.21404888
0000d0 36 c1 d8 3c 5e 25 49 be 23 5a 3e bc 5e c6 79 3e
       0.026459318 -0.1964316 -0.01161817 0.24392077
0000e0 1a cf 7f be 48 90 b1 3e c7 85 21 be 64 39 97 be
       -0.24981347 0.3468039 -0.15773688 -0.29535973
0000f0 69 e7 9d be 58 3c 0a 3d 1d 23 6e 3e 18 ee 6b 3e
       -0.30840614 0.033748955 0.23255582 0.23040044
000100 5f 13 d8 be a4 68 c8 3e 0f dc 96 3e 5f 37 9d 3e
       -0.4220228 0.39142334 0.29464766 0.30706307
000110 4c f8 b1 be 96 46 86 3d 5c 91 e8 3e 41 1f 83 be
       -0.34759748 0.06556432 0.454234 -0.25609782
000120 f9 02 2e be 69 51 49 be 24 63 a7 3e e3 6f 35 3f
       -0.16993321 -0.19659962 0.32692826 0.7087385
000130 bf b2 8a 3d 1f f2 28 3f 44 bc b2 3d 1e 1e bb be
       0.06772374 0.6599445 0.08727315 -0.36546415
000140 c0 3d 92 3e d8 46 b4 bd 80 63 e8 be 2a f1 0e be
       0.28562737 -0.08802575 -0.45388412 -0.13959184
000150 75 4d f0 3e 76 00 b7 3e e2 b3 cc 3e 70 64 94 be
       0.46934095 0.3574254 0.3998099 -0.28982878
000160 b5 7b 82 3e 69 97 b8 3e 44 33 03 3f be 62 60 3e
       0.25485006 0.36053017 0.512501 0.21912667
000170 c9 2f 8d 3e 7e 68 bc 3d a3 83 34 3e c4 f6 36 bd
       0.2757552 0.09199618 0.1762834 -0.044668928
000180 f1 d9 43 3e c8 ae 0e 3e a3 44 74 3e 86 19 36 3e
       0.19126107 0.13933861 0.23854308 0.17783174
000190 0d 09 9b 3e ba 9c 5b bf b8 51 c9 3d 0d f5 59 bf
       0.30280343 -0.8578602 0.0983004 -0.8513954
0001a0 b2 05 e4 bd 30 f9 51 3e 72 72 b8 3e 7c c2 8c 3e
       -0.11133899 0.20505214 0.36024815 0.2749213
0001b0 1c b3 99 3d 9c d7 28 3e f2 01 27 be f7 9e 8a 3d
       0.075048655 0.16488498 -0.16309336 0.067686014
0001c0 30 77 9a bd 16 47 57 be eb 59 3f 3e a1 fd 88 3f
       -0.075422645 -0.21023211 0.18686645 1.0702401
0001d0 cb 5f 32 3e 8d dd 9d 3e 18 12 9d 3e 12 a0 10 3f
       0.17419355 0.30833092 0.30677867 0.5649425
0001e0 78 28 1c 3e 67 f8 91 be 37 83 09 3e 9d dc 87 be
       0.15249813 -0.28509828 0.1342896 -0.26535502
0001f0 c2 af 80 3d 27 8d df bd 2f e1 e5 bc 9a b0 ec be
       0.06283523 -0.109155945 -0.028061477 -0.46228486
000200 81 7d a0 3e ef ff 88 bb 9e ba d9 be a7 65 9e bd
       0.31345752 -0.0041809003 -0.4252519 -0.077342324
000210 b3 9f be be 0d 4f fe bd e6 97 81 ba db d2 ca bd
       -0.37231216 -0.124174215 -0.0009887188 -0.09903499
000220 89 fd 93 be 6b 77 a1 bd 69 9f 38 3d df 68 48 3e
       -0.2890437 -0.07884105 0.0450739 0.19571255
000230 25 f4 f6 3d 02 d7 ea bc b6 43 36 bc f2 70 2a 3f
       0.120582856 -0.028666977 -0.011124542 0.6657859
000240 d7 fa 46 3f 83 f5 43 be 5c 18 39 3f 1b 60 09 be
       0.777265 -0.19136624 0.72302794 -0.13415568
000250 8a 83 d3 be 49 49 c6 3d 6b 3e a7 bd 8f 0f a9 be
       -0.41311294 0.09681947 -0.08166202 -0.33019683
000260 90 19 c5 3c 7b 6f 2c 3f 18 03 b1 3e c4 8f d1 3e
       0.02406004 0.67357606 0.34572673 0.40929997
000270 77 86 e4 be a3 d0 9a 3e cc f3 3b 3e bb 5f 10 3f
       -0.4463384 0.30237302 0.1835472 0.56396073
000280 df 83 2f 3e f2 f7 2c 3f 14 54 76 bd bc b1 2e be
       0.17140149 0.67565835 -0.060138777 -0.17059988
000290 b0 70 b7 be e2 4d 08 3f cc ca d8 3e 7f 25 75 3e
       -0.3582816 0.5324384 0.42342222 0.23940085
0002a0 5b 03 eb bd 70 b3 93 3e bc 30 5c 3e 63 5e b4 be
       -0.114752494 0.28847837 0.21502966 -0.3522826
0002b0 fa 06 06 3e d1 f2 66 3f d9 ed a3 be f3 94 3b be
       0.13088599 0.9021426 -0.320174 -0.18318538
0002c0 20 2d 32 be 20 f0 53 3e a5 bf ab 3e d5 81 c5 be
       -0.17400026 0.20697069 0.3354465 -0.38575616
0002d0 ed 77 a0 3e 7b 76 9a 3e ca f4 d2 3e 21 82 8a bc
       0.31341496 0.30168518 0.41202384 -0.016907753
0002e0 43 7a 1c be d0 cd ad be 9e f8 09 3f 8c 57 11 3f
       -0.15281014 -0.33946085 0.53894985 0.5677421
0002f0 7a c3 90 3d 71 0f 83 3d d1 6a 74 3d 0c 2e e9 bd
       0.07068534 0.063994296 0.05967218 -0.11385736
000300 2a 36 ec bd 6d 4e 24 3e bf a0 18 3e d5 36 29 3e
       -0.115337685 0.16045542 0.1490507 0.16524823
000310 df bc da bc 7b 64 3a be c0 8d 48 bd 36 c9 bb bd
       -0.026701389 -0.18202393 -0.04896331 -0.09169237
000320 29 af 0d bd e6 08 b0 3d 5b 24 7b be ea 79 c3 3d
       -0.034590874 0.08595447 -0.24525587 0.09544738
000330 16 51 29 bd 66 64 48 3e e0 c0 6a be 94 a4 34 bd
       -0.041337095 0.19569549 -0.22925138 -0.044102266
000340 e9 f9 a2 bd 80 e5 93 bd 61 e5 83 be 7b 3b 9a 3e
       -0.07957823 -0.07221508 -0.2576094 0.30123505
000350 3e 41 98 3e 3a 1d b3 bd 5d 44 11 be 0a 8b 94 be
       0.29737276 -0.08745809 -0.14186235 -0.29012328
000360 11 30 76 3d 8e e7 cc be 72 d1 05 be bd c9 29 be
       0.060104433 -0.40020412 -0.13068178 -0.16580863
000370 02 4d 86 bd f8 94 ba bd ed bd 1d be 2e ec ac bd
       -0.06557657 -0.09110445 -0.15404482 -0.08443485
000380 77 fa 85 bd 9b 25 3c be 33 7c 7d 3d 80 18 63 3d
       -0.06541913 -0.1837372 0.061886024 0.055443287
000390 bb 39 0d 3e 08 48 85 be b2 93 12 3e 67 b7 91 bd
       0.13791554 -0.26031518 0.14314154 -0.07115059
0003a0 b8 32 02 3e 97 ec a9 3e 27 ed 19 3f 9a 1c 28 3e
       0.1271466 0.33188316 0.6012749 0.1641716
0003b0 9a b3 60 3e a1 1b a0 3e 58 6a 34 3d 53 22 f0 bc
       0.21943513 0.3127108 0.04404673 -0.029313242
0003c0 76 4f e3 3d fb f3 66 be 99 c5 83 be 09 52 87 3d
       0.1109914 -0.22554009 -0.25736693 0.06607444
0003d0 2a 7b 52 3e 25 61 8d 3e 57 82 7b bd f4 21 53 3d
       0.20554796 0.27613178 -0.0614036 0.051546052
0003e0 21 90 3d be 98 b0 cd 3d e3 ff b8 3e fb a7 34 bd
       -0.18512012 0.10043448 0.36132726 -0.04410551
0003f0 37 16 46 3e f3 fa 35 3e f1 8e e4 3e d0 3c 1f bf
       0.19344412 0.17771511 0.44640306 -0.6220217

lstm.weight_hh_l0 f4 [512, 128]
000000 5e f3 d0 3e d8 48 ab bd 88 d4 b1 be 1f 28 6c 3e
       0.40810674 -0.08363503 -0.3473246 0.2306218
000010 cb 24 95 3e 3c 96 0a bf f3 d7 52 3d 4e b1 d6 bd
       0.29129633 -0.5413549 0.051475476 -0.10483037
000020 4d 09 03 3f 38 b9 61 be 9d 55 be 3e c9 04 63 be
       0.51186067 -0.22043312 0.37174693 -0.22169794
000030 80 6e d2 be 22 f8 93 3d ae 36 2f be 76 9c 15 3f
       -0.4109993 0.07225062 -0.17110702 0.58441865
000040 8d 6c 82 bc 36 67 83 3c 68 16 b2 3e b9 4b 05 be
       -0.015920902 0.016040426 0.3478272 -0.13017167
000050 07 2b 6a be 41 75 c1 3e 42 9a a3 be cf ca 8c bd
       -0.22867976 0.3778477 -0.31953627 -0.0687462
000060 12 a9 a2 3d df 5e 8e be 8f e8 ec be 54 be a8 3d
       0.07942404 -0.27806756 -0.46271178 0.08239427
000070 7c c8 f1 3e 59 60 db be c3 b4 4a be ac 6c ce 3e
       0.4722327 -0.42846945 -0.19795518 0.40317285
000080 90 4c 98 3d 9d 6e 82 bc b9 1d 4d 3d 40 66 9c be
       0.07436478 -0.015921885 0.050077174 -0.3054676
000090 bd db cc be 79 53 78 bd d4 2e f4 3d ba a6 d8 3c
       -0.40011397 -0.06062648 0.11922994 0.026446689
0000a0 d0 f4 3d be 57 9f 20 3e 59 d1 44 be d9 4b 36 be
       -0.1855042 0.15685783 -0.19220485 -0.17802371
0000b0 d4 19 a1 be da b1 cd bd a7 72 8d be fc a3 61 be
       -0.31465018 -0.10043688 -0.27626535 -0.22035211
0000c0 f9 b6 b3 be b3 0a 35 3e ab aa fb bd dc 3c 1d be
       -0.35100535 0.17679863 -0.12288412 -0.15355247
0000d0 86 6b 6e be c4 94 61 3e 82 c0 4d bd 1d bf 9c be
       -0.23283204 0.22029406 -0.050232418 -0.30614558
0000e0 48 06 dc 3e 6b 02 16 3e fd ba f9 be 92 21 89 bc
       0.42973542 0.1464936 -0.48775473 -0.01673964
0000f0 d0 64 91 bd f4 a4 14 bf 5f 43 a5 be 80 0b ee be
       -0.070993066 -0.580642 -0.32277963 -0.4649315
000100 81 55 4e 3e 44 e8 49 3d a3 ec 06 bf f5 f3 9b be
       0.20149805 0.04929377 -0.5270483 -0.30459562
000110 df 45 2b be ab 52 4c bd 88 8c 9c bd ec 46 81 3d
       -0.16725872 -0.049883526 -0.07643992 0.063123554
000120 6a dc bb 3e b1 e7 e2 3d e6 03 92 3e 13 f0 53 3e
       0.366916 0.11079348 0.285186 0.2069705
000130 6f 1b bc 3e c5 77 f2 be fb 0f 80 3d 76 6c 37 3a
       0.3673968 -0.47357002 0.06253048 0.0006997058
000140 b2 0d d1 be b6 c9 a3 be c8 bb 5e 3e ab 3a 37 be
       -0.4083076 -0.3198983 0.2175132 -0.17893474
000150 89 cb e5 be 19 ef 3b 3e 29 8a 44 bd b6 b9 67 3e
       -0.44881848 0.18352927 -0.047983322 0.22629437
000160 14 19 36 3e ed 82 e4 bd 6b 79 55 be 7f 90 4a 3d
       0.17783004 -0.111577846 -0.20847099 0.04945421
000170 2d dd 96 3e 07 61 23 be 3d e7 c2 be 44 84 9d 3e
       0.2946562 -0.15954982 -0.38067046 0.30764973
000180 b5 5b 1b 3d 5d 37 e3 3d be 3b fa 3e 7d 57 43 3e
       0.037929256 0.11094544 0.48873705 0.19076343
000190 48 a9 4c 3e 31 4b 4e 3e b1 94 a9 be c7 37 03 be
       0.1998645 0.20145871 -0.33121255 -0.12814246
0001a0 75 52 02 3d b8 df d8 be 02 7b 41 3f 4d 1a 9c bd
       0.03181692 -0.42358184 0.7557832 -0.07622204
0001b0 e2 71 3e be aa 76 13 3e a8 d1 da be 7f 35 f4 3d
       -0.1859813 0.14400735 -0.4273808 0.11924266
0001c0 65 c5 37 bd 72 52 14 3d ba dd 32 bf 24 7b f8 3e
       -0.044865984 0.03621144 -0.6986958 0.4853145
0001d0 af fb 63 3e fd 99 2f bd 8c 91 bf 3e 6e f3 d5 3e
       0.22263978 -0.042871464 0.3741573 0.41787285
0001e0 6c d9 d1 3d bf 83 ca bc ee a3 89 be 9a 15 33 bd
       0.10246548 -0.024721025 -0.2688288 -0.043721773
0001f0 93 a2 76 3e b7 b6 55 3e ee 3a 72 bd 95 85 af be
       0.24085455 0.20870481 -0.05913823 -0.34281603
000200 2a 5b 54 be 51 f6 b1 3e 2c 7c 49 be 19 e6 26 3b
       -0.20737901 0.34758237 -0.19676274 0.0025466739
000210 38 ef 4d bd b4 c5 c5 be bb 4f 8b bd 3e 39 e3 be
       -0.050276965 -0.38627398 -0.06802317 -0.4437961
000220 1b e0 e6 3e c7 f9 13 bd 3f cf 19 3f 9b a9 a6 3e
       0.45092854 -0.036126878 0.6008186 0.32551274
000230 b7 4a c3 be e5 33 46 be 3f d0 40 bd 0f 01 e8 3e
       -0.3814294 -0.19355734 -0.0470736 0.45313308
000240 35 6f 08 3e c3 13 2b 3d 1d c2 2d bd 40 2e 61 3e
       0.13323672 0.041766893 -0.04242145 0.21990299
000250 fe ff 90 be e2 d6 ce 3e 91 ce 9b 3e aa 50 46 bd
       -0.28320307 0.40398318 0.30431035 -0.04841677
000260 1d 07 15 be 33 3b a5 be 4a fd 0f bf fa 9e c5 bd
       -0.14553495 -0.32271728 -0.56245863 -0.09649463
000270 50 2f 08 3f c9 e8 5b be 32 16 cc 3d 6d 58 8c be
       0.53197193 -0.21475519 0.09965171 -0.27411214
000280 fa 9b 03 3e 83 3e 0a 3e 0a ed e0 bd d0 19 02 bf
       0.12852469 0.13500409 -0.109827116 -0.50820637
000290 9d b7 ff be 44 27 57 3d 2f b2 9c 3e c1 ac 9c be
       -0.49944773 0.05252768 0.30604693 -0.3060055
0002a0 9c 86 ff bd 98 b5 a9 3e 0d ca 97 3c c1 28 8e be
       -0.124768466 0.33146358 0.018528963 -0.27765468
0002b0 2c 67 96 be cd 9d b0 3d 70 d5 23 bf 2b 8a c4 bd
       -0.2937559 0.08623848 -0.63997555 -0.09596666
0002c0 5c 9c 03 bf e4 c3 ca 3e a7 95 2b bd 60 54 84 3c
       -0.5141046 0.39602578 -0.041890766 0.016153514
0002d0 0b 73 80 be 77 f2 28 3e 75 1b a0 be bc f7 03 be
       -0.2508777 0.16498743 -0.31270948 -0.12887472
0002e0 ef e2 fd 3e 12 e3 aa be ef 31 cb be 25 67 25 be
       0.495872 -0.33376366 -0.39686534 -0.16152628
0002f0 79 1d 69 be 0c 7a 96 be 64 90 40 be 06 70 c2 be
       -0.22765149 -0.2938999 -0.1880508 -0.37976092
000300 be db 48 3e f7 6e b7 3e b8 bf f4 be e5 41 8e be
       0.19615075 0.35826847 -0.4780252 -0.2778465
000310 c9 09 b5 be 3e 2a 51 3e 0e 82 b3 be 31 a6 54 3e
       -0.35359028 0.2042627 -0.3506016 0.20766522
000320 63 a4 6f 3e f7 5b 21 3d ef 63 2a 3e 73 84 29 3e
       0.23402552 0.039394345 0.16639684 0.16554432
000330 e5 65 84 bd c7 f7 a9 be f8 13 5f be 5d fd fb 3d
       -0.06464747 -0.33196852 -0.21784961 0.123041846
000340 ed b5 aa be 70 df 45 3e 29 ba 1a 3e 0d ee 21 be
       -0.33341923 0.19323516 0.15110077 -0.15813465
000350 aa dd c3 be 63 54 87 be d8 c5 54 be 75 0f 36 3e
       -0.38255054 -0.2643157 -0.20778596 0.17779334
000360 04 78 67 3e 46 d9 4b bd 66 dd 32 be aa 5b d0 bd
       0.22604376 -0.049767755 -0.1746727 -0.101737335
000370 3d d6 e3 3e b7 79 28 bb 75 d1 03 bf 76 7e 8f 3e
       0.44499388 -0.0025707313 -0.5149148 0.2802617
000380 a3 f0 99 3e 2a 6d 3d 3e af 5f ba 3e ac 76 ae 3d
       0.30066404 0.18498674 0.36401126 0.085187286
000390 61 ba 06 3e ef 8a 96 3e 81 ad 5b be cb 6a 26 bd
       0.13157035 0.29402873 -0.21452905 -0.04062919
0003a0 9c a3 3d bd ad 5e 09 bf 82 85 35 3f f3 da 03 3e
       -0.04629861 -0.5366009 0.7090684 0.12876491
0003b0 72 e5 f5 be d5 c1 05 3e b1 02 f3 be ce 2b 87 bd
       -0.48026615 0.13062222 -0.4746299 -0.06600152
0003c0 80 d2 2f bd e0 db 92 bd f1 6f 99 be 2a e0 a3 3e
       -0.042925358 -0.07170844 -0.29968217 0.3200696
0003d0 c9 32 9a 3d 2c 9f a0 bd 70 ed a3 3e ec b4 1d 3d
       0.07529218 -0.078428596 0.32017088 0.03850262
0003e0 c6 5c bb be 42 3c 5b 3e c3 10 8d 3e 69 4e 86 bd
       -0.36594218 0.21409705 0.2755185 -0.06557924
0003f0 e7 76 43 3e d5 fe 31 3e 9b 1c b6 3a e7 f0 da bd
       0.19088326 0.17382367 0.0013894023 -0.1069048

lstm.bias_ih_l0 f4 [512]
000000 09 38 03 bf 40 e8 d0 be 6d bb 81 be ae 1d ee be
       -0.5125738 -0.40802193 -0.25338307 -0.4650702
000010 4a 5b 07 be 3a 2c 06 be 38 20 17 bf 9d b6 ea be
       -0.13218418 -0.13102809 -0.59033537 -0.45842448
000020 42 56 d3 bd 1d 2d 3d bd 1d 0f 3d be d1 57 e9 bc
       -0.10319187 -0.0461856 -0.18462797 -0.028484257
000030 c0 fb bc be eb ff 22 bf 9c 23 ca be c5 f7 75 bd
       -0.3691082 -0.6367175 -0.39480293 -0.060050745
000040 8a 50 be be 19 ef b3 be 4a 3f 92 3d 60 ae db bd
       -0.3717082 -0.35143355 0.07140978 -0.10726619
000050 c8 6c 20 be 3c 43 ec bd 08 ed 05 bf cb e6 16 bf
       -0.15666497 -0.115362614 -0.52314806 -0.5894591
000060 39 4c e9 be 9d 98 64 bd 01 be 15 bd ac 1c 52 bf
       -0.45565966 -0.055809606 -0.036558155 -0.82075
000070 c2 7a 66 be cf 7d fd be 34 a5 89 be a5 65 fc bd
       -0.22507766 -0.49510047 -0.26883852 -0.12324075
000080 b7 33 5c bf 69 e7 bf be ad da 32 bf e9 38 c4 be
       -0.8601641 -0.3748124 -0.6986492 -0.3832467
000090 ec 69 41 be 04 2c 08 bf 98 10 5e be 99 77 72 be
       -0.18888062 -0.5319216 -0.21686018 -0.23678435
0000a0 cf ed f6 be 47 16 5e be 97 60 1a bf 71 88 19 bf
       -0.4822831 -0.21688186 -0.60303634 -0.5997382
0000b0 50 89 9c be 57 6e ae bd 51 2d 12 be 04 df c2 be
       -0.3057351 -0.085171394 -0.142751 -0.38060772
0000c0 cf 67 85 be 6a b6 10 be 57 84 f4 be d5 ad 0d bf
       -0.26055762 -0.14132085 -0.47757217 -0.5534337
0000d0 ac 18 05 bf 45 b6 f2 be c2 72 d2 be f7 3d 82 be
       -0.5199077 -0.47404686 -0.41103178 -0.254379
0000e0 2f 2a a3 be 2f 23 57 be ff b2 b4 be 85 d9 64 bf
       -0.3186812 -0.21009515 -0.35292813 -0.8939441
0000f0 78 43 b3 be 17 df 75 be 3b cc 91 bd 32 ca a9 be
       -0.35012412 -0.24010883 -0.07119032 -0.33162075
000100 41 d3 66 be 66 67 be be 4c ee d3 be 7d b1 1b bf
       -0.22541524 -0.37188262 -0.41392744 -0.608177
000110 2c 2a 57 bd ee 21 22 bf f0 0f 23 be 57 40 c4 be
       -0.052530453 -0.6333302 -0.15924048 -0.38330337
000120 32 bd ec be 8f 9d dc 3d 29 90 cc bd 0d d9 90 bd
       -0.46238095 0.107722394 -0.09988434 -0.07072649
000130 4c 4d b0 be ab b5 e6 bd 74 93 1b bf 0e ba 25 bf
       -0.34433973 -0.11265119 -0.6077187 -0.6473702
000140 d8 15 07 be 5d 56 ed be ef dd ca be 1f 16 02 bf
       -0.13191926 -0.46354952 -0.39622447 -0.50815004
000150 56 05 b0 be 03 27 25 bf 63 2a d9 be 32 7d 2a be
       -0.3437907 -0.6451265 -0.4241515 -0.1664932
000160 ed 24 ba be 7e d6 3f bf 06 e3 b6 bb 61 19 85 be
       -0.36356297 -0.74936664 -0.0055812625 -0.25995925
000170 00 fb dd be b2 c4 54 be a8 c2 9f bd f2 c8 2f bd
       -0.4335556 -0.20778158 -0.078007996 -0.042916246
000180 fb ce 0c bf 62 62 c2 be 82 94 79 be 46 a7 44 bf
       -0.5500333 -0.37965685 -0.24373057 -0.7681774
000190 92 aa e0 bd b7 ea a2 be 92 f5 b3 be 3a 0d 03 be
       -0.10970034 -0.31819698 -0.35148293 -0.12798014
0001a0 98 d3 34 bf b3 bc 6b bd ff d6 9a be 08 71 e3 be
       -0.70635366 -0.057553004 -0.30242154 -0.44422174
0001b0 ae a0 9f be 41 84 89 bd 04 b1 44 be 9f 49 1c bf
       -0.31177276 -0.067146786 -0.19208151 -0.61049837
0001c0 f8 fb 21 bf fd 0b f7 be ae 48 80 bd 59 97 89 bd
       -0.632751 -0.48251334 -0.062638626 -0.067183204
0001d0 50 1d 81 be 88 86 3e bf f8 6c a6 3d fb d8 a3 be
       -0.25217676 -0.7442403 0.08126253 -0.3200148
0001e0 fb 54 98 be 9b 31 52 be 05 1c 5f be 3e e3 2f 3d
       -0.29752335 -0.20526735 -0.21788032 0.042941324
0001f0 9c 4c 05 bf 5d 5b d9 be 09 7a b7 be 08 41 3f be
       -0.5207002 -0.42452517 -0.35835293 -0.18677151
000200 40 44 0d bf ca 80 5e be 29 2b 80 bd 8f 8e 0c bf
       -0.55182266 -0.21728817 -0.06258232 -0.5490503
000210 b4 db 0a be 3a bd 5b 3c db 33 13 bf 47 ef 54 be
       -0.13560373 0.013411814 -0.57501 -0.20794402
000220 78 a2 2c 3e 5e d1 39 3e 59 19 07 bf a4 57 0d 3e
       0.16858852 0.18146273 -0.5277305 0.13802963
000230 fe 28 90 be 39 85 e3 be 18 52 1a 3e 3c 95 58 3c
       -0.28156275 -0.44437578 0.15070379 0.013219174
000240 89 35 44 be 83 32 7b be 96 38 01 3e f2 37 f3 be
       -0.19161047 -0.24530987 0.12619242 -0.4750362
000250 54 75 ad 3c 3d 14 dc 3b 23 76 cd be d8 45 18 bf
       0.02117411 0.00671628 -0.40129194 -0.59481573
000260 2b f3 f3 be d0 b3 c1 3d 23 71 29 be 9f 12 23 bf
       -0.4764646 0.09458125 -0.16547064 -0.6370029
000270 9c 61 a6 3c 1e 33 a7 be cc fb cb be 6a 4b 7b 3d
       0.020310216 -0.32656187 -0.39840543 0.061351217
000280 d1 c3 22 bf db 8c 16 be 27 39 11 bf b8 91 a5 bd
       -0.6358004 -0.1470217 -0.5672783 -0.08084434
000290 39 bb cd bb 47 eb 0d bf 8f 92 32 be b2 62 81 3e
       -0.006278422 -0.5543713 -0.1743872 0.2527061
0002a0 fd 88 a2 be 30 11 a4 bc 58 e0 0b bf d2 a0 0d be
       -0.3174514 -0.020027727 -0.54639196 -0.1383088
0002b0 bf 02 b0 be b9 26 b3 3e 1b 2d 8c bc 31 fd 28 be
       -0.34377095 0.3499048 -0.017111352 -0.16502835
0002c0 d1 70 7f bd 8c 81 7e be ef a9 1d be 0f 7d 8b be
       -0.06236345 -0.24854106 -0.15396856 -0.2724385
0002d0 19 33 10 be 5e 75 85 3e cb ad af be c2 30 84 be
       -0.14081992 0.26066107 -0.3431228 -0.2581845
0002e0 3a fd ee bd 4f fc a0 3c 3b 7b da bd 20 a1 49 bf
       -0.11669393 0.01965156 -0.106680356 -0.7876148
0002f0 4c 85 34 bc 1c d1 6f be f5 2a a9 3d f9 ec 88 bd
       -0.011018109 -0.23419613 0.082601465 -0.06685824
000300 2c 0e e5 bd c2 e4 9d be 15 4a 85 bd 00 8b be be
       -0.11184344 -0.3083859 -0.06508271 -0.37215424
000310 28 67 86 bb d8 1d 2a bf cd d0 4a 3e bd ac 65 be
       -0.0041016527 -0.6645179 0.19806214 -0.22429176
000320 a4 cf 48 bd a0 94 4d 3e bf 06 b4 bd 0c 76 18 be
       -0.049026147 0.20076227 -0.08790349 -0.14888781
000330 23 ac 7e bc 06 c1 35 3d 5b f5 c0 be 31 b6 2f bf
       -0.01554397 0.044373535 -0.3768719 -0.6863738
000340 58 b0 79 be 18 af d2 be b9 dd 50 be d7 b2 93 be
       -0.24383676 -0.4114921 -0.2039708 -0.2884738
000350 0e 09 1a 3e 8b 0b 0d bf 89 a6 c9 be ca e6 07 be
       0.15042517 -0.5509574 -0.3938487 -0.13271633
000360 7c a9 9f bd cb 6e 2d bf 28 7b 0b 3d 0b 80 e2 bd
       -0.077959985 -0.6774718 0.034052998 -0.110595785
000370 7e 04 8b be e0 cf 2f be 4e f3 82 3d d5 79 c9 bc
       -0.27151865 -0.17169142 0.06394063 -0.024594227
000380 48 ee f0 be d8 90 bd bc 0c 82 22 3e 1a 74 30 bf
       -0.47056794 -0.023140356 0.15869921 -0.68927157
000390 2b ca 56 3e 21 93 2c be 2b 4f 58 3d 8e ce 01 bd
       0.20975558 -0.16853 0.052809875 -0.031691127
0003a0 6e cc 2a bf 7a 1a 58 3e 80 a3 63 be 36 d4 75 be
       -0.66718185 0.2110385 -0.22230339 -0.24006733
0003b0 60 2c bf 3c c0 cd ac bd c1 0c f1 bd 80 3c 47 be
       0.02333659 -0.08437681 -0.11770011 -0.19456673
0003c0 c7 f4 99 be 69 ff 37 be 9d 3b 0e 3e e7 0d 95 3c
       -0.30069563 -0.17968525 0.13889928 0.018195106
0003d0 59 4b 28 bd 7b 3e 88 bf e7 94 ad bd d4 a9 04 bd
       -0.041087482 -1.0644068 -0.084756665 -0.032388523
0003e0 7b 9f d5 be ff 70 3b be 2b ec ee bd b6 48 96 3e
       -0.41723236 -0.18304823 -0.11666139 0.2935235
0003f0 a7 05 b3 be 44 ee 66 be e5 0b c8 be ed 03 9e bd
       -0.3496525 -0.22551829 -0.39071575 -0.077155925

lstm.bias_hh_l0 f4 [512]
000000 24 ef 09 bf 42 8b e9 be ed e7 9e be 21 d9 0f bf
       -0.53880525 -0.45614058 -0.3103632 -0.5619069
000010 31 52 85 be ab f0 27 be 40 07 33 bf 93 50 b4 be
       -0.2603927 -0.16400401 -0.6993294 -0.35217723
000020 de 7a d5 bd b7 52 11 be 84 19 93 be a7 ca 6a bd
       -0.10423826 -0.1419171 -0.28730404 -0.05732217
000030 c4 8b e3 be 75 cc 15 bf 3a 5b ee be af e5 a0 bd
       -0.4444257 -0.585151 -0.46553975 -0.07856309
000040 ab 49 aa be f0 14 85 be ea e5 67 3d a3 ce 26 be
       -0.3325933 -0.25992537 0.056615748 -0.16289763
000050 34 ca 91 be 65 06 eb bd 85 7b 1a bf ed 81 11 bf
       -0.2847458 -0.11475829 -0.60344726 -0.56838876
000060 61 b9 f5 be 9f 6a e4 bd 42 b7 a6 bd a1 87 53 bf
       -0.47992995 -0.11153149 -0.081404224 -0.8262883
000070 e3 8c 89 be fb 67 fb be 44 9c 78 be 7a a9 1c be
       -0.268653 -0.49102768 -0.2427836 -0.15299025
000080 40 8d 3c bf 79 81 c2 be e0 46 3c bf 44 cd c8 be
       -0.7365303 -0.37989405 -0.73545647 -0.39219105
000090 27 af b1 bd ee 39 0a bf d5 51 a8 be 50 7b b5 be
       -0.08675986 -0.53994644 -0.32874933 -0.35445642
0000a0 d9 35 d4 be ef 2d 54 be 45 46 12 bf f3 94 10 bf
       -0.41447333 -0.20720647 -0.5713847 -0.5647728
0000b0 3d 81 bd be ab 78 83 bd 84 7b 1d be 58 9a 9b be
       -0.37012663 -0.064195 -0.15379149 -0.30391192
0000c0 12 55 56 be 3b 8d 22 be 16 47 f2 be eb 67 10 bf
       -0.20930889 -0.15874188 -0.4731986 -0.56408566
0000d0 05 c7 10 bf 14 08 f6 be 0c 60 00 bf 58 26 b4 be
       -0.5655368 -0.48053038 -0.50146556 -0.35185504
0000e0 a0 c0 9a be 6a 58 41 be e4 74 8f be 67 a2 43 bf
       -0.30225086 -0.18881384 -0.28018868 -0.7641968
0000f0 e1 d0 02 bf b8 3a b0 be b4 4b 28 be 1a 2a a5 be
       -0.51099974 -0.344198 -0.16435128 -0.32258683
000100 8f c6 03 be 7e 64 a4 be c4 c8 aa be 5a 77 04 bf
       -0.12868713 -0.3210792 -0.33356297 -0.51744616
000110 b9 6d e7 bd c4 20 31 bf 04 45 ce bd 9a 80 d8 be
       -0.11300225 -0.6919062 -0.100717574 -0.42285615
000120 39 1f b7 be 9c a0 d5 3c 7d 35 c8 bd b1 bd 9f bd
       -0.35766008 0.026077561 -0.09775827 -0.07799853
000130 cd fb 8d be 62 8a 1b be 8c 08 f2 be a2 07 25 bf
       -0.2773117 -0.15189508 -0.47272146 -0.6446477
000140 65 87 01 be 00 61 10 bf 70 d6 ea be 9c 5b 03 bf
       -0.12649305 -0.5639801 -0.45866728 -0.5131166
000150 f2 aa ba be a0 3c 2f bf 32 03 d8 be bb 88 20 be
       -0.36458546 -0.6845188 -0.42189938 -0.15677159
000160 1b 43 8d be ce c7 54 bf 1c 2f 8b bd 76 b6 96 be
       -0.2759026 -0.8311738 -0.06796095 -0.29436082
000170 ee c5 de be 97 59 22 be 36 2b 34 bc 86 e6 83 bd
       -0.43510383 -0.15854488 -0.01099663 -0.06440453
000180 39 df 26 bf 68 09 a1 be 50 09 a2 be f0 da 48 bf
       -0.6518436 -0.3145249 -0.3164773 -0.7845907
000190 3e a3 64 be d8 76 43 be 03 49 a9 be 94 0f 80 bd
       -0.22327897 -0.19088304 -0.33063516 -0.06252971
0001a0 06 e6 2f bf e0 2a e4 3b de 78 b0 be 02 5d c1 be
       -0.6871036 0.006963119 -0.34467214 -0.37766272
0001b0 fc 9f 8f be 1e 42 25 be a2 cb 39 be b4 30 27 bf
       -0.28051746 -0.16138503 -0.18144086 -0.6530869
0001c0 d3 cf 0f bf 06 06 fb be b6 eb 27 bd fb 66 69 bd
       -0.5617649 -0.49028033 -0.040996276 -0.056982975
0001d0 f2 44 53 be 30 d7 2b bf a8 96 0b 3d 4a 58 b7 be
       -0.2063177 -0.67125225 0.034079224 -0.35809547
0001e0 6a 28 a8 be 46 96 8c be aa d9 4c be 7b 20 c7 bc
       -0.32843333 -0.274584 -0.20004907 -0.02430748
0001f0 49 33 d3 be 48 3f eb be c1 f3 02 bf 01 37 8c be
       -0.41250065 -0.45946717 -0.5115319 -0.27385715
000200 26 ba 1c 40 67 32 2f 40 ad 11 3a 40 98 1a 20 40
       2.4488616 2.7374513 2.9073288 2.5016232
000210 2a 07 39 40 54 f8 3f 40 e5 63 1e 40 96 82 2f 40
       2.8910623 2.9995317 2.474847 2.7423453
000220 c3 62 47 40 1b ba 4a 40 2c d4 23 40 5e a3 48 40
       3.115403 3.167609 2.559825 3.1349711
000230 c1 fb 2b 40 b5 6c 24 40 36 ab 4b 40 85 14 3d 40
       2.6872408 2.569135 3.182325 2.9543774
000240 65 32 31 40 7c 92 35 40 71 67 43 40 4b 49 26 40
       2.7687008 2.8370657 3.0531886 2.5982234
000250 a6 fe 40 40 96 b4 3f 40 13 9b 21 40 5b 45 16 40
       3.0155425 2.995397 2.52509 2.3479831
000260 4c c6 23 40 1b f4 41 40 63 0c 35 40 4a 97 15 40
       2.558978 3.030524 2.828881 2.337359
000270 86 83 43 40 34 5f 27 40 47 9b 21 40 30 4b 3e 40
       3.0549026 2.6151857 2.5251024 2.973339
000280 80 2e 1c 40 97 96 35 40 1e 79 18 40 68 32 3a 40
       2.4403381 2.8373163 2.3823924 2.9093266
000290 9b cb 3a 40 63 7a 17 40 e8 b9 31 40 ef 16 4b 40
       2.918677 2.366845 2.7769718 3.1732748
0002a0 83 8e 29 40 30 90 3e 40 5b e5 21 40 2e 76 32 40
       2.6493232 2.9775505 2.5296237 2.788463
0002b0 a6 ba 28 40 cc c4 54 40 bc 12 3b 40 52 f3 33 40
       2.636392 3.3245115 2.9230185 2.811726
0002c0 41 92 3f 40 2c eb 2f 40 ac 0a 3a 40 95 2d 2b 40
       2.9933016 2.7487288 2.9069014 2.674657
0002d0 84 0c 36 40 83 5c 4e 40 18 8b 2e 40 35 b2 32 40
       2.844514 3.2243965 2.7272396 2.792127
0002e0 20 86 33 40 59 e3 3c 40 0a 12 39 40 3d 1d 11 40
       2.8050613 2.9513762 2.891726 2.2674096
0002f0 f9 39 42 40 a8 41 2e 40 7d 13 43 40 8b d0 39 40
       3.0347884 2.7227573 3.0480645 2.9033535
000300 db ff 35 40 e8 e1 31 40 8c d9 3b 40 1b 12 24 40
       2.8437412 2.7794132 2.935153 2.563605
000310 4b e9 3d 40 84 0b 14 40 25 91 4b 40 f1 dc 35 40
       2.967364 2.3132029 3.180734 2.8416102
000320 d5 98 40 40 4b cc 47 40 df bf 38 40 7c aa 36 40
       3.0093281 3.121844 2.886711 2.8541555
000330 72 6d 3a 40 f0 4a 41 40 07 85 27 40 98 cd 11 40
       2.91293 3.0201988 2.6174943 2.2781734
000340 7b d1 31 40 aa 0e 21 40 d4 ed 31 40 ba 31 2a 40
       2.7784107 2.51652 2.7801409 2.659285
000350 b5 9b 47 40 5b 79 1a 40 4d a1 23 40 73 b8 37 40
       3.1188786 2.413657 2.55672 2.870633
000360 4e a8 3a 40 e5 f6 12 40 8d bd 3f 40 f6 79 35 40
       2.9165225 2.2963192 2.9959443 2.835569
000370 33 b7 2e 40 43 e2 2f 40 67 8b 44 40 7f de 3a 40
       2.7299316 2.748185 3.0710084 2.91983
000380 fd f7 26 40 71 81 3c 40 f7 78 47 40 42 a5 10 40
       2.608886 2.9454005 3.116758 2.2600865
000390 78 78 4c 40 e1 c0 36 40 68 81 45 40 3d 79 3b 40
       3.1948528 2.8555224 3.0860233 2.9292748
0003a0 2a 98 19 40 97 1d 49 40 76 33 2f 40 ff 9c 2c 40
       2.3999124 3.142431 2.737516 2.6970823
0003b0 f2 9f 3e 40 be 9c 38 40 05 e0 37 40 85 db 34 40
       2.9785123 2.8845668 2.873048 2.8258984
0003c0 72 76 31 40 2d c8 32 40 a0 91 43 40 24 96 3d 40
       2.7728543 2.7934678 3.0557632 2.9622889
0003d0 b1 98 39 40 d3 2d 01 40 fa b4 38 40 f4 99 3b 40
       2.8999445 2.018422 2.886046 2.9312716
0003e0 80 d0 29 40 f2 e9 30 40 55 82 39 40 cd 23 4d 40
       2.6533508 2.764279 2.8985798 3.20531
0003f0 4e d8 27 40 b9 30 31 40 08 13 27 40 d0 80 3a 40
       2.6225772 2.7685988 2.6105366 2.914112

head.net.0.weight f4 [1, 128]
000000 56 2a 55 be d1 42 f0 3c 7a 30 be 3c 7a c6 79 bd
       -0.20816931 0.029328736 0.023216475 -0.060980298
000010 9a 13 83 39 2d 53 90 bc 6e 44 81 be 46 b3 6c bd
       0.0002500087 -0.017617786 -0.2524752 -0.057788156
000020 2b d2 ef ba b2 55 15 3c d3 b8 f4 ba fe 15 26 3c
       -0.0018296888 0.00911467 -0.0018670805 0.010137079
000030 e9 77 60 bc d3 d1 6b 3d 0e 93 89 bc 57 5d 21 3b
       -0.013700464 0.05757315 -0.016793754 0.0024622285
000040 56 2e 4c 3d d8 9e 2b 3d 6c 3b cc 3b 1b 6c e9 3d
       0.049848877 0.041899532 0.0062326696 0.113975726
000050 f7 77 9a 3a be 05 d0 bb 22 93 2b 3e 09 35 84 be
       0.001178502 -0.006348341 0.16755345 -0.25821713
000060 f4 72 53 be 7a be 23 ba 94 d3 9f bb fc 97 ea be
       -0.2064932 -0.000624634 -0.004877517 -0.4581908
000070 2e 59 15 bb 3d ff 3d bb f9 21 71 3d 6e 3a 83 bd
       -0.002278875 -0.0028991245 0.05887029 -0.06407629
000080 d6 e3 18 3f c2 a9 0c 3e 07 dd f2 be e6 17 36 bb
       0.5972265 0.13736632 -0.47434255 -0.002778524
000090 3b 59 96 3b d5 ae 2b 3f 0b c9 52 3c 47 4a 7f 3b
       0.004588274 0.6706365 0.012865315 0.0038954185
0000a0 97 8c 9e 39 16 10 6c 3c a1 5d 4b 3e 93 77 bf 3c
       0.00030240856 0.014408132 0.19859935 0.023372447
0000b0 6f e5 49 3c 1d eb 1a bc 9a 02 2d 3b 92 62 07 bc
       0.012322768 -0.009455469 0.0026399256 -0.008263247
0000c0 be 59 77 3c d1 aa 19 3d 69 c4 1a 3d 46 41 45 3c
       0.01509708 0.03751642 0.037784968 0.012039488
0000d0 ea 58 9f 3a 71 92 97 bb 3a be 36 be fa e5 98 bc
       0.0012157236 -0.0046256115 -0.17846003 -0.018664349
0000e0 d8 a0 a0 3a cc 82 e4 bb e5 4b c5 bb b8 9f f5 bf
       0.0012254966 -0.0069736 -0.00602101 -1.9189367
0000f0 0b 05 2a 3c 6c d4 1d bd f3 be 43 bb 4c b7 a7 bc
       0.010377179 -0.03853266 -0.0029868453 -0.020473145
000100 da d0 eb bc 11 b5 af 3a ef 94 43 3a a7 d0 10 bd
       -0.028786112 0.0013405402 0.00074608525 -0.035355236
000110 a2 eb 29 bb 8b 1d 59 3f 2b eb 13 3c 4a f6 89 3c
       -0.0025927802 0.84810704 0.009028236 0.016841073
000120 04 7f 97 3a aa cd 0a bc 82 e3 1b 3d ed 55 5d bb
       0.0011558239 -0.008471886 0.038058765 -0.003377314
000130 56 49 c8 3b c1 24 ce b9 05 cc a9 bd 1c 29 98 3e
       0.006112258 -0.00039318766 -0.08290867 0.29718864
000140 e3 50 ff 39 84 18 02 3e 16 9f 84 3b 29 ce 08 bc
       0.00048697655 0.12704664 0.004047285 -0.008349934
000150 3c 60 82 bc 49 0b 24 be 4e 9e 51 bd ec 00 34 38
       -0.015915029 -0.1601993 -0.05117636 4.2916203e-05
000160 62 c6 ae b9 88 17 9f bf 79 e0 a5 3b fa 61 89 bd
       -0.00033335673 -1.2429056 0.0050621596 -0.06708141
000170 a1 74 39 bc 13 73 d1 3b d0 a9 f0 ba 28 f3 8d bc
       -0.01131931 0.0063918917 -0.0018361155 -0.01732786
000180 ad fb 0a 3e 59 1f 17 3c 04 9c c5 3c 68 4c d5 3f
       0.13572569 0.009223782 0.024122246 1.6663942
000190 5a fd ef bb 83 ca 84 3d d3 e8 55 3b 06 21 ef 3c
       -0.007323903 0.064839385 0.0032639995 0.029190551
0001a0 27 a8 ce bf 17 f9 9e 3a 71 a6 83 3b b1 6d 97 bb
       -1.6145066 0.0012128678 0.004017644 -0.0046212305
0001b0 88 79 87 3b 3c d6 a7 39 4d b0 9c ba d9 1f 11 bb
       0.0041343607 0.0003201234 -0.0011954397 -0.0022144227
0001c0 57 4e 5b bb 8f c3 b7 3b 35 0a 5b bb 0b ec 89 3c
       -0.0033463442 0.005608029 -0.0033422832 0.016836187
0001d0 ed 75 cb bb a8 3e 29 bf ed 78 87 3c 8e 53 12 bc
       -0.006209126 -0.6611123 0.016537154 -0.008931054
0001e0 30 b4 8d bc 50 0d 14 3e 99 3d 1b bc 6f e0 8d bd
       -0.017297834 0.14458203 -0.009475135 -0.06927573
0001f0 cd b4 8a 3d 01 dc 79 bc c6 1c 88 3e ad f0 45 39
       0.06772766 -0.015250207 0.26584452 0.00018877043
