examples/catchment_models/training/runs/usa_time_split_2404_015859/model_epoch006.pt (torch, 316229 bytes, 5 tensors)

lstm.weight_ih_l0 f4 [512, 23]
00000000: b709 503e 0749 113f 06dd 823e fee3 ad3e
00000010: 9014 003e d908 dabc 071f 463e 2fe1 f8bc
00000020: 3e1e 453e 92b1 99bd 24e9 733c d820 ecbd
00000030: bbad aabe 2961 563d 97e2 273e 76ad d23c
00000040: 67a1 833d 1de7 a23d ba50 6ebe 5f1a 393e
00000050: 8411 cfbc 7ffa 18bd 123c a63e d4c8 693d
00000060: 85f7 e5bd 7d60 173e 366c 6a3d d1af 0a3d
00000070: 0d42 a73d 2160 74be fb65 493e e4d7 c4bd
00000080: b635 7cbc 09b8 b6bc 010b 2ebd 8e03 22bd
00000090: 9fec 013d 8551 85bd d001 34be d86f f3bd
000000a0: 7544 0dbe 3329 87bd 5af5 04bd 6b78 71bc
000000b0: 03a2 ffbd f334 5bbd 2dad 963e ef75 2e3d
000000c0: ca55 263e d32e 013e 5991 a5bd f1d6 0e3d
000000d0: f3f3 85be 9fe3 aa3c 20e7 a4be 8ead 6d3e
000000e0: 2d14 34bc da54 413d 12f5 c3bb d17f 4b3c
000000f0: 6fb6 60be e009 cfbd 2bad 50be fd82 0fbe
00000100: ee4c b2bc dd6c 9d3d 6875 823d 5bc4 cebd
00000110: 89a4 d3be 5eb0 ef3d 5d2d ce3e 2bc0 ef3d
00000120: 817c c3bc f4fe 73bd f0ff bd3e 7bc9 bd3e
00000130: 0463 63bd bcaf be3e 7058 2abd a7e7 2dbd
00000140: 7d69 5c3d a8e8 923b 8d28 2fbe b482 803c
00000150: 43f2 b43e 0ba5 373e e8fc 233e 9da2 6cbe
00000160: 1eee 883e a5b7 8c3e 39fa 5b3e 420e 3a3e
00000170: 70e1 4b3d f32f 9e3c 2938 1b3e 28f4 bd3e
00000180: a4fd f43d c994 0c3e bcc4 653e cdca 0dbd
00000190: 1808 913e 5367 febd 07cb 803d 96b9 04be
000001a0: ee38 46be 6599 debd bd0e ef3d 8dd1 843e
000001b0: 3ff5 273e c03c 073e 7f5b 973d c9f9 21bd
000001c0: d78c 063e 7cc2 683d 4c46 1d3e 585e d93d
000001d0: 7b76 683e bd72 36bd ef10 5a3d 251d 703d
000001e0: 5222 a43e dfea fe3e 6d9d 34be 8ccd e83e
000001f0: 0f8f 263e 5dcb 79be 9595 0c3e 3be9 a4bd
00000200: 861b 81be 240a ca3c 862c 9f3e 8794 8c3e
00000210: 005c 913e 716d ecbe 62bb a33e 4bd5 733e
00000220: e13c aa3e d40e 2e3e cefa cd3d 1d0c 213e
00000230: 5f64 d33d d7a3 b33d a9bc 8cbe 0f5c 5e3c
00000240: 47eb d13d 881a 233e d2ae 163c b10b 48be
00000250: b87b 233d 6ef8 42be 349b 8fbb f3cc b93d
00000260: 8845 4f3e f6bf 74bd 1955 1abe 041b debd
00000270: 2b78 153d 5f15 3abe 7b54 8dbe 5908 33bd
00000280: 7040 eb3d 3315 743e b32d 413e 0c4b ba3e
00000290: c715 073f fa8e f43c 7a30 a63e 69f5 df3e
000002a0: c0ba 4fbd 60ae e13e 801c a5bd 51a7 223d
000002b0: 9d25 583c 2506 d6bd 118a 8bbe c700 033e
000002c0: e6e7 913e c783 8a3e 9637 cb3e 3ff0 babe
000002d0: 90a3 983e 04e2 853e e5ed c13e 3146 5b3e
000002e0: 6c84 5fbe 6859 0ebd 1f47 913d 11a6 1c3e
000002f0: 89e7 e83e 2970 8ebd eec5 bc3c 1406 9abe
00000300: 000e 2f3e 4639 91bd 630b 203e 7359 8ebe
00000310: c44f 3fbe c76e 1fbe 0a1c 943e e599 333e
00000320: c25c 4d3d d224 1e3e e106 93bd 6c1b 383e
00000330: 2f28 093d 9fc6 d9bc aa30 4e3e 49a0 5fbc
00000340: 5bd7 7bbc 31a6 23bc c9b1 b1bd cdb0 d3bd
00000350: db2b 633c 094e 4abc 3d31 563c 4bbc e0bd
00000360: 582f 213e 116d 793c 79a9 03bd 0b89 9fbd
00000370: 1e0c 543d 7917 51bc 1ab5 cc3d 2837 a1bd
00000380: 0e40 05bd 88a3 49be 8ce0 7f3d b7c7 17be
00000390: be7a 73bd d502 71be e5f7 94bd 3679 203d
000003a0: c390 ffbd 8105 bebd 6c81 3fbe ac2d 8f3d
000003b0: 3155 7e3e c31b 99be d5ef f13d 8cfa b53d
000003c0: 247e 5abd 6bb1 153c eaa9 3fbd f6cc 5dbe
000003d0: 4439 093d 3f95 9f3e 0b42 0e3e 5efa 4e3e
000003e0: 2b48 ff3a bbac 6e3e 051b 953e 3365 1b3e
000003f0: 7c94 183e 5b57 0fbe 0047 58be e45d 1cbd
0.20316206 0.56752056 0.25559253 0.33963007 0.12507844 -0.026615547 0.19347773 -0.030380813
0.19249818 -0.07504572 0.014887128 -0.11529702 -0.3333567 0.052338753 0.16395031 0.025717478
0.064272694 0.079542376 -0.23272982 0.18076466 -0.025276907 -0.037348267 0.32467705 0.05707629
-0.11228851 0.14782901 0.057232104 0.033859078 0.08166895 -0.23864795 0.19667809 -0.0961149
-0.015393665 -0.022304552 -0.042490963 -0.03955417 0.0317198 -0.06509689 -0.17578816 -0.11886567
-0.13795646 -0.06599655 -0.032460548 -0.014738183 -0.12482073 -0.053517293 0.29428998 0.04259294
0.16243663 0.12615518 -0.080843635 0.034872953 -0.2616268 0.020860491 -0.32207584 0.23210737
-0.010991138 0.04720006 -0.0059801424 0.0124206105 -0.21944593 -0.101093054 -0.20378558 -0.14014812
-0.021765199 0.0768678 0.0637005 -0.100960456 -0.41336468 0.11703561 0.40268984 0.11706575
-0.023863079 -0.059569314 0.37109327 0.3706778 -0.05551435 0.3724345 -0.041588247 -0.04245725
0.05381154 0.004483301 -0.17105313 0.015687324 0.3534108 0.17934053 0.16014445 -0.23108907
0.2674417 0.2748386 0.21482171 0.18169501 0.04977554 0.019309973 0.15158142 0.3710034
0.119624406 0.13728632 0.2243833 -0.034617234 0.28326488 -0.12422051 0.062887244 -0.1296142
-0.19357654 -0.108691014 0.11672733 0.25941125 0.16402148 0.13206768 0.07390498 -0.039544854
0.13139664 0.0568261 0.15358847 0.10613698 0.22701447 -0.044543017 0.053238805 0.058621544
0.32057434 0.49788567 -0.17638178 0.4546932 0.1626551 -0.24393983 0.13728936 -0.08052298
-0.2521631 0.024663039 0.31088656 0.27457067 0.28390503 -0.46177247 0.319789 0.23811834
0.33249572 0.16997844 0.10057603 0.15727277 0.10321879 0.08771484 -0.27487686 0.013571753
0.10249954 0.1592809 0.009196954 -0.1953571 0.03991291 -0.19040081 -0.0043825153 0.09072294
0.20241368 -0.05975338 -0.15071525 -0.108449966 0.036491554 -0.18172215 -0.27603516 -0.043709133
0.114869 0.23836212 0.18865089 0.3638538 0.52767605 0.029853333 0.3245886 0.4374192
-0.050715208 0.4407835 -0.080620766 0.039710347 0.013192561 -0.10450391 -0.27253774 0.12793265
0.28497237 0.27053663 0.39690846 -0.36511418 0.29812288 0.26149 0.37876812 0.21413495
-0.21827859 -0.034753233 0.070936434 0.15297724 0.45489147 -0.069549866 0.023043599 -0.30082762
0.17095184 -0.07091002 0.15629344 -0.2780262 -0.18682772 -0.15569602 0.28927642 0.17539175
0.05013729 0.15443733 -0.071790464 0.1797921 0.033485588 -0.026583968 0.20135751 -0.013649055
-0.015371169 -0.009988354 -0.08676488 -0.103364564 0.013865436 -0.012347707 0.013073263 -0.10973414
0.15740716 0.015223757 -0.032144044 -0.07789811 0.05176937 -0.012761944 0.0999548 -0.07871848
-0.03253179 -0.19691288 0.062470004 -0.14822279 -0.059443228 -0.23536237 -0.07273845 0.039178096
-0.12478783 -0.092783935 -0.18701714 0.06991133 0.24837185 -0.29903993 0.118133225 0.08885679
-0.053342953 0.009136538 -0.046792902 -0.21660218 0.03350188 0.31168553 0.13892381 0.20212695
0.0019476464 0.23308079 0.29122177 0.15175323 0.14900392 -0.13998167 -0.21120834 -0.03817548

lstm.weight_hh_l0 f4 [512, 128]
00000000: 6d4f 41bd 261c 0cbe ff0b 4d3e 3767 80be
00000010: aec5 403e 294b e9bd 1695 44bd da7c 073e
00000020: 634b 613e 3245 263e c6f6 da3d 3b4b 55bd
00000030: 59ce 18bd 0da8 4cbe 19f3 0dbe 8f81 03be
00000040: 765c 4c3e 907f 673e a2a9 bfbd 13c1 02bc
00000050: 07a8 fa3c 28d7 a23d 3d26 ed3d f16b 0a3e
00000060: 4337 7ebd 214a b9bd 1f12 fbbb e185 f83d
00000070: 5278 5c3e 316b 2dbd 810e b33d 1710 87be
00000080: 3627 adbc a943 23bd 2991 19bd 9dfb 81be
00000090: cb3a 233e 3f13 6b3e 5ada 38bd 04c4 5e3e
000000a0: 1d5d 84be 383c 8dbe 1d07 403e 2c29 343c
000000b0: 35e5 26bd 5bc9 d83d 702f 533d 9a71 2b3e
000000c0: bb9f 9dbe e1b3 84be 4f2a 093e 3445 db3c
000000d0: 5b40 5c3e 56e9 14bd 9a61 c03d 8e00 1dbe
000000e0: 650c 213e 4825 833e 61aa 77bd 201d 81bd
000000f0: 11cc d6be 7e8e 0e3e be3b e9bc 97dd 62bd
00000100: 3369 ad3e 6e1f f4bd d19f 3cbe 8eab 9f3d
00000110: 15a8 95bd f9c9 2ebe 214c 353d a5ee 18bd
00000120: e437 023d e9ee f63b 99f3 623d d582 19bd
00000130: c74f 07be 0d4d 053e ec45 8f3d 7dd9 423e
00000140: f00b 94be e2d1 35be e15f 743c 5b59 4abe
00000150: 5ef6 9abd 9880 ae3d c48d 6dbd 122c 01be
00000160: a402 c8bc 2178 efbd d2ab 853d 3a01 0fbe
00000170: 68f5 103e 09a4 06be dd17 8e3e 61e3 fd3b
00000180: 296c d53c 6b91 91be 46d7 da3d 719c 013e
00000190: ed3c 80bd d2e4 663e e532 c7bd f35a 8a3d
000001a0: e648 a4bd d234 a2bc 250f 83bd 852b b1bd
000001b0: 70c3 07be e727 ff3c 7897 893c dc47 813e
000001c0: 558b 2cbd ea56 41be 756c 7dbe daab 0c3e
000001d0: 0955 393e c515 65bd a17c 2c3e 7ec3 1dbd
000001e0: bf94 14be e1f1 a5bc 4ef6 55bd 07f3 213c
000001f0: 627b a03c 1d96 2abd 6edc 7dbe 65fd 5dbb
00000200: a8f5 15be 5f74 7d3d 5dec 623c e348 083e
00000210: db28 f53d 3b02 59bd 77a7 acbd 01bc 12bd
00000220: 4432 823d 5be9 0e3d b93d c63a 551c d53c
00000230: 73ef 13bd 2899 c73d 96c4 563d 9b2e 8b3d
00000240: 65f6 623d f402 87ba 1296 5b3d f4de e6bd
00000250: 4270 73bd aab3 253d d90f b1bc 9c0f 3a3c
00000260: c9a8 83bd ffd1 203d f110 653d 2d2a e2bd
00000270: 06d9 29bd fe85 63bd 1734 503d 779a 693b
00000280: 463c 373d 0719 0dbe 26b4 d03d 7a14 e23c
00000290: 7e1a a0bd cfe4 9cbb c981 7fbc b4ad 85bc
000002a0: 74b4 903d 122f dfbd 3493 72bd b2f1 0cbe
000002b0: 50ba 493d d3d5 f8bd 8102 8e3d b9b2 593d
000002c0: 3b99 b83d 04ad acbc e4ef 003e f8e0 803d
000002d0: 45ae e2bd 35d1 273d 8ea3 eebc b784 c73d
000002e0: 2c41 c7bd 4cd4 ddbd 4991 403d ba82 a9bd
000002f0: 2e24 d63d 1f28 d6bb d0b7 ea3d 7c6b 34bc
00000300: c3c9 cfbd 0641 963d 723c 983d a288 3a3d
00000310: 83c0 83bd 0771 e43c d716 853d 82e9 c23d
00000320: 4782 c73d eab4 be3d 7433 16bd e2de b53d
00000330: 76be 3fbd 3c0c d7bc 2625 00be a8b0 29bd
00000340: a376 be3d 6902 ffbc 209a f6bb 64a8 103e
00000350: 0c3c 4c3d 76b6 53bd 2b74 ccbd 7bc3 55bd
00000360: 5b0a a2bb 238d 94bc 42a4 6f3c e762 683c
00000370: 6df4 9bbd fd99 093e ca94 993d 6ae9 3d3e
00000380: 341f 933d ffde ba3d 926a e03b b98d 85bc
00000390: d218 ef3c d0f7 b03b 6c09 523e 9acc 8c3b
000003a0: 7e91 1fbd cfb0 1fbe de63 0cbe fe4d 0cbe
000003b0: a819 0abd 780e c23d 99de cfbc 1f00 4f3d
000003c0: ee4b 273e 7d45 413e a819 a33d 3791 bc3d
000003d0: e69c bcbd dd81 cd3a 98b0 853c 8251 52bd
000003e0: 06aa 4dbd 4601 8b3d ae9f 113e 36a9 04be
000003f0: e49f abb9 8510 ffbc 3e9e a9bc 6acf d4bc
-0.047194887 -0.13682613 0.20024107 -0.25078747 0.18825409 -0.11391289 -0.047993742 0.13231221
0.22001414 0.16237333 0.106915995 -0.0520737 -0.037306163 -0.19985981 -0.13862266 -0.12842391
0.19957146 0.22607255 -0.09358527 -0.007980603 0.0305977 0.07951194 0.11579559 0.13517739
-0.06206442 -0.09047342 -0.0076620723 0.121349104 0.21530274 -0.042338554 0.08743001 -0.26379463
-0.021136861 -0.039859448 -0.03749195 -0.25387278 0.15940396 0.2295656 -0.04513011 0.21754462
-0.2585229 -0.27585006 0.18752714 0.010996144 -0.040745933 0.105852805 0.05155891 0.16742554
-0.30785927 -0.25918487 0.13395046 0.026766397 0.21508925 -0.03635534 0.09393616 -0.15332243
0.15727384 0.2561438 -0.06046522 -0.06304383 -0.41952565 0.13921544 -0.02847087 -0.055387106
0.33869323 -0.11920057 -0.1842034 0.07796393 -0.0730745 -0.17069234 0.044262055 -0.037336964
0.031791583 0.0075358045 0.055408094 -0.037478287 -0.13214026 0.13017674 0.069957584 0.19028278
-0.28915358 -0.17755845 0.014915437 -0.19760649 -0.07566522 0.08520621 -0.057996526 -0.12614468
-0.024415322 -0.11692835 0.06526913 -0.13965312 0.14156115 -0.13148512 0.2775258 0.007748053
0.026052551 -0.28431258 0.106855914 0.12657334 -0.06261621 0.22548226 -0.09726504 0.067556284
-0.08021717 -0.019800577 -0.06399373 -0.08650879 -0.13258147 0.031146957 0.016795859 0.25250137
-0.042125065 -0.18880811 -0.24748404 0.13737431 0.18098845 -0.055928964 0.16844417 -0.038516514
-0.14509867 -0.020256938 -0.052236848 0.009884602 0.019590084 -0.041647065 -0.24791119 -0.0033872959
-0.14644492 0.06187856 0.013850299 0.13309054 0.11970683 -0.052980643 -0.08430379 -0.035823826
0.06357244 0.034890514 0.0015124596 0.026014486 -0.03611703 0.09746009 0.052433573 0.06795999
0.05541076 -0.0010300563 0.053609915 -0.11272994 -0.05943323 0.040454544 -0.021614002 0.011356261
-0.064286776 0.039262768 0.05592436 -0.11043201 -0.041466735 -0.055547707 0.050830927 0.0035645047
0.044735216 -0.13779078 0.101906106 0.027597655 -0.07817553 -0.0047880183 -0.015594908 -0.01631818
0.07065669 -0.1089765 -0.059222415 -0.13764074 0.049249947 -0.12150159 0.06934071 0.05314896
0.090136014 -0.021078594 0.12591511 0.062929094 -0.110683955 0.040971 -0.029130723 0.0974211
-0.097292274 -0.10831508 0.047013555 -0.08276887 0.104561195 -0.0065355445 0.11460841 -0.011011954
-0.10145905 0.07336621 0.07433404 0.04554046 -0.06433203 0.027885927 0.06498497 0.09517194
0.09741645 0.0931185 -0.036670163 0.08880402 -0.046812497 -0.026250951 -0.12514171 -0.04142824
0.09299972 -0.031129079 -0.0075256974 0.14126736 0.049861953 -0.05168768 -0.09983095 -0.052188378
-0.004945082 -0.018133705 0.014626564 0.014183736 -0.0761498 0.13437648 0.074990824 0.18546072
0.07183686 0.091245644 0.0068486417 -0.01630293 0.02918664 0.0054006353 0.20511407 0.0042968513
-0.03895711 -0.15594791 -0.13709971 -0.13701627 -0.033715874 0.09475416 -0.025374698 0.050537225
0.16337559 0.18874164 0.07963878 0.09207385 -0.092096135 0.0015678961 0.016319558 -0.051347263
-0.050210975 0.06787352 0.14221069 -0.12955174 -0.0003273479 -0.031135807 -0.020705339 -0.025977809

lstm.bias_ih_l0 f4 [512]
00000000: a04f 92bd 9430 393d de8d db3d ed27 82be
00000010: 1a9d d5bc c97c e3be 0fe2 693d 49b4 bbbe
00000020: d471 963d f894 a2bc b3d8 0abe bc2d 043d
00000030: 0178 a6bd 4129 aebe a971 843c ad33 b4be
00000040: c12e 95be 1512 8cbe 60b9 adbe 27bc 6dbe
00000050: 1844 8fbe 8e27 22be 0494 d4bd 89f7 e1be
00000060: eb0e 93be 83ef 07bd 66ee 1ebd c2cb f9bd
00000070: 9b0b 65be 7f48 1ebe e98e 97be 23a2 bcbe
00000080: 8eb5 cebe 21e1 44be 4427 f3be b646 74be
00000090: 25df cdbe ac2e 66be 34ff f03d 685c 08bd
000000a0: afc8 22bc 3480 f5bd 70c1 bebe c8fe 1abe
000000b0: 2156 b03d 60fd 29be e163 8fbc 6d36 903d
000000c0: 8746 2c3d 05a3 4dbe cfad 5ebe c90f b3be
000000d0: 8823 0d3e 144b a6bc 8792 5dbd 0f73 68be
000000e0: 9a49 343d 4cea 833c 3088 19bd 17bf eebe
000000f0: f69f e7bd 746f 80be 8949 d3be acd7 02be
00000100: 5b5d 063e b261 d9be 39af 40be 2bef 0dbd
00000110: 94a7 acbe d2fb 4a3e d543 babd f5c4 bcbe
00000120: 1f0a b7bd c1ff 5cbd 2436 70bd fb93 c9be
00000130: 76b8 8bbe 5d76 39bd e24f 2cbe 17cf 4abd
00000140: 7581 d4be d3ef 73be 2b48 e7bd 9988 fc3d
00000150: fece 08be 0b96 4dbe 028f 03bf 74aa ab3d
00000160: f363 92be b84a a8be 0f63 15be 1eff 9ebd
00000170: 64ec 73be ef21 af3c 4550 88bb 61c2 98be
00000180: 32df b3be 9e6e 80bc 091a 95be 4352 c6bd
00000190: 0eef 193d a2e0 82be 81e4 aebd ff90 2cbe
000001a0: 73ac 0bbf 8f28 80be a13e 17be 3ffb 9fbe
000001b0: ee4d 8abe 3e68 b0be 8732 95bd 4040 95be
000001c0: fe82 7b3d 9b5c 0ebf 9571 9d3c 517e c1be
000001d0: e63a fcbd 8a9a acbe 03c0 cb3c 85cc ab3d
000001e0: 16fd eb3d 9841 b6bd 7423 13be 3878 7bbe
000001f0: 2c62 9cbe 1cf7 1cbe ffb1 5e3d 17a1 ed3c
00000200: c835 4dbc 0ad5 933d 4dc6 373d 0f7d cdbe
00000210: 7d2f 19be de3e 95be 499a adbd 5a1e 55be
00000220: 89ff 9cbb e1e3 393e 2361 80be 5c60 a13c
00000230: 1d75 91bd 4345 a1be a689 b83d 8f9b 4ebe
00000240: 7dfb 4ebe 4b65 a6be ad90 90be af13 b9be
00000250: 96a2 9bbe bc4e 31bd 51bd c3bd 3d84 aebe
00000260: ba0f b8be ae52 5abd beff 1abd c4cf 5fbd
00000270: a687 89be dc74 bc3d f63e 4bbe ced5 9cbe
00000280: 3be8 b4be 721e 9fbe 9b42 dcbe 9228 21be
00000290: f62a 5fbe 81b9 ecbd 405d 3a3d 7c57 133b
000002a0: fdaa 5c3e 5e38 85bd 5059 c0be 72b1 433c
000002b0: c621 9dbb acdb 0fbd c3c0 093e 715e 753c
000002c0: 55b2 80bd 2235 4abe 7345 38be 3955 65be
000002d0: 0098 823e 5f02 b9bc 76c2 c8bd 8060 a5be
000002e0: 2daf 4f3d b6d6 773e a1f4 9b3d adad d4be
000002f0: 6695 75be 0baa a5bd 16cd 9bbe 5e31 f9bb
00000300: 9304 d8bd 8c55 00bf 179c c5bd c6c6 0e3e
00000310: 46d5 83be ab32 613c 9786 f9bd 8754 b2be
00000320: dc91 49be 67aa 00bd 074a cdbd 25b2 84be
00000330: 1047 57bd 67f6 03be 6d33 243e aefb a13e
00000340: 1731 acbe 39b9 2fbe 05d4 40be a8e5 413d
00000350: 271f 47be 941e c6bd c697 cabe d2c7 463e
00000360: 3889 34be f645 9fbe 974e d4bd e957 9d3e
00000370: f43d 12be 4dc9 b53b 176e 713d 0da9 79be
00000380: 1ac7 cebe 1992 3d3c 1022 0abe 8fbc aa3c
00000390: 7c5d 38bd d263 4bbe 1643 83bd 7bbd 023e
000003a0: c474 e5be 2d1d 14be def5 dfbd b2d6 49be
000003b0: 2518 24be 0827 aabe a0f4 b23d 4625 84be
000003c0: d1c2 99bc bf63 b6be 53fe 0e3d 5d30 51be
000003d0: fea9 f63d aad1 a1be 4dd4 bf3b 1e39 353e
000003e0: 5a0a adbc 10ef 313e ac47 1bbe d93e 8cbe
000003f0: dad6 b5bd 0d78 00be dacf 193d 31a2 b539
-0.071440935 0.045212343 0.107204184 -0.25421086 -0.026075888 -0.4443114 0.057100352 -0.36660984
0.0734593 -0.019846424 -0.13559227 0.03227018 -0.08128358 -0.3401585 0.016167479 -0.35195675
-0.29137233 -0.27357545 -0.33930492 -0.23216306 -0.2798164 -0.15835401 -0.10379794 -0.44134167
-0.2872232 -0.0331874 -0.038801573 -0.12197067 -0.22367708 -0.15457343 -0.2960122 -0.3684245
-0.4037289 -0.19226505 -0.47490895 -0.23855099 -0.40209308 -0.22478741 0.11767426 -0.03329125
-0.009935542 -0.119873434 -0.37256956 -0.15136254 0.08610178 -0.16600561 -0.01750368 0.07041631
0.042059448 -0.20081718 -0.2174599 -0.3497298 0.13783085 -0.020299472 -0.054094817 -0.22700141
0.044015504 0.016102932 -0.037483394 -0.46630165 -0.11309807 -0.25085032 -0.4126704 -0.12777585
0.1312155 -0.42457348 -0.18816842 -0.034651916 -0.33721602 0.19822624 -0.09094969 -0.36869016
-0.08937477 -0.053954843 -0.058645383 -0.39370713 -0.2728917 -0.045278896 -0.16827348 -0.049513903
-0.41505018 -0.23821954 -0.11293062 0.123307414 -0.13360211 -0.20076768 -0.5139009 0.08382121
-0.2859188 -0.32869506 -0.14588569 -0.077635035 -0.23820645 0.021378485 -0.0041599595 -0.298358
-0.35131222 -0.015677746 -0.29121426 -0.09683659 0.037581496 -0.25562006 -0.085396774 -0.16852187
-0.5456001 -0.25030944 -0.14769985 -0.31246373 -0.2701258 -0.3445453 -0.07285028 -0.2915058
0.06140422 -0.55610055 0.0192192 -0.37791684 -0.123159215 -0.33711654 0.024871832 0.083886184
0.11522882 -0.0889923 -0.14368993 -0.24557579 -0.3054365 -0.1532864 0.05436897 0.029007478
-0.0125250295 0.07218368 0.04486685 -0.40134475 -0.14959522 -0.29149526 -0.08476693 -0.2081236
-0.0047912044 0.18153335 -0.2507411 0.019699268 -0.07102416 -0.31498155 0.09010629 -0.20176528
-0.20213123 -0.32499155 -0.2823538 -0.3614783 -0.3039748 -0.043287978 -0.095575936 -0.34085265
-0.35949498 -0.053301506 -0.03784155 -0.0546415 -0.26861304 0.09201977 -0.19848236 -0.3063187
-0.35333428 -0.31077915 -0.43019566 -0.15738133 -0.21793732 -0.115588196 0.045499086 0.0022482565
0.21549602 -0.06504892 -0.3756814 0.011944162 -0.004795286 -0.035121605 0.13452439 0.01497613
-0.06284014 -0.19746831 -0.17995243 -0.22395791 0.25506592 -0.022584138 -0.098027155 -0.32300186
0.05070417 0.24203 0.07615019 -0.41538754 -0.23982772 -0.08089074 -0.30429906 -0.007604762
-0.105477475 -0.50130534 -0.096489124 0.13943014 -0.25748652 0.01374499 -0.12183874 -0.34830114
-0.19684547 -0.03141251 -0.10023885 -0.25917163 -0.052558005 -0.12886964 0.16035242 0.3163733
-0.33631203 -0.171605 -0.18830879 0.047338158 -0.19445477 -0.09673801 -0.3956892 0.19412163
-0.1763047 -0.31108063 -0.10366552 0.30731133 -0.14281446 0.0055476786 0.05894288 -0.24380894
-0.40386277 0.011570477 -0.13489556 0.020841865 -0.04501103 -0.19862297 -0.0640928 0.12767594
-0.44815648 -0.14464255 -0.10935567 -0.19710806 -0.16024835 -0.33232903 0.08738065 -0.25809687
-0.018769654 -0.35622975 0.03491051 -0.20428605 0.12044142 -0.31605273 0.0058541656 0.1769757
-0.0211231 0.17376351 -0.1516406 -0.273917 -0.0887887 -0.12545796 0.03755174 0.00034643852

lstm.bias_hh_l0 f4 [512]
00000000: 5b08 c8bd ee77 3ebb 80b8 4d3d efbb b3be
00000010: 3bfc 1dbe 115f f4be de8f 54bd 034e 85be
00000020: 2e4d 943d 07b4 ecbd 3bfd 73be 78ee 603b
00000030: 3b5c 20be f4c1 93be 2f84 5fbd 0aae bdbe
00000040: dd27 81be ae6f 3abe 604c b5be be59 93be
00000050: a1d7 d0be 1089 21be d784 3cbe 932d d7be
00000060: 1e7c 9fbe 5c16 b6bd 1d4f abbd ba91 02be
00000070: 49d5 88be d61c 1abe 2138 8abe 7edd cbbe
00000080: ab68 8fbe 2f15 4abe ebff 02bf 7b6f 7dbe
00000090: 4896 99be 8266 6ebe 5286 bd3b ac96 1abe
000000a0: ac0f 6d3d d9af e1bd f38c aebe 5061 eebd
000000b0: a9da b13c a982 14be 3fd5 e9bc 99a4 163e
000000c0: e816 bf3d ad79 5fbe 5333 5abe dd83 b8be
000000d0: e3d4 bc3d cd68 dbbc 35ff 13be f821 a6be
000000e0: c496 773d f41f 193d b766 103d 1951 acbe
000000f0: 9a46 8cbe 5cba b5be 1b7e 01bf d12e f3bd
00000100: 416a 693e ce5e bfbe 98c9 dcbd 54b2 653d
00000110: a99d cbbe df00 0f3e 29d1 04bd 3d05 d1be
00000120: fe70 7b3c 5fda 0abe ed80 67bd 224d cdbe
00000130: 27ce 52be ca1a adbd 1f51 08bd 16a8 3fbd
00000140: 3bba d1be cb63 adbe e495 33be 8b5d f23d
00000150: d419 1ebe 38eb 75be 67fb 02bf f092 bf3d
00000160: 9404 4bbe 6b2d d2be 8443 55be 0f73 e5bd
00000170: 4482 75be 1c9f 903d 0eb8 803d ecc2 a3be
00000180: 85ff e7be 4192 4a3d 0659 babe 66ef e7bd
00000190: b6a3 9bbd 8461 03be 0732 84bd 1817 d3bd
000001a0: b0be 06bf 9d40 3ebe 8a82 42be 34ce 7bbe
000001b0: 509a 74be 14a8 e0be 52cf 7ebd 950e abbe
000001c0: b490 073e aa59 10bf 635e 273d 5e45 bcbe
000001d0: ef4e 9ebd 623b 87be 7ec6 b6bc 899e 3b3d
000001e0: 74af ac3d 2a1b 22be f1e0 00be 8d2a a0be
000001f0: 6ef8 49be d1be 40be b55f cabd 10e0 6dbd
00000200: 433e 3f40 24b9 4140 d7f1 4040 d18e 2940
00000210: 0022 3840 1c75 2c40 72c3 3d40 de7f 2f40
00000220: af49 3c40 14bb 4a40 568d 3540 d710 4140
00000230: d974 3940 afb4 2c40 27ca 4740 3052 2f40
00000240: ff85 3040 2779 3040 a941 2940 4a8d 2d40
00000250: 8b2f 2c40 af80 3c40 eb2b 3540 9c86 2640
00000260: 6d42 2b40 417d 3840 4137 3d40 a9dd 3a40
00000270: 0105 3140 b428 4240 9566 2e40 30c3 2640
00000280: 6942 2e40 371c 2b40 0d3f 2140 e94b 3540
00000290: 2840 2d40 4a8f 3340 c2cc 3f40 3b0f 3b40
000002a0: e6a9 4b40 ecae 3b40 7bd2 2c40 f513 3c40
000002b0: 786c 3e40 c820 3c40 7cc7 4440 5e78 3f40
000002c0: d28a 3f40 aa2f 3340 bc60 3840 3c48 2e40
000002d0: 4763 4f40 9c3b 3c40 cd3a 3e40 e18b 2e40
000002e0: af3c 3e40 a81e 4b40 62c4 4440 c9ef 2840
000002f0: 9495 3340 9711 3840 d050 2a40 839b 3d40
00000300: 7468 3640 1489 2540 abd7 3940 27d0 4440
00000310: 80b1 2d40 4d74 3f40 5918 3740 c6ed 2d40
00000320: ba22 3740 81f0 3840 b9f5 3740 3b9b 2f40
00000330: d70e 3840 8f34 3640 dbe6 4940 def9 5140
00000340: d9e5 2b40 ad68 3040 3cee 3240 b5af 3f40
00000350: f088 3140 b18a 3740 e082 2340 a9a3 4c40
00000360: e65c 3440 8269 2a40 adec 3640 0539 5040
00000370: d1f3 3640 ed39 3b40 4539 4440 42d6 2c40
00000380: 003d 2b40 fbb9 3e40 25af 3440 fe17 3e40
00000390: ef29 3c40 b4d3 3440 9406 3e40 fbab 4540
000003a0: 8e9c 2740 2e59 3240 766e 3640 c25c 2f40
000003b0: f0df 3240 58be 2840 2800 4540 b5ca 3040
000003c0: 7881 4340 cd7b 2740 e7e9 3c40 3b59 2f40
000003d0: 75ee 4340 f211 3140 f480 3e40 9400 4940
000003e0: 392a 4340 c6bf 4740 bf45 3740 54d3 2840
000003f0: c38a 3840 4698 3740 807b 4240 9676 3f40
-0.09767219 -0.0029063183 0.05022478 -0.3510432 -0.1542825 -0.4772878 -0.051895015 -0.2603608
0.07241283 -0.11557775 -0.23827069 0.0034321826 -0.15660183 -0.28858912 -0.05456942 -0.37046844
-0.25225726 -0.18206665 -0.35409832 -0.28779405 -0.40789512 -0.15774941 -0.1841005 -0.42026958
-0.3114938 -0.088909835 -0.08364699 -0.12750903 -0.26725224 -0.15050063 -0.26995948 -0.39817423
-0.28009543 -0.19734643 -0.5117175 -0.24749558 -0.29997468 -0.23281291 0.0057838345 -0.1509654
0.057876274 -0.110198684 -0.3409191 -0.11639655 0.02171071 -0.14502968 -0.028544066 0.14711227
0.09330541 -0.2182376 -0.21308641 -0.36038104 0.092202924 -0.026783371 -0.14452823 -0.3244779
0.060446516 0.03738399 0.035254207 -0.33655623 -0.27397615 -0.35493743 -0.50583047 -0.11874164
0.22794439 -0.37377018 -0.107806385 0.05607827 -0.39768723 0.13965176 -0.032426033 -0.4082431
0.015346764 -0.13559864 -0.056519438 -0.4009791 -0.20586453 -0.08452375 -0.033280488 -0.04679116
-0.40962395 -0.33865198 -0.17537647 0.11834248 -0.1543954 -0.2401551 -0.5116486 0.09354198
-0.19825965 -0.41050276 -0.20826536 -0.11203586 -0.23975474 0.07061598 0.06285106 -0.3198465
-0.45312133 0.049455885 -0.36396044 -0.113249585 -0.07599585 -0.12830168 -0.064548545 -0.10307139
-0.52634716 -0.18579336 -0.18995109 -0.24590379 -0.2388699 -0.43878233 -0.062209435 -0.33409563
0.13238794 -0.56386817 0.0408615 -0.36771673 -0.07729899 -0.26412493 -0.022311445 0.045805488
0.084319025 -0.15830675 -0.12585808 -0.31282464 -0.19723675 -0.1882279 -0.09881536 -0.05807501
2.9881752 3.026925 3.0147607 2.6493418 2.8770752 2.6946478 2.965054 2.7421794
2.9419973 3.1676683 2.8367515 3.0166528 2.8977568 2.698528 3.1217134 2.7393913
2.7581785 2.7573946 2.6446326 2.7117486 2.6904018 2.9453542 2.8308055 2.601966
2.6759293 2.882645 2.9564974 2.919779 2.7659304 3.0337343 2.725011 2.6056633
2.7228034 2.673597 2.5194733 2.8327582 2.7070408 2.8056207 2.9968724 2.9228046
3.1822448 2.9325514 2.7003467 2.938718 2.9753704 2.9395008 3.0746756 2.9917216
2.992848 2.7997842 2.8809042 2.7231588 3.2404344 2.9411383 2.972339 2.7272875
2.9724538 3.173746 3.0744863 2.6396353 2.8060045 2.8760736 2.6611824 2.9626167
2.8501253 2.5864916 2.9037883 3.0752046 2.7139587 2.9914734 2.860861 2.7176375
2.8614945 2.8896792 2.8743727 2.7438495 2.8759058 2.846958 3.1547153 3.2808757
2.6859038 2.756389 2.7957907 2.9950993 2.773983 2.86784 2.554863 3.197489
2.81817 2.6626897 2.8581955 3.2534802 2.8586314 2.9254105 3.0659955 2.7005773
2.6755981 2.9801013 2.82319 2.9702144 2.9400594 2.8254213 2.9691515 3.0886219
2.6189303 2.786693 2.850492 2.7400365 2.794918 2.6366177 3.0781345 2.7623723
3.0547771 2.6169312 2.9517763 2.7398212 3.0614293 2.7667203 2.9766207 3.1406603
3.049452 3.12108 2.863632 2.6378984 2.8834693 2.868669 3.0387878 2.991613

head.net.0.weight f4 [1, 128]
00000000: d814 92bb 66e3 47b9 8cd4 b4bb ae83 053c
00000010: 4476 4839 b498 193d 3570 0b3c 8c0f a739
00000020: ba9f 2dbb eed1 c3bb 5b00 24bc 0b70 fa3b
00000030: 4dc7 c1bb 0ad9 53bc fb4b 083b 24cf 08bc
00000040: 0f32 73bd de3e 15bd d04d 1b3c aa1b 0bbd
00000050: 9268 03be 006c 0eba 3f43 86bb b7fb 05be
00000060: 857b 5f3d ec98 9039 dbaa 4bbc b4f5 8dbc
00000070: 53cb fd3b 0c63 a53b 4041 623d 4062 0f3e
00000080: 97d5 c3bc 4105 b63c 8144 a4be 1415 45bb
00000090: bf0c 56bd 0925 0ebd 231c 8b38 5be0 eaba
000000a0: 1d0b 02ba 48b4 8eba d5eb 13bd ab2f 9639
000000b0: 1fe0 89bc dfc6 e8bc 214c 44bb d214 cbba
000000c0: b7f3 093b d03e 133b 35cf e03a d75a dc3c
000000d0: 6b94 a63b 49fa a8bb 8e30 3e3b 076a 523d
000000e0: a439 e0ba b2b0 aebb f859 a839 7199 f23d
000000f0: 408f dc3b 1ea6 4eba 03f7 8f3e 7011 c2bb
00000100: ea57 5e3b fbdc ad3d a3d6 4e3a 06e1 983a
00000110: 8a7b ae3c fa2f f1b9 de73 d8bb 3953 a23d
00000120: cf99 413c bab6 6fba e17d 383b 5ef0 ba3c
00000130: c926 8b3a 4d8f 80bb fbe9 a23b 4b37 c13b
00000140: 0ec8 c73d 3081 083d 988b ee39 82a8 48bb
00000150: d3b4 413b cc2c c83b 467e a2be b901 9eba
00000160: f6b7 2b3c bfb8 3c3d 3835 0dbd cdc9 293b
00000170: 37af e83b f8ec fdb9 8a6e 073c 4c84 31bb
00000180: ac17 573e 5cca 13ba 9b35 c3bc edb4 9b3b
00000190: d13c 8239 daac 36bd b507 af3b efe7 97bb
000001a0: 7d93 5a3f 640f 61bd 86a6 b5bc ac07 593b
000001b0: a7b7 ae3c 1ec7 23be a132 c3bb 2f6f c33a
000001c0: 759b 0e3c 4832 e13e d0fb 0bbc 0b93 0bbc
000001d0: a35e 1fbc c0d4 75bc beda 943a 0afb 38bc
000001e0: 9fb8 95bb 5cf9 8abb 32e7 963c 5724 c4bd
000001f0: 6b98 093c dbb7 223b 83ae d6b9 4be2 fcba
-0.004458051 -0.00019062831 -0.0055185016 0.008149071 0.00019117544 0.037499145 0.008510639 0.00031864305
-0.002649291 -0.0059759533 -0.01000985 0.007642751 -0.005913651 -0.012930164 0.002079724 -0.008350167
-0.05937391 -0.036436908 0.009479001 -0.03396193 -0.12832859 -0.00054329634 -0.004097372 -0.13084303
0.054561157 0.00027579756 -0.012430872 -0.017329074 0.0077451854 0.0050472077 0.05523801 0.14002323
-0.023905559 0.022219302 -0.32083514 -0.0030072378 -0.05225825 -0.03470329 6.6332774e-05 -0.0017919646
-0.00049607625 -0.0010887468 -0.03611358 0.00028645745 -0.016830502 -0.028415142 -0.0029952603 -0.0015493876
0.0021049806 0.002246786 0.0017151596 0.026898785 0.005083611 -0.0051567894 0.002902064 0.051370647
-0.0017107022 -0.0053311223 0.0003211049 0.11845673 0.006730944 -0.000788303 0.28118142 -0.005922489
0.0033926913 0.08489414 0.000789026 0.0011663742 0.021299142 -0.00046002847 -0.0066056093 0.0792603
0.011816456 -0.0009144355 0.0028151202 0.022819694 0.0010616417 -0.003923333 0.0049717403 0.005896484
0.09754954 0.033326328 0.00045498903 -0.0030618017 0.0029557243 0.006108856 -0.31736964 -0.0012054957
0.010480871 0.046074625 -0.03447458 0.0025907636 0.0071009654 -0.00048432476 0.008266101 -0.0027086912
0.21005124 -0.0005637759 -0.023829272 0.0047517926 0.00024840844 -0.044598438 0.005341495 -0.004635803
0.853813 -0.05494632 -0.022174131 0.0033116145 0.021327807 -0.15993926 -0.005956963 0.0014910455
0.008704056 0.43983674 -0.0085439235 -0.0085189445 -0.009727153 -0.015004337 0.0011356694 -0.011290321
-0.0045691277 -0.0042411517 0.01842079 -0.09577244 0.008398156 0.0024828825 -0.00040947282 -0.0019293515
