examples/catchment_models/training/runs/usa_time_split_2404_015859/model_epoch019.pt (torch, 316229 bytes, 5 tensors)

lstm.weight_ih_l0 f4 [512, 23]
0.33561 0.8504055 0.12875901 0.24628648 0.02743857 0.34324893 0.21949954 -0.10931459
0.06675228 0.09125223 -0.3077524 -0.19777395 -0.6463335 -0.011444792 0.17096162 0.036113154
0.2442296 0.28725767 -0.47040322 0.5026622 -0.2744406 -0.43148795 0.061620384 0.06180362
-0.12798326 0.34640437 0.26703382 0.30759776 0.13676573 -0.1909861 0.26084557 -0.037350316
-0.028988658 0.026980989 -0.11902072 -0.18462875 -0.00631913 0.010665396 -0.15962143 -0.21790697
-0.123410694 -0.06185108 -0.089826345 0.0063260426 -0.049974784 0.097089276 0.20046788 0.108031556
-0.05283339 0.06793555 0.051169474 0.07617824 -0.07910913 0.023779072 -0.120647386 0.1459171
-0.25882444 -0.3144888 -0.18211679 0.0011148016 -0.19286709 0.06719977 0.27271107 0.14973746
0.0584425 -0.077410735 0.19039813 0.1507672 -0.049196664 0.023835951 0.37449667 0.19292754
-0.007980164 0.017257858 0.63082916 0.558804 -0.07545889 0.5163364 -0.10044878 -0.26000082
0.25030705 -0.3681764 -0.25170618 -0.094922386 0.47477192 0.3997437 0.3656382 -0.3361987
0.35609987 0.39359996 0.38127345 0.054647896 0.23372851 -0.12650941 0.46749333 0.938909
0.86566204 0.36041293 0.19520788 0.0950162 0.19273908 -0.33812714 0.26841477 0.0067494307
-0.68643355 0.37477836 0.16882372 0.26785663 0.7191428 0.5352283 -0.2878355 0.23959745
-0.26522607 -0.026875533 0.061017767 0.011116359 0.16027527 0.09026226 0.15284844 0.32761896
0.5396667 0.628215 -0.18425246 0.6155625 -0.08767393 -0.53282726 0.083183944 -0.132168
-0.33174047 -0.06649006 0.40579784 0.38921443 0.25194433 -0.5216938 0.40652868 0.2939049
0.56512856 0.17717233 -0.050520547 0.65297866 0.16674474 0.25957394 -0.6770661 0.19358285
0.12662213 0.3636522 -0.06115431 -0.38211158 -0.15401366 -0.19275218 0.08896068 0.49489692
0.37150854 0.0580084 -0.4850564 -0.250559 0.35365918 -0.5899122 -0.62026083 -0.19305745
0.08611866 0.41733712 -0.06615277 0.9219068 0.9758242 0.2268255 0.17950518 0.59723675
-0.10985657 0.61117244 -0.4490631 0.07428879 -0.30489057 -0.23090735 -0.5003376 0.33161494
0.40551683 0.35809362 0.25303352 -0.35212225 0.22360769 0.5208946 0.5790681 0.29904056
-0.37228742 -0.0647148 0.18729839 0.3244919 0.6890346 -0.1778223 0.13268124 -0.49994886
0.25763318 -0.22310679 0.5760879 -0.13345423 -0.5485503 -0.21472883 0.3144154 0.20595616
-0.072133556 0.1590792 -0.22036335 0.38507438 0.020531159 0.18427038 0.26595628 0.17954671
-0.21835314 -0.43610486 -0.13101703 -0.16471218 -0.08160795 0.24437328 0.20287853 0.035097037
0.26003003 -0.0039590127 -0.1162745 -0.16647038 0.13997968 0.17676327 0.08878885 -0.33898112
-0.09698601 -0.24189015 0.027213542 -0.12689579 -0.19284819 -0.12621082 -0.10413896 -0.15320243
-0.068905115 -0.49967125 -0.106489554 0.391237 0.30947492 -0.5946901 0.15675235 0.30156046
-0.5414069 0.24083386 -0.070687875 -0.31820062 -0.06337923 0.3358257 0.3773265 0.46357796
0.31489196 0.19119555 0.51947683 0.25332722 0.17144626 -0.106505014 -0.4643875 -0.10350903
00000000: 13d5 ab3e 2db4 593f 67d9 033e 8632 7c3e
00000010: dac6 e03c 53be af3e 7dc4 603e 54e0 dfbd
00000020: 6bb5 883d 73e2 ba3d b991 9dbe 4185 4abe
00000030: 1d76 25bf f082 3bbc 9010 2f3e 63eb 133d
00000040: 5317 7a3e 7013 933e b1d8 f0be 78ae 003f
00000050: 7a83 8cbe fdeb dcbe a865 7c3d cb25 7d3d
00000060: 0b0e 03be ea5b b13e a8b8 883e 747d 9d3e
00000070: 510c 0c3e dc91 43be 8d8d 853e a5fc 18bd
00000080: 9f79 edbc 3c07 dd3c 23c1 f3bd 520f 3dbe
00000090: b410 cfbb eabd 2e3c cd73 23be 0123 5fbe
000000a0: bfbe fcbd 8f57 7dbd e0f6 b7bd b14a cf3b
000000b0: 5cb2 4cbd bed6 c63d 7447 4d3e a63f dd3d
000000c0: d367 58bd cb21 8b3d 1597 513d 5603 9c3d
000000d0: f803 a2bd 54cc c23c fa15 f7bd 4b6b 153e
000000e0: a384 84be ad04 a1be d37c 3abe 891e 923a
000000f0: f37e 45be 08a0 893d c9a0 8b3e c754 193e
00000100: 6761 6f3d 8589 9ebd baf7 423e b862 1a3e
00000110: 7182 49bd 9d43 c33c 07be bf3e cc8e 453e
00000120: 3cbf 02bc 5a60 8d3c 057e 213f c70d 0f3f
00000130: 318a 9abd 9f2e 043f 17b8 cdbd d41e 85be
00000140: 3f28 803e 9e81 bcbe a2df 80be ab66 c2bd
00000150: 4e15 f33e 35ab cc3e ee34 bb3e 3c22 acbe
00000160: b952 b63e ef85 c93e 4636 c33e 79d6 5f3d
00000170: 8756 6f3e af8b 01be 495b ef3e 575c 703f
00000180: 079c 5d3f 0b88 b83e 93e4 473e da97 c23d
00000190: 655d 453e 001f adbe a96d 893e 542a dd3b
000001a0: 1cba 2fbf f3e2 bf3e 20e0 2c3e 8124 893e
000001b0: be19 383f b904 093f 2d5f 93be 0959 753e
000001c0: b6cb 87be 142a dcbc c4ed 793d 6421 363c
000001d0: 331f 243e 6bdb b83d 4d84 1c3e acbd a73e
000001e0: 9927 0a3f b3d2 203f adac 3cbe 8195 1d3f
000001f0: 648e b3bd 5e67 08bf 585c aa3d 0c57 07be
00000200: e3d9 a9be f12b 88bd bcc4 cf3e 1d47 c73e
00000210: d9fe 803e ba8d 05bf 8724 d03e b47a 963e
00000220: 44ac 103f aa6c 353e a2ee 4ebd 9c29 273f
00000230: 22bf 2a3e e0e6 843e 3454 2dbf 953a 463e
00000240: 3ba9 013e 9f30 ba3e f17c 7abd 21a4 c3be
00000250: c2b5 1dbe d460 45be 0431 b63d 2163 fd3e
00000260: 5e36 be3e 379a 6d3d 5059 f8be 4549 80be
00000270: d112 b53e 7c04 17bf 6ac9 1ebf dab0 45be
00000280: fb5e b03d 36ad d53e 1a7b 87bd 1602 6c3f
00000290: 9dcf 793f f244 683e 35d0 373e 82e4 183f
000002a0: 7bfc e0bd cc75 1c3f 99eb e5be b924 983d
000002b0: 9e1a 9cbe fa72 6cbe 2016 00bf 6fc9 a93e
000002c0: e79f cf3e 0c58 b73e 9c8d 813e 5e49 b4be
000002d0: 6af9 643e 5959 053f cf3d 143f d81b 993e
000002e0: 759c bebe 3189 84bd 26cb 3f3e cd23 a63e
000002f0: 9264 303f 0d17 36be 97dd 073e 4cf9 ffbe
00000300: 7fe8 833e 1b76 64be 7f7a 133f 3aa8 08be
00000310: cb6d 0cbf e0e1 5bbe 0efb a03e 2ce6 523e
00000320: c2ba 93bd a8e5 223e eea6 61be 7828 c53e
00000330: f630 a83c 60b1 3c3e 6c2b 883e 18db 373e
00000340: f797 5fbe 2349 dfbe 5429 06be 4faa 28be
00000350: 1222 a7bd fd3c 7a3e 64bf 4f3e e9c1 0f3d
00000360: a822 853e 9bba 81bb 5321 eebd 3677 2abe
00000370: d556 0f3e 6e01 353e eed6 b53d ef8e adbe
00000380: 9aa0 c6bd 0db2 77be efee de3c f8f0 01be
00000390: ff79 45be 693d 01be cf46 d5bd 19e1 1cbe
000003a0: 201e 8dbd e9d4 ffbe 3217 dabd 3750 c83e
000003b0: 7f73 9e3e 9c3d 18bf b083 203e 2266 9a3e
000003c0: a599 0abf 279d 763e cec4 90bd 31eb a2be
000003d0: f8cc 81bd 59f1 ab3e f030 c13e 175a ed3e
000003e0: 8539 a13e c4c8 433e 6ffc 043f 1bb4 813e
000003f0: 9c8f 2f3e 4d1f dabd 33c4 edbe 8bfc d3bd

lstm.weight_hh_l0 f4 [512, 128]
-0.13047913 -0.451874 0.42493063 -0.38261336 0.13447636 -0.25405756 -0.07984007 0.22769247
0.3666849 -0.016191415 0.24328277 -0.1445157 -0.124805465 -0.22931075 0.10791128 -0.43705794
0.29315847 -0.030014096 -0.09694413 0.09575488 -0.0561945 0.11849564 0.17263295 0.09891994
-0.076521784 0.015260548 -0.19535166 0.16057096 0.34178227 -0.0071337265 0.0512091 -0.15279572
-0.19741721 0.13038874 -0.0032412743 -0.57186925 0.09887878 0.4743539 -0.19614673 0.13088338
-0.35925978 -0.47335887 0.39312848 -0.13252066 -0.43977717 0.117356054 -0.26028898 -0.37036923
-0.43009618 -0.5722561 0.39999643 -0.017969979 -0.017768461 -0.5082227 -0.087125234 -0.25535685
0.2263457 0.18510643 -0.116341285 0.021081347 -0.38345724 0.048739187 0.049547598 -0.31396943
0.70579416 -0.055868465 -0.23622088 0.08539363 -0.1133402 -0.3792027 -0.20094505 0.0043775667
-0.21299148 0.089570984 -0.14066006 -0.27218467 -0.45351622 0.28221333 -0.22665955 -0.13918312
-0.36023477 -0.30528998 0.09551655 -0.1401401 0.1625966 0.4303803 -0.070010796 -0.45646864
0.12219271 -0.23439811 -0.14471999 -0.341501 0.20476225 -0.08926051 0.17815429 0.15774752
0.1352721 -0.104245484 0.22580473 -0.04408894 0.4077553 0.3165669 -0.2521835 0.3862564
0.13053128 -0.03294088 -0.104780994 -0.0818715 -0.26200557 -0.016014548 -0.08552405 -0.060209997
-0.26262444 -0.036827862 -0.11014443 0.05628605 0.046355974 0.08545766 0.21579114 0.16639484
-0.41959623 -0.33808956 -0.013269897 0.05256729 -0.08855532 -0.24633344 -0.29657388 0.09028879
-0.1792158 0.0334252 0.021827642 0.1513715 0.061156336 -0.06373721 -0.08970873 -0.04326806
0.09436566 0.03885565 0.042731088 -0.045764793 -0.08275012 0.11958164 0.10821603 0.12953104
0.076973036 -0.005779509 0.07482966 -0.10246844 -0.05425081 0.027488237 0.005859146 -0.007169031
-0.042524017 0.036263183 0.047660455 -0.1937713 0.005278685 -0.038208175 0.023615785 0.05360183
0.009489936 -0.089498155 0.065364756 0.0112681575 -0.077569164 -0.017837588 -0.043125898 0.015099808
0.0740107 -0.13236691 -0.047392674 -0.103692025 0.122473665 -0.22049217 0.03851983 -0.057764277
0.1575267 -0.08628155 0.15962085 0.17762701 -0.12384662 -0.049955554 -0.09709068 0.107324414
-0.09947596 -0.114304 0.1344625 -0.0867946 0.13513266 -0.020230584 0.09419038 -0.053035665
0.04752448 0.059255797 0.12252939 0.14783812 -0.03448084 0.02588829 0.06135426 0.1258107
0.11636769 0.093935326 -0.016722698 0.15617613 -0.07280676 0.0037147251 -0.15162884 -0.029546674
0.07481433 -0.02600345 -0.022410199 0.18940155 0.033296477 -0.049710747 -0.104034685 -0.04941895
0.036587343 -0.024905413 0.040743567 0.005718529 -0.073076084 0.10358283 0.119702466 0.1493169
0.034391962 0.06496498 -0.051062062 -0.03155455 0.09462848 0.01642184 0.17865707 0.0073616565
-0.033893537 -0.1611935 -0.11509208 0.0005834515 -0.0685036 0.11726363 -0.034236815 0.041058253
0.169687 0.17119125 0.096695475 0.0031614834 -0.09064755 -0.009958398 0.0070118764 -0.055666976
-0.03346307 0.027122572 0.12147081 -0.15081465 0.0607829 -0.0449375 -0.052143183 -0.010301968
00000000: 529c 05be 075c e7be 8290 d93e e6e5 c3be
00000010: 2cb4 093e d513 82be 3183 a3bd 3728 693e
00000020: 20be bb3e dca3 84bc 1e1f 793e ecfb 13be
00000030: 029a ffbd 70d0 6abe 9700 dd3d 0fc6 dfbe
00000040: de18 963e 1fe0 f5bc a58a c6bd 221b c43d
00000050: 342c 66bd d8ad f23d b1c6 303e 8a96 ca3d
00000060: 74b7 9cbd 6107 7a3c 440a 48be b76c 243e
00000070: 16fe ae3e 09c2 e9bb a2c0 513d 7b76 1cbe
00000080: bd27 4abe a084 053e 8f6b 54bb 0666 12bf
00000090: f580 ca3d 84de f23e b0da 48be 4b06 063e
000000a0: e6f0 b7be 185c f2be 2348 c93e 7fb3 07be
000000b0: 792a e1be 5f58 f03d 9944 85be 09a1 bdbe
000000c0: 9135 dcbe 607f 12bf 55cc cc3e c735 93bc
000000d0: 2a8f 91bc e21a 02bf b76e b2bd 22be 82be
000000e0: 2bc7 673e 8a8c 3d3e 5744 eebd cab2 ac3c
000000f0: 8254 c4be bea2 473d 6cf2 4a3d 9ac0 a0be
00000100: edae 343f 55d6 64bd e3e3 71be dbe2 ae3d
00000110: e81e e8bd db26 c2be 8ac4 4dbe b171 8f3b
00000120: 701a 5abe fe70 b73d 3109 10be ca5b 8bbe
00000130: 4733 e8be 447e 903e 7119 68be 0586 0ebe
00000140: b170 b8be f84e 9cbe 2e9e c33d e380 0fbe
00000150: b97f 263e cf5a dc3e d261 8fbd 42b6 e9be
00000160: 2c40 fa3d 0f06 70be 7a31 14be 38d9 aebe
00000170: 32ad 513e 37ce b6bd 146e 363e 9188 213e
00000180: c584 0a3e a87e d5bd 5b39 673e 9b96 34bd
00000190: 4dc5 d03e 0f15 a23e 321e 81be 66c3 c53e
000001a0: fea9 053e 04ed 06bd 6b97 d6bd 3fac a7bd
000001b0: 9825 86be f130 83bc 3c27 afbd c29e 76bd
000001c0: b676 86be d0d8 16bd 6793 e1bd 338c 663d
000001d0: c3df 3d3d 6d04 af3d 5af8 5c3e 6963 2a3e
000001e0: 51d5 d6be 131a adbe fb69 59bc cc50 573d
000001f0: 7e5c b5bd d53e 7cbe 88d8 97be 54e9 b83d
00000200: 5984 37be dde8 083d e2cf b23c 2101 1b3e
00000210: 117f 7a3d a888 82bd 36b9 b7bd d939 31bd
00000220: c842 c13d 1a27 1f3d cb06 2f3d dd73 3bbd
00000230: e578 a9bd 38e7 f43d 5ea0 dd3d c9a3 043e
00000240: 0aa4 9d3d 0962 bdbb 4b40 993d f9da d1bd
00000250: 1936 5ebd 032f e13c 14fe bf3b 31ea eabb
00000260: aa2d 2ebd b488 143d 9c37 433d fc6b 46be
00000270: d2f8 ac3b 2d80 1cbd e475 c13c 988d 5b3d
00000280: ad7b 1b3c cf4a b7bd f5dd 853d 149e 383c
00000290: 95dc 9ebd 2220 92bc c8a4 30bd 2f65 773c
000002a0: ec92 973d 318b 07be d21e 42bd 7c5c d4bd
000002b0: 79d3 fa3d b3c8 61be f8c6 1d3d 3c9a 6cbd
000002c0: ae4e 213e 62b4 b0bd a673 233e dbe3 353e
000002d0: 4ca3 fdbd 329e 4cbd 7ad7 c6bd e7cc db3d
000002e0: 0dba cbbd 3718 eabd 8ab0 093e 5ec1 b1bd
000002f0: 3760 0a3e 9cba a5bc e3e6 c03d ed3b 59bd
00000300: 07a9 423d 35b6 723d b0f0 fa3d e062 173e
00000310: c83b 0dbd ae13 d43c 9b4e 7b3d 85d4 003e
00000320: 2f52 ee3d 2a61 c03d 0afe 88bc a3ec 1f3e
00000330: b61b 95bd bf72 733b 9744 1bbe de0b f2bc
00000340: 4138 993d 3005 d5bc 9895 b7bc 7bf2 413e
00000350: e361 083d 7f9d 4bbd 2310 d5bd 866b 4abd
00000360: 9cdc 153d 7006 ccbc bae2 263d 8062 bb3b
00000370: eaa8 95bd 3c23 d43d 9126 f53d 88e6 183e
00000380: 96de 0c3d 5c0c 853d 7426 51bd 583f 01bd
00000390: 94cc c13d 1887 863c e1f1 363e 0d3a f13b
000003a0: f3d3 0abd e90f 25be 65b5 ebbd c4f2 183a
000003b0: 9e4b 8cbd ea27 f03d e73b 0cbd b32c 283d
000003c0: 6ec2 2d3e c24c 2f3e 4708 c63d e430 4f3b
000003d0: 6ca5 b9bd 8c28 23bc e2c3 e53b 0e03 64bd
000003e0: 9210 09bd 2830 de3c b0c5 f83d 286f 1abe
000003f0: 7df7 783d 6210 38bd 1794 55bd 96c9 28bc

lstm.bias_ih_l0 f4 [512]
-0.24908768 -0.029580833 -0.17601947 -0.50990134 -0.017258288 -0.79266125 -0.082432725 -0.44297454
-0.038067803 -0.26685226 -0.2858548 -0.10311508 -0.22799252 -0.6141611 -0.20238157 -0.620142
-0.53763473 -0.578392 -0.56861144 -0.4591081 -0.47889882 -0.34639132 -0.1923183 -0.74817574
-0.53931457 -0.0861354 -0.025692463 -0.1822789 -0.6110914 -0.2037951 -0.54215723 -0.64490205
-0.4899653 -0.19831394 -0.8072677 -0.44973052 -0.61214465 -0.40280038 0.09194557 -0.353191
0.046594005 -0.33787164 -0.64378184 -0.1647666 -0.26334497 -0.27835542 -0.37564632 -0.077024445
-0.07179886 -0.400484 -0.31819615 -0.49920774 0.16829209 -0.029572578 -0.0033677395 -0.36975464
0.035612892 0.043592796 -0.20690064 -0.73021287 -0.16700166 -0.42534316 -0.775451 -0.20828356
0.0036466373 -0.7727778 -0.43597797 -0.15739222 -0.5443384 0.2308515 -0.3653361 -0.55994314
-0.12440658 -0.20098592 -0.30690497 -0.70275295 -0.38572603 -0.175067 -0.22637998 -0.43677324
-0.75568295 -0.45876187 -0.3341226 0.17772473 -0.16367194 -0.44018877 -0.9302241 0.03969071
-0.58491004 -0.37942192 -0.15072434 -0.14016892 -0.40485013 -0.10294506 -0.24205743 -0.6813752
-0.6944371 -0.18240482 -0.42049783 -0.35590935 -0.032890726 -0.41268945 0.017617049 -0.29587507
-0.87652797 -0.14142872 -0.33151823 -0.58743906 -0.40074 -0.6774635 -0.24245135 -0.45547998
-0.07230238 -0.78523475 -0.30072325 -0.4946205 -0.22159697 -0.5809506 -0.040510464 -0.16389972
-0.117969304 -0.23341961 -0.43333036 -0.5079956 -0.36409703 -0.49551526 -0.16941063 -0.20412499
0.012739495 0.024872346 0.13624729 -0.60154855 -0.14157975 -0.57203716 -0.011975446 -0.1442784
-0.030365076 0.26773247 -0.4106884 0.1882262 -0.23432903 -0.48932025 0.24812596 -0.3939677
-0.5903846 -0.65444857 -0.6374885 -0.59504443 -0.5737342 -0.26742995 0.05306981 -0.6314802
-0.44339854 -0.12230717 -0.10614459 -0.14422332 -0.5113321 0.06433652 -0.4376942 -0.7009762
-0.20205429 -0.46664974 -0.96680623 -0.09264463 -0.5771982 -0.017624656 0.107303865 0.015232192
0.35624754 -0.08313322 -0.5203146 0.15880238 -0.14450662 0.2564631 0.22416168 -0.010067665
0.04286195 -0.34319353 -0.31642923 -0.359052 0.38694036 0.07353327 0.07152832 -0.5647653
0.27780637 0.3078483 0.06276459 -0.7173903 -0.2989198 -0.10886811 -0.57989687 -0.12541811
-0.24746107 -0.7654491 -0.217894 0.062837325 -0.36059865 0.023299128 -0.42659482 -0.6143515
-0.31378964 0.056305498 -0.12622514 -0.4869125 -0.055159476 -0.373974 0.3190801 0.5118051
-0.47120762 -0.26359773 -0.27653992 0.2582115 -0.37755525 -0.15245749 -0.84986925 0.40297082
-0.24941488 -0.4662328 -0.19981967 0.40917125 -0.18165165 0.0044416944 -0.026822375 -0.5819476
-0.6826058 -0.032999314 -0.059599526 0.09263056 0.016085831 -0.10779731 -0.114941716 0.18533713
-0.7035877 -0.33558375 -0.18981639 -0.4341858 -0.30414477 -0.6555471 -0.015084361 -0.40872684
-0.020842368 -0.67080355 -0.17737688 -0.16389297 0.26126415 -0.4730397 0.031081786 0.2353807
-0.0025430396 0.29680473 -0.3150037 -0.39031756 -0.006543857 -0.08729651 -0.11386482 0.07574474
00000000: d710 7fbe 8153 f2bc 733e 34be e588 02bf
00000010: 4161 8dbc d9eb 4abf 7dd2 a8bd 8fcd e2be
00000020: fcec 1bbd dca0 88be 8f5b 92be 002e d3bd
00000030: df76 69be a939 1dbf 1d3d 4fbe a0c1 1ebf
00000040: 6ea2 09bf 8011 14bf 8590 11bf 3810 ebbe
00000050: 3a32 f5be 345a b1be 17ef 44be 7288 3fbf
00000060: 8510 0abf c267 b0bd 0079 d2bc 52a7 3abe
00000070: 7c70 1cbf aaaf 50be d1ca 0abf 4d18 25bf
00000080: bbdc fabe cf12 4bbe 19a9 4ebf 1443 e6be
00000090: 83b5 1cbf da3b cebe f64d bc3d 73d5 b4be
000000a0: 5bd9 3e3d 83fd acbe e3ce 24bf 93b8 28be
000000b0: 27d5 86be 9a84 8ebe b754 c0be febe 9dbd
000000c0: 480b 93bd 3d0c cdbe 9bea a2be 2898 ffbe
000000d0: c354 2c3e 3142 f2bc 4bb5 5cbb 7b50 bdbe
000000e0: d3de 113d 5c8e 323d c3dd 53be 3bef 3abf
000000f0: 7c02 2bbe 94c6 d9be f583 46bf 4948 55be
00000100: 6cfc 6e3b c4d4 45bf 8138 dfbe 6d2b 21be
00000110: c359 0bbf 5664 6c3e 550d bbbe 6f58 0fbf
00000120: e1c8 febd 41cf 4dbe a622 9dbe 9ee7 33bf
00000130: e27d c5be c344 33be 27d0 67be bea0 dfbe
00000140: 7074 41bf d6e2 eabe 1e12 abbe 79fd 353e
00000150: 9e99 27be 6c60 e1be 2b23 6ebf ba92 223d
00000160: aabc 15bf 9743 c2be 7b57 1abe 7188 0fbe
00000170: 8448 cfbe dcd4 d2bd e7dd 77be 9b6e 2ebf
00000180: a1c6 31bf 54c8 3abe 7e4b d7be c039 b6be
00000190: 6db8 06bd 084c d3be a151 903c f07c 97be
000001a0: 2364 60bf b1d2 10be c2bc a9be 6862 16bf
000001b0: cb2d cdbe 3f6e 2dbf 2b45 78be ac34 e9be
000001c0: 4513 94bd 2505 49bf 66f8 99be e63e fdbe
000001d0: 51ea 62be 2eb9 14bf 4dee 25bd 54d5 27be
000001e0: e499 f1bd 8d05 6fbe 7add ddbe 000c 02bf
000001f0: ed6a babe 2db4 fdbe fb79 2dbe 2406 51be
00000200: 51b9 503c 17c1 cb3c 6984 0b3e 16ff 19bf
00000210: 48fa 10be 0771 12bf a934 44bc b8bd 13be
00000220: 2ec0 f8bc 3b14 893e c045 d2be 5ebe 403e
00000230: f3f3 6fbe 2f88 fabe bb14 7e3e 22b6 c9be
00000240: 7223 17bf f189 27bf 7232 23bf d554 18bf
00000250: 3fe0 12bf 94ec 88be bb5f 593d b0a8 21bf
00000260: 2205 e3be 2e7c fabd 5662 d9bd 47af 13be
00000270: a9e6 02bf dec2 833d 7419 e0be 2d73 33bf
00000280: 52e7 4ebe b7ec eebe 9d80 77bf 78bc bdbd
00000290: 43c3 13bf 9561 90bc 21c2 db3d 7290 793c
000002a0: 1466 b63e c041 aabd 5633 05bf 179d 223e
000002b0: 8bf9 13be 224f 833e a48a 653e d9f2 24bc
000002c0: 0390 2f3d 10b7 afbe 0303 a2be aad5 b7be
000002d0: 0c1d c63e 9c98 963d 717d 923d 7594 10bf
000002e0: a33c 8e3e 4b9e 9d3e b98a 803d e4a6 37bf
000002f0: 040c 99be 3ef6 debd 1f74 14bf 9b6d 00be
00000300: 6f66 7dbe 79f4 43bf 9b1f 5fbe dbb0 803d
00000310: 63a0 b8be d0dd be3c a36a dabe 2446 1dbf
00000320: 09a9 a0be 98a0 663d 2a41 01be 984c f9be
00000330: e7ee 61bd 8579 bfbe 785e a33e a905 033f
00000340: 2042 f1be 48f6 86be a496 8dbe 4c34 843e
00000350: ec4e c1be d11d 1cbe 0891 59bf 3152 ce3e
00000360: 9d66 7fbe 11b6 eebe 879d 4cbe e57e d13e
00000370: e402 3abe a28b 913b 99ba dbbc 85fa 14bf
00000380: 41bf 2ebf 4a2a 07bd a21e 74bd 17b5 bd3d
00000390: 6fc6 833c d6c4 dcbd 9066 ebbd 04c9 3d3e
000003a0: 531e 34bf a2d1 abbe 3a5f 42be 9a4d debe
000003b0: ddb8 9bbe efd1 27bf 6524 77bc a544 d1be
000003c0: 9dbd aabc c8b9 2bbf 49a2 35be 8fd3 27be
000003d0: 6ac4 853e 4232 f2be 3b9f fe3c a307 713e
000003e0: 20a9 26bb caf6 973e 2a48 a1be b4d7 c7be
000003f0: da6d d6bb 83c8 b2bd f531 e9bd 0f20 9b3d

lstm.bias_hh_l0 f4 [512]
-0.27531934 -0.07769952 -0.2329978 -0.6067319 -0.1454663 -0.8256362 -0.19142939 -0.33672702
-0.03911432 -0.36258405 -0.38853264 -0.13195284 -0.30330536 -0.56258744 -0.27312058 -0.6386553
-0.49852112 -0.4868848 -0.583405 -0.51474035 -0.60698515 -0.34578663 -0.2726203 -0.72710466
-0.5635878 -0.14185862 -0.07053724 -0.18781723 -0.6546695 -0.19972229 -0.51610446 -0.6746515
-0.3663324 -0.20339635 -0.8440772 -0.4586757 -0.5100264 -0.41082606 -0.019941889 -0.4708634
0.11440621 -0.32819736 -0.6121312 -0.12980188 -0.32773426 -0.25737968 -0.38668686 -0.00032796178
-0.02055276 -0.41790488 -0.31382254 -0.5098564 0.12266484 -0.036056425 -0.09380074 -0.46723205
0.052044027 0.06487401 -0.13416228 -0.6004677 -0.3278788 -0.5294308 -0.868606 -0.19924945
0.100377046 -0.7219753 -0.35561514 -0.06666309 -0.6048126 0.17227553 -0.3068122 -0.59949416
-0.019685218 -0.2826299 -0.30477896 -0.7100242 -0.31869885 -0.2143134 -0.09138626 -0.43405053
-0.75025624 -0.5591898 -0.39656827 0.1727599 -0.18446513 -0.4795752 -0.92797184 0.049412042
-0.4972514 -0.46122962 -0.21310566 -0.174572 -0.40639818 -0.053707305 -0.17504685 -0.70286447
-0.7962457 -0.11727331 -0.4932434 -0.37232187 -0.14646766 -0.28536743 0.038465448 -0.23042431
-0.857275 -0.07691406 -0.37376937 -0.5208799 -0.36948422 -0.77170044 -0.23180798 -0.4980703
-0.0013167958 -0.79300237 -0.27908075 -0.48441878 -0.17573573 -0.5079535 -0.087693594 -0.20197994
-0.14887889 -0.30273497 -0.41549873 -0.5752467 -0.2558987 -0.53045714 -0.32259378 -0.29120904
3.0134518 2.9796042 3.1061585 2.4491634 2.885089 2.4141202 3.037846 2.8060126
2.9164238 3.2538953 2.6768255 3.1851792 2.7344742 2.524186 3.2797225 2.5471919
2.3699343 2.4279492 2.2894866 2.478214 2.4206316 2.7212176 2.9794734 2.3113606
2.5920315 2.8136578 2.8881884 2.8302093 2.523217 3.0060313 2.4857664 2.2110014
2.87408 2.5177302 1.982866 2.8975217 2.3477516 2.9035892 3.0586784 2.9357905
3.3229911 2.914466 2.5557137 3.085571 2.8356411 3.2310634 3.1642907 2.966663
3.0985303 2.6540248 2.7444322 2.5880847 3.3722851 3.0372646 3.141875 2.4855182
3.1995711 3.239555 3.0611038 2.3376658 2.746912 2.8481357 2.3855863 2.8448002
2.7081797 2.3223338 2.782379 2.9985998 2.610848 3.0010304 2.556076 2.4515634
2.7445698 2.9774117 2.848375 2.5161285 2.8733354 2.6018345 3.3134408 3.47629
2.5510116 2.6644177 2.707582 3.2059631 2.590897 2.8121297 2.1007023 3.4063306
2.7450788 2.5075145 2.7620618 3.3553293 2.8197603 2.9242692 2.9802241 2.3624513
2.396847 2.9355443 2.8985023 3.0419855 3.001156 2.9162295 2.918294 3.146284
2.3635082 2.5957875 2.7699926 2.5029685 2.6510184 2.3134174 2.9756794 2.6117635
3.0526977 2.3023582 2.739494 2.7802088 3.202267 2.6097157 3.0018036 3.1990798
3.0680263 3.2441602 2.7002842 2.5215125 2.9657073 2.9068217 2.887376 3.0670123
00000000: a8f6 8cbe ed20 9fbd fa96 6ebe c852 1bbf
00000010: 1ef5 14be e55c 53bf 1106 44be 7c67 acbe
00000020: 5636 20bd 9ea4 b9be c0ed c6be a51e 07be
00000030: d74a 9bbe bb05 10bf 76d6 8bbe ea7e 23bf
00000040: 293e ffbe f748 f9be 085a 15bf 06c6 03bf
00000050: 6163 1bbf f20a b1be e394 8bbe 8823 3abf
00000060: 4a47 10bf 6343 11be d475 90bd 2953 40be
00000070: 6c98 27bf 0084 4cbe 6c1f 04bf f6b5 2cbf
00000080: ec8f bbbe 2247 50be 7215 58bf 8bd7 eabe
00000090: 1791 02bf cb57 d2be 2c5d a3bc 0215 f1be
000000a0: ce4d ea3d 7c09 a8be a1b4 1cbf c9ea 04be
000000b0: c9cc a7be 45c7 83be d2fb c5be 49f2 abb9
000000c0: 435e a8bc a1f7 d5be 59ad a0be f385 02bf
000000d0: b437 fb3d e7af 13bd 9a1a c0bd 0a39 efbe
000000e0: 1e2c 553d aadc 843d d661 09be 40b8 19bf
000000f0: bbdf a7be c788 07bf f65c 5ebf 0c08 4cbe
00000100: 7b92 cd3d 60d3 38bf 3013 b6be a886 88bd
00000110: 00d5 1abf ff68 303e 7d16 9dbe 7378 19bf
00000120: e542 a1bc deb4 90be fd0b 9cbe 25c4 35bf
00000130: 7f2c a3be f974 5bbe b828 bbbd df3b debe
00000140: cb10 40bf 1027 0fbf ff0a cbbe f9e7 303e
00000150: 6de4 3cbe e18a f5be 908f 6dbf 4864 4a3d
00000160: bc97 febe 4a26 ecbe 5f38 5abe 01c3 32be
00000170: 6c13 d0be 31fc 5bbd 7b3f 33be edee 33bf
00000180: c2d6 4bbf fd2c f0bd 668a fcbe f9a0 bebe
00000190: 9efb 15be ae1b 92be f28d 1d3d 5af4 6bbe
000001a0: 6076 5bbf 1e85 9dbd b35e bfbe 6358 05bf
000001b0: 092d bdbe 298e 45bf 125f 6dbe 1203 ffbe
000001c0: 5698 acba 3402 4bbf ace3 8ebe bd05 f8be
000001d0: 11f4 33be 3e09 02bf b398 b3bd d4d3 4ebe
000001e0: b573 18be 1400 9bbe 40bc d4be 5e43 13bf
000001f0: 2805 83be 0acc 07bf 032b a5be 5a19 95be
00000200: 65dc 4040 d6b1 3e40 4dcb 4640 18bf 1c40
00000210: 4ca5 3840 f280 1a40 126c 4240 b695 3340
00000220: b0a6 3a40 d23f 5040 1c51 2b40 fad9 4b40
00000230: a001 2f40 438c 2140 f9e6 5140 3105 2340
00000240: 01ad 1740 8563 1b40 f386 1240 0f9b 1e40
00000250: a1eb 1a40 6e28 2e40 b1af 3e40 55ed 1340
00000260: d8e3 2540 f812 3440 14d8 3840 2622 3540
00000270: 637c 2140 d162 4040 cc16 1f40 0c81 0d40
00000280: edf0 3740 7e22 2140 8ece fd3f ff70 3940
00000290: 9041 1640 68d4 3940 63c1 4340 fee3 3b40
000002a0: e3ab 5440 9c86 3a40 d090 2340 ff79 4540
000002b0: 257b 3540 bec9 4e40 bd83 4a40 cedd 3d40
000002c0: 524e 4640 8bdb 2940 c7a4 2f40 2ea3 2540
000002d0: 85d3 5740 8b62 4240 7b14 4940 bb12 1f40
000002e0: c6c5 4c40 de54 4f40 20e9 4340 519c 1540
000002f0: 68cd 2f40 db47 3640 72ad 1840 3511 3640
00000300: d152 2d40 1ea1 1440 7f12 3240 0fe9 3f40
00000310: 2218 2740 e210 4040 c096 2340 6ae6 1c40
00000320: 08a7 2f40 ea8d 3e40 c74b 3640 4008 2140
00000330: bae4 3740 7584 2640 6a0f 5440 897b 5e40
00000340: c643 2340 d285 2a40 0649 2d40 802e 4d40
00000350: 42d1 2540 eff9 3340 e871 0640 5201 5a40
00000360: 5faf 2f40 1e7b 2040 9fc5 3040 b7bd 5640
00000370: f476 3440 3a27 3b40 febb 3e40 6732 1740
00000380: f165 1940 f5df 3b40 1081 3940 e4af 4240
00000390: f112 4040 81a3 3a40 54c5 3a40 b85c 4940
000003a0: b843 1740 6221 2640 8f47 3140 a330 2040
000003b0: 49aa 2940 080f 1440 8871 3e40 2227 2740
000003c0: 665f 4340 d659 1340 df53 2f40 f1ee 3140
000003d0: f1f1 4c40 9505 2740 8d1d 4040 b9bd 4c40
000003e0: 8b5a 4440 52a0 4f40 75d1 2c40 7660 2140
000003f0: 26ce 3d40 5e09 3a40 c5ca 3840 ee49 4440

head.net.0.weight f4 [1, 128]
-0.0030401782 0.0035921892 0.00057370955 0.090342596 0.00018255263 0.21397962 0.0015477398 0.018372416
-0.0133986175 0.012772634 -0.1281437 0.0059953597 -0.013635053 -0.15961581 0.0012321257 0.014353833
-0.5545944 -0.29649714 0.13357542 -0.13881457 -0.24796343 -0.019151548 -0.044557188 -0.49228522
0.0846399 0.0008968737 -0.010840363 -0.012697658 0.034921575 0.01570923 0.3148014 0.6524304
-0.007274179 0.010581198 -0.6622522 -0.0033122748 -0.2898579 -0.021739358 0.0003714137 -0.0107015185
0.06819798 0.02586699 -0.13557933 -0.0034329125 0.0023767743 -0.01255706 -0.008336208 -0.005032094
0.0019398556 -0.00070087955 -0.003969345 0.021573214 -0.017174728 -0.00116512 -0.004500859 0.11490724
-0.007425291 -0.043075148 -0.00036617785 0.46782416 0.008489633 -0.006324271 0.8639199 -0.006461144
0.00041660244 0.22239745 0.00026107437 0.0018942617 0.11209221 0.055716135 0.023231324 0.21710771
0.010527533 -0.03988116 0.08708076 0.10774173 0.0068198354 -0.047340773 0.029569153 0.0005069699
0.33251828 0.054775614 -0.011913035 0.026766911 0.0008897729 0.019460311 -0.9139455 -0.005177123
0.022621054 0.09803446 -0.08228003 0.0015553006 0.02576575 -0.00018829558 -0.013080421 -0.31354538
1.0423957 0.0049247206 -0.018593233 0.0011590332 0.0006873549 -0.003286637 0.0017421761 0.01599832
2.477032 -0.05630444 -0.0107115535 0.009588959 0.16442579 -1.2816917 -0.1425072 -0.0050308714
0.0016396319 2.176778 0.007441756 0.013488425 -0.0026519976 -0.03281026 0.0009443398 -0.10130016
0.01227465 -0.014477948 0.057693057 -0.09510876 0.001571198 -0.0009145457 0.009431871 0.007028723
00000000: ba3d 47bb ef6a 6b3b ff64 163a 8a05 b93d
00000010: 996b 3f39 791d 5b3e 88dd ca3a c081 963c
00000020: e085 5bbc 4f44 513c 1a38 03be b974 c43b
00000030: 8f65 5fbc 5472 23be 477f a13a 572c 6b3c
00000040: e6f9 0dbf 79ce 97be ffc7 083e 6825 0ebe
00000050: 20ea 7dbe b5e3 9cbc 9981 36bd cf0c fcbe
00000060: af57 ad3d 2d1c 6b3a c79b 31bc d609 50bc
00000070: ed09 0f3d a5b0 803c a62d a13e ae05 273f
00000080: 3c5c eebb c35c 2d3c 5c89 29bf c012 59bb
00000090: 4168 94be bd16 b2bc 4eba c239 6c55 2fbc
000000a0: 62ab 8b3d 03e7 d33c 4fd5 0abe b7fa 60bb
000000b0: a8c3 1b3b 21bc 4dbc 9794 08bc 44e4 a4bb
000000c0: c142 fe3a 3bbb 37ba 4711 82bb 4fba b03c
000000d0: 04b2 8cbc f1b6 98ba f17b 93bb 7d54 eb3d
000000e0: db4f f3bb 916f 30bd 8ffb bfb9 a686 ef3e
000000f0: 1a18 0b3c d53b cfbb db29 5d3f 01b8 d3bb
00000100: 6f6b da39 28bc 633e cfe0 8839 e048 f83a
00000110: 9a90 e53d 9a36 643d 9e4f be3c 7c51 5e3e
00000120: ac7b 2c3c 6d5a 23bd 6657 b23d b2a7 dc3d
00000130: ed78 df3b 66e8 41bd 023b f23c 2de6 043a
00000140: d63f aa3e 655c 603d e42e 43bc 4846 db3c
00000150: a63f 693a 3b6b 9f3c 55f8 69bf dba4 a9bb
00000160: ca4f b93c 4ac6 c83d 6f82 a8bd 3adb cb3a
00000170: b212 d33c 3671 45b9 434f 56bc 0589 a0be
00000180: 396d 853f 8d5f a13b d650 98bc b3ea 973a
00000190: 9b2f 343a 9e64 57bb bb59 e43a e90e 833c
000001a0: b187 1e40 7c9f 66bd 837f 2fbc 021b 1d3c
000001b0: 3c5f 283e 790e a4bf 68ed 11be 02da a4bb
000001c0: ebe8 d63a 5550 0b40 f9d9 f33b 8efe 5c3c
000001d0: 23cd 2dbb 0d64 06bd 928d 773a 7576 cfbd
000001e0: 9d1b 493c ea34 6dbc 8e4f 6c3d 62c8 c2bd
000001f0: a8f0 cd3a 1fbe 6fba 2288 1a3c 3451 e63b
