examples/catchment_models/training/runs/usa_time_split_2404_015859/model_epoch032.pt (torch, 316229 bytes, 5 tensors)

lstm.weight_ih_l0 f4 [512, 23]
000000 90 97 ac 3e 08 49 58 3f 4c 6e a8 3d e6 74 47 3e
       0.33709383 0.84486437 0.082241625 0.19478187
000010 b3 f2 6b 3c 7b 3b b7 3e d6 15 3d 3e c1 09 15 be
       0.014401126 0.35787567 0.18465361 -0.14554502
000020 dd 07 0a 3d 11 dd e4 3d ec 9a a4 be 4f 52 54 be
       0.033698905 0.111749776 -0.32149446 -0.20734523
000030 a5 45 21 bf eb bc 08 bc d4 92 08 3e f1 1f 9b 3c
       -0.62996894 -0.008345823 0.1333726 0.01893613
000040 e9 1f 8c 3e a8 2a 93 3e 4b b5 e4 be 9d 60 01 3f
       0.27368096 0.28743482 -0.44669566 0.50538045
000050 b1 bd 90 be 37 34 ed be c5 e1 41 3d 70 99 a5 3c
       -0.28269723 -0.463289 0.04733445 0.020214766
000060 a2 f3 13 be fd 20 c3 3e f7 75 9c 3e 27 e3 ad 3e
       -0.14448407 0.38111106 0.3055875 0.33962366
000070 b8 8a 0e 3e f0 95 49 be 3e 27 8e 3e e9 ae 58 bd
       0.13920105 -0.19686103 0.27764314 -0.052901182
000080 49 c6 3e bd ee a0 97 bc dc c7 db bd 0b 68 6f be
       -0.04657582 -0.018509354 -0.107314795 -0.23379533
000090 ec 4a c5 3b a5 cf 55 3c 78 83 28 be 20 1e 7a be
       0.0060208943 0.013049995 -0.16456401 -0.24425554
0000a0 ff 43 24 be e8 4c 39 bd b7 41 ef bd b3 9c 8c bc
       -0.16041563 -0.04523936 -0.11682456 -0.017164564
0000b0 26 3a ad bd 26 9b 92 3d c1 d6 22 3e b4 be f9 3d
       -0.084583566 0.071584985 0.15902235 0.12194577
0000c0 0c 41 d6 bd 3a 98 58 3d 78 fe 85 3b c8 ef db 3d
       -0.104616255 0.05287955 0.004089173 0.10739094
0000d0 ec 91 e0 bd ff 51 a1 3c ca 98 14 be 5a 6c 1a 3e
       -0.109653324 0.01969242 -0.1451141 0.15080395
0000e0 80 85 96 be 5b 18 a6 be 1f 36 2c be fa 7d 50 3c
       -0.29398727 -0.32440457 -0.1681752 0.012725348
0000f0 d1 86 75 be de 4b 71 3d 8c b1 83 3e 19 19 fd 3d
       -0.2397721 0.058910243 0.25721395 0.123583026
000100 17 c8 08 3d 0d a5 3e bd 79 a1 42 3e 20 59 29 3e
       0.033393946 -0.046544123 0.1900691 0.16537905
000110 a0 8b 33 bd 0e 15 84 3c d5 65 cb 3e f7 f7 7a 3e
       -0.04383433 0.01612332 0.3972613 0.24508654
000120 4d 4b dd 3c 3e fb 80 3d f7 c8 20 3f 65 6a 13 3f
       0.027013445 0.06297921 0.6280665 0.5758422
000130 d4 b7 0a 3d 12 b7 01 3f c5 20 8b bd f5 aa a0 be
       0.03386672 0.5066997 -0.0679336 -0.3138043
000140 2f fb 74 3e 74 c1 c3 be 52 e1 91 be 48 7c d2 bd
       0.23923944 -0.3823353 -0.28492218 -0.10277611
000150 55 5d f5 3e 4a 30 c2 3e 12 cd a8 3e 2e 94 97 be
       0.4792277 0.37927467 0.32968956 -0.2960524
000160 03 ac 8e 3e 29 bf dd 3e f1 8a b9 3e 48 ff 42 3c
       0.2786561 0.43309906 0.36238816 0.011901684
000170 95 86 73 3e cb e5 0d be 77 d2 e4 3e 42 4e 77 3f
       0.23781808 -0.1385719 0.44691822 0.96603787
000180 2c 69 7e 3f 1a 12 9c 3e 5e b7 de 3d 12 82 70 3d
       0.9937923 0.3048256 0.10874818 0.058717795
000190 1c 0f bf 3d ea 0d a0 be b4 1c 81 3e 90 fc d2 3c
       0.09329054 -0.31260616 0.2521721 0.025755197
0001a0 e6 31 2c bf 7e ae ee 3e f9 9f 09 3e 43 41 23 3e
       -0.6726364 0.46617502 0.13439931 0.15942864
0001b0 da a8 26 3f 2c ba f0 3e 55 d6 a8 be 07 d5 93 3e
       0.651014 0.47017038 -0.32976022 0.28873464
0001c0 75 bb aa be f7 37 05 be be 15 0a bd 8e 95 00 3d
       -0.33346143 -0.1300963 -0.03371214 0.031392626
0001d0 cc 14 2e 3e 55 59 30 3d d3 49 05 3e 2f 5c 9d 3e
       0.17000121 0.043053944 0.13016443 0.30734393
0001e0 ce 73 11 3f 41 dc 22 3f 66 dd 37 be 62 56 20 3f
       0.5681733 0.6361733 -0.1795555 0.6263181
0001f0 c5 59 d1 bd e6 49 fb be c1 07 b1 3d 8e a1 e3 bd
       -0.102222 -0.49079818 0.08644057 -0.111147985
000200 f2 99 80 be 0c 00 59 bd 7d be de 3e a2 30 bf 3e
       -0.2511745 -0.05297856 0.43504706 0.3734179
000210 2d 85 84 3e 5c d8 0a bf f9 10 d8 3e e8 44 66 3e
       0.25882855 -0.5423639 0.4220045 0.22487223
000220 97 09 0b 3f d5 39 2c 3e 45 10 b5 bc 7f c4 29 3f
       0.5431151 0.16818936 -0.022102484 0.66315454
000230 ae 5c 0e 3e 22 bf 68 3e b2 26 2b bf f0 b0 3f 3e
       0.13902542 0.22729161 -0.6685592 0.1871984
000240 2e 00 13 3e fb d8 ac 3e ad fc 49 bd b1 57 d5 be
       0.14355537 0.33759293 -0.049313236 -0.41668466
000250 2e 9b 3b be d6 90 3f be 3e 76 b1 3d 5c 80 01 3f
       -0.18320915 -0.18707594 0.08665131 0.50586486
000260 14 be c0 3e 5d 3d 81 3d 9a 75 04 bf 4c 2f 83 be
       0.37645018 0.06310532 -0.51741946 -0.25622022
000270 28 3a ce 3e 13 84 18 bf c2 3f 27 bf e5 04 41 be
       0.40278745 -0.5957653 -0.6533166 -0.18849523
000280 f2 da df 3d 82 95 e1 3e 08 53 33 bd 10 f7 6b 3f
       0.109304324 0.44059378 -0.043780357 0.9217386
000290 e5 e4 74 3f 88 62 91 3e b5 af 4e 3e 9f 4b 18 3f
       0.95661765 0.28395486 0.20184214 0.5949039
0002a0 2d 6a 0c be c7 08 1d 3f ae 64 fa be 35 b4 d9 3d
       -0.13712378 0.6134152 -0.48904938 0.10630075
0002b0 58 b3 a8 be 9f 5f 58 be 4d 74 fb be 7b 24 ab 3e
       -0.32949328 -0.21130227 -0.49112168 0.3342627
0002c0 89 0d ce 3e 8b b0 aa 3e 60 d9 75 3e 0b 57 ae be
       0.40244702 0.33337817 0.24008703 -0.34050784
0002d0 8c 8c 67 3e e7 90 01 3f fe f8 17 3f 41 57 99 3e
       0.22612208 0.5061173 0.59364307 0.29949382
0002e0 8f 0a d2 be 1d e1 66 bd a3 a1 ed 3d de 6c 92 3e
       -0.4102368 -0.05636703 0.116030954 0.28598684
0002f0 dd a3 44 3f ac 64 51 be 27 2f d0 3d d7 22 fa be
       0.76812536 -0.2044856 0.101652436 -0.48854706
000300 b2 38 5b 3e a1 20 52 be 74 24 08 3f 43 10 ee bd
       0.21408346 -0.2052026 0.53180623 -0.116241954
000310 ac 17 12 bf 39 c4 32 be 84 11 93 3e a7 3d 43 3e
       -0.5706737 -0.17457666 0.287243 0.19066487
000320 da 9b 9d bd 65 a8 16 3e b3 43 4a be 20 70 b7 3e
       -0.07695742 0.14712675 -0.19752388 0.35827732
000330 c5 b5 c7 3b 10 94 24 3e 92 e9 54 3e a5 d3 6d 3e
       0.0060946667 0.16072106 0.20792225 0.23225267
000340 af b2 30 be cc 03 eb be 82 dd f3 bd 4b 26 54 be
       -0.17255662 -0.45901334 -0.11907484 -0.20717733
000350 3a b6 bd bd ba 52 78 3e ca 32 2b 3e d3 a1 4c 3d
       -0.092632726 0.24250308 0.16718593 0.049959015
000360 48 10 92 3e aa 00 17 bd 83 c1 1c be 78 c2 2c be
       0.28528047 -0.036865868 -0.15308194 -0.16871059
000370 55 f7 c2 3d bb 51 2b 3e 74 d5 b6 3d 89 b6 b7 be
       0.09519831 0.16730396 0.08927432 -0.3588145
000380 69 2c b8 bd 24 7e 57 be 86 15 2f 3c 50 42 92 bd
       -0.089928456 -0.21044213 0.010686284 -0.07141554
000390 6f 2f 46 be 0e 66 ce bd 1e ca 94 bd 0e 5c 2f be
       -0.19354032 -0.10078059 -0.07265113 -0.1712496
0003a0 16 45 4f bd cb f9 06 bf ce f6 05 be 19 1c e2 3e
       -0.050602995 -0.52724904 -0.1308243 0.44162062
0003b0 6f f7 a2 3e ac 30 28 bf c3 43 28 3e 6a 3e cd 3e
       0.31829402 -0.6569927 0.16432099 0.4008668
0003c0 4c c7 0f bf 9e bd 62 3e 86 6e 89 bd 21 b1 b9 be
       -0.5616348 0.22142646 -0.06710534 -0.3626795
0003d0 0a 63 bc bd d8 c2 9d 3e 42 fb bf 3e 58 53 e9 3e
       -0.09198578 0.30812716 0.37496382 0.455714
0003e0 10 60 bb 3e d1 dc 32 3e 02 e7 13 3f d9 72 8d 3e
       0.36596727 0.17467047 0.57774365 0.27626684
0003f0 5d 5c 2f 3e fb 70 79 bd 7f 11 0a bf 55 ca c9 bd
       0.17125078 -0.060898762 -0.53932947 -0.09853045

lstm.weight_hh_l0 f4 [512, 128]
000000 01 b6 29 be 96 22 fd be cc df ec 3e 81 74 d9 be
       -0.16573335 -0.4944045 0.46264493 -0.42471698
000010 e1 9e db 3d e9 82 9b be 70 bc f6 bd c5 1d 83 3e
       0.10723663 -0.30373314 -0.1204766 0.2560865
000020 ec ae 9a 3e b1 e1 bc bd b8 99 89 3e 12 bd 1f be
       0.3021158 -0.09222735 0.2687509 -0.15599468
000030 65 9e 0a be b4 56 79 be be d1 8e 3d a7 cc 01 bf
       -0.13536985 -0.24349481 0.06973599 -0.507029
000040 06 9c 89 3e 3f f6 3c bd d5 25 60 bd ff 9e d1 3c
       0.2687685 -0.046133276 -0.05472358 0.02558851
000050 5b 3f 73 bd 77 d9 e2 3d 72 d4 0e 3e 22 79 b7 3d
       -0.059386592 0.110766344 0.13948229 0.08958651
000060 96 e3 da bd d1 a2 cf 3b 53 36 7d be ea e4 49 3e
       -0.1068794 0.006336548 -0.24727754 0.1971623
000070 5b 70 a0 3e 5a ff fd bc 56 9d 8c 3d 7f 7c 13 be
       0.3133572 -0.03100555 0.06865947 -0.1440296
000080 61 4e 82 be fc ce 5c 3e e5 e4 d3 3b 5b 8f 0b bf
       -0.25450423 0.21563333 0.0064664953 -0.5451562
000090 b4 46 8f 3d 93 7a f3 3e 0c 05 4b be 63 84 09 3e
       0.069959074 0.47554454 -0.19826144 0.13429408
0000a0 c2 f7 e1 be ef 2a e8 be fc 55 cf 3e 67 ac b7 bd
       -0.44134337 -0.45345256 0.40495288 -0.0896843
0000b0 2c 21 f4 be 74 69 ed 3d 0f 22 81 be eb 28 c1 be
       -0.47681558 0.11592379 -0.25221297 -0.3772653
0000c0 ca 28 f3 be a9 c4 1c bf 01 6a c4 3e 87 2e c9 bb
       -0.47492057 -0.6123758 0.38362125 -0.0061395797
0000d0 3d 54 a7 bd b2 b8 03 bf 56 0e 20 be 40 3c 6e be
       -0.08170364 -0.514537 -0.15630469 -0.23265171
0000e0 e8 fd 2b 3e 2f 42 4a 3e 62 d8 b6 bd de e7 bb 3c
       0.16796076 0.1975181 -0.089279905 0.022937711
0000f0 62 89 e3 be e5 51 a3 3b 27 1c 6c 3d 19 ad be be
       -0.44440752 0.004984128 0.057644036 -0.37241438
000100 0e 2c 27 3f 2f 1f 54 bd d4 05 3e be 9f c0 27 3c
       0.653016 -0.05178755 -0.18556911 0.010238796
000110 c0 62 0c be a6 89 bd be ec f1 48 be d8 63 26 3d
       -0.13709545 -0.3701908 -0.19623536 0.040622562
000120 52 c7 51 be c1 25 b8 3d c3 93 19 be c1 18 91 be
       -0.20486191 0.08991576 -0.14997773 -0.28339198
000130 1d c2 f7 be 1a f9 6f 3e 9a ce 82 be 34 c4 93 bd
       -0.48390284 0.23434868 -0.2554825 -0.07215157
000140 f0 6d ba be 66 d3 a2 be bd 83 97 3d 5c ec 20 be
       -0.36412 -0.3180191 0.07398174 -0.15715164
000150 8c 51 4a 3e 8a 69 f1 3e 5a 1c b7 bd 16 24 e0 be
       0.1975767 0.47150832 -0.089409545 -0.4377753
000160 3d 10 24 3e 74 cf 61 be 01 87 18 be 84 72 a3 be
       0.1602182 -0.22051793 -0.1489525 -0.31923306
000170 b6 9a 82 3e 0c 37 f0 bd 7c 95 c4 3d 7b 3c 27 3e
       0.2550866 -0.11729249 0.095988244 0.16331665
000180 b2 19 20 3e 4a 2b 32 bc cd ce 82 3e a8 95 df bc
       0.15634802 -0.010874579 0.255484 -0.027293041
000190 26 43 d6 3e 6e 81 a7 3e c0 9d 9d be e2 70 d6 3e
       0.41848105 0.32715935 -0.30784416 0.41882998
0001a0 0f 2b 32 3e b5 d6 3b bd df e2 ea bd 83 d1 7b bd
       0.17399238 -0.045859057 -0.114690535 -0.061479103
0001b0 84 26 87 be 42 ad 1d bd f4 b2 8b bd c6 9d 62 bd
       -0.26396573 -0.03849531 -0.06821242 -0.055326246
0001c0 7a 04 8d be 4a ec 86 bb 12 80 52 bd 0a fa 6b 3d
       -0.27542478 -0.0041175233 -0.05139167 0.057611503
0001d0 c3 4f d6 3b 20 f6 0f 3e d3 2c 79 3e 93 80 48 3e
       0.00654027 0.14058733 0.24333505 0.19580297
0001e0 de bf e5 be 12 ac b8 be ef e9 20 bd dd a8 d1 3c
       -0.44872946 -0.3606878 -0.039285596 0.025593216
0001f0 43 43 8b bd 53 0a 54 be e2 4d 94 be 50 de b0 3d
       -0.067999385 -0.20707063 -0.2896567 0.08636153
000200 c5 be 39 be 9f 8f 37 3c 2b d9 0c 3c 41 9c 14 3e
       -0.18139179 0.0112036755 0.008596699 0.14512731
000210 f8 44 8b 3d 0a 84 89 bd 82 b6 bf bd b9 a3 1f bd
       0.06800264 -0.067146376 -0.093609825 -0.038974497
000220 bc ff bb 3d 9c 47 31 3d 04 f1 37 3d 4d 0a 0d bd
       0.09179637 0.043281183 0.044907585 -0.03443365
000230 a5 ca a3 bd 91 21 00 3e 37 12 8b 3d e9 36 0a 3e
       -0.07997636 0.12512805 0.067905836 0.13497509
000240 6d 96 a4 3d c4 be 49 bb 39 8f 97 3d 2c 5a c6 bd
       0.08036504 -0.0030783871 0.074003644 -0.09685168
000250 57 ce 4f bd fb f6 26 3d e2 b6 bf 3b 73 20 80 bb
       -0.05073389 0.040762883 0.0058506588 -0.0039101182
000260 a5 36 2f bd 0e 1a 12 3d 8c 9f 6d 3d fb 58 4e be
       -0.042776722 0.03566938 0.058013484 -0.20151131
000270 b5 7f 83 3c 87 08 34 bd 9b b1 ad 3c 73 28 60 3d
       0.016052106 -0.043953445 0.021202853 0.054726075
000280 97 80 66 bc c5 3c 72 bd e6 7f 77 3d 31 4f 55 bc
       -0.014068744 -0.059139986 0.060424708 -0.013019369
000290 61 ee 98 bd f0 7b 93 bc 00 7d 1b bd 9c 1b c8 3c
       -0.07467342 -0.018003434 -0.037961006 0.024427228
0002a0 a5 57 95 3d 4a 5d 0e be 87 66 3c bd 91 b2 b2 bd
       0.072921075 -0.13902774 -0.045996215 -0.08725465
0002b0 51 82 16 3e 34 cb 69 be 9a e2 51 3d 51 75 af bd
       0.1469815 -0.22831422 0.051241495 -0.08567298
0002c0 33 66 01 3e 76 cc b8 bd f1 70 27 3e 09 4c 37 3e
       0.12636642 -0.09023373 0.16351677 0.17900099
0002d0 ab 62 f7 bd 9e 38 06 bd ad 03 d0 bd b4 c6 dc 3d
       -0.12079366 -0.032768838 -0.10156951 0.10780087
0002e0 33 f7 a3 bd 23 67 ed bd 86 0b 0f 3e 0a 2a ba bd
       -0.08006134 -0.115919374 0.1396924 -0.090900496
0002f0 37 d0 11 3e 88 88 69 bc d5 2e b9 3d fe 27 70 bd
       0.14239584 -0.014253743 0.090421356 -0.05863189
000300 81 84 79 3d 67 ae 69 3d 91 80 06 3e 8a 04 2f 3e
       0.06091738 0.05705109 0.13134982 0.17091575
000310 ce 94 17 bd 21 d1 d4 3c 58 4c 81 3d 7f 51 fd 3d
       -0.037007146 0.025978627 0.063133895 0.1236906
000320 92 f1 00 3e 16 29 c9 3d 2b e9 91 bc d3 09 20 3e
       0.12592152 0.0982229 -0.017811378 0.15628748
000330 4c 15 c6 bd 4f e0 36 3c c8 01 23 be 39 d8 29 bc
       -0.09672031 0.011161878 -0.15918648 -0.010366493
000340 04 ba 92 3d 44 4d cf bc af da bd bc f7 7f 4a 3e
       0.07164386 -0.025305398 -0.023175566 0.19775377
000350 d8 c1 0e 3d 48 fd 3f bd db 4c ce bd 14 b6 42 bd
       0.034852833 -0.046872407 -0.10073253 -0.047536924
000360 7a 13 82 3d 4d a4 e1 bc b9 e8 26 3d cc 0b 0f 3d
       0.06351371 -0.027544165 0.040749285 0.03492336
000370 1d fe a4 bd 92 e7 a8 3d b8 bb ee 3d 31 05 1a 3e
       -0.08056281 0.082472935 0.11656898 0.15041043
000380 30 40 fe 3c e6 9d 99 3d 5e a5 5b bd f7 0d f1 bc
       0.031036466 0.0750082 -0.053624503 -0.029425604
000390 52 49 f8 3d 0c 3b 94 3c f2 31 2b 3e 6c 7e 09 3c
       0.1212336 0.018094562 0.16718271 0.008391958
0003a0 71 fb 10 bd 9a f6 1d be 0a 6a e8 bd ed a9 bc 3b
       -0.035396043 -0.15426102 -0.1134835 0.0057575614
0003b0 93 b5 91 bd bc 13 f8 3d d8 84 0e bd ff 97 87 3d
       -0.07114711 0.12113139 -0.03479466 0.06620788
0003c0 c3 09 31 3e e3 d8 2c 3e 18 6a f1 3d 8d 21 a8 ba
       0.1728888 0.1687961 0.11787814 -0.0012827382
0003d0 f0 54 ba bd 43 84 6f bc 4e ac a6 3b 73 9f 61 bd
       -0.09098232 -0.014618936 0.0050864583 -0.055083703
0003e0 ac 1e 00 bd a5 0c e2 3c e9 fb eb 3d 8b fd 1b be
       -0.03127925 0.02759392 0.115226574 -0.15233438
0003f0 f3 62 62 3d 7d 71 57 bd 2a 14 6c bd a0 e6 95 bc
       0.055270147 -0.052598465 -0.057636417 -0.018298447

lstm.bias_ih_l0 f4 [512]
000000 27 17 5f be 54 c3 e8 bc 76 b7 4d be 32 91 04 bf
       -0.21786176 -0.028413452 -0.20089516 -0.5178405
000010 8b 39 72 3d 5a 3b 51 bf 0e 3c 93 bd bb 9d da be
       0.05913691 -0.8173119 -0.07189189 -0.42698464
000020 63 44 13 bd f4 3c 87 be 08 d0 98 be a9 01 a4 bd
       -0.03595389 -0.2641369 -0.29846215 -0.08008129
000030 2c 0b 59 be 69 cb 20 bf 4e b0 30 be 99 3c 18 bf
       -0.21195668 -0.6281038 -0.17254755 -0.59467465
000040 ed 25 12 bf 0e c8 16 bf aa 67 19 bf 81 e6 ef be
       -0.5708912 -0.5889901 -0.59923804 -0.46855548
000050 d0 59 09 bf 71 16 af be 0c 99 45 be 11 cf 42 bf
       -0.5365267 -0.3419681 -0.19296664 -0.7609721
000060 69 a3 0d bf 73 27 c5 bd ee a0 09 bd 57 87 3f be
       -0.5532747 -0.09626665 -0.03360074 -0.18703972
000070 1c b6 1b bf bf 75 29 be fa 55 13 bf 8e cf 28 bf
       -0.6082475 -0.16548823 -0.57553065 -0.65941703
000080 c1 e6 fc be 75 91 40 be d0 53 53 bf c3 bd fb be
       -0.493948 -0.18805487 -0.8254976 -0.49168214
000090 e9 2f 2b bf 96 2f c4 be d8 b1 fa 3d 13 15 ca be
       -0.6686998 -0.38317555 0.12240952 -0.39469203
0000a0 6a 1c 29 3d c8 42 b3 be 8a 75 2f bf 55 f5 30 be
       0.041286863 -0.35011888 -0.68538725 -0.17281087
0000b0 25 12 64 be e5 23 8f be 48 d9 b7 be 54 7f 92 bd
       -0.22272547 -0.27957073 -0.3590796 -0.07153192
0000c0 8f 31 b4 bd f7 17 bd be d4 ce 95 be e1 c2 00 bf
       -0.08798515 -0.36932346 -0.2925936 -0.5029736
0000d0 5c df 21 3e 57 74 4f bd c5 28 1a 3c 7d fe ec be
       0.15807861 -0.05064806 0.009409134 -0.4628791
0000e0 8f 8e 4b 3d 4b 65 93 3d cf 5f 36 be 04 38 45 bf
       0.0496965 0.071970545 -0.17809986 -0.770386
0000f0 91 2b 35 be d1 bf da be 3a 81 4a bf c6 32 2e be
       -0.176924 -0.4272447 -0.79103434 -0.17011556
000100 7b cb c1 3c 68 da 59 bf 54 6a e5 be 0f c2 03 be
       0.023656597 -0.85098886 -0.44807684 -0.12866996
000110 f5 54 0a bf 93 2c 81 3e ff 43 c6 be 9d 24 0f bf
       -0.54035884 0.2522932 -0.38723752 -0.5591524
000120 ff 87 0f be 6e 5d 61 be 30 76 93 be 74 fb 36 bf
       -0.14016722 -0.22008297 -0.28801107 -0.71477437
000130 e6 b1 b4 be 24 fe 13 be 71 ca 6a be 42 99 d2 be
       -0.35291976 -0.14452416 -0.22928788 -0.4113255
000140 59 d2 48 bf 42 08 eb be ee 5e b9 be ca 14 48 3e
       -0.78445965 -0.45904738 -0.36205238 0.1953918
000150 6d ce 31 be af 53 e9 be 2a cf 67 bf c5 58 42 3c
       -0.17363901 -0.45571658 -0.9055048 0.011861985
000160 a1 49 16 bf 47 06 c1 be b5 87 20 be be fd e5 bd
       -0.587061 -0.37700102 -0.15676768 -0.11230038
000170 31 52 d0 be 0e 77 e7 bd d1 34 6a be 5a e6 34 bf
       -0.40687707 -0.11302005 -0.2287171 -0.7066399
000180 0b 8f 38 bf 87 09 32 be 5b 25 d7 be 8b f7 bf be
       -0.72093266 -0.17386447 -0.42020687 -0.37493548
000190 f1 eb ba bc f5 37 d3 be 26 0a 89 3d d1 85 91 be
       -0.022817584 -0.4125363 0.06691389 -0.28422406
0001a0 4f ae 6d bf ee d9 1c be c1 f6 b5 be ff 9f 18 bf
       -0.928441 -0.15317509 -0.3553982 -0.59619135
0001b0 8a e9 c8 be 94 e5 31 bf c7 a4 82 be df 74 db be
       -0.39240676 -0.69490933 -0.2551634 -0.42862603
0001c0 03 0e 81 bd bf 00 4c bf 7d fa 95 be 35 98 05 bf
       -0.06301501 -0.7968864 -0.2929267 -0.52185374
0001d0 0d 0d 7f be 3f 30 11 bf 93 15 9f bc 75 8e 33 be
       -0.24907322 -0.5671424 -0.019419467 -0.17534812
0001e0 95 47 ba bd b9 4d 68 be e8 8d e2 be 02 c9 0c bf
       -0.090956844 -0.22685899 -0.4424889 -0.54994214
0001f0 a4 b6 a2 be de 7f ff be 02 a2 3c be 79 5b 2e be
       -0.3177997 -0.49902242 -0.18421176 -0.17027082
000200 50 a7 00 3d 9f f7 14 3d d5 96 09 3e 6d bf 1a bf
       0.03140956 0.036368962 0.13436444 -0.6044834
000210 a1 54 fb bd 20 13 15 bf 28 d6 55 3b 55 65 fe bd
       -0.12272001 -0.5823231 0.0032628868 -0.12421671
000220 26 20 7c bd 94 a8 85 3e 1e ee ba be 70 a4 29 3e
       -0.061554097 0.26105177 -0.36509794 0.16566634
000230 db eb 42 be 41 39 f3 be a9 5c 8c 3e 59 8b c2 be
       -0.19035284 -0.4750462 0.27414444 -0.3799694
000240 44 da 20 bf b9 9f 22 bf 9b 5b 24 bf 5a 62 1a bf
       -0.62833047 -0.6352497 -0.6420228 -0.6030632
000250 1f ad 13 bf ac de 7e be 31 5f cc 3d fa 23 26 bf
       -0.57686037 -0.2488963 0.09979094 -0.64898646
000260 2d a2 d2 be ac a0 1e be 38 a0 9d bd cf cf 20 be
       -0.41139355 -0.15490979 -0.07696575 -0.15704273
000270 e4 17 0a bf 14 53 69 3d fe 39 df be be 86 3b bf
       -0.53942704 0.056963995 -0.43598932 -0.73252475
000280 0b c7 4a be 5f 75 e7 be 71 4c 79 bf 4f 99 b1 bd
       -0.19802491 -0.45206735 -0.97382265 -0.086718194
000290 90 b8 17 bf 88 4f b5 bc 39 75 f9 3d 74 e2 60 3d
       -0.59265995 -0.02213265 0.121805616 0.054903463
0002a0 0b ff c1 3e c0 56 19 bd 0c 22 0b bf 39 37 46 3e
       0.37889895 -0.037436247 -0.54348826 0.19357003
0002b0 6e 7d 09 be 8e 0b 8d 3e f0 ca 54 3e ba 43 de bb
       -0.13426754 0.27547878 0.2078054 -0.006782976
0002c0 55 66 20 3d a5 22 a8 be d2 60 a4 be 8f c5 b9 be
       0.03916009 -0.32838932 -0.32105118 -0.36283538
0002d0 94 61 c1 3e f6 45 5b 3d c7 1a 8a 3d 84 91 1d bf
       0.3776976 0.053533517 0.067433886 -0.61550164
0002e0 56 ba 86 3e b4 14 90 3e e7 d1 96 3d 53 f6 37 bf
       0.26314038 0.28140795 0.073642544 -0.71860236
0002f0 da e8 9d be 2a 58 dd bd 9d 17 1a bf b7 f0 df bd
       -0.30841714 -0.108078316 -0.6019228 -0.109345846
000300 0f e3 67 be c2 b4 48 bf eb ad 5d be 81 ac 8f 3d
       -0.2264521 -0.78400815 -0.21648376 0.070153244
000310 1f 38 cb be 3b 80 5b 3c ce c7 d3 be 77 ba 19 bf
       -0.39691254 0.013397272 -0.41363376 -0.6005015
000320 8a 95 9f be 52 73 0e 3d 4b 94 e9 bd 1e d2 ff be
       -0.31168777 0.034777947 -0.11405238 -0.49964994
000330 0f b9 84 bd 9f 66 bb be 1a af af 3e fc 91 0e 3f
       -0.064806096 -0.3660173 0.3431328 0.55691504
000340 21 09 ef be 34 1b 91 be 65 1b 97 be c8 fa 94 3e
       -0.46686652 -0.28341067 -0.29513088 0.2909758
000350 e0 ab d7 be 2d b8 14 be 5a 01 5d bf a7 92 d4 3e
       -0.42123318 -0.14523382 -0.8633019 0.41518137
000360 4a 24 6f be e6 a4 f3 be 48 0f 6e be 45 3b cd 3e
       -0.23353687 -0.47586745 -0.23248017 0.40084282
000370 bb 48 44 be 6a 88 dd 3c 90 1c d7 bc fa ba 16 bf
       -0.1916837 0.027042586 -0.026258737 -0.58879054
000380 bf 6f 36 bf b9 07 6c bc 42 a6 9c bd 0e b1 e3 3d
       -0.7126426 -0.014406138 -0.07648899 0.11117755
000390 b9 8a 1d 3d a0 88 aa bd fc d2 f7 bd eb 8a 3b 3e
       0.038462374 -0.083268404 -0.12100789 0.18314712
0003a0 85 ad 2d bf d5 c1 c5 be 81 99 46 be 20 0b de be
       -0.67842895 -0.38624445 -0.19394495 -0.43367863
0003b0 09 48 a6 be dd c2 2e bf 1e 4c 25 bd b9 c6 c2 be
       -0.32476833 -0.6826609 -0.040355794 -0.38042238
0003c0 87 6c bc bb d3 e2 33 bf 61 e4 38 be a2 9e 2b be
       -0.005750242 -0.7026798 -0.1805587 -0.16759732
0003d0 74 cc 95 3e 58 68 ee be 67 99 8d 3c 6f bb 8d 3e
       0.29257548 -0.46563983 0.017285062 0.27682063
0003e0 c4 94 4e 3d 00 2c ad 3e 3d b9 b5 be 50 85 b4 be
       0.050434843 0.33822632 -0.35492888 -0.3525796
0003f0 56 cd 56 3c 4c 69 a4 bd eb 06 f3 bd c2 f9 fd 3d
       0.013110479 -0.08027896 -0.11866554 0.12401153

lstm.bias_hh_l0 f4 [512]
000000 f7 f3 79 be 4a bd 9c bd 33 08 84 be 15 5b 1d bf
       -0.24409471 -0.076532915 -0.25787506 -0.61467105
000010 ab 74 8d bd 66 ac 59 bf bb 3a 39 be a8 37 a4 be
       -0.06907018 -0.85028684 -0.1808881 -0.32073712
000020 b6 8d 17 bd b6 40 b8 be 39 62 cd be 0e 11 df bd
       -0.03700038 -0.3598687 -0.40114 -0.10891925
000030 c3 14 93 be 7b 97 13 bf 4a 20 79 be e3 f9 1c bf
       -0.28726777 -0.57653016 -0.24328724 -0.61318797
000040 94 22 08 bf 1f b6 fe be 2d 31 1d bf ef 30 06 bf
       -0.5317776 -0.49748322 -0.6140316 -0.52418417
000050 ef 23 2a bf 2f c7 ae be 26 ea 8b be 27 6a 3d bf
       -0.6646108 -0.3413634 -0.2732708 -0.739901
000060 2e da 13 bf d6 a3 1b be 2e a8 a0 bd 2e 33 45 be
       -0.5775479 -0.15199217 -0.07844578 -0.19257805
000070 0c de 26 bf 15 4a 25 be 94 aa 0c bf 37 6d 30 bf
       -0.65182567 -0.16141541 -0.5494778 -0.6891665
000080 93 9a bd be c8 c5 45 be 29 c0 5c bf ec 28 00 bf
       -0.37031993 -0.19313729 -0.86230713 -0.5006244
000090 7d 0b 11 bf 87 4b c8 be 1d 67 2c 3c 9d 29 03 bf
       -0.56658155 -0.39120123 0.010522631 -0.5123537
0000a0 56 6f df 3d c1 4e ae be 48 5b 27 bf 8c 27 0d be
       0.109099075 -0.3404446 -0.6537366 -0.13784617
0000b0 fe 00 93 be 8c 66 84 be 63 80 bd be 04 40 a9 3b
       -0.28711694 -0.25859487 -0.37012014 0.005165102
0000c0 f9 7b 16 bd 5b 03 c6 be 92 91 93 be cc 7c 03 bf
       -0.036739323 -0.38674435 -0.28822 -0.513623
0000d0 95 4e e6 3d 2b 03 6a bd a8 ef a5 bd a7 73 0f bf
       0.11245457 -0.057131927 -0.081023514 -0.56035846
0000e0 15 6e 87 3d 68 fa be 3d 30 c8 d7 bd 09 01 24 bf
       0.06612793 0.09325105 -0.105362296 -0.6406408
0000f0 75 f4 ac be 01 05 08 bf 3b 5a 62 bf 89 f2 24 be
       -0.33780256 -0.53132635 -0.8841893 -0.16108145
000100 6c 8d f6 3d 04 d9 4c bf 03 45 bc be 9b 67 1b bd
       0.12038693 -0.8001864 -0.36771402 -0.037940603
000110 32 d0 19 bf 62 5d 46 3e 27 4d a8 be a1 44 19 bf
       -0.60083306 0.1937156 -0.32871363 -0.59870344
000120 b8 30 11 bd e2 7b 9a be 87 5f 92 be fb d7 38 bf
       -0.035446852 -0.3017264 -0.28588507 -0.7220456
000130 83 60 92 be 5a 2e 3c be 6f 1d c1 bd 63 34 d1 be
       -0.28589258 -0.18377057 -0.09429442 -0.4086028
000140 b4 6e 47 bf d0 39 0f bf cf 57 d9 be 4a ff 42 3e
       -0.77903295 -0.5594759 -0.42449805 0.19042698
000150 47 19 47 be 07 7e fd be 8f 3b 67 bf 70 cf b0 3c
       -0.19443236 -0.49510214 -0.90325254 0.021583289
000160 9e b1 ff be fa e8 ea be 99 68 60 be 72 39 16 be
       -0.499402 -0.45880872 -0.21914901 -0.14670351
000170 19 1d d1 be 2b a0 82 bd 68 96 25 be ac 66 3a bf
       -0.40842512 -0.06378206 -0.16170657 -0.72812915
000180 2c 9f 52 bf bb af de bd 0b 64 fc be c4 5e c8 be
       -0.82274127 -0.10873362 -0.49295077 -0.391348
000190 e9 aa 0b be 9b 07 92 be ff bc b3 3d 49 07 60 be
       -0.13639416 -0.28521428 0.087762825 -0.21877779
0001a0 8c c0 68 bf e8 92 b5 bd b2 98 cb be ee 95 07 bf
       -0.90918803 -0.08865911 -0.39764935 -0.5296315
0001b0 c8 e8 b8 be 7e 05 4a bf df 62 7a be 64 43 f1 be
       -0.36115098 -0.7891463 -0.24451779 -0.47121727
0001c0 41 96 02 3c ce fd 4d bf c3 e5 8a be a4 fb 02 bf
       0.007970394 -0.804654 -0.2712842 -0.51165223
0001d0 70 16 50 be ab 00 fd be 33 66 88 bd f5 8c 5a be
       -0.20321059 -0.49414572 -0.06660118 -0.21342833
0001e0 fc 93 f9 bd 77 a4 97 be ae 6c d9 be 69 00 1e bf
       -0.12186429 -0.29617664 -0.4246573 -0.61719376
0001f0 76 a1 56 be 13 b2 08 bf da be ac be 15 c4 83 be
       -0.2096003 -0.5339672 -0.33739358 -0.25735536
000200 0d 0e 42 40 55 6e 3f 40 dd ab 46 40 4e 8f 1c 40
       3.0321076 2.9911091 3.1042397 2.4462466
000210 1d da 39 40 0e d8 19 40 3f 66 43 40 79 de 34 40
       2.9039376 2.403812 3.0531156 2.8260787
000220 f1 a7 38 40 2b d2 4f 40 1e 3c 2e 40 9c 68 4a 40
       2.8852503 3.2472026 2.7224193 3.1626348
000230 15 d2 31 40 c9 75 22 40 79 91 53 40 c8 e9 23 40
       2.7784474 2.538439 3.305754 2.5611439
000240 38 3f 15 40 78 9d 1c 40 1e 3c 12 40 78 17 1e 40
       2.3319836 2.4471111 2.2849193 2.4701824
000250 e0 b8 1a 40 16 58 2f 40 bf ac 41 40 b2 ce 12 40
       2.4175339 2.7397513 3.0261686 2.2938657
000260 81 f0 27 40 c7 fc 31 40 ea b5 3a 40 24 50 34 40
       2.6240542 2.7810533 2.9173532 2.8173914
000270 f9 af 1f 40 30 ea 3f 40 f4 32 1f 40 2f 7c 0b 40
       2.4951155 2.9986687 2.487485 2.1794546
000280 01 33 38 40 3c 12 22 40 5a e8 fc 3f f0 d1 39 40
       2.878113 2.532363 1.9758408 2.9034386
000290 80 44 15 40 63 8a 39 40 66 af 44 40 6a 6d 3e 40
       2.332306 2.8990715 3.0732055 2.975428
0002a0 f7 1e 56 40 67 73 3d 40 74 15 22 40 fc b3 47 40
       3.34564 2.9601686 2.5325594 3.1203604
0002b0 f5 21 36 40 6c 01 50 40 88 77 49 40 4e 13 3e 40
       2.8458226 3.2500868 3.1479206 2.9699283
0002c0 c6 11 46 40 f7 cd 2a 40 06 59 2f 40 2f 65 25 40
       3.0948348 2.668821 2.7398086 2.5843008
0002d0 17 3d 57 40 c9 1a 41 40 3c d1 48 40 49 d3 1b 40
       3.3631036 3.0172598 3.1377707 2.4347708
0002e0 6b d5 4b 40 02 a3 4d 40 43 9b 44 40 a1 88 15 40
       3.184901 3.2130742 3.0719764 2.3364642
0002f0 ea 31 2f 40 1e 55 36 40 da 44 17 40 3a 18 37 40
       2.7374215 2.8489451 2.3635774 2.8608537
000300 1f ab 2e 40 ff 70 13 40 e6 29 32 40 df 60 40 40
       2.7291944 2.3037717 2.7838073 3.0059125
000310 50 c5 24 40 04 6e 3f 40 b7 6b 24 40 f2 c8 1d 40
       2.574543 2.9910898 2.5690744 2.4653897
000320 74 c9 2f 40 20 2d 3d 40 5b 13 37 40 0f 37 20 40
       2.7466707 2.9558792 2.8605564 2.5033605
000330 a1 46 37 40 5b 07 27 40 bc 99 55 40 2e 5f 61 40
       2.8636858 2.609824 3.3375082 3.5214343
000340 a1 8a 23 40 5a 41 29 40 6c 18 2c 40 c5 46 4f 40
       2.5553362 2.6446137 2.6889906 3.2386944
000350 8f 05 23 40 36 70 34 40 f8 95 05 40 9d c9 5a 40
       2.5472143 2.8193488 2.0872784 3.4185555
000360 54 b3 30 40 7f dd 1f 40 c0 ae 2e 40 23 35 56 40
       2.7609453 2.497894 2.729416 3.3469932
000370 1a d3 33 40 56 99 3c 40 e7 c4 3e 40 31 c2 16 40
       2.8097596 2.946859 2.980768 2.3556025
000380 f9 79 17 40 d4 10 3d 40 35 6c 38 40 d3 df 43 40
       2.3668196 2.954152 2.8816044 3.0605361
000390 68 81 41 40 a7 35 3c 40 4a 62 3a 40 c8 38 49 40
       3.0235233 2.9407747 2.912249 3.1440907
0003a0 b9 df 18 40 ee e2 22 40 a0 03 31 40 2b 39 20 40
       2.388655 2.5451007 2.7658463 2.5034893
0003b0 56 58 28 40 d7 52 12 40 89 d3 3c 40 bc f6 28 40
       2.6303916 2.2863061 2.950411 2.6400595
0003c0 15 57 44 40 4b 4f 11 40 db 1f 2f 40 25 b2 31 40
       3.067815 2.2704647 2.7363193 2.776498
0003d0 07 f3 4e 40 86 7e 27 40 37 3b 3f 40 25 64 4f 40
       3.2335832 2.6170974 2.9879892 3.2404873
0003e0 1e be 47 40 d0 46 52 40 21 43 2a 40 7d cb 23 40
       3.1209788 3.285572 2.6603472 2.559295
0003f0 a4 0f 3f 40 57 7c 3a 40 5b 7c 38 40 3c 60 47 40
       2.9853296 2.913839 2.88259 3.1152487

head.net.0.weight f4 [1, 128]
000000 70 cc b0 bb e0 d0 1e 3b 89 1b 98 ba be a7 90 3d
       -0.0053954646 0.0024233386 -0.0011604886 0.07063244
000010 eb 7d 11 ba 92 51 5e 3e 0f e4 e5 3b 1f 1d 7c 3c
       -0.0005550074 0.21710804 0.007015712 0.015387802
000020 0d 13 0e bc 7f 73 71 3c fa d7 e8 bd 64 49 01 3b
       -0.008671534 0.014737009 -0.11369319 0.0019727582
000030 7c 5c 2e bc 68 78 21 be 36 d4 9e b9 86 5d 4f 3c
       -0.010642167 -0.15768588 -0.00030294218 0.012656575
000040 1d 0f 1b bf 9b 09 a0 be 2e 77 17 3e 87 47 da bd
       -0.60569936 -0.31257328 0.14791557 -0.10658174
000050 f8 99 90 be ee 5e 7f bc 68 23 f3 bc d7 39 11 bf
       -0.2824247 -0.015586598 -0.029679969 -0.5672888
000060 bd fb 8a 3d e3 8c 51 3a b6 70 a0 bb fc 99 60 bc
       0.067862965 0.0007993711 -0.0048962487 -0.013708588
000070 35 ca eb 3c 9e b7 0c 3c 1a a2 9e 3e f6 93 33 3f
       0.028782943 0.0085887 0.3098305 0.70147645
000080 e7 88 ba bb 27 10 2a 3b f2 52 2e bf c6 8d 30 bb
       -0.0056925896 0.002594957 -0.68095315 -0.0026939972
000090 01 04 9e be b7 ef 31 bc 7a db b7 b9 78 28 23 bc
       -0.3086243 -0.010860375 -0.00035068003 -0.009958379
0000a0 eb b4 8b 3d 8d b4 c1 3c 5b ce 05 be 76 e1 43 bb
       0.06821617 0.023645664 -0.13067 -0.0029889024
0000b0 1b 44 e1 37 92 33 18 bc 5b c5 1c bb 8a 12 51 bb
       2.6853804e-05 -0.009289639 -0.0023921344 -0.003190192
0000c0 08 8c c3 39 99 1c fd 3a 6c 2a f2 bb ae 90 82 3c
       0.0003729763 0.0019310891 -0.007390311 0.01593813
0000d0 24 2c 26 bd df 3f 95 3a 3e 52 07 ba f3 ea f5 3d
       -0.04056944 0.0011386833 -0.00051620963 0.12007704
0000e0 5e 9d 66 bb c5 3d 15 bd 07 b1 d6 3a 0e ad 00 3f
       -0.0035189013 -0.03643586 0.0016379663 0.5026406
0000f0 12 08 63 3c 8a 3e 98 ba c1 c3 72 3f 23 89 db bb
       0.013856905 -0.0011615318 0.94829947 -0.0066996976
000100 ab 85 84 3b 3a ef 84 3e cf 33 87 3b 56 80 9c 37
       0.004044255 0.25963765 0.004126049 1.865641e-05
000110 9e 0a ee 3d 7d 77 52 3d a4 7a 08 3c b4 85 88 3e
       0.11623119 0.051383484 0.008330021 0.26664507
000120 8c e7 3b 3c be e5 0d bd 82 41 c4 3d 1c cc 88 3d
       0.011468779 -0.034642927 0.09582807 0.06679556
000130 54 60 a6 3a 0a f5 17 bd 9a d0 e0 3c 62 f6 86 3b
       0.0012693503 -0.03709892 0.027443219 0.0041187266
000140 53 2b b2 3e cf af 09 3d 2f 82 5d bc 64 33 d1 3c
       0.3479868 0.03361493 -0.013519808 0.0255372
000150 4b c2 2e 3b d9 e2 36 3c a6 ee 85 bf 06 6e 3c 3a
       0.00266661 0.011162483 -1.0463455 0.00071880256
000160 fa e4 62 3c 02 35 c2 3d 40 5e ba bd 1a 88 6b 3a
       0.013848538 0.09482767 -0.09100008 0.0008984819
000170 0d cd 9f 3c 90 be da ba 2c b8 ba 3a 7d 46 ae be
       0.019506956 -0.0016688872 0.0014245561 -0.34038153
000180 2c 2f 93 3f 38 bd 8d 3b 28 59 85 bc 9e fb ce b7
       1.1498771 0.004325535 -0.016277865 -2.4674282e-05
000190 15 7d 18 ba 33 cc 12 bc 6a 0f 5e 3a c9 10 ac 3c
       -0.00058169785 -0.008959818 0.0008470925 0.021004098
0001a0 9c 72 2e 40 dd 87 88 bd 3d 51 5c bc 91 15 48 3b
       2.7257452 -0.06666539 -0.013447103 0.0030530433
0001b0 d0 fc 54 3e e1 08 ae bf c9 7f 08 be 1c 87 25 bb
       0.20799565 -1.359646 -0.13329996 -0.0025257533
0001c0 ab 87 25 3b 93 8f 15 40 87 ae 8d 3b 06 de 0a 3c
       0.0025257866 2.336888 0.004323784 0.008475786
0001d0 37 aa a4 3b 2e 34 7a bc 33 ea dd 39 82 a4 d3 bd
       0.005025174 -0.01527123 0.00042326897 -0.10334112
0001e0 70 e9 84 3c 3d e5 89 bc c8 34 04 3d db 66 7c bd
       0.016224593 -0.016832942 0.0322769 -0.061621528
0001f0 f5 81 7a 3a ff 6e c0 3a 11 81 31 3c c1 8e 1e 3b
       0.0009556108 0.0014681517 0.0108339945 0.0024193975
