examples/catchment_models/training/runs/usa_time_split_2404_015859/model_epoch010.pt (torch, 316229 bytes, 5 tensors)

lstm.weight_ih_l0 f4 [512, 23]
00000000: 447a 9f3e e4be 413f 1469 803e f3f2 9c3e
00000010: 6906 e23d 0e1b 3a3e 6326 743e 4866 82bd
00000020: 893c 093e 5776 8abd 1ec8 3dbe 7e77 a8bd
00000030: ed03 d5be e6cc d6bc 1983 283e c7c2 be39
00000040: 24ee 933d 90e9 193e 89f0 c9be 1173 c23e
00000050: 1335 35be ded1 3cbe e0fc 5c3e e1c2 a7bd
00000060: e69d 1bbe 9a89 303e 3117 893d 74b8 083d
00000070: 41e3 e03d 0be0 3cbe cfa8 7e3e 4674 a8bc
00000080: bfb1 1abd 217d b4bd d5fe 32be 75be acbc
00000090: 4070 86bd fdb2 94bc 2bf6 07be c4b4 75be
000000a0: 1bc5 27be 8d2a 9cbd 94f9 83bd 1250 ad3d
000000b0: 23c7 6dbd 3c9b b73d 7987 8c3e 37f4 dc3d
000000c0: 4291 ee3d 9c3d b23d 8a00 913c ad4c 1d3d
000000d0: a6dc 65be ec66 493d e1b5 8ebe b89d 7d3e
000000e0: 9e62 5abe 8124 3cbd 1086 0ebe 4ccd cf3c
000000f0: 0f09 5cbe 8dc3 78bd fa7a 5a3e 5052 733d
00000100: 3025 93bc c54d 183d 2c22 373e 0f76 fd3b
00000110: 86da adbe 230e ed3c 35d9 b73e 04e0 ea3d
00000120: 61b9 91bd 2112 0cbe cdf2 043f fcdb eb3e
00000130: b245 0bbe 5c09 d63e 013d cbbc e737 5dbe
00000140: a8cf 513e 75d1 fdbc 242e 97be f1a1 a5bd
00000150: 92d2 d53e f479 9e3e 9522 993e dbcf 8abe
00000160: 5c81 a83e bec6 b63e 7510 a33e 5418 b93d
00000170: b8a6 213e c457 c7bc 7ef5 963e 1a68 203f
00000180: 499e eb3e 8d4f 723e 7323 753e 5e79 0abc
00000190: 2562 913e bcf1 56be 0063 973e cf29 25bd
000001a0: 3e12 ebbe 7aa7 2e3e 001b 693e 18c8 a33e
000001b0: eeda 013f a61e dd3e ce6b 19be 8ad7 1b3e
000001c0: 2faa 01be f914 113d 5ad5 1d3e 562b cd3d
000001d0: dc96 423e 5250 b13d 2c69 133e 6838 793d
000001e0: 3328 c03e 8f32 0b3f 22d0 4cbe ec8b 0a3f
000001f0: 69c7 623d 0f9f a8be 8455 7b3d aaa0 debd
00000200: cdd5 7fbe 7233 3ebc 09c3 b63e e444 a03e
00000210: d581 743e 4d71 0bbf 4b57 d13e 5bc2 983e
00000220: 7680 da3e 9c28 383e 3dca 433d 622e 2c3f
00000230: f300 403e a9ef 6e3e c068 1cbf b02f 873d
00000240: 0096 093e 8269 993e a408 c1bb b87e 85be
00000250: 7305 7c3d c34f 9abe 49eb 16be 1496 aa3e
00000260: 0e59 a93e 7d07 42bd a744 c3be 2137 9bbe
00000270: 772f 8c3d a727 a7be 1b62 dabe a43e 50be
00000280: 7d38 df3d e0a6 9d3e 6268 f23c 7bf3 233f
00000290: cc15 503f a933 8a3d 4246 bd3e cde9 023f
000002a0: 3828 bdbc e96b 043f 0102 71be a853 c53d
000002b0: 6e02 09be fe48 2fbe 0e01 d0be 4f8e 373e
000002c0: ebcb 9c3e 80c1 903e 541d 8a3e 7e51 a4be
000002d0: aedc 583e bd6f a33e a17c fb3e 6f90 893e
000002e0: 5360 85be c9b1 22bd eefa 403e c1bc 863e
000002f0: 4daf e83e e3b4 a5bd ae7d f53d 2bba e3be
00000300: b02f 7f3e ddf8 3bbe d7a8 813e 0d38 85be
00000310: 9606 f6be 05c1 60be fde3 ac3e 9264 703e
00000320: 282e 48bd 5374 aa3d 4119 19be d816 973e
00000330: 5bb5 983d b38e 3f3d 06ff 923e 2565 123e
00000340: 5132 4ebe 77f8 9cbe 86ec 41be 8ac2 3ebe
00000350: 9886 10be e26e f93d 8ed8 513d 52ce eabc
00000360: 5eba 043e c394 643c f8c1 15be 656c 53be
00000370: 4707 523e 2de2 163e 3a74 643e 03ab 61be
00000380: 416c fcbd 555e 8bbe d167 e83d de5e 3cbe
00000390: 437b 52be f00b 35be 022d fabd 889d 563d
000003a0: bea2 f6bd eac8 7bbe d5ab 8abe c1fd 943e
000003b0: 6433 ae3e 8cd4 e6be 4c7c 343e 0d1d 483e
000003c0: ab27 9fbe ff61 8a3e 2882 6cbd 96df babe
000003d0: 4d82 39bd 00b1 ec3e 46fe a83e 4db4 d53e
000003e0: 5b76 e93c 593a 933e 6ea0 033f 343d b63e
000003f0: 266a 253e 489c 14be 4250 c5be 6445 40bd
0.3114797 0.756819 0.25080168 0.30654106 0.11036379 0.18174383 0.23842768 -0.06367165
0.13401999 -0.06760853 -0.1853337 -0.08225916 -0.41604558 -0.02622075 0.1645626 0.00036384744
0.07223156 0.15030503 -0.39441326 0.37978414 -0.17696027 -0.18439433 0.21580839 -0.08191467
-0.15196952 0.17239991 0.066938765 0.033379033 0.10980845 -0.1844484 0.24869083 -0.020563256
-0.037767168 -0.08812929 -0.17480023 -0.02108691 -0.06564379 -0.018151755 -0.132775 -0.23994738
-0.16383784 -0.076253034 -0.064440876 0.08462538 -0.05805124 0.089651555 0.27447107 0.10788768
0.116487995 0.08703157 0.017700452 0.0384032 -0.22447452 0.04917042 -0.27873138 0.24767196
-0.21326682 -0.04593325 -0.13918328 0.025366448 -0.2148783 -0.060733367 0.21335974 0.05940467
-0.017962068 0.03718354 0.1788413 0.007735021 -0.33955783 0.028937405 0.35907903 0.11468509
-0.07115436 -0.1367879 0.51932985 0.46066272 -0.13600805 0.41804016 -0.024809362 -0.21603356
0.20489371 -0.030983666 -0.2952739 -0.080875285 0.41762215 0.30952418 0.29909196 -0.27111706
0.32911193 0.35698503 0.31848493 0.09037843 0.15786254 -0.024333842 0.2948417 0.62658846
0.460192 0.23663159 0.23939304 -0.008451788 0.2839519 -0.20990652 0.29567719 -0.040323075
-0.45912355 0.17056075 0.22764206 0.31988597 0.50724685 0.43187445 -0.1498253 0.1521894
-0.12662576 0.03542039 0.15413418 0.10018031 0.19002861 0.08657898 0.14395589 0.06084481
0.3753067 0.5437402 -0.20001271 0.54119754 0.055365954 -0.32933852 0.06136085 -0.10870488
-0.24983902 -0.011608945 0.35695675 0.3130256 0.23877652 -0.5446976 0.40886912 0.2983578
0.42676133 0.17984241 0.04780029 0.67258275 0.18750362 0.2333361 -0.61097336 0.066008925
0.13436127 0.2996331 -0.0058909226 -0.2607324 0.061528634 -0.30138978 -0.14738192 0.33317626
0.33075756 -0.047370423 -0.38138315 -0.30315498 0.06844991 -0.3264744 -0.42652974 -0.20336396
0.10899446 0.30791378 0.02959079 0.64043397 0.8128326 0.06748135 0.36967665 0.51138
-0.023090467 0.5172716 -0.2353592 0.09635097 -0.13379833 -0.17117688 -0.40625805 0.1792538
0.30624327 0.2827263 0.269755 -0.32093424 0.21177933 0.31921187 0.49118522 0.26868007
-0.26050052 -0.03972033 0.18845722 0.26315883 0.45446244 -0.08091142 0.11986862 -0.44477972
0.24920535 -0.18356653 0.25324127 -0.26019326 -0.480519 -0.21948631 0.3376769 0.23475865
-0.048872143 0.08322968 -0.1495104 0.29509616 0.07456466 0.046766948 0.28710192 0.14296396
-0.20136382 -0.30658314 -0.18937883 -0.18628898 -0.14113843 0.12179352 0.051231913 -0.028662834
0.12961718 0.013951483 -0.14624774 -0.20646818 0.20510589 0.14734717 0.22309962 -0.22037892
-0.12325335 -0.27220407 0.113479264 -0.18395564 -0.20554833 -0.17680335 -0.12215616 0.052396327
-0.12042759 -0.24588361 -0.27084222 0.2909985 0.34023583 -0.45084035 0.1762554 0.19542332
-0.31084952 0.2702789 -0.057741314 -0.36498708 -0.04529028 0.4622879 0.33006495 0.4173912
0.02849882 0.28755453 0.5141667 0.3559357 0.16153774 -0.14512742 -0.38537794 -0.046941176

lstm.weight_hh_l0 f4 [512, 128]
00000000: 969e 15bd 4b83 84be 1454 1d3e 8043 89be
00000010: ce93 153e 1030 67be 9c8c d73c 12c4 023e
00000020: c865 963e b3c5 043e 4390 1c3e 8575 f0bd
00000030: 63c2 1bbd d885 38be 05ae 99bd 50e1 a7be
00000040: 5e91 a43e 360b 3a3e fd04 2cbe 29c6 123d
00000050: 7ed3 4c3d 34f4 e23d b631 483e a2fe 143e
00000060: 6f9a ecbd 273b 84bd e589 0ebe 27ad 1a3e
00000070: c85b 6c3e 4992 c0bc 0a15 eb3c 4313 87be
00000080: 50b3 10bd 4f75 15bd fcb1 a4bd 65b9 92be
00000090: a62b 6a3e 5b36 d53e f159 0abe db62 623e
000000a0: bb54 a8be 3ce6 b4be 82dd 953e 5757 e8bd
000000b0: 98ea 83be 6a91 a03d 7ca6 16bd ba87 7bbb
000000c0: 151b e2be 02e5 b6be 13ec 703e cb68 7d3c
000000d0: 42ad 053e 2df3 43be dfc0 743d 8d94 69be
000000e0: 6134 5e3e 3d0b 9b3e c806 70bd fc49 65bd
000000f0: 572d 00bf 7e2c a83d 4d95 bebc d316 78be
00000100: 3721 053f 6946 03be 7b3d 97be 89eb f43c
00000110: 6077 1fbe 12d5 bdbe 1f2a 75bd ab0f 13be
00000120: 75d8 64bd 0930 853c de4c 43be be6f 29be
00000130: a2c5 1cbe e36a 3f3e 4a77 a0bd e788 44bc
00000140: 0af5 cdbe f16c 87be a0a3 a03d 0c01 eebd
00000150: 75bf 813c 3a55 8f3e 1d3c 60bd 6c94 cabe
00000160: 9e3b fe3d 1ede 66be 811c 6f3c b023 02be
00000170: af9e 4d3e f6cd 44be 6db7 973e a4c2 263e
00000180: 247a 2d3d e7e5 6abe 45d3 3b3e c101 003e
00000190: 2fc8 0d3e 44b2 433e 2f50 1abe 9616 d8bb
000001a0: a51e 3c3d 1a0d 62bc 2274 14be ed94 05be
000001b0: 86ec 39be 7e26 2f3c 08d1 92bd 599b 3c3e
000001c0: b46c 91bd 3d00 d8bd 87e5 42be 9cf3 963d
000001d0: bf10 283e e0db 51be f069 803e 1655 763d
000001e0: e50b 61be dc72 b5bd 4a56 c03c d9cf 663d
000001f0: 6ff7 73bc 8a44 4bbe 845b cbbe efcb 95bb
00000200: 4241 0bbe 01c5 643d 7fbe 223d adf3 0c3e
00000210: 4fd9 ee3d f306 7dbd 4a04 93bd e8eb 6abd
00000220: fef7 b93d 1dfb 203c d5bc e03c 69fa 033d
00000230: 2434 6fbd 0eb6 e53d 96bd 2c3d e580 943d
00000240: d192 833d a4d1 e0ba c65e 613d aebe c6bd
00000250: 5948 58bd 6a1c 473d 0719 393b f7bc 073b
00000260: 9d55 98bd 810d 2b3d e1c8 de3d 8903 fcbd
00000270: 4fbf b2bc 0029 b0bd 02b0 1d3d 7d40 ee3c
00000280: aecf 0e3d 28c3 e4bd e1a9 bf3d 4f91 213d
00000290: 802c 9dbd 5b4e 053c 30b8 5fbd 5a93 35bc
000002a0: 9fc8 943d 4ce6 f3bd fd57 34bd d477 ebbd
000002b0: 6775 943d 46dd 0cbe 512b 293d 5a20 943d
000002c0: c7cf be3d 266e b3bd 8166 ff3d 9646 b03d
000002d0: 876c f5bd 6031 a93c 8aa0 8bbc 3ea0 c63d
000002e0: a89e e0bd 7919 c5bd 6609 903d 73b2 afbd
000002f0: cb01 c33d 6718 f0bc 727f cb3d fca3 1d3b
00000300: 0c65 96bd 97ef 783d 9c15 a83d 83b0 623b
00000310: eabe 81bd 9a14 1d3c eec1 4d3d abc8 c53d
00000320: b3ec 693d 2755 043e c757 49bd 0462 003e
00000330: 73cd 8cbd 16e3 31bc 46fc 1abe e26d 83bd
00000340: 6482 a93d eb68 4ebd e354 1e3c 3a79 143e
00000350: 649a 113d 2e7a 68bd 1044 cabd c7f7 8ebd
00000360: 062c 7d3c 0eb9 d2bc 4535 013d b4ae d83b
00000370: 37d4 c6bd c999 0e3e 7007 043e 14f0 373e
00000380: 9581 4e3d 51c8 9b3d 7d4b 6ebc 56ad b43b
00000390: 8a43 a13c b84e 223d cdbf 4a3e 1e54 e7bb
000003a0: 189d 17bd c02b 22be 74e4 e4bd d5cd d2bd
000003b0: 4dd3 65bd bffb d93d cc83 05bd 22fd b53d
000003c0: c849 263e 569d 363e e279 bd3d c7c3 5a3d
000003d0: b537 a9bd b383 3c3d f784 f43b 6ffd 1abd
000003e0: 24c1 76bd 8af7 a13d 17cc ed3d ac41 0bbe
000003f0: 6c31 c2bc 3073 50bd dcd0 c1bc 6d02 33bd
-0.036528192 -0.2588142 0.15364105 -0.2680931 0.14607164 -0.22576928 0.026312165 0.12770107
0.29374528 0.12966041 0.15289406 -0.11741165 -0.03802718 -0.18019807 -0.07503895 -0.32789087
0.32142156 0.18168339 -0.16798778 0.03583351 0.050006382 0.11081734 0.19550213 0.1455026
-0.11552893 -0.06456595 -0.1391979 0.15105115 0.23081887 -0.023507254 0.028696556 -0.26381883
-0.035327256 -0.036488827 -0.0804176 -0.2865707 0.22868213 0.41643032 -0.13510872 0.22108023
-0.32877144 -0.35331905 0.2927056 -0.11344784 -0.25764918 0.078402355 -0.036779866 -0.003838046
-0.44161287 -0.35721594 0.23527555 0.015466879 0.13054374 -0.19135733 0.05975425 -0.22810574
0.21699668 0.30282012 -0.058600217 -0.05597876 -0.50069183 0.08211611 -0.023264552 -0.24227457
0.52003807 -0.12819828 -0.29539093 0.029897468 -0.15572882 -0.37076622 -0.059854623 -0.14361446
-0.055870492 0.016258257 -0.19072291 -0.16546533 -0.15309766 0.18693118 -0.078352526 -0.011995531
-0.40226012 -0.26450303 0.07843709 -0.116212934 0.015838364 0.2799471 -0.05474483 -0.39566362
0.12413715 -0.22545668 0.014594198 -0.12708926 0.20080064 -0.19219193 0.2963213 0.16285187
0.04235281 -0.22939263 0.18342312 0.12500669 0.13845895 0.19110972 -0.1506965 -0.0065944893
0.045927662 -0.013797069 -0.14497426 -0.13045092 -0.18156633 0.01069033 -0.07168776 0.18418635
-0.071008116 -0.105469204 -0.1903287 0.073706836 0.16412638 -0.20494032 0.25080824 0.060139738
-0.21977194 -0.08859798 0.023478646 0.056350563 -0.014890536 -0.19850364 -0.39718258 -0.00457143
-0.13599113 0.05585194 0.039732452 0.1376483 0.11662542 -0.061774205 -0.071785524 -0.057353884
0.09080504 0.009825495 0.027433792 0.03222123 -0.058399335 0.11216365 0.04217299 0.07251147
0.064244874 -0.0017152322 0.055022024 -0.09704338 -0.05280337 0.048611082 0.0028243677 0.0020711997
-0.074382044 0.041760925 0.10878158 -0.12305362 -0.021819739 -0.0860157 0.038497932 0.029083485
0.034866028 -0.111700356 0.09358574 0.039445218 -0.07674503 0.008136357 -0.054619014 -0.011082495
0.07264828 -0.1190916 -0.044029225 -0.11497465 0.07248955 -0.13756284 0.041301075 0.07232733
0.09316974 -0.087612435 0.12470723 0.08607213 -0.119835906 0.020653427 -0.017044324 0.096985325
-0.10967761 -0.09623999 0.070330426 -0.08578958 0.09521826 -0.029308511 0.09936418 0.002405404
-0.07343492 0.060775366 0.08207247 0.0034590072 -0.06335242 0.009587431 0.050233774 0.09657415
0.0571105 0.12923108 -0.049155977 0.1253739 -0.06875124 -0.010857364 -0.15135297 -0.06417443
0.08276823 -0.050393026 0.009663793 0.1449937 0.03554763 -0.056757145 -0.09876263 -0.069808535
0.015452391 -0.025723007 0.031544942 0.006612623 -0.097084455 0.13925852 0.12893462 0.17962676
0.050416548 0.07606567 -0.014544365 0.0055138273 0.019685525 0.039625853 0.19799729 -0.007059588
-0.03701505 -0.15837002 -0.111763865 -0.102931656 -0.056109715 0.1064372 -0.032596394 0.08886172
0.16239083 0.17833456 0.09251763 0.053409364 -0.082625784 0.046024036 0.0074621397 -0.03783935
-0.060242787 0.079085425 0.11611193 -0.1359927 -0.023705207 -0.0508911 -0.023659162 -0.043703485

lstm.bias_ih_l0 f4 [512]
00000000: 3a9a 32be 2113 65bd d20f 893b 930b bdbe
00000010: b81d 043c f3ad 10bf 8fcc 6cbc 5e6d b4be
00000020: 6a7a b5bc e93b dcbd 4303 b0be 74e5 53bc
00000030: 8f33 56be d58b fdbe 898f 5abe b7aa f3be
00000040: f21e e9be 80bd e2be 22df e3be 7e3c abbe
00000050: 4d4d d0be b490 6cbe 26cf 21be 32fb 19bf
00000060: f5d8 d0be c582 09be 1a91 633c 7fff 4cbe
00000070: dc6f d3be f41f 5cbe c6e3 ecbe 314b 05bf
00000080: aa5e e5be 54d2 72be a9ec 21bf 3dc1 b6be
00000090: 4186 0fbf bcf6 b2be 93b3 353e 596f 2cbe
000000a0: 3765 1d3d dd8c 44be 98bc e9be f035 1fbe
000000b0: 6771 b1bd da03 1fbe 71e0 58be d01b ec3b
000000c0: 1a15 9e3a 2fd4 94be ed8d 8ebe 353d c1be
000000d0: 17e2 103e 65f8 133d e4d7 5abd 45e8 8abe
000000e0: 433f e63d a900 ce3c 5797 0bbe ddbc 22bf
000000f0: 93fa 0bbe d55e b2be 063a 15bf 87cc 4dbe
00000100: 8ff1 bb3d 1cb5 0dbf 47b6 a7be 3110 80bd
00000110: 7bcf c7be d6b9 363e 69f8 86be e553 e4be
00000120: 71d4 bdbc acc3 31be 1143 40be 4dc9 0ebf
00000130: 7f0b a4be 8e17 3fbd 7145 83be 174d a8be
00000140: 4acf 16bf 591c a6be e3f9 39be 63f4 0b3e
00000150: 594e b3bd 8818 9abe 42aa 31bf 4548 013c
00000160: d793 dbbe 78b0 c2be 3a4b 11be 38c9 0dbe
00000170: 44ed 9ebe 1ee8 9cbc 6595 f7bd 780f ffbe
00000180: 9acb 13bf b842 06be ffc5 a7be b754 45be
00000190: 93ea 5039 300d bcbe ddde a6bd 2270 75be
000001a0: c060 37bf b20b 0cbe 99d6 94be 35ac ddbe
000001b0: 32f6 b7be 4779 f8be 3416 1bbe 853a b1be
000001c0: bb12 aa3c 8acb 37bf 46ee ccbd 3d92 d4be
000001d0: c5bc 2ebe 8911 e1be 4a30 17bd 82d9 243d
000001e0: ce6e 49bd c2c2 38be 2ca4 66be ec23 aabe
000001f0: edce cebe c426 dabe 6d7d d8bd f471 40bd
00000200: a9ed 9f3c 4947 9a3c 13f4 af3d bb02 f9be
00000210: 0bb1 fabd e351 e5be 9147 46bd 36b1 0cbe
00000220: 75ba c3bd c618 673e 70b1 b3be 4250 0a3e
00000230: 2f64 0dbe 9eb1 fabe f0c2 2f3e ab79 a3be
00000240: c174 c5be b997 0bbf 90c0 f4be ac71 f7be
00000250: ca52 f8be e110 bfbd 7b4a 7dbd 257e 08bf
00000260: f08e e8be def3 12be b7a1 f1bd a566 ffbd
00000270: 52b9 b3be daaf 37bc 5ab5 afbe 31e0 07bf
00000280: f4bf 68be 3985 d7be e7cf 2cbf a395 e9bd
00000290: 2a80 eebe 7500 5cbd 93ad 023e 8e63 b2bc
000002a0: 17c5 973e 82aa 21be e406 e5be 16e0 843d
000002b0: d692 a0bd 6e5a bd3d 5dd8 3e3e 1082 c03a
000002c0: ae16 fbba d181 85be d6b5 95be 2afe bdbe
000002d0: 5294 953e 512b 343a 3484 2abd 060d 0bbf
000002e0: d23c 303e 07b3 8a3e d9c8 4f3b 70af 0cbf
000002f0: 47be 8dbe befa a3bd 940a f0be e010 6cbd
00000300: 0fe3 23be 0137 2cbf 234b 4abe 2526 183e
00000310: 02af 98be ef23 383c fb00 bcbe 3228 d3be
00000320: 8b44 54be 70fd 89bd 8d8a f7bd 1662 c7be
00000330: 1c34 27bc 34e6 6bbe 76eb 2e3e 934c f83e
00000340: a723 00bf c1b9 8dbe 0ef5 62be 81b1 ed3d
00000350: b3d1 74be 4413 21be a189 19bf a266 9b3e
00000360: 8ca6 41be 117b c3be 0fd6 e4bd dbc7 8b3e
00000370: e0f4 55be 2190 c93c 3b90 283d 33d6 d8be
00000380: b16c 18bf 4b77 babc 4fb8 b8bc d6b5 9d3d
00000390: aa51 c3bc 1b85 78be 7270 bcbd 0df7 443e
000003a0: be76 19bf cfcb 2fbe 4068 2dbe 30b1 94be
000003b0: f75e 7bbe aa82 edbe ce73 223a 6c1f abbe
000003c0: 96c0 503c 0307 00bf 4f73 4dbd ab49 2abe
000003d0: 17c0 443e fa23 adbe c183 e7bc e1d0 b03e
000003e0: 1669 f5bc 5f53 433e 2338 7dbe e6a9 d3be
000003f0: 1aa0 63bd e115 46be 0c5f a8bd 7cbb ed3c
-0.17441645 -0.055926446 0.004182794 -0.36922893 0.008063726 -0.56515425 -0.014453067 -0.3523969
-0.022153098 -0.107536145 -0.34377488 -0.012933124 -0.20918106 -0.49520746 -0.21343817 -0.47591183
-0.45531422 -0.44285202 -0.44506174 -0.3344459 -0.40683976 -0.23102075 -0.15801677 -0.6014892
-0.40790525 -0.13428791 0.013889575 -0.20019339 -0.4129628 -0.21496564 -0.46267527 -0.5206786
-0.44798785 -0.23713046 -0.6325174 -0.35694304 -0.5606423 -0.34953868 0.17744283 -0.16839351
0.038426604 -0.1919436 -0.45651698 -0.1554792 -0.08664208 -0.15528813 -0.21179368 0.007205464
0.0012060732 -0.29068133 -0.27842656 -0.3774201 0.14148746 0.03612556 -0.053428546 -0.27130333
0.11242535 0.0251468 -0.1363195 -0.6356943 -0.13669805 -0.34837976 -0.5829166 -0.20097552
0.09176933 -0.55354476 -0.32756254 -0.06253088 -0.39025483 0.17844328 -0.26361397 -0.44595256
-0.023172589 -0.17359799 -0.18775584 -0.5577591 -0.3204002 -0.046653323 -0.25638917 -0.32871315
-0.5891005 -0.32443503 -0.1816173 0.13667445 -0.08755178 -0.3009684 -0.6940042 0.007890766
-0.4288623 -0.3802526 -0.14188853 -0.1384629 -0.31040394 -0.01915365 -0.120890416 -0.4981649
-0.57732546 -0.13111389 -0.32768247 -0.19270597 0.00019923811 -0.3672881 -0.081479765 -0.23968557
-0.71632004 -0.13676336 -0.29069975 -0.43295446 -0.3593002 -0.48530027 -0.15145189 -0.3461496
0.020760885 -0.7179495 -0.100063846 -0.4151782 -0.17064197 -0.4395869 -0.036911286 0.040246494
-0.049177937 -0.18043044 -0.22523564 -0.3323053 -0.40392247 -0.426077 -0.10570798 -0.046983674
0.019522505 0.01883282 0.08591475 -0.48634896 -0.122407995 -0.44789037 -0.048408095 -0.13739476
-0.09557048 0.22568044 -0.35096312 0.13507178 -0.13807748 -0.48963636 0.17164207 -0.31928763
-0.3856564 -0.54528385 -0.47803164 -0.48328912 -0.48500663 -0.09329391 -0.06183861 -0.5331748
-0.45421553 -0.1435084 -0.11798423 -0.1247075 -0.35102326 -0.01121136 -0.34318048 -0.53076464
-0.22729474 -0.42093828 -0.67504734 -0.11405494 -0.46582156 -0.053711373 0.12761526 -0.021775987
0.29642555 -0.157877 -0.4473182 0.064880535 -0.07840507 0.09245764 0.18637224 0.0014687199
-0.0019156539 -0.26075605 -0.29240292 -0.37107974 0.29214722 0.000687291 -0.041629985 -0.5431675
0.17210701 0.27089712 0.0031705408 -0.54955196 -0.27684233 -0.0800681 -0.4688307 -0.05763328
-0.16004585 -0.6727143 -0.19755225 0.14858301 -0.2982102 0.011239036 -0.36719498 -0.41241604
-0.20729272 -0.067377925 -0.12086973 -0.3894202 -0.010205295 -0.23037034 0.17082009 0.48495921
-0.500544 -0.2768078 -0.22163793 0.11606122 -0.23908119 -0.15730006 -0.5997563 0.3035174
-0.18911189 -0.3817983 -0.11173641 0.27300915 -0.20894194 0.024604859 0.041153174 -0.4235092
-0.5954085 -0.022761961 -0.022548823 0.07700698 -0.023842651 -0.24269526 -0.09201135 0.19234867
-0.5994681 -0.1716759 -0.169343 -0.29041433 -0.24547945 -0.4638875 0.0006197066 -0.3342241
0.012741229 -0.500107 -0.050158795 -0.16629665 0.19213901 -0.3381651 -0.028261067 0.34534362
-0.029957335 0.19074772 -0.24728446 -0.4134056 -0.055572607 -0.19344284 -0.08221254 0.029020064

lstm.bias_hh_l0 f4 [512]
00000000: 9776 4dbe 9615 d5bd 1c41 58bd a29f eebe
00000010: 7c0d f6bd ff1e 19bf c9d2 fcbd 5f0e 7cbe
00000020: 040d bebc 6c25 50be 7495 e4be 3018 2bbd
00000030: f0a9 91be 7224 e3be 5d7f 91be 1425 fdbe
00000040: 0d18 d5be 4fe3 b3be 2272 ebbe 4fb8 c7be
00000050: 70f0 08bf 33f2 6bbe 3e0a 74be 4896 14bf
00000060: 2846 ddbe 3892 42be 1997 fdbc 56ab 52be
00000070: 47bf e9be 4bf4 57be fe8c dfbe dae8 0cbf
00000080: c711 a6be 7906 78be 0259 2bbf b455 bbbe
00000090: eac3 eabe ad12 b7be f040 863d 5077 92be
000000a0: 9d93 d93d b9a4 3abe 1b88 d9be eecf f6bd
000000b0: 52a8 1abe 3389 09be a32e 64be 5fd4 ab3d
000000c0: ffd7 563d 94bf 9dbe ab50 8cbe 49b1 c6be
000000d0: 5352 c43d 5ad3 f23c 7450 13be fcd0 bcbe
000000e0: 00f3 033e 242b 3e3d 4737 82bd e285 01bf
000000f0: a55b 98be b8a9 e7be 0713 2dbf 4a8c 44be
00000100: c005 413e adb3 00bf 0e22 7dbe 9d01 e73c
00000110: 90c5 e6be aa7d f53d 3403 52be 2d94 f8be
00000120: 4e03 a73d 12af 82be bf15 3ebe d4a5 10bf
00000130: 25ba 81be 71eb afbd 1e9e f8bd 38e8 a6be
00000140: a56b 15bf 3788 d9be aceb 79be dede 063e
00000150: d8e3 ddbd fd42 aebe a716 31bf dc46 903c
00000160: 40b2 aebe 2b93 ecbe e62b 51be 5803 31be
00000170: 2cb8 9fbe 7e71 f63c 82b0 5cbd 0b08 05bf
00000180: bbdb 2dbf d620 87bd fc04 cdbe 4323 56be
00000190: aa32 e8bd 1eba 75be c758 78bd af6a 32be
000001a0: fd72 32bf 95f6 93bd 8a78 aabe 0998 bbbe
000001b0: 70f5 a7be 8b5c 14bf 9f30 10be da08 c7be
000001c0: 24e5 bb3d 99c8 39bf 759b a0bd 4a59 cfbe
000001d0: 048d ffbd 61b2 bbbe d039 acbd c7f4 0d3b
000001e0: 4a05 a4bd 30bd 7fbe ac61 54be 5692 ccbe
000001f0: 1769 97be ad0a ecbe 788d 84be e548 09be
00000200: 534b 4140 174f 3e40 4392 4340 5a1e 2440
00000210: 68df 3940 b972 2240 f316 4040 c206 3440
00000220: 627a 3640 b98e 4d40 4923 2f40 1673 4840
00000230: 352a 3540 0887 2140 f001 4d40 cecc 2740
00000240: 54c7 2440 2160 2240 ccbb 1c40 7fc1 2540
00000250: 6099 2040 624d 3940 bf54 3740 a237 1a40
00000260: 8a32 2540 7eb7 3240 1716 3840 a261 3640
00000270: c0be 2b40 4d8d 3b40 9e23 2540 fa65 1840
00000280: 9d53 3640 5a0f 2440 4993 1140 e911 3840
00000290: bd62 1d40 1385 3740 e50d 4540 bc85 3940
000002a0: b3d7 5040 d0bd 3540 e13c 2840 4f77 3f40
000002b0: 36b6 3940 164b 4440 1619 4840 fe9a 3e40
000002c0: 4071 4340 c922 2f40 6d2e 3140 a2dd 2440
000002d0: b6c2 5140 47b9 3d40 8ed6 4140 8e74 2040
000002e0: c601 4640 92f7 4c40 b818 4040 eb59 2040
000002f0: 0937 3140 2a1f 3840 6dc9 1f40 d367 3a40
00000300: 7dea 3240 b190 1a40 e65f 3340 1266 4540
00000310: 3516 2b40 174b 3f40 5564 2740 3fd3 2940
00000320: 5577 3640 26a3 3640 c7a3 3640 8845 2740
00000330: 9fc4 3a40 68b5 2f40 3792 4a40 efc3 5c40
00000340: 4863 2140 4dad 2940 6ccc 3040 bb15 4440
00000350: edad 2e40 8baa 3340 7b73 1640 f4a3 5340
00000360: 208b 3340 cfe2 2540 a868 3640 1f07 4e40
00000370: 33b8 3240 c071 3c40 d715 4340 0f56 2140
00000380: 7afa 1e40 8687 3c40 dddf 3b40 1bb0 4140
00000390: a084 3d40 7f01 3240 173d 3c40 99cf 4940
000003a0: b2ed 1d40 189e 3040 7b97 3240 4964 2940
000003b0: a26b 2d40 cf52 2040 6e72 3f40 b1eb 2b40
000003c0: a385 4540 5046 1e40 0378 3740 70c7 3140
000003d0: 1085 4840 9aa7 2f40 dd51 3c40 4bc7 5340
000003e0: c099 4240 54d6 4840 ca26 3140 ffe5 1f40
000003f0: d0aa 3a40 753e 3340 7dd1 3a40 5c4c 4140
-0.2006477 -0.10404508 -0.05279647 -0.46606165 -0.12014291 -0.5981292 -0.123448916 -0.24614857
-0.023199566 -0.20326775 -0.44645274 -0.041771114 -0.28449965 -0.44363743 -0.28417483 -0.4944235
-0.41619912 -0.3513436 -0.45985514 -0.39007804 -0.5349188 -0.2304161 -0.23832032 -0.5804181
-0.43217587 -0.1900109 -0.030955838 -0.20573172 -0.45653746 -0.21089284 -0.43662256 -0.55042803
-0.32435438 -0.24221219 -0.6693269 -0.36588824 -0.45852596 -0.35756436 0.065553546 -0.28606653
0.10623858 -0.18226899 -0.42486653 -0.12051378 -0.15103272 -0.13431244 -0.22283415 0.08390116
0.052452084 -0.30810225 -0.27405295 -0.38807133 0.095860146 0.029641796 -0.14386159 -0.36878192
0.12885666 0.04642786 -0.063581996 -0.50594914 -0.2975742 -0.45246673 -0.6760716 -0.19194141
0.1884985 -0.50274163 -0.24720022 0.028199011 -0.45072603 0.11986859 -0.20509034 -0.4855055
0.08154927 -0.25524193 -0.18562983 -0.56503034 -0.2533733 -0.08589829 -0.121395335 -0.32599044
-0.5836738 -0.42486736 -0.24406308 0.13170955 -0.10834473 -0.34035483 -0.6917519 0.017611913
-0.3412037 -0.4620603 -0.20426902 -0.17286432 -0.311952 0.030083414 -0.05387927 -0.519654
-0.6791341 -0.0659806 -0.40042865 -0.20911889 -0.113377884 -0.2399678 -0.06063154 -0.17423509
-0.6970671 -0.07224766 -0.3329509 -0.3663943 -0.3280444 -0.5795371 -0.14081047 -0.3887394
0.091745645 -0.7257171 -0.07842151 -0.4049781 -0.124780685 -0.3665953 -0.08409464 0.0021660791
-0.08008821 -0.24974513 -0.20740384 -0.39955395 -0.29572365 -0.46101895 -0.25889182 -0.13406713
3.0202224 2.9735773 3.055802 2.5643525 2.9042606 2.538252 3.0014007 2.8129125
2.8512197 3.211836 2.7365286 3.1320243 2.830701 2.5238667 3.2032433 2.6218753
2.574666 2.5371172 2.4489622 2.589935 2.5093613 2.895348 2.8645475 2.4096456
2.5812097 2.7924495 2.8763483 2.849709 2.6835175 2.9304993 2.580299 2.3812242
2.8488533 2.563437 2.2746146 2.8760931 2.4591515 2.8674972 3.078973 2.8987875
3.2631652 2.8397102 2.6287158 2.991657 2.9017463 3.067083 3.1265311 2.97821
3.0537872 2.736498 2.7684586 2.5760274 3.2775092 2.9644334 3.0287204 2.507114
3.0938582 3.2026105 3.0015087 2.5054882 2.768984 2.876902 2.496669 2.912587
2.795562 2.4150813 2.8027282 3.0843549 2.6732304 2.9889581 2.6154988 2.6535184
2.8510334 2.8537078 2.8537462 2.6136189 2.9182508 2.7454472 3.1651742 3.4494588
2.5216846 2.6512024 2.762477 3.0638263 2.7293656 2.807284 2.3507984 3.306882
2.8053665 2.5919683 2.8501377 3.2191846 2.7924926 2.9444427 3.048208 2.5208776
2.4840379 2.9457717 2.9355385 3.0263736 2.9612198 2.7813413 2.9412286 3.1532958
2.4676328 2.7596493 2.7904956 2.646746 2.7096944 2.5050542 2.9913592 2.6862605
3.0862815 2.4730415 2.8667 2.7777977 3.1331215 2.7446046 2.9424965 3.3090389
3.0406342 3.1380816 2.7679925 2.4984128 2.9166756 2.800687 2.9190361 3.0202856

head.net.0.weight f4 [1, 128]
00000000: 11a5 a7bb 3ae2 963b b36e 47bb 2374 fa3c
00000010: 6ed4 023c 57a8 543e af50 8c3c 7863 253c
00000020: 43eb 4bbc cfa0 733c a426 d1bd 7936 f33b
00000030: 887a eabb 0320 d5bd 4b5f 3d3b 645c 213a
00000040: 0eaf 6cbe b61f 3cbe 6a42 833d e0ee aabd
00000050: c1dc 26be 7745 e4bc 927f a2bb 253d b7be
00000060: 2e9d 9c3d c7ee 72bc 9e5d 76ba 90a2 1dbc
00000070: cede 723c d98a ff3b d569 833e d5f1 a83e
00000080: 4300 4ebb e04b 7e3a 07b5 0fbf c9a7 8dbb
00000090: 5481 56be 19a2 1abd b5f2 80bb 4377 e2bc
000000a0: 87bf cb3c 12a0 c63c 6857 a9bd 5459 c43a
000000b0: d743 cbbb 2832 c8bc fb82 2c3a a633 81bb
000000c0: 0bc5 2dbb 8393 e1bb e633 86bc c69f 7c3d
000000d0: ea98 f9ba 9995 f9bb 2f52 95bb 9fcb 943d
000000e0: bf26 4bbb e650 88bb 2d31 ad3b 6b24 a43e
000000f0: 5d5e 403c 9054 f2ba ee07 2a3f bc27 4bbc
00000100: 7d53 e83a 8541 533e 5d8b 883b cf7a c738
00000110: 02ff a33d 2dd5 b2ba e108 f93b 18dc c03d
00000120: 760a 033b 9ae5 ccbc c158 883c e674 ac3d
00000130: 44f0 2539 58b9 49bc fd0c 87bb 6e63 163b
00000140: 8505 953e 11d9 3a3d ad26 213c 0d8e e2ba
00000150: d8be f43c 3979 9ebc 27d9 70bf d4ab 4abb
00000160: a69f 5a3a 4238 a63d cfd5 23bd e601 acbc
00000170: 3bca 173c 2b73 1d3a e9e9 393c 12a2 d1bd
00000180: 8e94 253f 5970 0b3b 3d85 9d3b b2dc 86bb
00000190: bc00 c6b9 1a94 4cbd 47a2 303b 7adb 6d3c
000001a0: 0183 0140 cd34 8dbc 12cd 21bd 99f7 e2b9
000001b0: aa20 c63d 805e 24bf a659 10bd 1da7 72bc
000001c0: 7b37 f23b f2bd ae3f 3381 963a f03d 4a3b
000001d0: d970 dfba f2b4 3dbc 067c 803c a57c 25bd
000001e0: 95fb 043d f105 8abc 3999 b73c 0f1a d7bd
000001f0: ae2b f33a 7a4b 503b b0ea 833b e9e5 b83b
-0.005116113 0.004604605 -0.0030430972 0.030572956 0.0079852175 0.20767342 0.017128317 0.010094516
-0.0124462275 0.014869883 -0.10212448 0.007422265 -0.00715572 -0.104064964 0.002889591 0.000615543
-0.23113653 -0.18371472 0.06409152 -0.08346343 -0.16295148 -0.027865155 -0.004959055 -0.35788837
0.07647167 -0.014827437 -0.00093981053 -0.009621277 0.014823629 0.0077985344 0.2566668 0.32997003
-0.0031433261 0.00097006373 -0.561356 -0.00432298 -0.20947772 -0.037752245 -0.003935183 -0.027644759
0.0248716 0.02424625 -0.082686245 0.0014980235 -0.0062031555 -0.024437979 0.0006580797 -0.0039429246
-0.0026515152 -0.00688404 -0.016382169 0.06167581 -0.0019042764 -0.0076167104 -0.004556916 0.072654
-0.0030998436 -0.0041600345 0.005285403 0.32059035 0.011741248 -0.0018488336 0.6641835 -0.01239961
0.0017725077 0.20630462 0.004167004 9.511934e-05 0.08007623 -0.0013643854 0.0075999354 0.094169796
0.001999525 -0.025011826 0.016643884 0.08420734 0.00015825132 -0.012312256 -0.0041214214 0.0022947448
0.29105774 0.045617167 0.009835881 -0.0017284766 0.029876158 -0.019344913 -0.9408135 -0.0030925171
0.00083398295 0.08116199 -0.039998826 -0.020996999 0.009264524 0.0006006236 0.011347272 -0.102359906
0.646798 0.0021276681 0.004807143 -0.0041156644 -0.0003776605 -0.04994593 0.0026952194 0.014517659
2.0236208 -0.017237091 -0.03950221 -0.00043290554 0.09674199 -0.64206696 -0.035241745 -0.014810351
0.0073918677 1.3651717 0.0011482596 0.0030859672 -0.0017047181 -0.011578785 0.015684139 -0.040402073
0.03246649 -0.016848536 0.02241193 -0.10503017 0.0018552446 0.0031783269 0.0040257797 0.005642642
