examples/catchment_models/training/runs/usa_time_split_2404_015859/model_epoch024.pt (torch, 316229 bytes, 5 tensors)

lstm.weight_ih_l0 f4 [512, 23]
0.33067605 0.84097767 0.11238032 0.22774933 0.017559001 0.3682474 0.19081037 -0.1231966
0.04339767 0.10497407 -0.32021293 -0.19750094 -0.64029944 -0.013848414 0.14030135 0.019593861
0.2594632 0.29451278 -0.4528472 0.4934865 -0.27726513 -0.4462972 0.05795824 0.03990574
-0.1406405 0.36896807 0.28671065 0.34230778 0.13918374 -0.18459916 0.2702268 -0.035745982
-0.046447184 -5.5190056e-05 -0.12018257 -0.21913707 0.00028043328 0.020528061 -0.15381567 -0.23572408
-0.14388056 -0.053004567 -0.102415904 -0.0044543496 -0.057458 0.0952586 0.17453963 0.124415934
-0.084195346 0.05555098 0.0208952 0.107773855 -0.1178447 0.03864833 -0.14731263 0.15608017
-0.30049458 -0.32661232 -0.14392406 0.020497723 -0.22825566 0.053624548 0.26338705 0.13592413
0.030755198 -0.05739503 0.18004122 0.14945967 -0.050932538 -0.012300622 0.37907517 0.23620589
0.021220334 0.022071317 0.6379419 0.58477736 -0.001807735 0.52347547 -0.082064696 -0.3113103
0.22155514 -0.4111894 -0.30778867 -0.091461636 0.4877566 0.39340994 0.35065013 -0.2989609
0.29541686 0.44716647 0.37414795 0.04278795 0.2675274 -0.119381465 0.48383716 0.9788432
0.96659034 0.3275015 0.11738138 0.046917334 0.10339683 -0.3213814 0.24929477 0.014367784
-0.6859313 0.43544367 0.1312609 0.17013083 0.67687213 0.48924863 -0.33504018 0.2989379
-0.30504742 -0.10623422 -0.022270735 0.022002874 0.1717698 0.043948174 0.12659398 0.29933363
0.56270295 0.64229035 -0.18310316 0.62837344 -0.089997225 -0.5051092 0.09306509 -0.12673919
-0.27343935 -0.049655482 0.43275464 0.37707242 0.25527108 -0.54458964 0.4265143 0.22957455
0.5486981 0.17012912 -0.026621336 0.6728277 0.14786163 0.2400343 -0.6804708 0.18707855
0.14695847 0.33962205 -0.044139452 -0.40627804 -0.16955228 -0.19455229 0.09084835 0.5048843
0.3809166 0.067509346 -0.51145095 -0.26881766 0.39141685 -0.5877797 -0.6442311 -0.19574364
0.11593791 0.4446214 -0.04047885 0.9265639 0.9693198 0.2805264 0.19592759 0.58795226
-0.12211245 0.6042838 -0.47728664 0.08275856 -0.3315068 -0.22525725 -0.48953822 0.33308744
0.39472902 0.3406729 0.2353214 -0.34057108 0.21970229 0.5109044 0.58348536 0.28963616
-0.38657904 -0.03506166 0.12653342 0.27896324 0.7582012 -0.18923493 0.12171045 -0.49604192
0.23657951 -0.20004001 0.5318599 -0.11758634 -0.5840564 -0.21642542 0.28972834 0.20982082
-0.06769267 0.16009189 -0.19473976 0.35750142 0.029067924 0.1805078 0.22946927 0.22654237
-0.18933871 -0.45474285 -0.11725116 -0.19056307 -0.08436731 0.24806891 0.1757173 0.04308907
0.2787584 -0.024523124 -0.14599803 -0.13828391 0.13130793 0.17952299 0.087002814 -0.34799713
-0.09329109 -0.22948833 0.024595574 -0.09788775 -0.19631885 -0.12140257 -0.09049254 -0.1874566
-0.067651264 -0.5339926 -0.15328918 0.43581057 0.32040316 -0.6562088 0.16627242 0.3512309
-0.56383413 0.21508648 -0.056714334 -0.35176608 -0.07538245 0.32887766 0.3691358 0.4503201
0.33341405 0.19950786 0.57513565 0.2792643 0.17457609 -0.09058512 -0.52223676 -0.110917866
00000000: 5f4e a93e 504a 573f a727 e63d 1f37 693e
00000010: e5d7 8f3c ec8a bc3e cb63 433e 804e fcbd
00000020: c1c1 313d a5fc d63d f3f2 a3be b03d 4abe
00000030: aaea 23bf 75e4 62bc 28ab 0f3e 4e83 a03c
00000040: 5cd8 843e 61ca 963e 97db e7be 43aa fc3e
00000050: b2f5 8dbe 1181 e4be 9f65 6d3d 3474 233d
00000060: 1004 10be 62e9 bc3e bdcb 923e f742 af3e
00000070: 2f86 0e3e 9007 3dbe 2b5b 8a3e 616a 12bd
00000080: 673f 3ebd df7b 67b8 4722 f6bd 7865 60be
00000090: 1e07 9339 772a a83c db81 1dbe a761 71be
000000a0: 6d55 13be 511b 59bd 6ebf d1bd cbf5 91bb
000000b0: 1459 6bbd f116 c33d 84ba 323e c8cd fe3d
000000c0: 9c6e acbd 6d89 633d 692c ab3c 8ab8 dc3d
000000d0: 9058 f1bd b64d 1e3d 1fd9 16be 7bd3 1f3e
000000e0: 6dda 99be bb39 a7be d460 13be d7ea a73c
000000f0: dabb 69be 6aa5 5b3d abda 863e b22f 0b3e
00000100: 53f2 fb3c 0d17 6bbd ba5c 383e f50b 193e
00000110: a39e 50bd 8c88 49bc 2416 c23e f5df 713e
00000120: 44d6 ad3c e8ce b43c 2950 233f f8b3 153f
00000130: 85f1 ecba 7d02 063f 8911 a8bd 1064 9fbe
00000140: 5adf 623e 6b87 d2be 7a96 9dbe 3d50 bbbd
00000150: 3cbb f93e 076d c93e 6a88 b33e 6711 99be
00000160: e140 973e 01f3 e43e 5290 bf3e 6b42 2f3d
00000170: 5af9 883e 457e f4bd 81b9 f73e 7895 7a3f
00000180: 7772 773f 47ae a73e a665 f03d 642c 403d
00000190: b8c1 d33d 1a8c a4be 2147 7f3e db66 6b3c
000001a0: 3299 2fbf 79f2 de3e 4269 063e c736 2e3e
000001b0: 7e47 2d3f cc7e fa3e 638a abbe 630e 993e
000001c0: 2d2f 9cbe 5491 d9bd 1e71 b6bc 5f3f b43c
000001d0: 6ce4 2f3e 0003 343d daa1 013e 4242 993e
000001e0: 4d0d 103f 246d 243f 657f 3bbe 15dd 203f
000001f0: 7750 b8bd d64e 01bf e998 be3d ebc7 01be
00000200: 3e00 8cbe 8c63 4bbd 0492 dd3e a30f c13e
00000210: e4b2 823e 3a6a 0bbf 1560 da3e 9715 6b3e
00000220: 7b77 0c3f 5436 2e3e fd14 dabc 703e 2c3f
00000230: 0a69 173e 8dcb 753e 5633 2ebf 8591 3f3e
00000240: 487c 163e f1e2 ad3e 92cb 34bd ad03 d0be
00000250: 1d9f 2dbe b738 47be b30e ba3d 1940 013f
00000260: 8007 c33e 5742 8a3d 73ee 02bf 78a2 89be
00000270: ca67 c83e bb78 16bf 54ec 24bf 0571 48be
00000280: db70 ed3d 6ba5 e33e 27cd 25bd 4b33 6d3f
00000290: 5825 783f 28a1 8f3e 3ea1 483e 0a84 163f
000002a0: 1816 fabd 58b2 1a3f ea5e f4be 527d a93d
000002b0: 42bb a9be d6a9 66be c1a4 fabe 708a aa3e
000002c0: ec19 ca3e ae6c ae3e 18f8 703e 555f aebe
000002d0: a3f9 603e a1ca 023f 4c5f 153f 314b 943e
000002e0: b0ed c5be d19c 0fbd fa91 013e 45d4 8e3e
000002f0: 7919 423f cdc6 41be 5443 f93d 35f9 fdbe
00000300: e641 723e 4ad7 4cbe f827 083f 1bd1 f0bd
00000310: b884 15bf a09e 5dbe 4657 943e 45db 563e
00000320: 74a2 8abd 21ef 233e dc69 47be 6d0a b73e
00000330: db1f ee3c 09d7 383e fef9 6a3e b9fa 673e
00000340: 02e2 41be 0ed4 e8be 6021 f0bd f722 43be
00000350: c5c8 acbd c705 7e3e 3cef 333e 2a7e 303d
00000360: 6cb9 8e3e b8e4 c8bc 8280 15be 4c9a 0dbe
00000370: 9675 063e e0d4 373e 882e b23d ae2c b2be
00000380: 660f bfbd fdfe 6abe a87c c93c 5f79 c8bd
00000390: cf07 49be e9a1 f8bd 2754 b9bd 9ff4 3fbe
000003a0: bf8c 8abd bdb3 08bf d7f7 1cbe 9022 df3e
000003b0: e20b a43e 4dfd 27bf 5143 2a3e 89d4 b33e
000003c0: 6f57 10bf a13f 5c3e 4a4d 68bd af1a b4be
000003d0: 1d62 9abd a762 a83e 5eff bc3e 5b90 e63e
000003e0: 3fb5 aa3e ca4b 4c3e 173c 133f bbfb 8e3e
000003f0: 13c4 323e b184 b9bd 4fb1 05bf e828 e3bd

lstm.weight_hh_l0 f4 [512, 128]
-0.15412025 -0.49650508 0.46670586 -0.41609314 0.10510167 -0.2997896 -0.10800765 0.2449936
0.31338018 -0.08197247 0.2672408 -0.16936101 -0.120012894 -0.246238 0.08412346 -0.4905229
0.27301782 -0.041101757 -0.06908379 0.054423437 -0.059101563 0.13723765 0.14365797 0.091164656
-0.10535865 0.017219713 -0.23589511 0.17752631 0.30653533 -0.02538605 0.07063211 -0.14439902
-0.24686971 0.19089644 0.0014506599 -0.5501507 0.072556876 0.48494756 -0.20361167 0.12761319
-0.4213941 -0.4611475 0.41346887 -0.08851714 -0.47988057 0.122007996 -0.25627652 -0.37037942
-0.44847277 -0.5893504 0.39676633 -0.012429329 -0.07606441 -0.5238014 -0.13612312 -0.2433924
0.17750333 0.19830863 -0.09835314 0.02080649 -0.43919188 0.035606265 0.060751688 -0.33834478
0.65944266 -0.053678114 -0.19089228 0.050689396 -0.13657504 -0.38244182 -0.2191102 0.031189973
-0.21884656 0.09395481 -0.14822397 -0.27562374 -0.48948148 0.24203591 -0.24275003 -0.073986955
-0.36175075 -0.32562545 0.089822754 -0.14809214 0.18973024 0.47268233 -0.08432569 -0.44964433
0.18281469 -0.23741263 -0.14268146 -0.31324637 0.23664187 -0.11669644 0.10872863 0.16602653
0.15176089 -0.019290503 0.25501615 -0.048115633 0.41497296 0.33226326 -0.29965663 0.4013748
0.16237515 -0.038288765 -0.11634461 -0.08288165 -0.2728093 -0.030935585 -0.069177546 -0.046244465
-0.261834 -0.012606821 -0.039618157 0.036050387 0.013617311 0.1537462 0.23635346 0.19429298
-0.46880373 -0.35764402 -0.04313912 0.035838902 -0.07855701 -0.22583869 -0.28370073 0.087992616
-0.18050654 0.015810492 0.013133889 0.1490734 0.06445353 -0.06526635 -0.09305617 -0.040931016
0.08840603 0.045726024 0.042979315 -0.045638885 -0.087964445 0.12220702 0.08841506 0.13371183
0.078959905 -0.004702019 0.07615067 -0.09938279 -0.053180825 0.03236261 0.0050580907 -0.0055453395
-0.039980292 0.034878433 0.05269149 -0.20014098 0.013382611 -0.035035163 0.022714823 0.055110686
-0.012945785 -0.07201532 0.06106379 0.00027337385 -0.076009765 -0.021331517 -0.04097531 0.022196468
0.07498299 -0.1369641 -0.048255894 -0.09842818 0.13245384 -0.23202062 0.035888743 -0.07524047
0.13329555 -0.08431286 0.16330634 0.18423147 -0.12302738 -0.05725358 -0.110621996 0.11031637
-0.09102029 -0.11756128 0.1409763 -0.0889371 0.14134637 -0.017833073 0.091830164 -0.060787376
0.06328717 0.059019107 0.12936538 0.16778117 -0.034867115 0.026605701 0.060292833 0.1255576
0.12414303 0.09489586 -0.01758505 0.1571676 -0.07833857 0.005482551 -0.15779506 -0.027469054
0.073483475 -0.024204431 -0.027125522 0.19760683 0.02990595 -0.047554117 -0.102059454 -0.049743
0.049279597 -0.024012404 0.040005222 0.013966003 -0.07798537 0.08165873 0.12008833 0.14906725
0.03220321 0.06963994 -0.053403884 -0.022252124 0.11248024 0.014097884 0.16674818 0.008261805
-0.0346479 -0.15700255 -0.11339126 0.0054846774 -0.06960029 0.11972974 -0.0354127 0.049765818
0.1704945 0.1696912 0.109328374 -0.0006364072 -0.08926412 -0.019195687 0.007362869 -0.05625337
-0.030033791 0.02569488 0.11768956 -0.15201412 0.060305152 -0.042987503 -0.05633724 -0.010784802
00000000: b3d1 1dbe ea35 febe 12f4 ee3e 290a d5be
00000010: 8b3f d73d 067e 99be 1d33 ddbd 9adf 7a3e
00000020: 5e73 a03e 2fe1 a7bd c9d3 883e f96c 2dbe
00000030: 52c9 f5bd d025 7cbe ec48 ac3d d125 fbbe
00000040: fec8 8b3e 515a 28bd cd7b 8dbd 1ceb 5e3d
00000050: 7b14 72bd 0788 0c3e 131b 133e 89b4 ba3d
00000060: 47c6 d7bd 5b10 8d3c 7d8e 71be 75c9 353e
00000070: 33f2 9c3e 68f6 cfbc 91a7 903d 56dd 13be
00000080: 6acb 7cbe 5b7a 433e 1224 be3a add6 0cbf
00000090: b398 943d 0c4b f83e 947f 50be 08ad 023e
000000a0: f8c0 d7be 861b ecbe 31b2 d33e 7948 b5bd
000000b0: e8b2 f5be 54df f93d ad36 83be 5fa2 bdbe
000000c0: 399e e5be abdf 16bf f524 cb3e 62a4 4bbc
000000d0: a8c7 9bbd d917 06bf dc63 0bbe db3b 79be
000000e0: 6fc3 353e 6b11 4b3e 5f6d c9bd 5f72 aa3c
000000f0: c2dd e0be e0d7 113d c3d6 783d 873b adbe
00000100: 3cd1 283f 95dd 5bbd 4479 43be af9f 4f3d
00000110: 54da 0bbe 6acf c3be 6d5e 60be 1d82 ff3c
00000120: 5019 60be 616b c03d 06c8 17be 8e1e 8dbe
00000130: 519d fabe 43d8 773e 7793 78be 7986 97bd
00000140: 6537 b9be 61b8 a6be fef4 b73d 77a5 17be
00000150: a548 423e 6b03 f23e f3b2 acbd c837 e6be
00000160: c633 3b3e 4c1c 73be 171b 12be d461 a0be
00000170: 3f52 723e 8bfe eebd 1ead de3d dc02 2a3e
00000180: 3567 1b3e 1e07 9ebc 7a91 823e e614 45bd
00000190: 5677 d43e 691e aa3e 986c 99be ff80 cd3e
000001a0: ac45 263e aed4 1cbd 1546 eebd dbbd a9bd
000001b0: a9ad 8bbe a06c fdbc f5ac 8dbd d66a 3dbd
000001c0: 1b0f 86be d78c 4ebc a646 22bd 92a9 133d
000001d0: 241b 5f3c a56f 1d3e a406 723e bdf4 463e
000001e0: 0b07 f0be 1e1d b7be a5b2 30bd d0cb 123d
000001f0: 7fe2 a0bd 4242 67be 3941 91be 7935 b43d
00000200: b5d6 38be 0185 813c 862f 573c b3a6 183e
00000210: 3600 843d 5daa 85bd 3c94 bebd 48a7 27bd
00000220: 380e b53d 364b 3b3d 140b 303d d7ef 3abd
00000230: b426 b4bd ad47 fa3d f412 b53d c1eb 083e
00000240: bbb5 a13d 6513 9abb e2f4 9b3d 3489 cbbd
00000250: 23d4 59bd a88e 043d 57be a53b aeb5 b5bb
00000260: 60c2 23bd b0dc 0e3d 08d3 573d c2f1 4cbe
00000270: bd42 5b3c 0881 0fbd 7014 ba3c bebb 613d
00000280: 8f1a 54bc c57c 93bd 061e 7a3d 9e53 8f39
00000290: 02ab 9bbd 6fbf aebc bad5 27bd 5ed5 b53c
000002a0: af90 993d 5140 0cbe f9a7 45bd b794 c9bd
000002b0: fba1 073e d096 6dbe 1300 133d ad17 9abd
000002c0: a17e 083e 39ac acbd c739 273e 2da7 3c3e
000002d0: c7f5 fbbd bb82 6abd c98d e2bd 8ded e13d
000002e0: d968 babd f8c3 f0bd 175c 103e a724 b6bd
000002f0: 1abd 103e aa16 92bc 7411 bc3d 2ffc 78bd
00000300: b49c 813d 05be 713d 5c78 043e d4ce 2b3e
00000310: d2d0 0ebd 33f4 d93c 9ef5 763d 2c92 003e
00000320: b33e fe3d c358 c23d 860e 90bc 8bf0 203e
00000330: f96f a0bd f9a6 b33b 0795 21be c806 e1bc
00000340: 817e 963d 5f48 c6bc 5836 debc 7259 4a3e
00000350: 53fd f43c 1bc8 42bd 8c04 d1bd 51bf 4bbd
00000360: 67d9 493d a9b5 c4bc 84dc 233d aad1 643c
00000370: cbb6 9fbd b13c a73d dff0 f53d 16a5 183e
00000380: 83e7 033d 639f 8e3d 08be 5abd 164a b6bc
00000390: 0a5c e63d d0fa 663c 09c0 2a3e 865c 073c
000003a0: f5ea 0dbd 47c5 20be ad39 e8bd cfb8 b33b
000003b0: 998a 8ebd de34 f53d e80c 11bd 3ed7 4b3d
000003c0: 1c96 2e3e 88c3 2d3e 8ee7 df3d 90d4 26ba
000003d0: 1bd0 b6bd 4640 9dbc 3944 f13b ef69 66bd
000003e0: 6d09 f6bc 127e d23c 3907 f13d 97a9 1bbe
000003f0: 8902 773d aa13 30bd e1c1 66bd bdb2 30bc

lstm.bias_ih_l0 f4 [512]
-0.23822628 -0.034948792 -0.19503033 -0.5298358 0.034874532 -0.81359917 -0.072926626 -0.43301263
-0.043550566 -0.26678708 -0.30396557 -0.098751575 -0.22138809 -0.6298656 -0.18608136 -0.60560673
-0.56038517 -0.585168 -0.58075887 -0.4767576 -0.5270597 -0.3539209 -0.19477956 -0.7506529
-0.5589287 -0.09751422 -0.035280924 -0.18150832 -0.6101305 -0.18278536 -0.58035254 -0.6440725
-0.49876493 -0.19701667 -0.8317389 -0.47229403 -0.6533019 -0.38197854 0.094778344 -0.40855956
0.031700566 -0.34020102 -0.68666226 -0.17159173 -0.22951373 -0.28858697 -0.36424363 -0.083088845
-0.08877986 -0.36955595 -0.3055006 -0.49737033 0.15602994 -0.04429335 0.00670094 -0.44027013
0.04160221 0.05539711 -0.19600762 -0.7635345 -0.16589502 -0.4257114 -0.7940706 -0.17766327
0.012114966 -0.8410554 -0.44421038 -0.12761845 -0.5364331 0.23517969 -0.38587108 -0.55411375
-0.13930699 -0.22693689 -0.29996562 -0.71970284 -0.35707563 -0.15006916 -0.22523324 -0.4336358
-0.77663213 -0.4495032 -0.34822536 0.18740942 -0.1986797 -0.4577581 -0.92111427 0.015368707
-0.5903195 -0.37690026 -0.16091013 -0.1281787 -0.41200587 -0.10914802 -0.23056428 -0.70861316
-0.7130505 -0.18213534 -0.42562592 -0.37709093 -0.035006426 -0.41551846 0.05996584 -0.29410714
-0.92065054 -0.15425393 -0.34792033 -0.595641 -0.39566445 -0.6827507 -0.2651076 -0.4498916
-0.061040226 -0.7824658 -0.2922841 -0.5343155 -0.24639298 -0.57329154 -0.02943907 -0.17904104
-0.107831046 -0.23078622 -0.46247286 -0.54079384 -0.33977875 -0.507612 -0.17949945 -0.17064516
0.02916032 0.023238227 0.12551741 -0.60879076 -0.12514219 -0.5645501 0.00018526011 -0.14099899
-0.059902336 0.26858938 -0.37012252 0.17698054 -0.20552137 -0.49520627 0.26659602 -0.3720347
-0.6227549 -0.6279286 -0.64505804 -0.5975762 -0.5772016 -0.25794095 0.09154322 -0.64201176
-0.42902365 -0.15538228 -0.08017406 -0.15255302 -0.5257903 0.057177756 -0.44767234 -0.72218376
-0.19622394 -0.44790515 -0.9656117 -0.09251949 -0.5862066 -0.019276816 0.11136399 0.0410397
0.37624198 -0.046915326 -0.55929154 0.18509531 -0.14456277 0.26999152 0.2197143 -0.0028625636
0.041794796 -0.3284469 -0.32608458 -0.36754045 0.37262288 0.050393634 0.07365356 -0.6047286
0.26597273 0.28025135 0.060173847 -0.6983027 -0.29376635 -0.11041596 -0.5773074 -0.10565901
-0.2329968 -0.7693674 -0.2160963 0.06751767 -0.39138243 0.005127561 -0.41584 -0.60046065
-0.32445922 0.01981086 -0.13379738 -0.5121413 -0.06084726 -0.37777242 0.3434295 0.55027735
-0.47412264 -0.2768255 -0.27664775 0.27948815 -0.42748106 -0.151853 -0.85449183 0.39976305
-0.23856987 -0.4773575 -0.23076843 0.41155607 -0.18880945 0.024494426 -0.018257411 -0.5781473
-0.70335245 -0.023724256 -0.078766085 0.11986487 0.03338576 -0.09342006 -0.12440698 0.1922162
-0.67586726 -0.37928444 -0.19040114 -0.43550593 -0.3329582 -0.6805816 -0.04089843 -0.4029808
-0.013653074 -0.69747037 -0.18864541 -0.18140474 0.28068376 -0.46691918 0.023115015 0.2559797
0.033800848 0.32201877 -0.3502522 -0.36662313 0.008718937 -0.09757987 -0.11821398 0.11787453
00000000: 97f1 73be 7726 0fbd 08b6 47be 52a3 07bf
00000010: 99d8 0e3d 0948 50bf 8e5a 95bd d5b3 ddbe
00000020: 1462 32bd 5198 88be 60a1 9bbe 443e cabd
00000030: 8fb3 62be df3e 21bf 1d8c 3ebe 0b09 1bbf
00000040: 6775 0fbf 92cd 15bf 9dac 14bf 9219 f4be
00000050: 62ed 06bf 1f35 b5be 4b74 47be ca2a 40bf
00000060: f415 0fbf 89b5 c7bd bb82 10bd 51dd 39be
00000070: 8331 1cbf 162c 3bbe fc91 14bf efe1 24bf
00000080: 1e5e ffbe bdbe 49be d7ec 54bf 86d0 f1be
00000090: cb3e 27bf b192 c3be 261b c23d b82e d1be
000000a0: 74d8 013d d42e aebe 19c9 2fbf beb5 2fbe
000000b0: a605 6bbe acc1 93be 247e babe 7c2a aabd
000000c0: 37d2 b5bd 7036 bdbe 936a 9cbe 53a7 febe
000000d0: 50c6 1f3e f26c 35bd 8f93 db3b 166b e1be
000000e0: 1467 2a3d 14e8 623d 39b6 48be ff76 43bf
000000f0: 62e0 29be d8f6 d9be 3648 4bbf 5ced 35be
00000100: da7d 463c 684f 57bf 8b6f e3be 69ae 02be
00000110: ae53 09bf f2d2 703e e590 c5be 66da 0dbf
00000120: 7ea6 0ebe 2562 68be 1895 99be 723e 38bf
00000130: 9ed2 b6be bbab 19be 8ba3 66be 8305 debe
00000140: 5dd1 46bf 4925 e6be 984a b2be 41e8 3f3e
00000150: b172 4bbe 455f eabe 25ce 6bbf 07cd 7b3c
00000160: 2e1f 17bf 12f9 c0be a0c5 24be 4741 03be
00000170: 6ff2 d2be ff88 dfbd 0b19 6cbe ac67 35bf
00000180: 7a8a 36bf b081 3abe a4eb d9be 1012 c1be
00000190: e662 0fbd d6be d4be be9e 753d 3695 96be
000001a0: c1af 6bbf bef4 1dbe 9d22 b2be ee7b 18bf
000001b0: 8894 cabe c0c8 2ebf 2fbc 87be 3158 e6be
000001c0: 5105 7abd ae4f 48bf 43a6 95be e7c8 08bf
000001d0: 714e 7cbe 3cc3 12bf 342a f1bc 8956 37be
000001e0: 86d6 dcbd 3953 6cbe 3ec9 ecbe 7771 0abf
000001f0: 7bf7 adbe dcf2 01bf b4ce 37be 9bbd 2ebe
00000200: a0e1 ee3c 185e be3c a387 003e b6d9 1bbf
00000210: 4625 00be 5b86 10bf 6242 4239 0a62 10be
00000220: 275c 75bd 8c84 893e b380 bdbe 633a 353e
00000230: 3274 52be ad8b fdbe 467f 883e 557b bebe
00000240: dd6c 1fbf eebf 20bf 8622 25bf c1fa 18bf
00000250: 7cc3 13bf d610 84be 037b bb3d e25a 24bf
00000260: fda8 dbbe 881c 1fbe 4c32 a4bd dc36 1cbe
00000270: 319a 06bf 3933 6a3d 4f35 e5be 09e1 38bf
00000280: eeee 48be d353 e5be 5432 77bf dc7a bdbd
00000290: a311 16bf 6aea 9dbc ce12 e43d 3f19 283d
000002a0: caa2 c03e 492a 40bd bb2d 0fbf a089 3d3e
000002b0: 4308 14be 543c 8a3e c9fc 603e d999 3bbb
000002c0: 0531 2b3d 312a a8be 8ff4 a6be 432e bcbe
000002d0: 6dc8 be3e 8e69 4e3d add7 963d 7ecf 1abf
000002e0: 942d 883e 1b7d 8f3e da78 763d f7c3 32bf
000002f0: 8b68 96be c321 e2bd 6bca 13bf c063 d8bd
00000300: b796 6ebe 43f5 44bf 5948 5dbe b446 8a3d
00000310: 4763 c8be 1905 a83b fbe8 d4be cab7 19bf
00000320: 851f a6be 624a a23c 2e02 09be b11b 03bf
00000330: fa3a 79bd 636b c1be fed5 af3e fade 0c3f
00000340: 34c0 f2be 12bc 8dbe c6a4 8dbe 1219 8f3e
00000350: ccde dabe 5a7f 1bbe fabf 5abf bead cc3e
00000360: a94b 74be 3468 f4be 8f4e 6cbe 7ab7 d23e
00000370: 4457 41be 89a8 c83c 9190 95bc 7601 14bf
00000380: e80e 34bf 5f59 c2bc 1d50 a1bd b77b f53d
00000390: 82bf 083d 0453 bfbd 16c9 febd 53d4 443e
000003a0: a305 2dbf 9231 c2be 84f8 42be a2fa debe
000003b0: 7f79 aabe 993a 2ebf 1d85 27bd 8053 cebe
000003c0: 25b1 5fbc 6b8d 32bf 432c 41be 2ac2 39be
000003d0: c8b5 8f3e 0810 efbe b35b bd3c c50f 833e
000003e0: c272 0a3d a5df a43e 4254 b3be 07b6 bbbe
000003f0: dfd9 0e3c f4d7 c7bd 2c1a f2bd 3468 f13d

lstm.bias_hh_l0 f4 [512]
-0.26446003 -0.08306784 -0.2520099 -0.62666637 -0.0933335 -0.8465741 -0.18192391 -0.32676512
-0.044597056 -0.36251888 -0.40664342 -0.12758954 -0.29670227 -0.57829195 -0.25682133 -0.62412006
-0.5212716 -0.49365953 -0.59555244 -0.5323857 -0.6551438 -0.35331622 -0.2750844 -0.72958183
-0.58320194 -0.15323873 -0.08012608 -0.18704665 -0.65370864 -0.17871255 -0.5542997 -0.6738219
-0.37513447 -0.20209908 -0.8685484 -0.48123923 -0.55118364 -0.39000422 -0.017108984 -0.52622813
0.09951213 -0.33052674 -0.6550116 -0.13662703 -0.2939042 -0.26761112 -0.37528417 -0.0063923034
-0.03753435 -0.38697684 -0.301127 -0.50802195 0.11040389 -0.05077722 -0.08373144 -0.5377505
0.05803342 0.07667722 -0.123269595 -0.6337893 -0.32677364 -0.52979773 -0.88722557 -0.16862915
0.108845256 -0.7902529 -0.36384755 -0.03689062 -0.5969073 0.17660365 -0.3273472 -0.59366477
-0.03458458 -0.30858022 -0.2978396 -0.72697407 -0.29004845 -0.18931557 -0.09024022 -0.4309131
-0.7712054 -0.5499291 -0.41067103 0.18244459 -0.21947305 -0.49714386 -0.918862 0.025089975
-0.50265956 -0.45870796 -0.22329146 -0.16258179 -0.41355392 -0.059909947 -0.16355374 -0.7301024
-0.8148591 -0.117004395 -0.49836957 -0.39350346 -0.14858353 -0.28819644 0.080814205 -0.22865844
-0.9013976 -0.08973805 -0.39017147 -0.52908117 -0.36440867 -0.7769877 -0.25446406 -0.49248284
0.009945147 -0.79023343 -0.2706416 -0.524114 -0.20053126 -0.50029486 -0.07662171 -0.21712126
-0.13874082 -0.30010515 -0.44464123 -0.60804546 -0.23157847 -0.5425529 -0.33268207 -0.25773123
3.0298645 2.9779737 3.0954084 2.441921 2.9015274 2.421602 3.0500228 2.8092983
2.8868678 3.254768 2.7173853 3.1739404 2.7632828 2.5182993 3.29821 2.5691094
2.3375728 2.4544544 2.2819037 2.4756765 2.4171827 2.7307024 3.017944 2.3008444
2.6064065 2.7805834 2.9141598 2.821878 2.508754 2.998897 2.4757843 2.1897752
2.8799274 2.5365045 1.9840596 2.8976371 2.3387506 2.9019294 3.0627673 2.9615955
3.342999 2.9507055 2.5167322 3.1118698 2.8355675 3.2446027 3.15984 2.9738538
3.0974727 2.6687686 2.734775 2.5796018 3.357988 3.0141048 3.1439924 2.4455526
3.187737 3.2119536 3.058507 2.3567505 2.7520735 2.8465922 2.3881857 2.8645327
2.7226458 2.3183992 2.7841885 3.0032997 2.580085 2.9828389 2.566841 2.4654317
2.733899 2.9409206 2.8408136 2.490894 2.867655 2.5980575 3.3377926 3.5147638
2.548101 2.651189 2.7074695 3.2272313 2.5409563 2.8127348 2.0960972 3.4031386
2.7559154 2.496392 2.7311087 3.3577182 2.8126004 2.9443276 2.9887774 2.3662243
2.3761175 2.9448168 2.8793268 3.0692303 3.018452 2.9306207 2.9088345 3.1531637
2.3912244 2.5520825 2.7694077 2.5016484 2.6221995 2.2883878 2.9498718 2.617521
3.0598998 2.2756736 2.7282224 2.7626894 3.2216866 2.6158385 2.9938445 3.219669
3.1043458 3.2693703 2.6650152 2.5452213 2.9809663 2.8965437 2.8830373 3.1091366
00000000: 4e67 87be 791f aabd 7107 81be 356d 20bf
00000010: a225 bfbd 15b9 58bf 434a 3abe c24d a7be
00000020: 67ab 36bd 139c b9be 9133 d0be d5a6 02be
00000030: 5ce9 97be f10a 14bf 167e 83be 55c6 1fbf
00000040: 0e72 05bf f1c0 fcbe 2076 18bf 6e4a 08bf
00000050: 81b7 27bf dde5 b4be ddd7 8cbe e0c5 3abf
00000060: b94c 15bf 9dea 1cbe 2419 a4bd 2889 3fbe
00000070: 7359 27bf 6c00 37be 96e6 0dbf 987f 2cbf
00000080: a011 c0be 10f3 4ebe 3059 5ebf fd64 f6be
00000090: 5f1a 0dbf a2ae c7be 2428 8cbc e3b6 06bf
000000a0: 04cd cb3d cd3a a9be d7ae 27bf f5e7 0bbe
000000b0: 9c7a 96be 5304 89be 3f25 c0be 8776 d1bb
000000c0: 9ebd 19bd d421 c6be 512d 9abe ba0d 02bf
000000d0: 6f1b e23d c6fb 4fbd 647b abbd 04aa 09bf
000000e0: 74b4 6d3d f208 9d3d c574 fcbd 0440 22bf
000000f0: e04e a7be d3a0 07bf 3721 63bf 1fad 2cbe
00000100: 43ea de3d 044e 4abf 3a4a babe 9e1a 17bd
00000110: ebce 18bf 96d7 343e 0d9a a7be 6afa 17bf
00000120: 90a8 0dbd 3afe 9dbe 6f7e 98be f91a 3abf
00000130: 3b81 94be f1db 41be ddcf b8bd a4a0 dcbe
00000140: b86d 45bf 27c8 0cbf 7943 d2be c1d2 3a3e
00000150: 8bbd 60be a489 febe 8a3a 6bbf 7e89 cd3c
00000160: 4cae 00bf c5db eabe 84a6 64be d77b 26be
00000170: 57bd d3be 2264 75bd a27a 27be fee7 3abf
00000180: 9b9a 50bf 00a0 efbd 4c2a ffbe 4979 c9be
00000190: 4826 18be 7c8e 93be eb81 a53d 7025 6abe
000001a0: fec1 66bf 95c8 b7bd 8ec4 c7be dd71 07bf
000001b0: c693 babe aae8 46bf 1d49 82be b626 fcbe
000001c0: f8f0 223c bd4c 4abf 8991 8abe 562c 06bf
000001d0: 1158 4dbe 5313 00bf d8eb 9cbd 0955 5ebe
000001e0: 1312 0ebe 62a7 99be 04a8 e3be dea8 1bbf
000001f0: e822 6dbe bfe4 0abf 4e55 aabe 59f5 83be
00000200: 4de9 4140 1f97 3e40 2c1b 4640 6f48 1c40
00000210: a0b2 3940 87fb 1a40 9333 4340 8bcb 3340
00000220: 71c2 3840 1e4e 5040 a4e9 2d40 d721 4b40
00000230: a0d9 3040 d12b 2140 df15 5340 4a6c 2440
00000240: cb9a 1540 c815 1d40 b60a 1240 7c71 1e40
00000250: 1fb3 1a40 d4c3 2e40 ff25 4140 0941 1340
00000260: 5dcf 2640 14f5 3140 9881 3a40 a699 3440
00000270: 6d8f 2040 eeed 3f40 4073 1e40 4725 0c40
00000280: bb50 3840 1756 2240 aaf5 fd3f e372 3940
00000290: 17ae 1540 36b9 3940 6104 4440 c88a 3d40
000002a0: b2f3 5540 5cd8 3c40 2412 2140 e028 4740
000002b0: f079 3540 92a7 4f40 d23a 4a40 9f53 3e40
000002c0: fe3c 4640 1bcd 2a40 8e06 2f40 3218 2540
000002d0: 47e9 5640 18e7 4040 2c37 4940 ef83 1c40
000002e0: e203 4c40 a690 4d40 94be 4340 00d5 1640
000002f0: f921 3040 912e 3640 09d8 1840 8154 3740
00000300: d43f 2e40 a760 1440 2530 3240 1036 4040
00000310: 1d20 2540 d5e6 3e40 1f47 2440 a2c9 1d40
00000320: 34f8 2e40 0b38 3c40 e4cf 3540 cf6a 1f40
00000330: a987 3740 9346 2640 659e 5540 e4f1 6040
00000340: 1614 2340 15ad 2940 2e47 2d40 f58a 4e40
00000350: 079f 2240 d903 3440 7526 0640 06cd 5940
00000360: eb60 3040 e3c4 1f40 7cca 2e40 dbe4 5640
00000370: a501 3440 dd6f 3c40 2148 3f40 3870 1740
00000380: 4f12 1840 e177 3c40 e446 3840 456e 4440
00000390: 512e 4140 4a8f 3b40 582a 3a40 6fcd 4940
000003a0: d209 1940 5255 2340 fa3d 3140 021b 2040
000003b0: 1ed2 2740 f274 1240 b3ca 3c40 7785 2740
000003c0: 66d5 4340 a3a4 1140 329b 2e40 e7cf 3040
000003d0: 1d30 4e40 e669 2740 269b 3f40 0f0f 4e40
000003e0: 9aad 4640 5d3d 5140 9c8f 2a40 e8e4 2240
000003f0: 27c8 3e40 f960 3940 af83 3840 18fc 4640

head.net.0.weight f4 [1, 128]
-0.004629392 0.0013720468 0.000688446 0.06734439 -0.0014112182 0.21535724 0.0049977605 0.014753213
-0.011196119 0.015783818 -0.118129 0.0021133833 -0.013338616 -0.1637283 -0.0014057194 0.014741469
-0.57929075 -0.30531317 0.13716163 -0.12064746 -0.26923877 -0.013710424 -0.031816702 -0.54349846
0.06892474 0.0020252457 -0.0071211373 -0.012218801 0.036456317 0.010406719 0.30019584 0.67890275
-0.0065886425 0.0017214275 -0.6718127 -0.0027651805 -0.3042392 -0.01371544 -0.0010436098 -0.0094618015
0.05900801 0.028008424 -0.1301788 -0.0035843302 -0.0005348344 -0.013373348 -0.001044789 -0.0029771333
0.0015637991 0.0027177678 -0.0076706274 0.020114103 -0.031465676 0.0014202533 -0.0014154128 0.11527921
-0.0034975442 -0.036272153 0.0018889394 0.47918984 0.012548227 0.00013106981 0.9099839 -0.006732617
0.0038146346 0.23124245 0.0034046138 0.00084277755 0.11423176 0.049518984 0.009058076 0.25918096
0.011956714 -0.037851866 0.090415314 0.07366083 0.0016027392 -0.041730274 0.034722045 0.00537287
0.33063415 0.045416187 -0.014087404 0.02346277 0.0033218225 0.010651688 -0.9975657 -0.0009359036
0.0141092595 0.09619151 -0.09242442 0.0016566545 0.020116096 -0.0002445877 -0.0003278061 -0.32616732
1.1026951 0.0028830662 -0.015935425 0.0007615828 -0.0010788643 -0.010186493 0.0019364409 0.02167891
2.6235528 -0.06296912 -0.012345114 0.0033644529 0.2017536 -1.3112345 -0.1447676 -0.0019508941
-0.0027155243 2.2816734 0.0066670775 0.013011916 0.0014439304 -0.020498894 -0.0032291363 -0.098274276
0.01835729 -0.015468702 0.033443477 -0.072193645 0.0014441096 0.0027081678 0.009379282 0.0019728409
00000000: 28b2 97bb 40d6 b33a d478 343a dbeb 893d
00000010: a0f8 b8ba 9c86 5c3e 41c4 a33b 76b7 713c
00000020: ed6f 37bc 114d 813c 9eed f1bd b080 0a3b
00000030: 368a 5abc 64a8 27be 1e40 b8ba 3486 713c
00000040: 664c 14bf 0252 9cbe 1974 0c3e 0416 f7bd
00000050: aad9 89be b0a1 60bc 3b52 02bd b722 0bbf
00000060: 6a28 8d3d fcb9 043b 6e58 e9bb 5e31 48bc
00000070: 3853 153d f180 2a3c 45b3 993e 92cc 2d3f
00000080: 8ae5 d7bb 86a1 e13a ebfb 2bbf 0838 35bb
00000090: 3ec5 9bbe bab6 60bc bcc9 88ba ac05 1bbc
000000a0: 62b2 713d ec71 e53c 974d 05be 15e7 6abb
000000b0: 2134 0cba e31b 5bbc 4df1 88ba 021c 43bb
000000c0: 64f8 cc3a 941c 323b e359 fbbb 55c6 a43c
000000d0: 27e2 00bd cb27 ba3a 5f85 b9ba 8217 ec3d
000000e0: 0e37 65bb 1c92 14bd 4a96 f73a 5f58 f53e
000000f0: 1497 4d3c c96f 0939 b4f4 683f 499d dcbb
00000100: f3fe 793b d2ca 6c3e f11f 5f3b d8ed 5c3a
00000110: 57f2 e93d 6bd4 4a3d 5368 143c 5eb3 843e
00000120: 18e6 433c 8f0a 1bbd aa2b b93d 7ddb 963d
00000130: 0113 d23a 5ded 2abd b438 0e3d e60e b03b
00000140: e148 a93e 5306 3a3d dbce 66bc ff34 c03c
00000150: efb2 593b 6b84 2e3c 7760 7fbf 6d57 75ba
00000160: 862a 673c 0e00 c53d 0449 bdbd 1a24 d93a
00000170: 83ca a43c 013c 80b9 64dd abb9 67ff a6be
00000180: 1d25 8d3f d3f1 3c3b 028b 82bc f5a4 473a
00000190: ae68 8dba 40e5 26bc 2dd0 fd3a f897 b13c
000001a0: 4ae8 2740 f4f5 80bd 2943 4abc 277e 5c3b
000001b0: 7f98 4e3e 88d6 a7bf f53d 14be 25b5 ffba
000001c0: f0f6 31bb f006 1240 8077 da3b ee2f 553c
000001d0: 4442 bd3a 4ced a7bc eb9f 53bb 0644 c9bd
000001e0: 0762 963c 7070 7dbc 07fc 083d 43da 93bd
000001f0: 4748 bd3a 847b 313b 8fab 193c c74a 013b
