examples/catchment_models/training/runs/usa_time_split_2404_015859/model_epoch016.pt (torch, 316229 bytes, 5 tensors)

lstm.weight_ih_l0 f4 [512, 23]
00000000: f964 b33e b9c5 5b3f f04f 3e3e b045 9b3e
00000010: 8834 143d 6bf8 a13e d590 633e 3086 f4bd
00000020: 86a8 bf3d 7ef7 803d 6f3a 82be d761 40be
00000030: 8daa 08bf dc9a 4cbd ac15 203e 3040 923c
00000040: 786b 3a3e c450 783e 5e98 d9be 6742 ec3e
00000050: 39c2 66be d4e0 bcbe dbdc df3d 2920 2ebd
00000060: 03d8 40be deca ab3e cd8e 543e 6f9b 9e3e
00000070: bbdd 0d3e 62ee 40be 85c3 8d3e ea06 babc
00000080: 6c6d bbbd b1a9 84bc 75d4 3cbe 07c6 0bbe
00000090: 0e6b dabc 4fb2 c83b 68aa 03be d20d 75be
000000a0: db34 e1bd 2348 ddbd c188 82bd a8b5 ba3c
000000b0: e602 86bd 865d e73d 7e1a 853e 3a1f c73d
000000c0: bce5 b63c 4ee3 603d 0815 a13d 98c8 9a3d
000000d0: e2cf 2abe 5ccb 913d cb04 51be a58f 113e
000000e0: 5fd2 adbe c27e 80be 67cd f8bd b726 9d3d
000000f0: 926b 4dbe 893f 39bd 95cd 673e 03a6 bf3d
00000100: 8538 2c3b a638 26bd d569 053e 1008 583d
00000110: 4e44 1ebe dbd0 9b3d 6128 ac3e c56f 523e
00000120: 63e6 f73c 4bc7 ddbb 3c7b 193f 4e68 ff3e
00000130: 0ec7 94bd bd92 df3e a21f d4bd 26fa 8fbe
00000140: dd18 733e 453e b8be 7d32 92be cfb1 08be
00000150: 93be d73e 7949 cd3e 7ff9 ab3e bb3e adbe
00000160: bd4b b73e 2e77 d63e 5f54 ac3e 5839 703c
00000170: 10ba 683e 7a90 21be f7ca dd3e f7fc 5e3f
00000180: ea07 3f3f 680b 9a3e 7c51 373e edf2 4a3d
00000190: 422a 3e3e a018 a0be 67fa 833e 148a 1abd
000001a0: 1a2c 27bf 4d5e b73e 4115 383e ec90 833e
000001b0: c5ca 3a3f 2d6e 0a3f db38 76be 91ba 5a3e
000001c0: ab75 85be 915c 07bd 2953 633d 7552 cb3c
000001d0: c81a 5b3e c269 193d 72c9 d13d 0d7e 6c3e
000001e0: f757 053f 79fd 1c3f 3543 3fbe b928 163f
000001f0: 16a0 cdbc 5331 febe 4f93 0b3e 18ca fbbd
00000200: a0ae a2be c6d8 6dbd cb71 b33e 86d4 bf3e
00000210: 8b7e 8f3e dfae 04bf 0f78 c73e 614c 823e
00000220: e02d ff3e 66e0 1f3e 7133 5ebd deda 2d3f
00000230: 812f 133e 1844 503e 6318 33bf eacd 1b3e
00000240: 0db9 f43d 48d3 a43e 45b6 2bbd 77dd bcbe
00000250: f039 9ebd 000e 7ebe e30f 80bc 061c e33e
00000260: 6729 b43e 85e8 a43d 69b2 f7be 87ff 98be
00000270: 9eb6 843e b97a f0be 8f64 0dbf 1e53 68be
00000280: 861f e93d 97bd de3e 1760 883a b75e 653f
00000290: 127d 7d3f e5f3 403e b537 733e 5a55 0d3f
000002a0: 9a18 bbbd cfef 0e3f c164 c6be 0b76 423d
000002b0: 31eb 65be b850 71be 0cb6 ebbe fdf0 8c3e
000002c0: e8f6 ac3e 3c38 993e 93e1 5e3e b87f a3be
000002d0: e17d 513e 3d02 d23e 9991 0e3f 42de 863e
000002e0: 157c b9be 5459 2fbe c7d9 3d3e a429 973e
000002f0: 78dd 103f 6dbc 3cbe 75ac 9c3d 7eca fcbe
00000300: b7c0 513e c0fa 42be b544 e53e 1942 15be
00000310: dc3c 09bf fa12 85be 6960 8f3e 95c4 293e
00000320: eba2 e3bd 0c65 e63d 1f51 39be aea1 b43e
00000330: 515d 20bb 7df3 b83d a8d7 753e 0b58 4c3e
00000340: 59de 55be 904a c4be 744e c7bd 5c55 17be
00000350: d9d3 f33a a299 433e 31b7 323e ca6b f13b
00000360: 87f8 893e 3d21 c8bb 0422 bfbd 4cf4 19be
00000370: 4979 2e3e 9023 163e e6dc 0f3e 2024 96be
00000380: 6056 c2bd 89e1 75be 45dc ff3c 05e1 d1bd
00000390: 4129 66be 2fdc 20be d945 a8bd 26ff d5bd
000003a0: 554f c0bd 4918 d6be 9da4 06be 6dd0 c83e
000003b0: a2da ad3e 567e 12bf f456 3a3e 56ef 8b3e
000003c0: 854d 07bf 598a 653e a445 9bbd 2add b0be
000003d0: a522 60bd 93d8 d03e 3602 d13e 135c f23e
000003e0: 9c4a 623e 5825 6f3e c587 0d3f 9da9 993e
000003f0: 33e6 353e bae3 c2bd 59b6 c7be 9f47 ddbd
0.35037974 0.85848576 0.18585181 0.30326605 0.03618291 0.3163484 0.22223218 -0.11939657
0.09358315 0.062972054 -0.25435206 -0.18787323 -0.5338524 -0.049952373 0.15633267 0.017852873
0.18205059 0.2424956 -0.4249906 0.4614441 -0.22535028 -0.3689028 0.10930797 -0.04251114
-0.18832402 0.33553213 0.20757599 0.3097796 0.13854115 -0.18840936 0.27688232 -0.022708375
-0.0915173 -0.016194196 -0.18440421 -0.1364976 -0.026662376 0.0061247717 -0.12857974 -0.23931053
-0.109964095 -0.108047746 -0.0637374 0.022791699 -0.065435216 0.11297135 0.25996774 0.09722753
0.022326343 0.054904275 0.078653395 0.075577915 -0.16680863 0.07118866 -0.20411985 0.14214952
-0.33949563 -0.2509671 -0.121485524 0.076734 -0.20060566 -0.045226607 0.22637017 0.09357836
0.0026278805 -0.040581368 0.13028653 0.052742064 -0.15455744 0.076081954 0.33624557 0.20550449
0.030261224 -0.0067681423 0.59953666 0.49884266 -0.07264529 0.4366664 -0.10357596 -0.28120536
0.23739953 -0.35985008 -0.28554145 -0.13349079 0.42137584 0.40095118 0.33588788 -0.33836922
0.3579997 0.41887802 0.3365812 0.014662109 0.22727227 -0.1577777 0.43318912 0.87104744
0.7462145 0.30086827 0.17902178 0.04954808 0.18570808 -0.31268787 0.2577698 -0.037729338
-0.6530167 0.35814133 0.17976858 0.25696504 0.7296565 0.54074365 -0.24045126 0.21360232
-0.26066336 -0.033047263 0.05549923 0.024819592 0.21396935 0.037454374 0.10243501 0.2309496
0.5208735 0.6132427 -0.18677981 0.5865589 -0.025100749 -0.49647006 0.13630413 -0.12294406
-0.31773853 -0.05806806 0.35047755 0.3746683 0.28026232 -0.5182933 0.38958785 0.25448897
0.49839687 0.15612945 -0.054248277 0.6791209 0.1437359 0.20338476 -0.69959086 0.15215269
0.11949358 0.32192445 -0.041921873 -0.36887714 -0.077258945 -0.24810028 -0.015632575 0.44357318
0.35187837 0.08052162 -0.48378304 -0.29882452 0.25920576 -0.4696863 -0.55231565 -0.22687957
0.11382966 0.4350402 0.0010404614 0.8959765 0.9901897 0.18843038 0.2375172 0.5520836
-0.09135552 0.5583467 -0.38748744 0.047475856 -0.22453 -0.23565948 -0.46037328 0.2752761
0.33782125 0.29925716 0.21765737 -0.3193338 0.20458175 0.41017333 0.55690914 0.26341444
-0.3622748 -0.1712392 0.18540107 0.29523957 0.56587934 -0.18431254 0.07650081 -0.4937324
0.20483671 -0.19040966 0.44778982 -0.14575996 -0.5360849 -0.2599104 0.28003243 0.16578896
-0.111150585 0.11249742 -0.18097351 0.35279602 -0.0024469683 0.09030817 0.24008048 0.1995546
-0.208856 -0.38338137 -0.097317606 -0.14778656 0.0018602564 0.19101575 0.17452694 0.007367586
0.26947424 -0.006107478 -0.0933266 -0.15034598 0.17038454 0.14662004 0.1404911 -0.29324436
-0.09489131 -0.24011816 0.031232962 -0.10247997 -0.22476675 -0.15708993 -0.082164474 -0.10449056
-0.093901314 -0.41815403 -0.13148732 0.39221516 0.33955866 -0.57224023 0.18197232 0.27331036
-0.5285266 0.22416057 -0.07581642 -0.34543735 -0.05472054 0.40790233 0.40822 0.47335872
0.22098774 0.2335409 0.5528529 0.30012217 0.17763595 -0.09516092 -0.39006308 -0.10804676

lstm.weight_hh_l0 f4 [512, 128]
00000000: d744 7cbd 4e55 d0be a404 aa3e 7cb4 babe
00000010: c227 2e3e 213a 77be 9802 7abd 2b60 2a3e
00000020: 5692 c33e 808e 543d 6a54 763e 9dc4 20be
00000030: 4861 9dbd 00f8 30be 39c0 533d 33b7 cabe
00000040: 8c96 9b3e 3952 043d 0462 17be f34a 013e
00000050: 50a1 57bc 50ce de3d 1f45 563e 8876 f33d
00000060: 6fc8 d8bd 8570 8a3d 78dd 1abe 3372 243e
00000070: 98fc 8b3e 4c92 233c 1f6a c53c b0af 3abe
00000080: 6b18 41be f2a6 cb3c ab39 10bd bdf0 febe
00000090: 9300 243e 32e9 ea3e 5cd0 31be c20c 153e
000000a0: efc5 b9be 85ee d4be b9ed cb3e 936d 46bd
000000b0: 4cdd dbbe 7957 ce3d db91 81be 6e6c 87be
000000c0: b808 cbbe ba30 01bf 1bb0 b23e 6a0c 2abd
000000d0: 064d 9e3c 4ba4 d9be e377 a3bc ddf7 a0be
000000e0: a6d2 673e 1220 543e 2e24 9dbd bc39 8fbc
000000f0: e86c e3be f4bf 9d3d 9c50 203d b213 d6be
00000100: 4a07 263f 180c b0bd e601 8dbe 52e2 6b3d
00000110: f25f 19be 1c51 d4be d4e4 4fbe c857 b2bd
00000120: 0845 5abe a10c ef3d 4538 5fbe ce41 89be
00000130: 4a6d b2be f1e0 473e 28b2 34be fccd 16be
00000140: 7d59 c2be d67f 8ebe 5907 f13d ace6 04be
00000150: 84ac 193e c666 b73e d969 6abd 21f2 d2be
00000160: c31c 4c3e c322 90be 297c e5bd 5335 84be
00000170: a433 453e f93b 00be 12dd 6a3e 5741 2c3e
00000180: 2fe5 073e 4c14 0ebe d4de 323e 96a9 fcbc
00000190: 9676 ae3e 4e1c 8e3e a4d1 08be 8a57 913e
000001a0: 69c3 dd3d 3532 e63c 9ee6 4bbe 47b0 c8bd
000001b0: 630d 97be 70b2 afbc 5b2c 90bd ff9e c5b9
000001c0: 5b7d 25be 52be 37bd a2c0 04be adf5 403d
000001d0: 420b dbbb e7c3 25bd f954 683e da21 203e
000001e0: 95e8 babe 16a7 61be 52ad d5bc a2a6 823d
000001f0: a6a7 abbd 85a2 66be 3aa3 a1be 6929 d23d
00000200: 4dba 20be f447 2f3d 01b2 a03c 28f6 083e
00000210: 517d 763d 2514 8dbd c10f a6bd bdcb 70bd
00000220: 2f81 ca3d f28f d03c bfa3 3b3d f42f 0c3b
00000230: 5401 92bd 0f16 fc3d 4bef b03d 09dc c63d
00000240: 4eb5 a13d 9db4 203b ee01 813d 533f cbbd
00000250: bfdb 35bd e2b1 023d 6a0e 133c 3aa8 4cba
00000260: f0ca 5dbd cf40 0d3d 90ca 2b3d 8443 20be
00000270: 9b82 873b 8467 94bd 7478 b23c b1eb 403d
00000280: 3226 943c 734d f1bd b833 ab3d 202f 963c
00000290: 1016 90bd 2c10 0f3c f42f 8dbd d183 b53b
000002a0: c9c2 943d 49aa fcbd 9b46 32bd b94e d1bd
000002b0: aa2a 953d b0cf 2fbe ce55 873d 7728 6d3c
000002c0: 279c de3d df59 c0bd f490 173e 6f91 0c3e
000002d0: 59d1 f4bd ddb4 0dbd c7a3 6ebd de7a c63d
000002e0: 5a3a cbbd 9081 c0bd 2fd3 e53d 764d bbbd
000002f0: 905c eb3d 1491 f2bc 22a6 c33d d4c5 d2bc
00000300: b32a c0bc 1822 4b3d d174 c23d 47fa f63d
00000310: 0361 42bd 2409 9f3c 7bb7 1c3d 0b1f f43d
00000320: 6005 ba3d c9bc c23d a7b0 debc 6579 0c3e
00000330: d502 9cbc 2fc2 80b9 90c1 1bbe a6a7 55bd
00000340: 1744 8f3d f19a 21bd 63ff 72bc a52f 2b3e
00000350: f0fd 033d 415c 5cbd aa73 d0bd 3f56 7fbd
00000360: 6734 b03c e478 07bd ee85 453d 8734 a3bc
00000370: 3f34 8abd 508f ae3d 7c15 fd3d 6bb4 273e
00000380: c1ba 033d 44cc 7e3d deca adbc d114 38bc
00000390: e3b9 a53d b38d 983c 9c82 423e 1daa 193b
000003a0: 987e 23bd 64b4 2ebe 2b71 cebd 7bd9 1cbd
000003b0: 332c 93bd 76a5 ee3d d526 02bd d8bd 9c3d
000003c0: d152 203e e77c 2d3e 0e7b a83d a465 7e3c
000003d0: 72f0 aebd 6749 2c3b e954 563b 8071 3fbd
000003e0: 3ec5 54bd 16ce 723d f23f eb3d f57c 09be
000003f0: f010 093d 2127 2dbd 0398 32bd 393c d6bc
-0.06158909 -0.40690082 0.33206666 -0.36465824 0.17007354 -0.24143268 -0.06103763 0.16638248
0.38197583 0.05189371 0.24055639 -0.15700002 -0.076845706 -0.17282104 0.05169699 -0.39592895
0.30388296 0.032304976 -0.14783484 0.12626247 -0.0131610185 0.10879195 0.20924805 0.118878424
-0.10585105 0.06759743 -0.15123546 0.16059189 0.2734115 0.00998361 0.024098454 -0.18231082
-0.18856971 0.02485988 -0.035211246 -0.49793044 0.16015844 0.4588104 -0.17364639 0.14555648
-0.36283824 -0.41588226 0.39829805 -0.048444342 -0.42942274 0.10075278 -0.2530659 -0.26449913
-0.3965509 -0.50464976 0.34899983 -0.041515745 0.019323837 -0.42508158 -0.019954627 -0.31439105
0.2263895 0.20715359 -0.07672916 -0.017483585 -0.44419026 0.07702628 0.039139375 -0.418119
0.6485487 -0.08596057 -0.2754051 0.057588883 -0.14978006 -0.41468132 -0.20302135 -0.08708149
-0.21315396 0.11672331 -0.21798809 -0.26808017 -0.34849006 0.19519402 -0.17646086 -0.14727014
-0.379589 -0.27831906 0.117689796 -0.1297862 0.15007216 0.35820597 -0.05722985 -0.41200355
0.19932847 -0.2815152 -0.11205322 -0.25821933 0.1925798 -0.12522878 0.22935894 0.168218
0.1327102 -0.1387493 0.17467815 -0.030842584 0.3407485 0.2775597 -0.13361222 0.283871
0.10828287 0.028100112 -0.19912192 -0.09799247 -0.295024 -0.02144739 -0.0703971 -0.0003769323
-0.161611 -0.044859238 -0.12964109 0.047109295 -0.0066846916 -0.04047003 0.22688664 0.15637913
-0.3650557 -0.22036394 -0.026083622 0.06379439 -0.08381586 -0.22522934 -0.31569844 0.102618046
-0.15696068 0.04279323 0.019616129 0.13375151 0.060178105 -0.06888608 -0.081084736 -0.05878805
0.09887921 0.025459263 0.045810457 0.0021390887 -0.071291596 0.12308895 0.086393915 0.09709937
0.07895909 0.0024521716 0.06299196 -0.099241875 -0.04439902 0.031907924 0.008975605 -0.000780705
-0.054148614 0.034485634 0.041941226 -0.15650755 0.0041354424 -0.072463065 0.021785952 0.047099773
0.01808462 -0.117823504 0.08359474 0.018333018 -0.07035458 0.008731883 -0.06893912 0.0055393954
0.07263715 -0.12337167 -0.043524366 -0.10220093 0.07283528 -0.1716907 0.06608163 0.01447498
0.108696274 -0.093921416 0.14801389 0.13727354 -0.119539924 -0.034596313 -0.05826166 0.09691404
-0.09923239 -0.09399712 0.11221921 -0.09145634 0.11492264 -0.029610194 0.09553172 -0.025729097
-0.02345786 0.04959306 0.09494937 0.12059455 -0.0474558 0.019413538 0.038260918 0.119199835
0.090830564 0.09508664 -0.027183844 0.13718183 -0.01904432 -0.0002455874 -0.15210557 -0.052161835
0.06995409 -0.039454404 -0.014831397 0.16717394 0.032224596 -0.053798918 -0.10178311 -0.06233811
0.021509362 -0.033074275 0.04822343 -0.019922508 -0.067482464 0.085234284 0.123576134 0.16377418
0.032160524 0.06220652 -0.021214899 -0.011235432 0.08092096 0.018622255 0.18995136 0.0023447343
-0.03991565 -0.17061001 -0.10080179 -0.038293343 -0.07186165 0.11652653 -0.031775314 0.07653397
0.15656592 0.16942178 0.08226596 0.015527163 -0.08541955 0.0026288868 0.003270442 -0.0467391
-0.051945917 0.05927857 0.11486806 -0.13426574 0.03346342 -0.042273644 -0.043602 -0.026151763

lstm.bias_ih_l0 f4 [512]
00000000: 5db4 6dbe 8413 8abd c1ba 0fbe 48cc ebbe
00000010: 100c 1c3d 3d63 3bbf 38ee 26bd d0e4 c3be
00000020: 775f 283c c274 69be d429 a7be 5171 e6bd
00000030: 5ab1 4ebe 8071 1dbf 536f 5dbe c80d 15bf
00000040: c769 0ebf 765e 02bf fb73 0fbf a80b d6be
00000050: 33c8 e4be c12d c1be 337f 5cbe 2c97 29bf
00000060: a173 fcbe 3ba4 9bbd 9228 c8bc 571f 5abe
00000070: 1725 0bbf cb5d 44be 0007 14bf b559 1ebf
00000080: afa9 01bf 2549 48be 615c 48bf c908 d3be
00000090: a8ab 16bf 0503 dabe f2fa 8e3d 8921 88be
000000a0: 040d 113d 8f91 8dbe 30bd 14bf 1db8 2abe
000000b0: 86a0 77be 823f 8fbe d5ee b5be b4dd 3ebd
000000c0: 4a10 bcbc 7aed b0be 9431 9bbe da47 dfbe
000000d0: 9a5a 1b3e 9a51 d9bc c632 d0bc be40 cdbe
000000e0: 0f5c a03d 6602 783d 7455 49be 0ede 37bf
000000f0: 0739 f4bd 2970 c5be fa21 36bf 9f12 59be
00000100: 3540 8e3d 2999 3abf 7551 d4be e8f8 07be
00000110: 6a82 00bf 809a 593e 6424 a5be b33c 02bf
00000120: b50c e0bd 0c74 57be 32db 89be 9c82 2dbf
00000130: 4a37 c5be 3940 06be eb0a 7abe fb6c cdbe
00000140: 07ca 28bf 7363 e4be c54c aabe c065 213e
00000150: e892 3cbe bf9a cabe 8c37 57bf 7e6d 7c3c
00000160: 422b 0fbf 0aaa cdbe 5721 07be 807b 09be
00000170: 2bb3 cdbe b335 55bd d211 4cbe acad 26bf
00000180: 43a1 2ebf b287 2dbe 5eb7 ccbe f580 adbe
00000190: c966 443b 510d e9be 17a0 01bd d89a 92be
000001a0: 17ad 54bf 1727 e7bd 8f90 a2be 65f4 09bf
000001b0: 72e6 d3be 8f61 1ebf 09b1 5ebe 39fb cfbe
000001c0: b26b 4bbd 3f31 46bf 0a00 82be f148 02bf
000001d0: e345 51be d4e5 05bf ffc4 993c b483 89bd
000001e0: 8766 b6bd c247 56be ef70 bcbe 885c e1be
000001f0: 4544 c3be 8293 f8be 953d 10be 24c7 0abe
00000200: 0df6 cf3c 26cd 7a3c e4fe a03d f63d 1abf
00000210: a8b7 afbd ae83 10bf 190b e6bb 641e febd
00000220: d21c 35bd aa67 723e 3cde d9be 76ab 213e
00000230: bee8 38be 260f 0abf 174f 5d3e 7db7 bdbe
00000240: 3241 0bbf fb8c 1abf a4ce 0ebf 6e5e 13bf
00000250: db9e 0ebf 5230 90be 0389 033d 7812 0fbf
00000260: 06f9 e1be a695 eabd dacf e0bd bbe9 e9bd
00000270: a06e f2be 137f b93d 6ad1 e2be 7ea7 25bf
00000280: 9666 82be 8af0 e9be 1b01 63bf 1e6e 42bd
00000290: b9e5 16bf aba9 ccbc 327e a83d 3c6e b63c
000002a0: bd85 b63e 056f dfbd 4b2b 04bf df97 453e
000002b0: e8dd 10be fea8 4b3e 0fcd 553e 4556 333d
000002c0: 7490 9d3c 8a5b aabe 6e8a 99be 62eb cdbe
000002d0: df9d b93e d297 2c3d 76fb 023d b3dd 16bf
000002e0: ef7b 7f3e afb3 a83e 14a2 c13b 1f92 34bf
000002f0: b0dd 97be a456 dabd 6af8 0bbf 81f3 d5bd
00000300: 760e 5ebe 372d 44bf 0054 56be 8de6 c33d
00000310: cabe c6be 58cb 4f3d 229d d2be 690b f3be
00000320: 49f3 8bbe 926f 4f3b 3e0a ccbd 5c58 d7be
00000330: e61e 39bd 6743 a8be f73c 823e 3b3e 003f
00000340: b892 ecbe 0fae 91be 81ed 94be 3ec0 503e
00000350: e857 c4be c247 17be 0373 48bf 4583 9c3e
00000360: 4f8a 6fbe f28b f3be 1ad9 2cbe 7655 d23e
00000370: 1085 40be e37b a43b 0d6b 563b 879d 06bf
00000380: 470b 32bf 1e56 23bd 7e64 60bd 9582 c53d
00000390: e384 0e3c 8398 2ebe 33d0 f3bd ed40 383e
000003a0: 48a0 31bf 51ab a2be dde1 2abe 2733 c5be
000003b0: 88e5 98be 50cb 18bf 19cf 623d 0e14 d4be
000003c0: 122c 5fbc 397f 1ebf 44bf 13be 8f77 20be
000003d0: f7f2 753e 318c d2be c2d8 443c 7f5e 613e
000003e0: fc73 c83c 95ed 763e 7d4d 8bbe bea0 cbbe
000003f0: bb22 023c e52e 0fbe cd8c d6bd 68a9 2f3d
-0.23213334 -0.067420036 -0.14036085 -0.46054292 0.03809744 -0.731983 -0.040754527 -0.38260508
0.010276667 -0.22798446 -0.326491 -0.11252082 -0.20184842 -0.6150131 -0.21624498 -0.58224154
-0.55630153 -0.50925386 -0.5603635 -0.41805768 -0.4468399 -0.3773022 -0.21532898 -0.66246295
-0.49306968 -0.07599684 -0.024433408 -0.21301018 -0.5435347 -0.19176404 -0.5782318 -0.6185563
-0.5064954 -0.19559152 -0.7826596 -0.4121764 -0.58855677 -0.4258043 0.06981458 -0.26588085
0.035412803 -0.27650115 -0.5810118 -0.16671796 -0.24182329 -0.2797814 -0.35533777 -0.04659815
-0.022956986 -0.3455618 -0.30311263 -0.43609506 0.1517128 -0.026528168 -0.025414836 -0.40088457
0.07830059 0.060549162 -0.19661504 -0.71823204 -0.119249396 -0.38562134 -0.71145594 -0.2119851
0.0694584 -0.72889954 -0.41468397 -0.13278544 -0.50198996 0.21250343 -0.32254326 -0.5087387
-0.10939924 -0.21040362 -0.26925045 -0.6777742 -0.38518745 -0.13110436 -0.24418227 -0.40122208
-0.6593327 -0.44607124 -0.33261696 0.15761471 -0.18415415 -0.39571187 -0.8406913 0.015406964
-0.5592538 -0.40168792 -0.13196312 -0.13426018 -0.40175757 -0.052053165 -0.19928673 -0.6510875
-0.68214816 -0.16946295 -0.39983648 -0.3388745 0.0029968491 -0.45517972 -0.031646814 -0.2863376
-0.83076614 -0.11286753 -0.31750914 -0.5388854 -0.41386753 -0.6186761 -0.21747221 -0.40621355
-0.049663253 -0.77418894 -0.25390655 -0.5089255 -0.20436816 -0.52303815 0.018770693 -0.067145735
-0.08906274 -0.20925811 -0.36804911 -0.44015908 -0.38138023 -0.4855004 -0.14085992 -0.13552529
0.02538588 0.0153077 0.078611165 -0.60250795 -0.085799515 -0.5645093 -0.007020366 -0.1240814
-0.04421694 0.23672357 -0.42552364 0.15788063 -0.18057534 -0.53929365 0.21612202 -0.37054053
-0.54396355 -0.6037137 -0.5578406 -0.57565963 -0.55711144 -0.28161865 0.032113086 -0.55887556
-0.44135302 -0.114543244 -0.109771445 -0.11421534 -0.47350025 0.090574406 -0.44300395 -0.647087
-0.25468892 -0.4569133 -0.8867356 -0.047468297 -0.5894428 -0.024983248 0.08227195 0.02226936
0.3564891 -0.10909847 -0.5162856 0.19296215 -0.1414715 0.19888684 0.20879005 0.043783445
0.01923392 -0.33272964 -0.29988426 -0.40218645 0.3625326 0.042136975 0.031978093 -0.58932036
0.2494962 0.32949588 0.005909214 -0.70535463 -0.29661322 -0.10661057 -0.54675925 -0.10446835
-0.21685204 -0.7663149 -0.20930481 0.095654584 -0.38817436 0.050731033 -0.41135508 -0.47469643
-0.2733405 0.0031652194 -0.09962891 -0.420596 -0.045195483 -0.32863924 0.25437137 0.50094956
-0.46205688 -0.2845311 -0.2908745 0.20385835 -0.38348317 -0.14773467 -0.78300494 0.305689
-0.23392604 -0.47567707 -0.16879693 0.41080827 -0.1880076 0.0050196513 0.0032717616 -0.5258412
-0.6954846 -0.03987705 -0.054783337 0.09644047 0.008698675 -0.17050366 -0.11904945 0.17993517
-0.69385195 -0.3177133 -0.16687723 -0.3851559 -0.29862618 -0.5968523 0.055373285 -0.4142155
-0.013621347 -0.61912876 -0.14428431 -0.15670608 0.24018465 -0.41122583 0.01201457 0.22008704
0.024469368 0.24114068 -0.27207556 -0.39771074 0.007942851 -0.13982733 -0.10476074 0.042886168

lstm.bias_hh_l0 f4 [512]
00000000: 8148 84be 909f ecbd 6613 4abe f7af 0ebf
00000010: 898b b8bd 49d4 43bf 2958 19be bd7e 8dbe
00000020: 393a 173c 31be a5be 05bc dbbe 4dc0 10be
00000030: 5fe8 8dbe 923d 10bf c8ef 92be 12cb 19bf
00000040: 7a66 04bf a6e2 d5be 7e3d 13bf 7987 f2be
00000050: 372e 13bf 7fde c0be 2c5d 97be 4232 24bf
00000060: 8070 04bf 09e2 06be e9e1 8dbd 2ecb 5fbe
00000070: 074d 16bf 2132 40be 9b5b 0dbf 5ef7 25bf
00000080: 7a06 c4be 787d 4dbe bac8 51bf 409d d7be
00000090: 6f0e f9be f61e debe 8354 2cbd 1861 c4be
000000a0: 7067 d33d 889d 88be eea2 0cbf 55ea 06be
000000b0: 29c8 9cbe 3882 84be f095 bbbe d690 f63c
000000c0: 8dbe e73c ded8 b9be 52f4 98be eebb e4be
000000d0: 1e43 d93d a237 07bd 8241 edbd 6e29 ffbe
000000e0: a902 c23d a996 a73d 29b3 fdbd 13a7 16bf
000000f0: 876c 8fbe 0cbb fabe fbfa 4dbf 62d2 4fbe
00000100: 8f2d 2a3e c597 2dbf 242c abbe b742 2cbd
00000110: a8fd 0fbf 239f 1d3e 8a2d 87be b85c 0cbf
00000120: 7345 99bb fe86 95be 89c4 88be 235f 2fbf
00000130: e7e5 a2be 7470 2ebe 0c9e dfbd 1c08 ccbe
00000140: 6266 27bf 77e7 0bbf a645 cabe 4050 1c3e
00000150: b7dd 51be 34c5 debe f1a3 56bf dad9 cd3c
00000160: 4775 f1be bd8c f7be 2c02 47be 00b6 2cbe
00000170: 137e cebe 828a 38bb 6473 07be fe2d 2cbf
00000180: 64b1 48bf 64ab d5bd 55f6 f1be 2ee8 b5be
00000190: c577 e2bd f7dc a7be 22ec 30bc f72f 62be
000001a0: 54bf 4fbf fe0c 46bd 8032 b8be 89d4 f1be
000001b0: b0e5 c3be 7981 36bf 74cb 53be 8ec9 e5be
000001c0: b5ab ae3c 4e2e 48bf bbd6 6dbe fe58 ffbe
000001d0: a34f 22be 086c e6be 47c1 e8bc c580 d7bd
000001e0: 18b4 f5bd 45a1 8ebe b54f b3be 86e5 01bf
000001f0: 72de 8bbe cb3b 05bf c98c 96be b8f3 63be
00000200: 71ab 4140 6415 3e40 aa1a 4340 50af 1c40
00000210: 3a37 3c40 05fc 1a40 3fbd 4240 9ee0 3440
00000220: 0ec4 3940 a743 4e40 fc5d 2a40 b2e8 4940
00000230: 2072 3240 9059 1e40 abda 4f40 f984 2440
00000240: 73a5 1a40 a6a2 1e40 e09f 1740 49d8 1f40
00000250: e4fb 1b40 f83f 2d40 2558 3d40 9492 1840
00000260: 5605 2640 6892 3440 989c 3840 a40d 3740
00000270: 34e8 2340 a610 4240 c0bf 1e40 d7f3 1040
00000280: 8692 3440 f3c1 2140 1907 0440 0955 3c40
00000290: 4d79 1540 ff5b 3940 2a27 4240 4b57 3c40
000002a0: aeaf 5440 30dd 3840 edd2 2340 c4a9 4740
000002b0: beac 3540 941a 4b40 4788 4940 2d50 4140
000002c0: 55cb 4440 4187 2a40 ecb3 3040 1ce0 2240
000002d0: c243 5640 4760 4040 8a8c 4640 3f80 1d40
000002e0: e0f5 4a40 8eb7 5040 6845 4040 6361 1640
000002f0: 1cf3 2f40 966c 3640 8ccc 1a40 7868 3740
00000300: 3c48 2f40 0a93 1440 3a9f 3240 ff02 4240
00000310: 7054 2540 3ed2 4140 6f90 2440 96d6 2540
00000320: ab3d 3240 1127 3b40 a0ff 3740 e146 2540
00000330: bd87 3840 3d6b 2940 15eb 4f40 e3c9 5d40
00000340: 97d9 2340 112f 2940 2d5e 2c40 2ab4 4940
00000350: 5170 2540 4b47 3440 8ab9 0a40 7bc7 5340
00000360: 12ad 3040 68e0 1f40 e5c1 3240 a4d8 5640
00000370: 060f 3440 a030 3b40 13a9 4040 acc9 1a40
00000380: ed92 1840 426f 3b40 10d0 3940 40ee 4240
00000390: c599 3f40 39a0 3640 2b82 3a40 5504 4940
000003a0: 71e3 1740 ec45 2740 89bf 3240 2954 2340
000003b0: d704 2a40 c4d0 1740 eaf3 4240 17cd 2640
000003c0: b4d5 4340 85a8 1640 0a72 3140 d964 3240
000003d0: 6e98 4b40 8afa 2a40 3be5 3e40 22c3 4b40
000003e0: 4e15 4640 1910 4c40 ca90 2f40 57e7 2040
000003f0: 91bb 3e40 beac 3640 1060 3940 822f 4240
-0.25836566 -0.11553872 -0.19733962 -0.5573725 -0.09010989 -0.76495796 -0.14975037 -0.27635756
0.00923019 -0.32371667 -0.42916885 -0.14135857 -0.27716348 -0.5634395 -0.28698564 -0.60075486
-0.51718867 -0.41774482 -0.57515705 -0.47368982 -0.57492393 -0.3766975 -0.29563272 -0.6413919
-0.5173416 -0.13172163 -0.069278546 -0.2185485 -0.58711284 -0.18769123 -0.55217904 -0.6483058
-0.3828619 -0.20067394 -0.8194691 -0.4211216 -0.48643824 -0.43382996 -0.042072784 -0.38355327
0.103224635 -0.26682687 -0.5493611 -0.13175328 -0.3062146 -0.258806 -0.3663783 0.03009836
0.028289104 -0.3629827 -0.29873902 -0.4467463 0.10608505 -0.03301204 -0.1158476 -0.49836296
0.09473164 0.08183033 -0.12387688 -0.58848685 -0.28012487 -0.4897083 -0.8046109 -0.20295098
0.16618942 -0.67809707 -0.33432114 -0.04205581 -0.56246424 0.15392737 -0.2640193 -0.5482898
-0.0046774684 -0.29204553 -0.26712444 -0.6850454 -0.31816027 -0.17035085 -0.10918817 -0.39849937
-0.653906 -0.5465006 -0.39506263 0.15264988 -0.20494734 -0.4350983 -0.83843905 0.025128294
-0.47159788 -0.48349562 -0.19434422 -0.16866302 -0.40330562 -0.002815873 -0.13227612 -0.6725768
-0.78395677 -0.10433081 -0.4725825 -0.35528702 -0.110580005 -0.3278577 -0.010798486 -0.2208861
-0.8115132 -0.048352234 -0.35976028 -0.47232464 -0.38261175 -0.7129131 -0.2068308 -0.44880337
0.02132211 -0.78195655 -0.23226444 -0.49872583 -0.15850691 -0.45004296 -0.028412474 -0.10522608
-0.11997241 -0.27857414 -0.3502175 -0.5074085 -0.2731815 -0.5204436 -0.29404286 -0.2226094
3.026089 2.9700556 3.0485024 2.4482002 2.9408708 2.421632 3.0428007 2.8262095
2.9025912 3.2228792 2.6619864 3.1548276 2.7882156 2.4742165 3.2477214 2.570616
2.4163482 2.4786773 2.369133 2.497576 2.4372492 2.7070293 2.958505 2.3839464
2.5940757 2.821436 2.8845577 2.8602076 2.5610476 3.0322661 2.4804535 2.2648828
2.821443 2.5274627 2.0629332 2.9426901 2.3355286 2.89624 3.0336404 2.942828
3.3232226 2.8885002 2.559749 3.1197367 2.8386683 3.1734972 3.1489427 3.0205185
3.0749104 2.6645052 2.7609816 2.5449286 3.3478856 3.0058763 3.1023278 2.4609525
3.171257 3.2612033 3.0042362 2.349694 2.7492132 2.8503776 2.4187346 2.8657513
2.7387838 2.3214746 2.7909684 3.0314329 2.5832787 3.0284572 2.5713155 2.5912223
2.785014 2.9242594 2.874977 2.582451 2.8832848 2.6471703 3.2487233 3.4654472
2.5601556 2.6434977 2.693248 3.1516213 2.5849802 2.8168514 2.1675744 3.3090503
2.7605634 2.4980717 2.7930844 3.3569727 2.813417 2.9248428 3.0103195 2.418559
2.3839676 2.9286656 2.9033241 3.0457916 2.9937603 2.8535292 2.9141948 3.1408894
2.373257 2.6136427 2.7929404 2.5520117 2.6565454 2.372117 3.0461373 2.6062677
3.0599184 2.3540356 2.7725854 2.7874053 3.1811786 2.6715417 2.982741 3.183785
3.0950503 3.1884825 2.7432122 2.5141199 2.9801981 2.8542933 2.8964882 3.0341496

head.net.0.weight f4 [1, 128]
00000000: cce4 3cba f616 123c 29cb 723a 128b 803d
00000010: 391a 1fbc afe1 6f3e af66 5b3c 80ea 833c
00000020: c2c9 70bc 801d 8b3c e007 fbbd cd70 6ab9
00000030: f319 a8bb 7f79 0abe 642c f03a 7e24 b23c
00000040: a0d1 e7be c0a7 89be 9ecb dc3d 8c65 fbbd
00000050: 9fba 60be 8148 16bc 4d1f 34bd d7aa e7be
00000060: e1f4 763d f0f1 a83b 5f9b 04bc 8562 83bc
00000070: 6e21 ee3c 8f24 363c 7091 863e 03a3 223f
00000080: b95b 3dbc bf2b 093c e040 38bf f74d 41bb
00000090: 64a9 8bbe d074 34bc fcec 6a3b 3550 62bc
000000a0: 7c15 163d 9e1f 143d 9857 bfbd 03e4 6cbb
000000b0: 5194 bc3b 89e8 6fbc 6a67 0239 cc3d 21bb
000000c0: 3dec f53a 8687 a83a 3bab 25bc 6861 3d3d
000000d0: 2aaf cfba 208f b43a eb94 cdbb 8dac c23d
000000e0: e762 ca3b b929 52bc a92d 08ba 2c98 ea3e
000000f0: ad0e 6438 057d f13a 9bb5 5e3f dd8e 67bc
00000100: bd84 9dbb e094 673e 4f7e 843b 5aea 4bb9
00000110: 8da2 ed3d fa92 4a3d 59a3 a03c 1973 2c3e
00000120: aa9c cd3c 15fd 4bbd 9f22 903d 86b0 c03d
00000130: fdff 8e3b 16a0 3dbd 1988 653d fed5 723a
00000140: 5302 af3e 3239 e73c 5367 a7bc b2c5 9d3c
00000150: dbed a63b 18d6 c5bb ea16 78bf 1b0e 993b
00000160: 14bb 553c f671 b33d 4202 83bd 4e02 333a
00000170: 885b a53c 2238 0a3c d65a edbb 05ec 6dbe
00000180: 1385 713f ee5f 683c a57f 83bc 36d0 5d3b
00000190: a844 1e3b 7ff6 f03b 6aa6 deba 7321 be3c
000001a0: ea33 1440 f448 73bd 262c 2cb9 7881 163c
000001b0: da7a 0f3e 3117 97bf 722c f0bd cacd 073b
000001c0: c1c9 a63c 4d85 0140 4b17 1f3b d92d 6fbc
000001d0: b67e 43bb 1403 01bd 28e6 223b 6aec c6bd
000001e0: 483b 843c a0f4 58bc 6111 fe3c 3c9a aebd
000001f0: 3fa5 f3b9 64e4 4a38 79bb 053b 78ec 1c3b
-0.0007205724 0.008916607 0.00092618406 0.062765256 -0.009710842 0.23425935 0.013391181 0.01610303
-0.01469654 0.01698184 -0.122573614 -0.00022358 -0.0051300465 -0.1352291 0.0018323776 0.021745916
-0.4527712 -0.26885796 0.107810244 -0.12275228 -0.2194619 -0.00917256 -0.043975163 -0.45247528
0.06029213 0.0051557943 -0.008093684 -0.016038189 0.029068675 0.011117115 0.26282835 0.63529986
-0.011557513 0.008372246 -0.7197399 -0.0029495934 -0.27277672 -0.011014178 0.003584682 -0.013813068
0.036641583 0.036162965 -0.09342879 -0.0036146648 0.0057549854 -0.014642843 0.00012436291 -0.0024603484
0.0018762421 0.0012857772 -0.010111625 0.046235472 -0.001584505 0.0013775565 -0.006273856 0.09505568
0.006176341 -0.01282733 -0.0005194792 0.45819223 5.4373104e-05 0.00184241 0.8699586 -0.014133182
-0.0048070834 0.22615385 0.0040433775 -0.00019446891 0.1160327 0.049456574 0.01960914 0.16840781
0.025099117 -0.049801905 0.070378534 0.09408669 0.0043640123 -0.046295248 0.056037996 0.00092634547
0.3418146 0.028225515 -0.020435011 0.019259308 0.0050942726 -0.006037485 -0.96909964 0.004670871
0.013045091 0.08761971 -0.06396915 0.00068286515 0.020185247 0.008436235 -0.0072434945 -0.23234566
0.9434368 0.014183028 -0.016052077 0.0033846027 0.002414981 0.0073536034 -0.0016986851 0.02320931
2.3156686 -0.059395745 -0.00016419645 0.009186141 0.14011708 -1.1803952 -0.11727227 0.0020722025
0.020359876 2.023761 0.0024275358 -0.014598333 -0.0029830164 -0.031497076 0.0024856422 -0.09713061
0.016141549 -0.013241917 0.031014146 -0.085255116 -0.0004647169 4.837326e-05 0.0020405932 0.0023944657
