examples/catchment_models/training/runs/usa_time_split_2404_015859/model_epoch008.pt (torch, 316229 bytes, 5 tensors)

lstm.weight_ih_l0 f4 [512, 23]
0	0x3e6fb189	0.23407568
1	0x3f37104a	0.7150923
2	0x3e9e0ae8	0.30867696
3	0x3eb40704	0.35161602
4	0x3dfb7d45	0.12279753
5	0x3dbf2fcb	0.09335288
6	0x3e6fbbea	0.23411527
7	0xbd4de6f3	-0.05026908
8	0x3e2dee4d	0.16985436
9	0xbdb88a02	-0.09010698
10	0xbd953c8e	-0.072869405
11	0xbdcd3bdf	-0.10021185
12	0xbeadfd92	-0.3398252
13	0x3b211c22	0.002458342
14	0x3e33d69d	0.17562337
15	0x3c522ad3	0.012827593
16	0x3dffaefa	0.12484546
17	0x3e36a263	0.17835383
18	0xbeacfe26	-0.3378765
19	0x3e9ddcaa	0.30832416
20	0xbdc9b97e	-0.09849833
21	0xbd3a9557	-0.045552578
22	0x3e94f011	0.29089406
23	0x3c830733	0.015994644
24	0xbd911ac4	-0.07085183
25	0x3e88ca64	0.26716912
26	0x3e0bdf94	0.13659507
27	0x3d4614fc	0.048359856
28	0x3e03d707	0.12874995
29	0xbdddbe89	-0.10827357
30	0x3e900872	0.28131443
31	0x3d0ca3d4	0.034335926
32	0xbe2e4941	-0.17020132
33	0xbda04c7f	-0.078270905
34	0xbe63c737	-0.22243963
35	0xbdf15c05	-0.117851295
36	0x3c66a4ef	0.014077409
37	0x3d6faf77	0.058516946
38	0xbd903ddf	-0.07043051
39	0xbe80775b	-0.2509106
40	0xbe58f461	-0.21186973
41	0xbde13232	-0.10995902
42	0xbd671bf4	-0.056423143
43	0x3bda22fe	0.0066570034
44	0xbcc9c169	-0.024628358
45	0x3df8c9bd	0.121478535
46	0x3e991cef	0.29904887
47	0x3e0d4fd4	0.13799983
48	0x3e114fdb	0.14190619
49	0x3e003c13	0.12522916
50	0xbdbca2f9	-0.09210772
51	0x3d3de4ca	0.04636077
52	0xbe8374ea	-0.25675136
53	0x3d498d83	0.04920722
54	0xbeab4112	-0.33448082
55	0x3e8f6325	0.2800533
56	0xbdea005b	-0.11425849
57	0x3d806d40	0.06270838
58	0xbc50d2eb	-0.012745599
59	0x3ca1c85b	0.019748857
60	0xbe6fcc02	-0.23417667
61	0xbdc3e260	-0.09564662
62	0x3d104b24	0.03522791
63	0xbc007a15	-0.007841607
64	0x3d00b368	0.031421095
65	0xbc407f6b	-0.011749129
66	0x3de4b683	0.11167624
67	0xbdab611c	-0.083681315
68	0xbed6a201	-0.41920474
69	0x3db12d1e	0.086511835
70	0x3ec93646	0.3929922
71	0x3e10f220	0.14154863
72	0xbcc1f033	-0.023674106
73	0xbdab87e9	-0.08375532
74	0x3edf4f1b	0.4361504
75	0x3ed229d4	0.41047537
76	0xbdf66c5a	-0.12032385
77	0x3ec6cdb1	0.38828805
78	0xbd4fe974	-0.050759748
79	0xbddb55ff	-0.10709762
80	0x3dda0df7	0.10647195
81	0xbd3d329e	-0.04619085
82	0xbe6112fd	-0.219799
83	0xbc1546a4	-0.00911108
84	0x3ebd4e1b	0.36973652
85	0x3e611e64	0.2198425
86	0x3e53e747	0.20693694
87	0xbe73e055	-0.23816045
88	0x3e9b1ad0	0.30293894
89	0x3e99ef79	0.30065516
90	0x3e7fa5d2	0.24965599
91	0x3e200b3a	0.15629283
92	0x3e1896d4	0.14901286
93	0x3d479351	0.048724476
94	0x3e97e492	0.29666573
95	0x3f142a6a	0.5787722
96	0x3ebf6f2d	0.37389508
97	0x3e204982	0.15653041
98	0x3e3c8009	0.18408217
99	0x3b8f3cf0	0.004371278
100	0x3e6b5f7e	0.22985646
101	0xbe0a345a	-0.13496533
102	0x3e49c866	0.19705352
103	0xbd782791	-0.06058461
104	0xbe988a3a	-0.29792958
105	0x3dcd63d8	0.10028809
106	0x3e17cb23	0.14823584
107	0x3e860860	0.26178265
108	0x3ea561b6	0.3230111
109	0x3e8cdb7a	0.27511197
110	0xbdbf5ebe	-0.093442425
111	0x3dd55942	0.10417415
112	0xbd2adb90	-0.041713297
113	0xb889a160	-6.5627275e-05
114	0x3dd0b07b	0.10189911
115	0x3d947318	0.07248515
116	0x3e4c0f0a	0.19927612
117	0xbca6648c	-0.020311616
118	0x3d3247d3	0.04352553
119	0x3d8a4e2b	0.067531906
120	0x3ebef47e	0.37295908
121	0x3f1722eb	0.59037656
122	0xbe584e8c	-0.21123713
123	0x3f1003f2	0.5625602
124	0x3e034f9c	0.12823337
125	0xbe9e3199	-0.30897215
126	0x3dec964c	0.11552104
127	0xbda08964	-0.07838705
128	0xbe9c80c5	-0.30566993
129	0xbc070532	-0.008240985
130	0x3ec3300f	0.38122603
131	0x3ea77b98	0.32711482
132	0x3e9c11f0	0.30482435
133	0xbf01ef45	-0.5075572
134	0x3ebb622c	0.36598337
135	0x3e9ac74a	0.3023017
136	0x3ed2378c	0.41058004
137	0x3e46166c	0.19344491
138	0x3dd3db3c	0.1034455
139	0x3ecd7402	0.4012757
140	0x3dd77867	0.10521012
141	0x3e023f5d	0.12719484
142	0xbee56c95	-0.44809404
143	0x3c575ead	0.013145131
144	0x3e109954	0.1412099
145	0x3e7158ad	0.23568983
146	0xbace356d	-0.0015732475
147	0xbe4c15c9	-0.19930185
148	0x3dd639cf	0.10460245
149	0xbe4eeadd	-0.2020678
150	0xbcf63627	-0.030055119
151	0x3e87e159	0.26539114
152	0x3e9d80e1	0.3076239
153	0xbd85f5d1	-0.065410264
154	0xbe4c5745	-0.19955166
155	0xbe3e8d8f	-0.18608688
156	0x3d233106	0.039841674
157	0xbe770792	-0.24123982
158	0xbee0c3ab	-0.43899283
159	0xbe0a083d	-0.13479705
160	0x3daa74d2	0.08323063
161	0x3e80ba06	0.25141925
162	0x3d923110	0.07138264
163	0x3efa4b07	0.48885366
164	0x3f33edf5	0.7028497
165	0x3d4515cd	0.048116494
166	0x3e9f7271	0.31142
167	0x3ef33fea	0.475097
168	0xbc9f63b4	-0.019456722
169	0x3ef9a325	0.48757282
170	0xbe1ff2fd	-0.15620036
171	0x3d21f900	0.039544106
172	0xbd835665	-0.06412963
173	0xbe259786	-0.16171083
174	0xbe8ca86b	-0.27472243
175	0x3e3a8f41	0.1821871
176	0x3ea8dd74	0.32981455
177	0x3e96152c	0.29313028
178	0x3ea8f673	0.33000526
179	0xbeb28850	-0.34869623
180	0x3e88dc6e	0.26730675
181	0x3e73aa93	0.23795538
182	0x3ecde12d	0.40210858
183	0x3e8d2994	0.27570784
184	0xbe730bd1	-0.23734976
185	0x3ca55981	0.02018428
186	0x3e299300	0.16559982
187	0x3e7b1441	0.24519445
188	0x3ee5782c	0.44818246
189	0xbd7d67cb	-0.061866563
190	0x3dc77da9	0.09740765
191	0xbec2bd46	-0.3803503
192	0x3e6e665e	0.23281237
193	0xbe1b7200	-0.15180206
194	0x3e4a6ab1	0.19767262
195	0xbe9695aa	-0.2941106
196	0xbea9d754	-0.33172095
197	0xbe209b8f	-0.15684341
198	0x3eb9f060	0.36316204
199	0x3e6e43d8	0.23268068
200	0xbbb73b5f	-0.0055917944
201	0x3dd87c3d	0.105705716
202	0xbe014d3b	-0.12627117
203	0x3e82089e	0.253972
204	0x3d56d01d	0.052444566
205	0x3c1cdc29	0.009573975
206	0x3e89f169	0.26941994
207	0x3d3b4c8c	0.045727298
208	0xbe7ba92f	-0.24576257
209	0xbe3c599e	-0.18393561
210	0xbe3a740b	-0.1820833
211	0xbdb7f649	-0.08982522
212	0xbdefe8b6	-0.11714308
213	0x3cecc9cc	0.028904818
214	0x3cf1a388	0.029496923
215	0xbde7c233	-0.113163374
216	0x3de4332e	0.11142574
217	0x3ce513e5	0.027963588
218	0xbdbe1b7f	-0.09282588
219	0xbda3019a	-0.0795929
220	0x3e0e070c	0.13869876
221	0x3d6784eb	0.056523245
222	0x3e264ea2	0.16240934
223	0xbe2e184e	-0.17001459
224	0xbdbf3a1d	-0.09337256
225	0xbe707080	-0.23480415
226	0x3dc3c902	0.095598236
227	0xbe51b408	-0.20478833
228	0xbe1701bd	-0.14746757
229	0xbe6e2a88	-0.23258412
230	0xbe1daae8	-0.15397227
231	0x3d4f2875	0.050575692
232	0xbe12a3be	-0.14320275
233	0xbe395600	-0.18099213
234	0xbe7c416c	-0.24634331
235	0x3e262b6b	0.162275
236	0x3e9c4a49	0.30525425
237	0xbede1ea7	-0.4338276
238	0x3e1f88b5	0.15579493
239	0x3e053195	0.13007195
240	0xbe6e0a55	-0.23246129
241	0x3e08f74b	0.13375585
242	0xbd3df80b	-0.04637913
243	0xbe961e3d	-0.29319945
244	0xbb7d3816	-0.0038638166
245	0x3ecb9bc6	0.39767283
246	0x3e3d11a0	0.18463755
247	0x3e85d57a	0.26139432
248	0xbb5d25ba	-0.003374441
249	0x3e973e95	0.29539934
250	0x3ec67f62	0.3876906
251	0x3e73b784	0.23800474
252	0x3e224d18	0.15849721
253	0xbe120524	-0.14259773
254	0xbea52066	-0.3225128
255	0xbc712086	-0.014717227

lstm.weight_hh_l0 f4 [512, 128]
0	0xbda7c23b	-0.081913434
1	0xbe51c9ae	-0.20487091
2	0x3e03d569	0.12874378
3	0xbe86c8e7	-0.2632515
4	0x3e16609e	0.14685294
5	0xbe3fbacb	-0.187236
6	0x3d2235e7	0.039602187
7	0x3df503ca	0.11963613
8	0x3e856c68	0.2605927
9	0x3e4a7168	0.19769824
10	0x3e02a2ed	0.12757464
11	0xbd6401af	-0.055665668
12	0xbdd83549	-0.10557038
13	0xbe5e2f5f	-0.21697758
14	0xbd99edf0	-0.07516086
15	0xbe7d4360	-0.24732733
16	0x3e99ae06	0.30015582
17	0x3e6a5207	0.22882853
18	0xbe068620	-0.13137102
19	0x3d587e0b	0.05285458
20	0x3d3790bd	0.044815768
21	0x3dca5e85	0.098813094
22	0x3e0d2687	0.13784228
23	0x3e3aa98d	0.18228741
24	0xbdd10291	-0.10205568
25	0xbd94e36c	-0.0726994
26	0xbddf0109	-0.10888869
27	0x3e1e3598	0.15450132
28	0x3e737f13	0.23778944
29	0xbb2c0d56	-0.0026253066
30	0x3d24dc72	0.040249296
31	0xbe9260e8	-0.2858956
32	0xbca8f6da	-0.02062552
33	0xbd014508	-0.031559974
34	0xbd942f40	-0.07235575
35	0xbe9b8713	-0.3037649
36	0x3e726291	0.23670413
37	0x3ea85bbf	0.32882497
38	0xbde2504f	-0.11050474
39	0x3e7e13cb	0.24812238
40	0xbe9b51cb	-0.3033584
41	0xbeb76612	-0.3582006
42	0x3e86e314	0.26345122
43	0xbd3fb51d	-0.046803582
44	0xbe1136bf	-0.1418104
45	0x3dd3bcf9	0.10338778
46	0xbc3b79a0	-0.011442572
47	0x3db2eaef	0.08736216
48	0xbeae057a	-0.33988553
49	0xbea75a40	-0.32686043
50	0x3e8a0e9f	0.2696428
51	0x3ce16af8	0.027516827
52	0x3e149f3c	0.14513868
53	0xbdd205ed	-0.102550365
54	0x3de56ddd	0.112025954
55	0xbe4ac782	-0.19802669
56	0x3e30f98e	0.17282698
57	0x3e953dd2	0.29148728
58	0xbdaf58b1	-0.085618384
59	0xbdc8c78a	-0.09803684
60	0xbf01d342	-0.5071298
61	0x3e131893	0.14364843
62	0xbcbd5b22	-0.023114745
63	0xbe21e4bc	-0.15809911
64	0x3ef11f2d	0.47094098
65	0xbe17e4a4	-0.14833313
66	0xbe432bed	-0.19059725
67	0x3b0b1219	0.0021220504
68	0xbde79bbd	-0.113090016
69	0xbe8eadf5	-0.27867094
70	0xbc9160fd	-0.017746443
71	0xbe003adc	-0.12522453
72	0xbc61c456	-0.01377972
73	0xbd694094	-0.056946352
74	0xbd7be88f	-0.061501082
75	0xbe008d22	-0.12553838
76	0xbe2b59f0	-0.16733527
77	0x3e2c3959	0.16818751
78	0x3be44a46	0.006966862
79	0x3daf0860	0.08546519
80	0xbec0ce6e	-0.37657493
81	0xbe84accd	-0.25913087
82	0x3dbc99a3	0.092089914
83	0xbe1265d6	-0.1429666
84	0xbd5a650b	-0.05331902
85	0x3e6b6c7b	0.22990601
86	0xbd902c5f	-0.07039713
87	0xbe90995a	-0.28241998
88	0x3dc977ff	0.098373406
89	0xbe28c7af	-0.16482423
90	0x3da18d74	0.07888308
91	0xbe5b2cc4	-0.21403795
92	0x3e146447	0.14491378
93	0xbe538c8c	-0.20659083
94	0x3eac2b74	0.33626902
95	0x3dee503b	0.116363965
96	0x3c991499	0.01868658
97	0xbe84f114	-0.25965178
98	0x3e3cc2c3	0.1843367
99	0x3dd0076c	0.101576656
100	0xbca87cd2	-0.020567331
101	0x3e539a12	0.20664242
102	0xbdebf5b4	-0.115214735
103	0xbba6a883	-0.005086006
104	0x3d54c304	0.051943794
105	0x3bbc2697	0.005741905
106	0xbdc2e46b	-0.095162235
107	0xbe02ae18	-0.12761724
108	0xbe1914b7	-0.14949308
109	0x3d3b4069	0.045715723
110	0xbd9867ea	-0.07441695
111	0x3e4cea25	0.20011194
112	0xba6ae029	-0.0008959794
113	0xbde41927	-0.1113761
114	0xbe59ae96	-0.21258005
115	0x3e3555ac	0.17708462
116	0x3e83a380	0.25710678
117	0xbe25d2d8	-0.16193712
118	0x3e5b72b9	0.21430482
119	0x3ca40202	0.020020489
120	0xbe283874	-0.16427785
121	0xbd541c0e	-0.051784568
122	0xbd1b5bd0	-0.037929356
123	0x3d691dc9	0.05691317
124	0xba96b04b	-0.0011496631
125	0xbde662f5	-0.11249343
126	0xbeacff64	-0.33788598
127	0xbd5bd859	-0.053673122
128	0xbe1f6ecb	-0.15569608
129	0x3d31f280	0.043444157
130	0x3cbe0623	0.023196286
131	0x3e050b3b	0.12992565
132	0x3dd942a6	0.10608415
133	0xbd61dccf	-0.05514222
134	0xbdd011d5	-0.10159651
135	0xbca5471a	-0.020175505
136	0x3dbb4617	0.09144228
137	0x3c8a3005	0.0168686
138	0x3ccf5731	0.02531013
139	0x3bff960c	0.0077998694
140	0xbd656a37	-0.056009497
141	0x3dd37852	0.10325684
142	0x3daa5e85	0.083188094
143	0x3d922436	0.07135813
144	0x3d637731	0.05553359
145	0xba252a9f	-0.00063006015
146	0x3d53f670	0.051748693
147	0xbde418c0	-0.11137533
148	0xbd6aba56	-0.05730661
149	0x3d634b84	0.05549194
150	0x39ec6667	0.00045089723
151	0x3bed8692	0.007248708
152	0xbd9e5490	-0.07730973
153	0x3d2cf385	0.042224426
154	0x3da3f8f7	0.08006471
155	0xbdf5a72f	-0.11994778
156	0xbd0d50ed	-0.034501005
157	0xbda51fd0	-0.080627084
158	0x3d32cc27	0.043651726
159	0x3c7a4020	0.015274078
160	0x3d1438d8	0.036187023
161	0xbdf85058	-0.12124699
162	0x3dcceaa0	0.10005689
163	0x3d292916	0.04129895
164	0xbda15834	-0.078781515
165	0x3b3a5c96	0.0028436533
166	0xbd5f249d	-0.054478277
167	0x3af8f2da	0.0018993274
168	0x3d818487	0.06324106
169	0xbdda3ff1	-0.10656727
170	0xbd3e9f0b	-0.046538394
171	0xbdeb1b4a	-0.11479814
172	0x3d62a05d	0.055328716
173	0xbdf2a050	-0.118469834
174	0x3d874a04	0.06605914
175	0x3d9ca1f6	0.07648079
176	0x3d7d7503	0.06187917
177	0xbd250656	-0.040289246
178	0x3e0eae5d	0.13933702
179	0x3d926f83	0.071501754
180	0xbe07c276	-0.13257775
181	0x3c524cfe	0.012835739
182	0xbc34ae7b	-0.0110279275
183	0x3dcc0557	0.09961956
184	0xbd9b662b	-0.07587846
185	0xbdc89cec	-0.097955555
186	0x3d175006	0.03694155
187	0xbdb0d561	-0.08634449
188	0x3dbe11fa	0.092807725
189	0xbc60ca8e	-0.013720168
190	0x3dd05f33	0.10174408
191	0x3c1be29f	0.00951448
192	0xbd85e75b	-0.06538268
193	0x3d91aeb8	0.07113403
194	0x3d1764f5	0.036961515
195	0x3d8e9140	0.06961298
196	0xbd95c234	-0.07312432
197	0x3bcbd4cb	0.0062204353
198	0x3d61607a	0.055023648
199	0x3dc2b20b	0.09506615
200	0x3d8bbdf1	0.06823338
201	0x3def4d89	0.116847105
202	0xbd2d2649	-0.04227284
203	0x3de3363f	0.11094331
204	0xbd4f2e01	-0.050580982
205	0xbca442ba	-0.020051349
206	0xbe120079	-0.14257993
207	0xbd3b0ca7	-0.045666363
208	0x3db03c82	0.08605291
209	0xbd556a1d	-0.05210315
210	0x3bde1b79	0.0067781773
211	0x3e063fc9	0.1311027
212	0x3d1d5c13	0.038417887
213	0xbd81ff24	-0.06347492
214	0xbdc0578f	-0.093917005
215	0xbd0a80f3	-0.03381438
216	0x3c2c1287	0.010502464
217	0xbc94b6c6	-0.01815356
218	0x3ccead65	0.025229165
219	0xbc5f7165	-0.013637875
220	0xbda7a06c	-0.08184895
221	0x3dd6c327	0.10486441
222	0x3df88622	0.12134959
223	0x3e3c0785	0.18362243
224	0x3d809e46	0.06280188
225	0x3db4e332	0.088323966
226	0x3b8cc62a	0.004296084
227	0xbc2d4f49	-0.010577985
228	0x3db040a0	0.08606076
229	0x3c8c344a	0.017114777
230	0x3e371813	0.17880277
231	0x3c151c39	0.009100967
232	0xbd25173d	-0.040305365
233	0xbe1f4aa6	-0.1555582
234	0xbe053e00	-0.13011932
235	0xbdfd5999	-0.12370605
236	0xbd4589f9	-0.048227284
237	0x3dce37e3	0.10069253
238	0xbcc25fb3	-0.023727274
239	0x3d8eb4b4	0.0696806
240	0x3e1afddc	0.15135902
241	0x3e3ae271	0.18250443
242	0x3d9effbe	0.07763623
243	0x3d9e2c78	0.077233255
244	0xbdb0fe3c	-0.08642241
245	0x3ceded98	0.029043958
246	0xbc2333fa	-0.009961123
247	0xbd0db69c	-0.034597978
248	0xbd83bafd	-0.064321496
249	0x3d905fa3	0.07049491
250	0x3e0ca3a4	0.13734299
251	0xbe0c6f3d	-0.13714309
252	0xbc33fbd1	-0.010985331
253	0xbd20dac8	-0.039271146
254	0xbc8f1b80	-0.017469168
255	0xbd3b31f0	-0.04570192

lstm.bias_ih_l0 f4 [512]
0	0xbe12d03d	-0.14337249
1	0xbdd69320	-0.104772806
2	0x3dc78b2b	0.09743341
3	0xbe969d88	-0.29417062
4	0x3d0fcace	0.03510552
5	0xbf051d51	-0.5199786
6	0x3d2aca07	0.041696575
7	0xbeb379fb	-0.35054
8	0x3c3e159e	0.011601834
9	0xbc17c9b5	-0.009264399
10	0xbe748c71	-0.23881699
11	0x3d4cdf58	0.050017685
12	0xbe228611	-0.15871455
13	0xbef9dcbe	-0.48801225
14	0xbdc6c8c3	-0.09706261
15	0xbed123a0	-0.40847492
16	0xbed3b95c	-0.41352355
17	0xbec55069	-0.3853791
18	0xbec20546	-0.37894648
19	0xbe9793d0	-0.2960496
20	0xbeae9121	-0.340951
21	0xbe4d5acf	-0.20054172
22	0xbe00aba0	-0.1256547
23	0xbeffc8af	-0.49957797
24	0xbeb65b76	-0.35616654
25	0xbd70dfe3	-0.058807265
26	0x3ccdd15e	0.025124248
27	0xbe3e4978	-0.18582714
28	0xbea82168	-0.32837987
29	0xbe59b779	-0.21261396
30	0xbeccfa54	-0.40034735
31	0xbedc1608	-0.42985559
32	0xbeedf6f8	-0.46477485
33	0xbe684a76	-0.22684655
34	0xbf0f038d	-0.55864793
35	0xbeab9a26	-0.33516043
36	0xbeedd283	-0.4644967
37	0xbe9c7b5b	-0.30562863
38	0x3e248c70	0.16069198
39	0xbd9da8c7	-0.07698207
40	0x3b655324	0.0034992183
41	0xbe2b9ac6	-0.1675826
42	0xbed06e09	-0.4070895
43	0xbe0651b5	-0.13117106
44	0xbcbc56ff	-0.022990702
45	0xbe2af3e0	-0.16694593
46	0xbe0a3c49	-0.1349956
47	0x3d0b0f73	0.03395028
48	0x3b8511c7	0.004060957
49	0xbe857865	-0.26068416
50	0xbe4e87a4	-0.2016893
51	0xbec07b4b	-0.37594065
52	0x3e1dc19a	0.15405884
53	0x3d0bc9ab	0.034127872
54	0xbd4850d7	-0.04890522
55	0xbe810190	-0.25196505
56	0x3da02ba9	0.078208275
57	0x3cd50128	0.026001528
58	0xbdce5bf5	-0.10076133
59	0xbf12c603	-0.5733339
60	0xbe47387a	-0.19455138
61	0xbea5d921	-0.3239222
62	0xbefbc73a	-0.49175435
63	0xbe4f72cc	-0.20258635
64	0x3df7a9b1	0.12092913
65	0xbef5e67c	-0.48027408
66	0xbe90aab0	-0.28255224
67	0xbd61fe45	-0.05517413
68	0xbec072e6	-0.3758766
69	0x3e26803d	0.16259857
70	0xbdc25d3c	-0.09490439
71	0xbec27b06	-0.37984484
72	0xbda5fce4	-0.08104876
73	0xbdea191b	-0.1143057
74	0xbe01c24a	-0.12671772
75	0xbefeff33	-0.49804077
76	0xbe9e9b86	-0.3097803
77	0xbcdd3cdd	-0.027006561
78	0xbe7e7c4b	-0.24852102
79	0xbe4cf4fa	-0.20015326
80	0xbf047198	-0.5173583
81	0xbe8f292a	-0.27961093
82	0xbe430445	-0.19044597
83	0x3dee4cb4	0.11635724
84	0xbe03909b	-0.12848131
85	0xbe846aa7	-0.2586262
86	0xbf27d595	-0.65560275
87	0x3d222f62	0.03959597
88	0xbe9f99ba	-0.31171972
89	0xbeba1c31	-0.36349633
90	0xbdeec75d	-0.11659119
91	0xbda751dd	-0.08169911
92	0xbe939314	-0.2882315
93	0x3c6613ed	0.014042837
94	0xbd3c5e0c	-0.045988128
95	0xbebc925b	-0.3683041
96	0xbefe91a0	-0.49720478
97	0xbdba7bc0	-0.09105635
98	0xbeb655f5	-0.35612455
99	0xbe1b3ab6	-0.15159115
100	0xbb81f5ac	-0.003966054
101	0xbe9e86c7	-0.30962202
102	0xbdac4c8c	-0.08413038
103	0xbe572196	-0.21008906
104	0xbf259a95	-0.64689
105	0xbe247e65	-0.1606384
106	0xbe41c887	-0.18924151
107	0xbeafec4c	-0.34359968
108	0xbe9fb8e0	-0.31195736
109	0xbed19763	-0.4093581
110	0xbe1a6672	-0.15078142
111	0xbeac8ca7	-0.3370106
112	0x3d26c16c	0.040711805
113	0xbf1e4fc9	-0.6184049
114	0xbd9fffec	-0.07812485
115	0xbedc6ee0	-0.4305334
116	0xbdf7c2cb	-0.12097701
117	0xbec32ee5	-0.38121715
118	0x3c8760c8	0.016525641
119	0x3d77f906	0.06054022
120	0x3dc24ce7	0.09487324
121	0xbe0030d5	-0.12518628
122	0xbe2c7317	-0.16840778
123	0xbe94c526	-0.29056662
124	0xbeba1602	-0.36344916
125	0xbeaa2d4a	-0.33237678
126	0xbd625694	-0.05525835
127	0xbd376301	-0.04477215
128	0x3c04a4d1	0.008095936
129	0xbd35896c	-0.04432051
130	0x3dd0a2a6	0.10187273
131	0xbee9436a	-0.45559245
132	0xbde69928	-0.11259681
133	0xbebfcd47	-0.37461302
134	0xbd758f8f	-0.05995136
135	0xbe24e64d	-0.16103478
136	0xbd8b699b	-0.06807252
137	0x3e68f1b2	0.2274845
138	0xbe96bc21	-0.29440406
139	0x3db003d0	0.08594477
140	0xbde80892	-0.1132976
141	0xbeeae085	-0.4587442
142	0x3dfa24c5	0.122140445
143	0xbe843a0c	-0.25825536
144	0xbea35597	-0.31901237
145	0xbee74d41	-0.45176128
146	0xbed33231	-0.4124923
147	0xbede5655	-0.4342524
148	0xbecfc2d1	-0.4057832
149	0xbdbbbd2b	-0.0916694
150	0xbdc3fa64	-0.095692426
151	0xbee660a1	-0.44995597
152	0xbeda5285	-0.42641082
153	0xbd5e035e	-0.05420243
154	0xbda45f87	-0.08026033
155	0xbdcd2ab7	-0.10017913
156	0xbea02aff	-0.31282803
157	0x3bf3dcb0	0.0074420795
158	0xbe97c6ad	-0.29643765
159	0xbede0f76	-0.4337117
160	0xbe9ff315	-0.31240144
161	0xbebb4058	-0.36572528
162	0xbf0f4a0e	-0.55972373
163	0xbe0dc51c	-0.13844723
164	0xbea848da	-0.3286808
165	0xbcd94724	-0.02652318
166	0x3dfb9b4b	0.12285479
167	0xbbb1637c	-0.005413471
168	0x3e750a7e	0.23929784
169	0xbdf1fecf	-0.11816179
170	0xbed9196b	-0.42402205
171	0x3d91a1d1	0.07110942
172	0xbceda656	-0.02900998
173	0x3c0573dc	0.008145299
174	0x3e4fb2e3	0.20283084
175	0xbce725dc	-0.028216295
176	0xbd3b91aa	-0.045793213
177	0xbe81c93d	-0.25348845
178	0xbe7e1736	-0.24813542
179	0xbea3a1a2	-0.31959254
180	0x3e8c1302	0.27358252
181	0x3c152382	0.009102704
182	0xbd6a74d7	-0.057240333
183	0xbed4e90e	-0.41584057
184	0x3dd5420b	0.10412987
185	0x3e5fb914	0.21847945
186	0x3c5df6b7	0.013547591
187	0xbf011823	-0.50427455
188	0xbe9b0727	-0.30278894
189	0xbd919055	-0.07107607
190	0xbec4c490	-0.38431215
191	0xbd8865b8	-0.06660026
192	0xbdf6e01d	-0.12054465
193	0xbf1651ba	-0.58718455
194	0xbe26d5cf	-0.16292499
195	0x3e2be385	0.1678601
196	0xbe8fc1f0	-0.2807765
197	0x3a8a0e8c	0.00105329
198	0xbe492b81	-0.19645502
199	0xbed26126	-0.41089743
200	0xbe4a6ba4	-0.19767624
201	0xbd3e7560	-0.046498656
202	0xbddd9def	-0.10821139
203	0xbeb5b26c	-0.35487688
204	0xbcc400fc	-0.02392625
205	0xbe2c60ca	-0.16833797
206	0x3e0b78b6	0.13620266
207	0x3ed2abb6	0.4114663
208	0xbecd5ded	-0.40110722
209	0xbe893bba	-0.2680338
210	0xbe5ea31b	-0.21741907
211	0x3d8af8b2	0.06785716
212	0xbe57caae	-0.2107341
213	0xbe1779ca	-0.14792553
214	0xbee46f3b	-0.44616112
215	0x3e54a356	0.20765433
216	0xbe190579	-0.14943494
217	0xbeb6bd7b	-0.35691437
218	0xbd95f91c	-0.073229045
219	0x3eabd57f	0.33561322
220	0xbe2fce8f	-0.1716864
221	0x3c9b6d00	0.018972874
222	0x3d89f78a	0.067366675
223	0xbea9a3e8	-0.33132863
224	0xbf03be14	-0.5146191
225	0xbcc49617	-0.02399735
226	0xbdd47c03	-0.10375216
227	0x3d5917b4	0.05300112
228	0x3c45587c	0.012045022
229	0xbe8a17c8	-0.2697127
230	0xbdbc679e	-0.09199451
231	0x3e2eee5c	0.17083114
232	0xbf0dd0d7	-0.5539679
233	0xbe1b38ee	-0.15158436
234	0xbe0ed27d	-0.13947482
235	0xbe5347a5	-0.20632799
236	0xbe4f1d5e	-0.20226046
237	0xbebf7f2b	-0.3740171
238	0x3d5605b4	0.052251533
239	0xbea4a6a1	-0.32158378
240	0x3b6e14af	0.0036328246
241	0xbee2fbbf	-0.44332692
242	0x3c31748e	0.010831011
243	0xbe60ba62	-0.219461
244	0x3e41c3fe	0.18922421
245	0xbec1d2ca	-0.37856132
246	0x3d4ebb82	0.05047179
247	0x3e8f72c0	0.28017235
248	0x3d2e0510	0.042485297
249	0x3e48f5fa	0.19625083
250	0xbe352e4d	-0.17693444
251	0xbeba3d0e	-0.36374706
252	0xbd3d10b9	-0.046158526
253	0xbe480101	-0.19531633
254	0xbcb52a62	-0.022114936
255	0xbcfd0e92	-0.030890737

lstm.bias_hh_l0 f4 [512]
0	0xbe2dac9a	-0.16960374
1	0xbe1c8f8b	-0.15289132
2	0x3d25b333	0.0404541
3	0xbec83197	-0.39100334
4	0xbdbeab99	-0.093100734
5	0xbf0d8e5d	-0.55295354
6	0xbd89d3ff	-0.06729888
7	0xbe7a2792	-0.24429157
8	0x3c2cf06a	0.010555366
9	0xbdd707ef	-0.1049956
10	0xbeaed871	-0.34149507
11	0x3cad80f3	0.021179652
12	0xbe6fa671	-0.23403336
13	0xbedf7571	-0.43644288
14	0xbe2bd3cb	-0.16780011
15	0xbeda9dfd	-0.4269866
16	0xbebfb277	-0.37440845
17	0xbe967638	-0.2938707
18	0xbec99846	-0.39373988
19	0xbeb40fa1	-0.35168174
20	0xbef024aa	-0.46902972
21	0xbe4cbc51	-0.19993712
22	0xbe52e6a8	-0.20595801
23	0xbef4feb6	-0.4785058
24	0xbec2c8a9	-0.38043717
25	0xbdea8ecf	-0.1145302
26	0xbca18e3f	-0.019721149
27	0xbe43f54f	-0.19136547
28	0xbebe70d3	-0.37195453
29	0xbe558bd0	-0.20854115
30	0xbebfa38c	-0.37429464
31	0xbeeb5163	-0.4596053
32	0xbeaeaa15	-0.34114137
33	0xbe6d7e84	-0.23192793
34	0xbf186fe6	-0.59545743
35	0xbeb02e9d	-0.34410563
36	0xbeb989a6	-0.3623783
37	0xbea0974c	-0.3136543
38	0x3d47e4b6	0.0488021
39	0xbe4753fc	-0.19465631
40	0x3d920b7d	0.071310975
41	0xbe21b2a2	-0.157908
42	0xbec0398c	-0.37543905
43	0xbdc50751	-0.09620536
44	0xbdb2f51d	-0.08738158
45	0xbe157929	-0.14597
46	0xbe158a77	-0.14603601
47	0x3de29a36	0.1106457
48	0x3d62898e	0.055306964
49	0xbe8e63c5	-0.27810493
50	0xbe4a0d28	-0.19731581
51	0xbec5ef5f	-0.38659188
52	0x3dde113d	0.10843132
53	0x3ce275b3	0.027644014
54	0xbe0eaec2	-0.13933852
55	0xbeb2ea25	-0.34944263
56	0x3dc1d26d	0.09463964
57	0x3d41ab5f	0.047282573
58	0xbce5926c	-0.028023921
59	0xbee31e10	-0.44358873
60	0xbeb5fabd	-0.3554286
61	0xbedb2404	-0.42800915
62	0xbf15bcaf	-0.58491033
63	0xbe46328f	-0.19355224
64	0x3e5ee1c4	0.2176581
65	0xbedbe398	-0.42947078
66	0xbe4f0b06	-0.20219049
67	0x3d11a32e	0.03555601
68	0xbedf68fb	-0.4363478
69	0x3dd50a53	0.1040236
70	0xbd150458	-0.036381096
71	0xbed6bb4e	-0.41939777
72	0x3cc1ee04	0.023673065
73	0xbe48a6ee	-0.19594929
74	0xbdff29df	-0.12459158
75	0xbf015c21	-0.505312
76	0xbe7893ed	-0.24275179
77	0xbd87af12	-0.06625189
78	0xbde8816e	-0.11352812
79	0xbe4a2b40	-0.19743061
80	0xbf030df3	-0.5119316
81	0xbec29508	-0.38004327
82	0xbe817b0c	-0.2528919
83	0x3de421ab	0.11139234
84	0xbe18db5e	-0.14927432
85	0xbe98951e	-0.29801267
86	0xbf2741fa	-0.6533505
87	0x3d4a00ce	0.049317174
88	0xbe657071	-0.22406174
89	0xbee3fee4	-0.44530404
90	0xbe37442f	-0.17897104
91	0xbdedc608	-0.11610037
92	0xbe945dfc	-0.28977954
93	0x3d8198f7	0.06328004
94	0x3cac3842	0.02102292
95	0xbec792e6	-0.38979262
96	0xbf1958ed	-0.59901315
97	0xbcd45c70	-0.025922984
98	0xbedb94f2	-0.42887074
99	0xbe2c0942	-0.16800407
100	0xbdf0ba98	-0.1175434
101	0xbe3aad8d	-0.18230267
102	0xbd8199f3	-0.063281916
103	0xbe141c23	-0.14463858
104	0xbf20acd2	-0.627637
105	0xbdc4dbd0	-0.096122384
106	0xbe6d0c70	-0.23149276
107	0xbe8dd820	-0.27703953
108	0xbe8fb81e	-0.28070158
109	0xbf00eb91	-0.50359446
110	0xbe0f80fc	-0.14014047
111	0xbec25afc	-0.3796004
112	0x3de4c0fc	0.11169621
113	0xbf204cd8	-0.62617254
114	0xbd6759f4	-0.05648227
115	0xbed735ed	-0.4203333
116	0xbd99d6c7	-0.07511669
117	0xbe9dcfbd	-0.30822554
118	0xbcfb25b5	-0.030657629
119	0x3cb7fd5d	0.02245968
120	0x3d82ff1a	0.06396313
121	0xbe472b4c	-0.1945011
122	0xbe1a3097	-0.15057598
123	0xbeb73390	-0.35781527
124	0xbe82b02c	-0.25525033
125	0xbebc1133	-0.36731872
126	0xbe5571ed	-0.2084424
127	0xbe0704fd	-0.13185497
128	0x4040901c	3.0087957
129	0x403a445f	2.910423
130	0x404497c2	3.0717626
131	0x4026161f	2.5951002
132	0x403a8028	2.914072
133	0x40272333	2.6115234
134	0x403f59fa	2.9898667
135	0x4032837d	2.7892754
136	0x40383ce3	2.8787162
137	0x404dac2d	3.2136338
138	0x4032c1f4	2.793088
139	0x40454e3c	3.0829
140	0x4036c02b	2.855479
141	0x40238136	2.5547614
142	0x4049d6ef	3.1537435
143	0x402bb4c2	2.6829076
144	0x40290b47	2.6413133
145	0x40285c57	2.630636
146	0x4020ed84	2.5144968
147	0x4028e4da	2.638968
148	0x4025ab83	2.5885932
149	0x403967f5	2.89697
150	0x40352a0f	2.830692
151	0x401f8b10	2.4928627
152	0x4026fa39	2.6090224
153	0x40386eb2	2.8817563
154	0x403a8040	2.9140778
155	0x4037f380	2.874237
156	0x402e308e	2.7217135
157	0x403cbf01	2.949158
158	0x40282193	2.6270492
159	0x401e9c42	2.4782872
160	0x4030e114	2.7637377
161	0x402797e3	2.6186454
162	0x4018f507	2.3899553
163	0x40368224	2.8516932
164	0x402629ba	2.5962968
165	0x4039426b	2.8946788
166	0x4044c001	3.074219
167	0x403a91df	2.9151533
168	0x404d2fbf	3.2060392
169	0x403848b7	2.8794382
170	0x4029ba85	2.6520092
171	0x403fdd57	2.9978845
172	0x403cdf95	2.9511464
173	0x403ee5a8	2.982767
174	0x404926d8	3.1429958
175	0x403cb49d	2.9485238
176	0x4040a225	3.0098965
177	0x402f99f2	2.743771
178	0x403403c4	2.8127298
179	0x4028292c	2.627513
180	0x405092a8	3.2589512
181	0x403e42e1	2.972832
182	0x4040d6c1	3.0131075
183	0x40289adc	2.6344519
184	0x4041a7df	3.025871
185	0x40499ceb	3.1502025
186	0x4040c2de	3.0118937
187	0x40233f8e	2.550754
188	0x402f8df2	2.7430387
189	0x4038b29b	2.8859012
190	0x40253211	2.5811808
191	0x4039d4ea	2.9036202
192	0x403571a4	2.835061
193	0x402009ef	2.5006063
194	0x40359729	2.837351
195	0x4046a1f8	3.1036358
196	0x402c33e0	2.6906662
197	0x403ea45d	2.978782
198	0x403251b5	2.786237
199	0x4029ec18	2.655035
200	0x403714e3	2.8606498
201	0x4037f96e	2.874599
202	0x40377320	2.8664017
203	0x40297b46	2.648149
204	0x4039e3d4	2.9045305
205	0x4033add9	2.8074858
206	0x40485b0a	3.1305566
207	0x40580fae	3.375957
208	0x4027c059	2.621115
209	0x402a3cee	2.6599689
210	0x4031114c	2.7666807
211	0x4040fffc	3.015624
212	0x40307e42	2.7577062
213	0x403443ed	2.8166459
214	0x402047eb	2.5043895
215	0x404d8167	3.211023
216	0x40361525	2.8450406
217	0x40277a88	2.6168537
218	0x4038df63	2.8886344
219	0x405208bb	3.2817829
220	0x40351aa4	2.829751
221	0x403c1590	2.938816
222	0x4044c33d	3.0744164
223	0x40273c57	2.6130579
224	0x4024263f	2.5648344
225	0x403c733b	2.944533
226	0x4036ad4f	2.854328
227	0x404026c9	3.0023673
228	0x403fd0a9	2.9971106
229	0x403046df	2.7543256
230	0x403c3d44	2.9412394
231	0x40486eff	3.1317747
232	0x4020d6f5	2.51312
233	0x4031e772	2.7797513
234	0x403480f8	2.8203716
235	0x402ec5cf	2.7308233
236	0x40302f8f	2.7529027
237	0x40261341	2.5949252
238	0x4042c05d	3.042991
239	0x402cba9e	2.6988902
240	0x4044f08b	3.0771816
241	0x4021e8d9	2.529837
242	0x403b5f46	2.92769
243	0x402e607e	2.7246394
244	0x40485562	3.1302114
245	0x402d11b9	2.7042067
246	0x40415bc4	3.021226
247	0x404f9b7e	3.2438655
248	0x40473c78	3.1130657
249	0x40493065	3.1435788
250	0x4035a761	2.838341
251	0x4023139d	2.548072
252	0x403b454a	2.926104
253	0x40331faa	2.7988076
254	0x403eaa27	2.9791353
255	0x403d76c3	2.9603736

head.net.0.weight f4 [1, 128]
0	0xbbc2d5e4	-0.005945908
1	0xbabe4405	-0.0014516121
2	0x3ad3eb71	0.001616819
3	0x3d0b6070	0.034027517
4	0xbb8aab44	-0.0042318422
5	0x3db7f340	0.08981943
6	0x3b0291a2	0.001992323
7	0x3bfcf8fd	0.0077201114
8	0xbc10ccf9	-0.008837932
9	0xbab16d5c	-0.001353662
10	0xbd2002cc	-0.039065167
11	0x3ae0d55a	0.0017153427
12	0xbc29e7c5	-0.0103702
13	0xbd7a6d09	-0.06113914
14	0x3adff3b7	0.0017086182
15	0x3c1e360b	0.00965644
16	0xbe0fde74	-0.14049703
17	0xbe006c5c	-0.12541336
18	0x3d564083	0.052307617
19	0xbd7e174b	-0.062033933
20	0xbe2a20f4	-0.16614133
21	0xbb187e84	-0.0023268769
22	0xbc46e2ea	-0.0121390615
23	0xbe909380	-0.28237534
24	0x3d3c5ab8	0.045984954
25	0x3b564804	0.0032696733
26	0xbbb4393c	-0.005499987
27	0xbc398cec	-0.011325102
28	0x3cefb6b3	0.029261922
29	0x3c217e1c	0.009856727
30	0x3e1d1599	0.1534027
31	0x3e8811e7	0.26576158
32	0xbce20f04	-0.02759505
33	0x3c00768b	0.007840763
34	0xbef6358b	-0.48087725
35	0xbc09ece1	-0.008418293
36	0xbe20f77b	-0.15719406
37	0xbd030082	-0.031982906
38	0x3ad748a5	0.0016424848
39	0xbb9990b6	-0.0046864403
40	0x3cc0a34a	0.023515362
41	0xbc04df71	-0.008109913
42	0xbd5bce6d	-0.05366366
43	0x3b07663d	0.0020660304
44	0xbbc4d390	-0.0060066655
45	0xbcf7ffea	-0.030273397
46	0xbbac32f0	-0.0052550957
47	0x3a30505b	0.0006725841
48	0x3b6ddd01	0.0036295059
49	0x3b0d5259	0.0021563976
50	0xbbfd828a	-0.0077365087
51	0x3cddc243	0.02707017
52	0x3c4df3b6	0.012570312
53	0xb9a7f2cb	-0.00032033617
54	0x3b134f31	0.0022477622
55	0x3da63e6a	0.08117373
56	0x3b21a563	0.0024665229
57	0xbb444c2a	-0.0029952624
58	0xbab634a6	-0.0013901189
59	0x3e6c0aee	0.23051044
60	0x3c73adcf	0.014872982
61	0xba026626	-0.0004974328
62	0x3ef53ba4	0.47897065
63	0xbbeb9585	-0.007189455
64	0xbb4c3e7e	-0.0031165178
65	0x3e0c7690	0.13717103
66	0x3ac6ef8a	0.0015177589
67	0x3a7c0b22	0.0009614696
68	0x3d3c2adc	0.04593931
69	0x3c03562c	0.00801615
70	0x3c26ad87	0.010173208
71	0x3dbb52a0	0.09146619
72	0x3cca1696	0.024668973
73	0xbca9a987	-0.02071072
74	0x3c10b00a	0.0088310335
75	0x3d95cc33	0.073143385
76	0x3b912d28	0.004430432
77	0xbc122376	-0.008919587
78	0x3c6c1e55	0.014411529
79	0x3c588d84	0.013217334
80	0x3e59dfc7	0.2127677
81	0x3d580c4f	0.052746113
82	0xb900c87b	-0.00012281716
83	0x3b953474	0.004553372
84	0x390a2b88	0.00013176922
85	0xbc8806c3	-0.016604787
86	0xbf2fc61c	-0.68661666
87	0xb8fec940	-0.000121491496
88	0x3c63b6b6	0.013898542
89	0x3da05d15	0.07830254
90	0xbd0f373f	-0.034964796
91	0xba94671b	-0.0011322232
92	0x3c7aa1ab	0.015297334
93	0x3a7efd1a	0.0009727046
94	0xba126858	-0.00055850064
95	0xbd85f415	-0.065406956
96	0x3ef0d5fd	0.4703826
97	0x3a5de9ce	0.00084653206
98	0xbc48a732	-0.012246894
99	0x3bb01661	0.0053737615
100	0x3a389e15	0.0007042599
101	0xbd50f6fb	-0.05101679
102	0xba297b03	-0.00064651686
103	0x3c9d8b6a	0.019231517
104	0x3fc4e71b	1.5383028
105	0xbcc475e4	-0.023981996
106	0xbb7ab4be	-0.0038254703
107	0xbb5152b7	-0.003194017
108	0x3d343bf1	0.044002477
109	0xbeb95408	-0.36196923
110	0xbd0334ac	-0.032032654
111	0xbb4e1b11	-0.0031449238
112	0xbbe00f05	-0.006837728
113	0x3f7a4c27	0.9777245
114	0x3ade1efc	0.001694649
115	0xbc72d1d5	-0.014820536
116	0xbbe14d16	-0.0068756444
117	0xbc132daf	-0.00898306
118	0xbbaa2a65	-0.005193042
119	0xbce38069	-0.027771192
120	0x3c27447a	0.010209197
121	0xbc7cee71	-0.015437708
122	0x3cb43e25	0.02200229
123	0xbdddb756	-0.10825984
124	0x3bb911a9	0.005647857
125	0x3beb4dc2	0.0071809003
126	0x3b8bff53	0.0042723804
127	0xbba6a575	-0.005085642
